saved_weights/linear/linear_filter_fc1_26_26_0.5/saved_weights_linear_0.001_epoch-1_top1-1.000.pth.tar (torch_old, 317132 bytes, 18 tensors)

exp_avg f4 [64]
0	0xb9c05e0e	-0.0003669117
1	0x371dd894	9.408355e-06
2	0xb89061d2	-6.8846755e-05
3	0x3a034b60	0.0005008485
4	0xb773bc65	-1.4527793e-05
5	0xb968ac64	-0.00022189465
6	0x38f89a8e	0.000118543496
7	0x38b0559e	8.4082814e-05
8	0x39601889	0.00021371445
9	0x39c1ba86	0.000369508
10	0xba26b43f	-0.0006359256
11	0x3920f578	0.00015350233
12	0x387ed73a	6.0758764e-05
13	0xb9d5fb64	-0.00040813826
14	0xb8ca8af5	-9.657993e-05
15	0x3984215e	0.00025201862
16	0x39bd60f7	0.00036121134
17	0xba1ee34b	-0.0006061091
18	0x39b27776	0.0003403981
19	0xb99005af	-0.00027470055
20	0xb9504342	-0.00019861481
21	0x38b48d7f	8.6094245e-05
22	0xba0ac1b7	-0.0005293148
23	0xb7ec93cc	-2.8202216e-05
24	0xb7244836	-9.791975e-06
25	0x3877d487	5.908732e-05
26	0x389a535e	7.3588206e-05
27	0xb9a5072d	-0.000314766
28	0x37f42cf7	2.9108005e-05
29	0xba1504a3	-0.000568459
30	0xb9e37176	-0.0004338135
31	0xb98bba1c	-0.00026650808
32	0xb9f544fc	-0.0004678144
33	0xb9658000	-0.00021886826
34	0x378da7a5	1.6886575e-05
35	0x36082ccf	2.0291661e-06
36	0xb9663863	-0.00021955515
37	0xb8feedd0	-0.0001215596
38	0xb9583b60	-0.00020621484
39	0x39538333	0.00020171404
40	0x35fdbe7e	1.890541e-06
41	0xb9465fe6	-0.00018918476
42	0xb86ff3eb	-5.7209207e-05
43	0x38bf7865	9.130015e-05
44	0x3866c574	5.5020166e-05
45	0x37b55576	2.1616677e-05
46	0x391ec29f	0.00015140556
47	0xb96b1d21	-0.00022422198
48	0xb934a037	-0.00017225822
49	0x3895bfd1	7.140602e-05
50	0xb8193099	-3.6523303e-05
51	0xb95c44d0	-0.0002100647
52	0xb8a9369b	-8.068719e-05
53	0x38bfb1ab	9.140683e-05
54	0xb713dccd	-8.813292e-06
55	0xb8ffa442	-0.00012189943
56	0xb8d8de04	-0.00010341036
57	0x38f273a2	0.000115609975
58	0x3986c4d8	0.00025705132
59	0xb9add3d8	-0.00033154967
60	0x36786905	3.701601e-06
61	0xb957ff2f	-0.00020599061
62	0x39ce8853	0.0003939295
63	0xb9c4c8e4	-0.00037533708

exp_avg_sq f4 [64]
0	0x369501fe	4.440778e-06
1	0x34cc9774	3.8108158e-07
2	0x36a5e664	4.944204e-06
3	0x3782d43a	1.5596033e-05
4	0x330e37e9	3.31128e-08
5	0x35f774f6	1.8436974e-06
6	0x35507b1c	7.7665186e-07
7	0x35bbf081	1.4002582e-06
8	0x36807f7a	3.8295375e-06
9	0x369fe544	4.7652593e-06
10	0x37f5ab62	2.9286082e-05
11	0x361afcb1	2.3094874e-06
12	0x354cde33	7.6319265e-07
13	0x3799b6b1	1.8324094e-05
14	0x3575c44f	9.155528e-07
15	0x35cd8ef6	1.5315297e-06
16	0x374e573a	1.2298866e-05
17	0x371df9fc	9.416133e-06
18	0x3646c38d	2.9618125e-06
19	0x35a48f80	1.2260716e-06
20	0x356cb0ad	8.817395e-07
21	0x357dbbf1	9.4523335e-07
22	0x3756b116	1.2796625e-05
23	0x362dadbe	2.588014e-06
24	0x34a37b28	3.0450724e-07
25	0x348f6704	2.671078e-07
26	0x36b034ff	5.2513783e-06
27	0x3788cd4f	1.6308068e-05
28	0x34d85241	4.0292983e-07
29	0x374bf81c	1.215751e-05
30	0x374aa218	1.2077879e-05
31	0x35bee765	1.4223448e-06
32	0x3754c5f1	1.26822715e-05
33	0x36c8634d	5.9720246e-06
34	0x36d36fc2	6.3013003e-06
35	0x33922623	6.805592e-08
36	0x3559060b	8.0847593e-07
37	0x36035139	1.95678e-06
38	0x3715d28f	8.930117e-06
39	0x35e661af	1.7164765e-06
40	0x350ab5bf	5.167348e-07
41	0x355670ff	7.9885643e-07
42	0x3577333d	9.208923e-07
43	0x351d1beb	5.8527684e-07
44	0x35b6b27c	1.3612002e-06
45	0x334a01a3	4.703328e-08
46	0x35ada149	1.2936445e-06
47	0x371bd384	9.287967e-06
48	0x36378bc7	2.7350486e-06
49	0x34245fbb	1.5308517e-07
50	0x354fd1a9	7.7418605e-07
51	0x3687328b	4.0291975e-06
52	0x35eec974	1.7791012e-06
53	0x34911785	2.7025467e-07
54	0x34256d6c	1.540663e-07
55	0x35e23160	1.6852682e-06
56	0x35c66937	1.4782771e-06
57	0x35f32ec9	1.8118527e-06
58	0x3607e7c9	2.0251484e-06
59	0x361b9d59	2.3188388e-06
60	0x315f8d17	3.2530971e-09
61	0x3788653f	1.625961e-05
62	0x3767edda	1.3824052e-05
63	0x37499b6d	1.20167215e-05

exp_avg f4 [256]
0	0xba074a51	-0.00051609153
1	0xb7ecabe3	-2.8213433e-05
2	0x0f9e85ec	1.5631588e-29
3	0x380c727c	3.3485223e-05
4	0x383c99f4	4.4966073e-05
5	0xb8a34737	-7.7857105e-05
6	0xb9ad535d	-0.00033059242
7	0xb9935d96	-0.00028107752
8	0xb92d81ba	-0.00016546893
9	0x38d6917a	0.00010231412
10	0xb84e0c7d	-4.9125858e-05
11	0x39001fbb	0.00012218852
12	0xb82d0ba6	-4.1257263e-05
13	0xb92bee20	-0.0001639654
14	0xb9b181eb	-0.00033856867
15	0x39400075	0.00018310717
16	0xb9c7f140	-0.00038135983
17	0xb8261550	-3.9597333e-05
18	0xb9229f23	-0.00015508807
19	0xb992010f	-0.0002784808
20	0xb99df50e	-0.00030127954
21	0xb944e674	-0.00018777867
22	0xb7b6bf9e	-2.178532e-05
23	0xb95d2087	-0.0002108832
24	0xb9a7c0c6	-0.0003199635
25	0x379463b2	1.76894e-05
26	0x39aea04d	0.000333073
27	0x3771753c	1.4392015e-05
28	0x380688ed	3.207561e-05
29	0x37b6c7a3	2.1789054e-05
30	0x38bed8ba	9.1002745e-05
31	0xb990563e	-0.00027530076
32	0xb8206688	-3.8242462e-05
33	0xb964e528	-0.00021829142
34	0x3844d3b6	4.6927213e-05
35	0xb95d78c5	-0.00021121193
36	0xb8fc47a3	-0.0001202964
37	0xb912e048	-0.00014007196
38	0x392d89ea	0.00016549943
39	0xb9344121	-0.000171904
40	0x3938d1b0	0.00017625722
41	0x37d29772	2.5104473e-05
42	0xb93ac986	-0.00017813416
43	0x395d77e9	0.00021120872
44	0xb8a9fc8f	-8.105591e-05
45	0xaf23f93c	-1.491331e-10
46	0xb90f385c	-0.00013658538
47	0xb712b222	-8.743753e-06
48	0xb99e5ee5	-0.0003020681
49	0x38539391	5.0443752e-05
50	0xb89c771c	-7.4608455e-05
51	0xb9027843	-0.00012442567
52	0xb92eb099	-0.00016659721
53	0x39caecad	0.0003870478
54	0x37eb1e24	2.8028218e-05
55	0x37c48c22	2.3430275e-05
56	0xb75ef64a	-1.3289575e-05
57	0x38dc8385	0.00010514915
58	0x00000004	6e-45
59	0xb950eb34	-0.00019924046
60	0xb960241d	-0.00021375758
61	0xb8852160	-6.348151e-05
62	0x00000004	6e-45
63	0xb9156cf0	-0.0001425033
64	0xb9885fab	-0.0002601122
65	0xb8cbfb73	-9.7266304e-05
66	0x80000004	-6e-45
67	0xb7b12d30	-2.1121086e-05
68	0x80000004	-6e-45
69	0x3892b824	6.9961214e-05
70	0x3867838d	5.5197208e-05
71	0xb9c1bb50	-0.00036951387
72	0xb9fe10e7	-0.00048459249
73	0xb8a1a636	-7.7080374e-05
74	0x38535ef9	5.039477e-05
75	0xb833f3e5	-4.290407e-05
76	0xb989d38e	-0.00026288297
77	0x394f97e3	0.0001979764
78	0x3927ee1d	0.00016015065
79	0xb900c58a	-0.0001228062
80	0xb64b85c2	-3.0327215e-06
81	0x38430b66	4.650224e-05
82	0x3829adad	4.0454488e-05
83	0x393e05e2	0.00018122004
84	0x382fae23	4.188543e-05
85	0xb9961474	-0.00028625468
86	0xb90035bf	-0.00012227053
87	0x39264e8d	0.00015860256
88	0x388a57d9	6.596716e-05
89	0xb7c0c686	-2.2980628e-05
90	0xb8e3e803	-0.00010867419
91	0x37a06b00	1.9123312e-05
92	0xb7437a2e	-1.1651353e-05
93	0xb95b8ac6	-0.00020937165
94	0x385c43e2	5.251531e-05
95	0xb91929bc	-0.00014606764
96	0xb983bd08	-0.00025127106
97	0xb8b9933e	-8.8489134e-05
98	0xb84f3804	-4.9404814e-05
99	0xb92bcc31	-0.00016383898
100	0x34f8379d	4.6234064e-07
101	0xb830192c	-4.1985113e-05
102	0xb80fa479	-3.4247034e-05
103	0xb91acef5	-0.00014763682
104	0xb922db5a	-0.00015531239
105	0xb95d03f7	-0.0002107768
106	0xb86bbab9	-5.6202265e-05
107	0x3673c913	3.6326862e-06
108	0xb98852a0	-0.00026001502
109	0xb7aab5a3	-2.035016e-05
110	0x3905ec32	0.00012771858
111	0xb904c816	-0.00012663039
112	0xb91ba38d	-0.0001484288
113	0xb7942727	-1.7661207e-05
114	0xb9b1f4db	-0.00033942502
115	0xb98c3940	-0.00026745535
116	0x3972402b	0.00023102823
117	0x38126c4a	3.4909965e-05
118	0xb9857a5a	-0.00025458896
119	0xb5a2afb4	-1.2121077e-06
120	0xb8fefa22	-0.00012158255
121	0x38199a5c	3.66218e-05
122	0xb866f323	-5.5062712e-05
123	0xb8bfd28d	-9.146808e-05
124	0xb7b61772	-2.1707008e-05
125	0x38993864	7.306112e-05
126	0x3818f704	3.6469675e-05
127	0x3876f13b	5.8875634e-05
128	0xb70e078a	-8.465615e-06
129	0xb77079d4	-1.433348e-05
130	0xb875f9d2	-5.8645215e-05
131	0xb837cdb4	-4.3822176e-05
132	0xb8d4e3bb	-0.00010151366
133	0xb81ca968	-3.735107e-05
134	0x00000004	6e-45
135	0xb98befb1	-0.0002669073
136	0x3766fea7	1.3768359e-05
137	0xb7c5ea28	-2.3593268e-05
138	0xb99c640c	-0.0002982918
139	0xb6bf92a5	-5.7093152e-06
140	0xb782f039	-1.560907e-05
141	0xb86d85d3	-5.6629837e-05
142	0xb7ef3c05	-2.8518969e-05
143	0x3861be46	5.3821386e-05
144	0x38312a8f	4.2239724e-05
145	0x38e7444d	0.000110276604
146	0xb8e4e43a	-0.00010914398
147	0xb9025eb5	-0.00012433047
148	0xb98af11a	-0.00026501046
149	0x35b2537e	1.3286333e-06
150	0xb95f37a1	-0.0002128766
151	0x00000000	0.0
152	0xb9954a4e	-0.00028474856
153	0xb94d692c	-0.00019589503
154	0xb981bc49	-0.0002474508
155	0x37cf9849	2.4747236e-05
156	0x3967a7a3	0.00022092326
157	0x3989c6b9	0.00026278736
158	0xb8b35b25	-8.552362e-05
159	0x392552e6	0.00015766508
160	0xb94d8d5e	-0.00019602987
161	0xb71ff38c	-9.533844e-06
162	0xb981d99d	-0.00024766932
163	0xb892fcb3	-7.0088914e-05
164	0x38b07856	8.414748e-05
165	0xb93e3087	-0.0001813789
166	0xb82dac42	-4.140684e-05
167	0xb680ac28	-3.834739e-06
168	0xb91384e6	-0.00014068521
169	0x36853f73	3.9710953e-06
170	0x356b493b	8.7650886e-07
171	0xb8a32891	-7.780002e-05
172	0x38d54b78	0.000101706886
173	0xb7f218be	-2.886017e-05
174	0x37873385	1.6117245e-05
175	0xb9bce912	-0.00036031805
176	0xb80e9d2a	-3.400181e-05
177	0xba02502e	-0.0004971054
178	0xb9992529	-0.0002921012
179	0x38b75db9	8.743577e-05
180	0x00000037	7.7e-44
181	0xb7850795	-1.5858366e-05
182	0xb9abcb97	-0.00032767348
183	0xb90e638a	-0.00013579256
184	0xb6964b13	-4.479088e-06
185	0x36fa2f34	7.4560758e-06
186	0x39343c91	0.000171887
187	0xb81855c8	-3.6319514e-05
188	0x38dff95b	0.00010679915
189	0xb92bc614	-0.0001638162
190	0xb7dc39ea	-2.6253012e-05
191	0xb917ca8f	-0.00014475941
192	0xb977f7f4	-0.00023648125
193	0xb78457b2	-1.5776463e-05
194	0xb951acb4	-0.0001999613
195	0xb963f2c5	-0.00021738846
196	0x392f1793	0.00016698083
197	0x382ecdab	4.1676376e-05
198	0x36a7a49d	4.9961513e-06
199	0xb97db911	-0.00024196903
200	0x39f8c9f3	0.0004745271
201	0xb8de7570	-0.00010607659
202	0xb745ad73	-1.1782499e-05
203	0xb84df8f4	-4.9107664e-05
204	0xb9902dd0	-0.00027499953
205	0x80000004	-6e-45
206	0xb9741432	-0.00023277177
207	0x8a22121d	-7.803423e-33
208	0xb99f94a7	-0.00030437598
209	0x00000000	0.0
210	0xba061a84	-0.00051156455
211	0xb860f196	-5.3630756e-05
212	0xb8cf35e8	-9.88057e-05
213	0x37b9a70c	2.2131506e-05
214	0xb95b6c43	-0.00020925798
215	0x389f49a7	7.5954296e-05
216	0xb82d7df8	-4.136373e-05
217	0x38b14c8f	8.454278e-05
218	0xb99eb641	-0.00030271898
219	0x00000000	0.0
220	0xb8074505	-3.2250788e-05
221	0xb73217a2	-1.0615129e-05
222	0xb9873a5e	-0.00025792693
223	0xb98800e2	-0.000259406
224	0xb8ebdfc3	-0.00011247352
225	0x00000000	0.0
226	0xb97e30de	-0.00024241532
227	0xb903f2c1	-0.00012583566
228	0xb9b9b946	-0.0003542399
229	0x387aad3e	5.976599e-05
230	0xb90a04f8	-0.00013162557
231	0x3870405a	5.728039e-05
232	0xb7486969	-1.1945472e-05
233	0x3818210f	3.6270412e-05
234	0x37bc9311	2.247983e-05
235	0xb2abe5a0	-2.0011441e-08
236	0xb8d404d5	-0.00010109848
237	0xb890f2bb	-6.911667e-05
238	0x00000004	6e-45
239	0x3984e039	0.0002534406
240	0xb8aebfa3	-8.332662e-05
241	0xb8aaf33a	-8.151536e-05
242	0xb906d5af	-0.00012858839
243	0xb83ce4a6	-4.503564e-05
244	0x3730f7d4	1.05481195e-05
245	0x00000004	6e-45
246	0xb9c4763b	-0.00037472122
247	0xb8994e40	-7.310184e-05
248	0x3966d797	0.00022014823
249	0xb95e09c5	-0.00021175209
250	0xb90b9e8a	-0.00013315133
251	0xb9b6ef4f	-0.00034892044
252	0xb8c24c9a	-9.264909e-05
253	0x399b810e	0.00029660057
254	0x39931301	0.00028052184
255	0xb863226b	-5.415307e-05

exp_avg_sq f4 [256]
0	0x364c034e	3.0400292e-06
1	0x35c02418	1.4315619e-06
2	0x33e7ecb2	1.07998304e-07
3	0x35e70eff	1.7215206e-06
4	0x35b04190	1.3132103e-06
5	0x353cd390	7.034332e-07
6	0x36736f6b	3.6274675e-06
7	0x355ef3cc	8.3056216e-07
8	0x35ae621c	1.2992564e-06
9	0x358c9239	1.0473369e-06
10	0x35e4f3cf	1.7058281e-06
11	0x354e78af	7.69166e-07
12	0x35a19164	1.2037749e-06
13	0x365dec38	3.3069064e-06
14	0x35e39d37	1.6958573e-06
15	0x35b565d2	1.3515184e-06
16	0x35854b9c	9.931277e-07
17	0x360baacb	2.0812029e-06
18	0x35416494	7.2044463e-07
19	0x36db1f8d	6.5303816e-06
20	0x35fbcd07	1.8760628e-06
21	0x3588a58b	1.0180969e-06
22	0x355f9f08	8.3305395e-07
23	0x35a17ce2	1.203178e-06
24	0x3566d660	8.5993634e-07
25	0x35f7d1d0	1.8463998e-06
26	0x363f0126	2.8461886e-06
27	0x35cd6463	1.5302907e-06
28	0x3556b521	7.998479e-07
29	0x347078ab	2.239564e-07
30	0x3572ce52	9.045226e-07
31	0x35fae998	1.8694436e-06
32	0x357432f4	9.097123e-07
33	0x34e65cc6	4.290834e-07
34	0x35d5771a	1.59044e-06
35	0x35726c4a	9.0309607e-07
36	0x35cc5d1b	1.5226282e-06
37	0x359b8406	1.1586824e-06
38	0x35de2999	1.6552395e-06
39	0x363ef49d	2.845459e-06
40	0x3616d434	2.247526e-06
41	0x35e141c8	1.6782951e-06
42	0x35c1cb0a	1.4438713e-06
43	0x3651a798	3.124098e-06
44	0x35e60052	1.7136429e-06
45	0x3223939d	9.521412e-09
46	0x36226621	2.4199328e-06
47	0x354d8705	7.656493e-07
48	0x35a49419	1.2262054e-06
49	0x36c4128a	5.8434134e-06
50	0x3566894f	8.588149e-07
51	0x354cae5c	7.624965e-07
52	0x359234b2	1.0893184e-06
53	0x362dde8e	2.5908553e-06
54	0x35ad532e	1.2913713e-06
55	0x34c7b971	3.7201565e-07
56	0x332e002e	4.0512695e-08
57	0x360bec18	2.0850039e-06
58	0x2a6dc1e9	2.1117105e-13
59	0x3580d9bd	9.600113e-07
60	0x35560bf1	7.973859e-07
61	0x35a5ca11	1.2352267e-06
62	0x32384f5a	1.0728252e-08
63	0x360771cc	2.0182806e-06
64	0x35295be5	6.309113e-07
65	0x354bee7a	7.597042e-07
66	0x279aedfd	4.3001614e-15
67	0x34d1a76d	3.9051102e-07
68	0x329f52f8	1.8547766e-08
69	0x36026f15	1.9436168e-06
70	0x3557b858	8.0361997e-07
71	0x360556e8	1.986913e-06
72	0x35acc3e6	1.2872013e-06
73	0x35b7e770	1.370192e-06
74	0x360b325d	2.074193e-06
75	0x3623331f	2.431865e-06
76	0x3598b204	1.1376692e-06
77	0x3644bc90	2.9316034e-06
78	0x34f977b8	4.646697e-07
79	0x359e3bdc	1.1789339e-06
80	0x361f606d	2.3748973e-06
81	0x357400a9	9.0898044e-07
82	0x35a80d2d	1.252081e-06
83	0x3501b102	4.8313825e-07
84	0x334d098e	4.7738972e-08
85	0x359feec4	1.1915913e-06
86	0x35ab356f	1.2756044e-06
87	0x342bae4f	1.5989029e-07
88	0x35f93a14	1.8568849e-06
89	0x333301e4	4.1678405e-08
90	0x35cb71ce	1.51578e-06
91	0x3535992f	6.7650666e-07
92	0x360623b8	1.9988347e-06
93	0x363b6357	2.7922995e-06
94	0x354f185a	7.7148945e-07
95	0x355c1e8e	8.200085e-07
96	0x351668d5	5.6031905e-07
97	0x3530584b	6.569359e-07
98	0x35f1f8c4	1.80283e-06
99	0x35b3325c	1.3351196e-06
100	0x2e68d288	5.2937682e-11
101	0x3580e02d	9.601987e-07
102	0x3589757b	1.0241487e-06
103	0x35e0d3e9	1.6750975e-06
104	0x34e2cbe1	4.2244122e-07
105	0x35b567b5	1.3515734e-06
106	0x36032386	1.9541199e-06
107	0x35987ef6	1.1361833e-06
108	0x358ad5d4	1.0344033e-06
109	0x352c03da	6.40806e-07
110	0x35af0902	1.3041138e-06
111	0x3588bf80	1.0188523e-06
112	0x3599d580	1.1461525e-06
113	0x348293dd	2.4321972e-07
114	0x35aa9120	1.2708224e-06
115	0x35debe4a	1.659567e-06
116	0x35c8c18a	1.4957488e-06
117	0x35cf7973	1.5458048e-06
118	0x37028f34	7.781946e-06
119	0x350c4663	5.225649e-07
120	0x35b37396	1.3370179e-06
121	0x35990af4	1.1402576e-06
122	0x350bed10	5.2126506e-07
123	0x3582a96b	9.735062e-07
124	0x339b4efc	7.232117e-08
125	0x36171432	2.2512509e-06
126	0x34f42994	4.5478794e-07
127	0x35a7d2a3	1.2503773e-06
128	0x33128f0a	3.4123367e-08
129	0x3598ae4e	1.1375612e-06
130	0x35898aa0	1.0247641e-06
131	0x35922540	1.0888689e-06
132	0x359fd5c1	1.1908634e-06
133	0x3599a43b	1.1447186e-06
134	0x2b9df355	1.1223059e-12
135	0x348e4154	2.6497094e-07
136	0x329f099e	1.851441e-08
137	0x35a5c548	1.2350874e-06
138	0x35b5f445	1.3556643e-06
139	0x35b85b50	1.3735644e-06
140	0x35bfdaff	1.4294345e-06
141	0x35ca8e8f	1.5091663e-06
142	0x351ce4c4	5.8447426e-07
143	0x34065a96	1.2512677e-07
144	0x3642fd8f	2.9055843e-06
145	0x3552efb0	7.857989e-07
146	0x36334678	2.6714097e-06
147	0x36acb1da	5.146704e-06
148	0x350b0971	5.1795274e-07
149	0x3310095a	3.3536118e-08
150	0x361efedc	2.3692182e-06
151	0x00000000	0.0
152	0x35cc7a09	1.5234701e-06
153	0x358949b6	1.0228748e-06
154	0x3566e5ef	8.6016274e-07
155	0x35f5df91	1.8318989e-06
156	0x365b51db	3.268119e-06
157	0x3697cc7f	4.523957e-06
158	0x34c2566c	3.6198196e-07
159	0x3682b4e3	3.89536e-06
160	0x36d62c52	6.3828566e-06
161	0x356a9a56	8.739638e-07
162	0x35431a32	7.268128e-07
163	0x35e7ff46	1.7285136e-06
164	0x36538ed9	3.1524598e-06
165	0x363c35e3	2.804555e-06
166	0x35cc0b7f	1.520253e-06
167	0x320bfc41	8.148221e-09
168	0x35606ff7	8.3609433e-07
169	0x342cb6af	1.6085208e-07
170	0x3051fa9c	7.6389894e-10
171	0x34f55cff	4.570247e-07
172	0x35a5cd87	1.2353274e-06
173	0x35108212	5.383346e-07
174	0x35b56633	1.3515295e-06
175	0x35a6b168	1.2419596e-06
176	0x3350ba51	4.8598228e-08
177	0x36652435	3.4144734e-06
178	0x35d595cc	1.5913333e-06
179	0x35dc8456	1.6429792e-06
180	0x30c85f32	1.4578971e-09
181	0x35c4970d	1.46471e-06
182	0x359e97ca	1.1816094e-06
183	0x35162074	5.592658e-07
184	0x31209821	2.336954e-09
185	0x329a57b7	1.7967848e-08
186	0x3588a52b	1.018086e-06
187	0x35885db4	1.0160061e-06
188	0x35c6b8fd	1.4805988e-06
189	0x35b94101	1.3802493e-06
190	0x345891d4	2.016962e-07
191	0x360fdb47	2.1436297e-06
192	0x3556a2c9	7.9958096e-07
193	0x339f7610	7.42549e-08
194	0x35bab1d6	1.3909837e-06
195	0x35882dc7	1.0146113e-06
196	0x35ab1763	1.2747299e-06
197	0x362e2e86	2.59551e-06
198	0x361dbc34	2.3504372e-06
199	0x3533cba0	6.697901e-07
200	0x36bb591f	5.5834093e-06
201	0x3479679b	2.3227624e-07
202	0x363d473f	2.8204665e-06
203	0x3630dba0	2.6353882e-06
204	0x36354e0c	2.701653e-06
205	0x31dc4448	6.4106054e-09
206	0x361420dc	2.2072845e-06
207	0x31e9465c	6.7891914e-09
208	0x358caa12	1.048031e-06
209	0x00000000	0.0
210	0x36e4ec8e	6.822468e-06
211	0x3582d2a9	9.747065e-07
212	0x3462ba84	2.1115744e-07
213	0x3607b6ba	2.0222928e-06
214	0x35e649d0	1.7157818e-06
215	0x34dd4e3d	4.1221384e-07
216	0x36616165	3.3584304e-06
217	0x35ef6923	1.7837486e-06
218	0x3591d942	1.0866572e-06
219	0x00000000	0.0
220	0x34702509	2.2365215e-07
221	0x3583d6d6	9.822786e-07
222	0x353146c7	6.6040633e-07
223	0x35a2dc18	1.2133996e-06
224	0x3560b2db	8.370677e-07
225	0x00000000	0.0
226	0x35694735	8.6902884e-07
227	0x35d424c7	1.5805934e-06
228	0x3575987c	9.1491506e-07
229	0x35b341c6	1.3355682e-06
230	0x359e324c	1.1786556e-06
231	0x3409b3b4	1.2824495e-07
232	0x35e1405b	1.6782536e-06
233	0x36688541	3.4648258e-06
234	0x35ce9df6	1.5394169e-06
235	0x3510e737	5.398064e-07
236	0x366e2ada	3.5489707e-06
237	0x359a3a4d	1.1490862e-06
238	0x339f278c	7.411208e-08
239	0x35c72855	1.4838394e-06
240	0x35321b57	6.634995e-07
241	0x352cda77	6.43929e-07
242	0x3585274d	9.92071e-07
243	0x36823fad	3.8817147e-06
244	0x33c87389	9.3342415e-08
245	0x279c9bf8	4.34678e-15
246	0x3610ebc7	2.1594913e-06
247	0x35fca4f2	1.8823469e-06
248	0x35c2336c	1.4469092e-06
249	0x351e2c1e	5.8923786e-07
250	0x359b9a13	1.1593241e-06
251	0x355af346	8.156534e-07
252	0x3595f6c5	1.1173184e-06
253	0x3627b82f	2.4992148e-06
254	0x35e51334	1.7067418e-06
255	0x35e4b736	1.7040645e-06

exp_avg f4 [26, 256]
0	0x80000004	-6e-45
1	0x80000004	-6e-45
2	0x00000000	0.0
3	0x80000004	-6e-45
4	0x00000004	6e-45
5	0x80000004	-6e-45
6	0x80000004	-6e-45
7	0x80000004	-6e-45
8	0x80000004	-6e-45
9	0x80000004	-6e-45
10	0x80000004	-6e-45
11	0x80000004	-6e-45
12	0x80000004	-6e-45
13	0x80000004	-6e-45
14	0x80000004	-6e-45
15	0x00000004	6e-45
16	0x80000004	-6e-45
17	0x80000004	-6e-45
18	0x80000004	-6e-45
19	0x80000004	-6e-45
20	0x80000004	-6e-45
21	0x80000004	-6e-45
22	0x80000004	-6e-45
23	0x80000004	-6e-45
24	0x80000004	-6e-45
25	0x80000004	-6e-45
26	0x80000004	-6e-45
27	0x80000004	-6e-45
28	0x80000004	-6e-45
29	0x00000000	0.0
30	0x80000004	-6e-45
31	0x80000004	-6e-45
32	0x00000000	0.0
33	0x80000004	-6e-45
34	0x80000004	-6e-45
35	0x80000004	-6e-45
36	0x80000004	-6e-45
37	0x80000004	-6e-45
38	0x80000004	-6e-45
39	0x80000004	-6e-45
40	0x80000004	-6e-45
41	0x80000004	-6e-45
42	0x80000004	-6e-45
43	0x80000004	-6e-45
44	0x80000004	-6e-45
45	0x80000004	-6e-45
46	0x80000004	-6e-45
47	0x80000004	-6e-45
48	0x80000004	-6e-45
49	0x80000004	-6e-45
50	0x80000004	-6e-45
51	0x00000004	6e-45
52	0x80000004	-6e-45
53	0x80000004	-6e-45
54	0x80000004	-6e-45
55	0x00000000	0.0
56	0x80000004	-6e-45
57	0x80000004	-6e-45
58	0x00000000	0.0
59	0x80000004	-6e-45
60	0x80000004	-6e-45
61	0x80000004	-6e-45
62	0x00000000	0.0
63	0x80000004	-6e-45
64	0x80000004	-6e-45
65	0x80000004	-6e-45
66	0x00000000	0.0
67	0x80000004	-6e-45
68	0x00000000	0.0
69	0x80000004	-6e-45
70	0x80000004	-6e-45
71	0x80000004	-6e-45
72	0x80000004	-6e-45
73	0x80000004	-6e-45
74	0x80000004	-6e-45
75	0x80000004	-6e-45
76	0x80000004	-6e-45
77	0x80000004	-6e-45
78	0x80000004	-6e-45
79	0x80000004	-6e-45
80	0x80000004	-6e-45
81	0x80000004	-6e-45
82	0x00000000	0.0
83	0x00000000	0.0
84	0x80000004	-6e-45
85	0x80000004	-6e-45
86	0x80000004	-6e-45
87	0x80000004	-6e-45
88	0x80000004	-6e-45
89	0x80000004	-6e-45
90	0x80000004	-6e-45
91	0x80000004	-6e-45
92	0x80000004	-6e-45
93	0x80000004	-6e-45
94	0x80000004	-6e-45
95	0x80000004	-6e-45
96	0x80000004	-6e-45
97	0x80000004	-6e-45
98	0x80000004	-6e-45
99	0x80000004	-6e-45
100	0x00000000	0.0
101	0x80000004	-6e-45
102	0x80000004	-6e-45
103	0x80000004	-6e-45
104	0x80000004	-6e-45
105	0x80000004	-6e-45
106	0x80000004	-6e-45
107	0x00000000	0.0
108	0x80000004	-6e-45
109	0x80000004	-6e-45
110	0x80000004	-6e-45
111	0x80000004	-6e-45
112	0x80000004	-6e-45
113	0x00000004	6e-45
114	0x80000004	-6e-45
115	0x80000004	-6e-45
116	0x80000004	-6e-45
117	0x00000000	0.0
118	0x80000004	-6e-45
119	0x80000004	-6e-45
120	0x80000004	-6e-45
121	0x80000004	-6e-45
122	0x00000000	0.0
123	0x80000004	-6e-45
124	0x80000004	-6e-45
125	0x80000004	-6e-45
126	0x00000000	0.0
127	0x80000004	-6e-45
128	0x00000004	6e-45
129	0x00000004	6e-45
130	0x80000004	-6e-45
131	0x80000004	-6e-45
132	0x80000004	-6e-45
133	0x80000004	-6e-45
134	0x00000000	0.0
135	0x80000004	-6e-45
136	0x00000004	6e-45
137	0x00000004	6e-45
138	0x80000004	-6e-45
139	0x80000004	-6e-45
140	0x80000004	-6e-45
141	0x80000004	-6e-45
142	0x00000000	0.0
143	0x80000004	-6e-45
144	0x00000000	0.0
145	0x80000004	-6e-45
146	0x00000004	6e-45
147	0x00000000	0.0
148	0x80000004	-6e-45
149	0x80000004	-6e-45
150	0x80000004	-6e-45
151	0x00000000	0.0
152	0x80000004	-6e-45
153	0x80000004	-6e-45
154	0x80000004	-6e-45
155	0x80000004	-6e-45
156	0x80000004	-6e-45
157	0x80000004	-6e-45
158	0x00000004	6e-45
159	0x00000004	6e-45
160	0x80000004	-6e-45
161	0x80000004	-6e-45
162	0x80000004	-6e-45
163	0x80000004	-6e-45
164	0x80000004	-6e-45
165	0x80000004	-6e-45
166	0x80000004	-6e-45
167	0x00000000	0.0
168	0x80000004	-6e-45
169	0x00000000	0.0
170	0x00000000	0.0
171	0x80000004	-6e-45
172	0x00000004	6e-45
173	0x80000004	-6e-45
174	0x80000004	-6e-45
175	0x80000004	-6e-45
176	0x80000004	-6e-45
177	0x80000004	-6e-45
178	0x80000004	-6e-45
179	0x80000004	-6e-45
180	0x00000000	0.0
181	0x80000004	-6e-45
182	0x80000004	-6e-45
183	0x80000004	-6e-45
184	0x80000004	-6e-45
185	0x80000004	-6e-45
186	0x80000004	-6e-45
187	0x80000004	-6e-45
188	0x80000004	-6e-45
189	0x80000004	-6e-45
190	0x00000004	6e-45
191	0x80000004	-6e-45
192	0x80000004	-6e-45
193	0x80000004	-6e-45
194	0x80000004	-6e-45
195	0x80000004	-6e-45
196	0x80000004	-6e-45
197	0x80000004	-6e-45
198	0x80000004	-6e-45
199	0x80000004	-6e-45
200	0x80000004	-6e-45
201	0x80000004	-6e-45
202	0x80000004	-6e-45
203	0x80000004	-6e-45
204	0x80000004	-6e-45
205	0x00000000	0.0
206	0x00000000	0.0
207	0x00000000	0.0
208	0x80000004	-6e-45
209	0x00000000	0.0
210	0x80000004	-6e-45
211	0x80000004	-6e-45
212	0x80000004	-6e-45
213	0x80000004	-6e-45
214	0x80000004	-6e-45
215	0x80000004	-6e-45
216	0x80000004	-6e-45
217	0x80000004	-6e-45
218	0x80000004	-6e-45
219	0x00000000	0.0
220	0x80000004	-6e-45
221	0x80000004	-6e-45
222	0x80000004	-6e-45
223	0x80000004	-6e-45
224	0x80000004	-6e-45
225	0x00000000	0.0
226	0x80000004	-6e-45
227	0x80000004	-6e-45
228	0x80000004	-6e-45
229	0x80000004	-6e-45
230	0x80000004	-6e-45
231	0x80000004	-6e-45
232	0x80000004	-6e-45
233	0x80000004	-6e-45
234	0x80000004	-6e-45
235	0x00000004	6e-45
236	0x00000004	6e-45
237	0x80000004	-6e-45
238	0x00000000	0.0
239	0x80000004	-6e-45
240	0x80000004	-6e-45
241	0x80000004	-6e-45
242	0x80000004	-6e-45
243	0x80000004	-6e-45
244	0x80000004	-6e-45
245	0x00000000	0.0
246	0x80000004	-6e-45
247	0x80000004	-6e-45
248	0x80000004	-6e-45
249	0x80000004	-6e-45
250	0x80000004	-6e-45
251	0x80000004	-6e-45
252	0x80000004	-6e-45
253	0x80000004	-6e-45
254	0x80000004	-6e-45
255	0x80000004	-6e-45

exp_avg_sq f4 [26, 256]
0	0x2eea1e2b	1.0646447e-10
1	0x2dacbe95	1.9638772e-11
2	0x00000000	0.0
3	0x2df7a2e6	2.815299e-11
4	0x2ea854bc	7.654807e-11
5	0x2e62f972	5.1608003e-11
6	0x2e617748	5.126502e-11
7	0x301b72b4	5.6551674e-10
8	0x2fb7a4f8	3.3404723e-10
9	0x2ee0ed58	1.02285014e-10
10	0x28f1ed02	2.685916e-14
11	0x27f271c2	6.729183e-15
12	0x3011c111	5.3025057e-10
13	0x30e8315b	1.6894249e-09
14	0x2fe28743	4.120527e-10
15	0x29567444	4.761839e-14
16	0x2f506f0b	1.895694e-10
17	0x2c8e767a	4.0490363e-12
18	0x2efed96f	1.1589207e-10
19	0x2ceef041	6.7910404e-12
20	0x300dbf24	5.156713e-10
21	0x2fcaa352	3.6859632e-10
22	0x30496353	7.326452e-10
23	0x2f1ab043	1.4068839e-10
24	0x302f2444	6.3716166e-10
25	0x2f664177	2.0941636e-10
26	0x304a08aa	7.3499484e-10
27	0x307517d8	8.9164365e-10
28	0x30018640	4.712071e-10
29	0x00000000	0.0
30	0x2c24080a	2.3310264e-12
31	0x21f4fc23	1.6600823e-18
32	0x00000000	0.0
33	0x2d84a192	1.5078414e-11
34	0x2ebd48bd	8.607646e-11
35	0x2f7757a3	2.2495654e-10
36	0x2877e94c	1.37618425e-14
37	0x2f6fe427	2.181798e-10
38	0x2fe60844	4.184263e-10
39	0x2f2a5a7e	1.5493559e-10
40	0x2f84e0da	2.4170427e-10
41	0x301407bf	5.3853094e-10
42	0x2d555ce3	1.2128273e-11
43	0x2ff4119e	4.439586e-10
44	0x30c4b595	1.4312486e-09
45	0x27b7ca47	5.1012013e-15
46	0x2eb99b48	8.4404095e-11
47	0x2d0412e8	7.507529e-12
48	0x2f2d08db	1.5737404e-10
49	0x2d798fcd	1.41859415e-11
50	0x2f4b5e29	1.8496195e-10
51	0x268500d3	9.228952e-16
52	0x3094a6a6	1.0815782e-09
53	0x2a36876b	1.621183e-13
54	0x2f5a508e	1.9855603e-10
55	0x00000000	0.0
56	0x1f901891	6.1027014e-20
57	0x2fe20ebf	4.1119638e-10
58	0x00000000	0.0
59	0x3082cc53	9.516817e-10
60	0x2e3b16f4	4.2539264e-11
61	0x2e22ba03	3.6999747e-11
62	0x00000000	0.0
63	0x2fd89d0c	3.940176e-10
64	0x3040aeb5	7.0097467e-10
65	0x2f6683c8	2.0965196e-10
66	0x00000000	0.0
67	0x21eca983	1.6036851e-18
68	0x00000000	0.0
69	0x2c026737	1.8531407e-12
70	0x2732f772	2.4836603e-15
71	0x2f2d768b	1.5776373e-10
72	0x30110799	5.276149e-10
73	0x2f65ca21	2.0899239e-10
74	0x27c7c548	5.544749e-15
75	0x3035e47c	6.617211e-10
76	0x303e9922	6.933921e-10
77	0x2d2a8752	9.693428e-12
78	0x27e6c2d3	6.4049053e-15
79	0x304b0c27	7.386824e-10
80	0x2e9a98bd	7.030241e-11
81	0x2dcbd27c	2.3171902e-11
82	0x00000000	0.0
83	0x00000000	0.0
84	0x2f2c5633	1.5673933e-10
85	0x2f2494f2	1.4968629e-10
86	0x2f8ba5a8	2.5401659e-10
87	0x2e0c7f76	3.1945523e-11
88	0x2cd49ba1	6.0426807e-12
89	0x221c4db2	2.1183074e-18
90	0x2f4e6b56	1.8773724e-10
91	0x2cedaf3c	6.7554e-12
92	0x300d63bd	5.143724e-10
93	0x2e0b3f52	3.166118e-11
94	0x2f43f37d	1.7821651e-10
95	0x3007364e	4.9189885e-10
96	0x299edecb	7.055258e-14
97	0x281392f8	8.192008e-15
98	0x2bfaf836	1.7832461e-12
99	0x2f2a49e4	1.5487661e-10
100	0x00000000	0.0
101	0x2ff1fa1c	4.4015358e-10
102	0x2f866155	2.4443617e-10
103	0x2fd843d5	3.933837e-10
104	0x2ec21634	8.826043e-11
105	0x304f95a1	7.5518797e-10
106	0x278d0162	3.913686e-15
107	0x00000000	0.0
108	0x2facb488	3.1414893e-10
109	0x2bf1d849	1.7184111e-12
110	0x2f864d50	2.4429392e-10
111	0x2f36420f	1.6576272e-10
112	0x2fe6ce36	4.1983278e-10
113	0x222fbc1b	2.3816505e-18
114	0x2f526de8	1.9138435e-10
115	0x2fbcf3c3	3.4370204e-10
116	0x28305102	9.787528e-15
117	0x00000000	0.0
118	0x2f76f004	2.245884e-10
119	0x2781f808	3.607361e-15
120	0x304032a9	6.9921186e-10
121	0x3010cec4	5.2680726e-10
122	0x00000000	0.0
123	0x28332e10	9.946484e-15
124	0x2d4d855d	1.16825135e-11
125	0x2e8cfd96	6.411509e-11
126	0x00000000	0.0
127	0x2fe79a67	4.2128365e-10
128	0x213810ef	6.2364036e-19
129	0x27c52965	5.4723364e-15
130	0x2d66146e	1.3078523e-11
131	0x2f032ef6	1.1931064e-10
132	0x2e9f2c90	7.238399e-11
133	0x3049fbd8	7.3481266e-10
134	0x00000000	0.0
135	0x2fd61729	3.894283e-10
136	0x1ff31767	1.0295322e-19
137	0x2633fdea	6.244722e-16
138	0x2f0f18a3	1.3014527e-10
139	0x2e017698	2.9436537e-11
140	0x2e0f2b10	3.2552683e-11
141	0x2fa6ce4c	3.0341807e-10
142	0x00000000	0.0
143	0x2c3f5129	2.7187785e-12
144	0x00000000	0.0
145	0x2f809c12	2.339396e-10
146	0x23a20f15	1.7570463e-17
147	0x00000000	0.0
148	0x2fb4bdf2	3.2876774e-10
149	0x2dfb52b1	2.8572119e-11
150	0x2ecfa396	9.442329e-11
151	0x00000000	0.0
152	0x26c3bc9e	1.3581968e-15
153	0x30189130	5.55036e-10
154	0x2e4316a6	4.4357983e-11
155	0x30dbd75b	1.5995555e-09
156	0x2fe31b11	4.131029e-10
157	0x2a60e28a	1.9973793e-13
158	0x2a8b7725	2.4774033e-13
159	0x27f06d0d	6.6731615e-15
160	0x2f6c0fa4	2.1469632e-10
161	0x2faff74c	3.200803e-10
162	0x303430cc	6.5552963e-10
163	0x270ae4cd	1.927538e-15
164	0x2de831a9	2.63974e-11
165	0x27ee09aa	6.6068748e-15
166	0x2dedab8d	2.7019964e-11
167	0x00000000	0.0
168	0x2d83bc4e	1.49766e-11
169	0x00000000	0.0
170	0x00000000	0.0
171	0x268f275e	9.933289e-16
172	0x26b0dc45	1.2272157e-15
173	0x2e1d8b32	3.5821297e-11
174	0x2f981150	2.766094e-10
175	0x2d86720f	1.5284688e-11
176	0x2e507eae	4.740624e-11
177	0x2e171a46	3.435676e-11
178	0x3081bcfd	9.439699e-10
179	0x2e0292dd	2.968902e-11
180	0x00000000	0.0
181	0x2dcfccc7	2.3624115e-11
182	0x2fe7810d	4.211035e-10
183	0x2508f609	1.187948e-16
184	0x1a041759	2.731582e-23
185	0x2d3f45eb	1.0872618e-11
186	0x2e837d78	5.979478e-11
187	0x2ed586be	9.7100536e-11
188	0x2d63085e	1.2905314e-11
189	0x2d93a3ff	1.6784794e-11
190	0x2411af58	3.1590385e-17
191	0x2f0e86d7	1.296273e-10
192	0x30195806	5.5786165e-10
193	0x2c237922	2.3230935e-12
194	0x2da24961	1.8449854e-11
195	0x3086f0c6	9.818215e-10
196	0x2f6b6090	2.1407431e-10
197	0x2ea92f8a	7.693675e-11
198	0x2f1d7a87	1.4322597e-10
199	0x2f8540f2	2.4238705e-10
200	0x2db08e3b	2.0072046e-11
201	0x2a023ee1	1.1568135e-13
202	0x2f7b1cd0	2.2838553e-10
203	0x2d9d184b	1.7859622e-11
204	0x2ea621e9	7.55483e-11
205	0x00000000	0.0
206	0x00000000	0.0
207	0x00000000	0.0
208	0x2faa4147	3.0969202e-10
209	0x00000000	0.0
210	0x283765fa	1.0180653e-14
211	0x2f9859fb	2.7712574e-10
212	0x2de149fa	2.561239e-11
213	0x26b669e6	1.2657491e-15
214	0x30a33c9f	1.187704e-09
215	0x2dbb5d35	2.1300831e-11
216	0x2ff0f903	4.383268e-10
217	0x2ebe9493	8.666592e-11
218	0x307fa409	9.300157e-10
219	0x00000000	0.0
220	0x270347ca	1.821882e-15
221	0x300f8e4a	5.22253e-10
222	0x2feb7278	4.2827586e-10
223	0x2eefe872	1.0909752e-10
224	0x2dc708da	2.2627612e-11
225	0x00000000	0.0
226	0x2f996690	2.7903413e-10
227	0x257fe82c	2.2196387e-16
228	0x2ef6f9cb	1.1231157e-10
229	0x2e87d6b5	6.177229e-11
230	0x2e7caa9a	5.744969e-11
231	0x274055fa	2.669196e-15
232	0x2e8f2d68	6.510953e-11
233	0x265e7e84	7.7193183e-16
234	0x2ec3dd2f	8.9068634e-11
235	0x2c119e26	2.069353e-12
236	0x27555798	2.9607173e-15
237	0x2e517e28	4.7633147e-11
238	0x00000000	0.0
239	0x2eacd66b	7.859743e-11
240	0x2d6c01d0	1.3415449e-11
241	0x308f5847	1.0429709e-09
242	0x2e7fda8e	5.8174403e-11
243	0x2ea33c36	7.4230774e-11
244	0x26a43e19	1.1396618e-15
245	0x00000000	0.0
246	0x2f6116bf	2.0471712e-10
247	0x2e08cccf	3.1104726e-11
248	0x2eb58642	8.254776e-11
249	0x2f4eace0	1.8797008e-10
250	0x2db39d57	2.0419817e-11
251	0x28015439	7.179201e-15
252	0x303a3cee	6.775299e-10
253	0x2e406727	4.3747363e-11
254	0x3132294c	2.5925884e-09
255	0x2f687b22	2.1144023e-10

exp_avg f4 [26]
0	0x80000004	-6e-45
1	0xba7fb0e3	-0.0009753836
2	0xa2bb313c	-5.073858e-18
3	0xb9cd127a	-0.00039114413
4	0xb88e15b8	-6.775133e-05
5	0xb92ef4a8	-0.00016685075
6	0x80000004	-6e-45
7	0x3a445892	0.00074900046
8	0x80000004	-6e-45
9	0x80000004	-6e-45
10	0x80000004	-6e-45
11	0x00000004	6e-45
12	0xba7c1f1b	-0.0009617672
13	0xb883a607	-6.277492e-05
14	0x3b3e5e00	0.0029047728
15	0x00000004	6e-45
16	0x80000004	-6e-45
17	0x00000004	6e-45
18	0xb7bce166	-2.2516306e-05
19	0xbac2ffcf	-0.0014877262
20	0x00000004	6e-45
21	0x3a044c0f	0.0005046734
22	0xba69bc96	-0.0008916346
23	0xb9a84c8b	-0.00032100486
24	0xbaae18d6	-0.0013282548
25	0xb9efe437	-0.00045755666

exp_avg_sq f4 [26]
0	0x31cdd692	5.990679e-09
1	0x382e4170	4.1545776e-05
2	0x35499ce4	7.510664e-07
3	0x38576b20	5.1359762e-05
4	0x366bdf64	3.514776e-06
5	0x38257028	3.944352e-05
6	0x318b83f8	4.0604355e-09
7	0x38c25f13	9.26835e-05
8	0x328486a6	1.5428054e-08
9	0x320003c5	7.451438e-09
10	0x3332812c	4.1561336e-08
11	0x3403a953	1.2261926e-07
12	0x38631bfa	5.4147073e-05
13	0x36081dff	2.028304e-06
14	0x38c00cdd	9.1576694e-05
15	0x354f0479	7.712002e-07
16	0x33bc340b	8.763899e-08
17	0x33a2b9ba	7.577496e-08
18	0x38252de5	3.9381808e-05
19	0x3688afe1	4.073591e-06
20	0x33dcf98d	1.0289941e-07
21	0x35fa7416	1.8660237e-06
22	0x3645bd3e	2.946544e-06
23	0x37aba09d	2.045958e-05
24	0x3639e250	2.769888e-06
25	0x3829ed82	4.0513936e-05

exp_avg f4 [256, 64]
0	0xb8a1a7db	-7.708344e-05
1	0xb7904022	-1.7196002e-05
2	0xb8fead9b	-0.00012144
3	0xb8cbf9f9	-9.726355e-05
4	0xb7198dd9	-9.152537e-06
5	0xb8ddf412	-0.00010583563
6	0xb84b2353	-4.843187e-05
7	0xb816d6ff	-3.5963018e-05
8	0xb8beb5e2	-9.093784e-05
9	0xb8e90621	-0.000111114474
10	0xb909dc92	-0.00013147507
11	0xb86e87cb	-5.687009e-05
12	0xb7f41479	-2.90966e-05
13	0xb9255650	-0.0001576778
14	0xb887396b	-6.4479966e-05
15	0xb7988ae3	-1.8184486e-05
16	0xb7262db4	-9.905012e-06
17	0xb8f6f6fe	-0.000117762
18	0xb85b6666	-5.2309035e-05
19	0xb8a7d5c0	-8.0029946e-05
20	0xb8ffbffd	-0.00012195108
21	0xb8aa0099	-8.106343e-05
22	0xb90003ae	-0.00012208402
23	0xb8a4e301	-7.862412e-05
24	0xb80b2dea	-3.3182943e-05
25	0xb77c6a5a	-1.5045132e-05
26	0xb80ae9d7	-3.3119544e-05
27	0xb90594c8	-0.00012739294
28	0xb80e8e2e	-3.3987853e-05
29	0xb934fc2c	-0.00017260079
30	0xb8ce200d	-9.8288154e-05
31	0xb8b1d758	-8.4801286e-05
32	0xb906b6cd	-0.00012847334
33	0xb8c49cb6	-9.375198e-05
34	0xb91e59d3	-0.00015101516
35	0xb6e7c8ea	-6.907726e-06
36	0xb7b12d0c	-2.112102e-05
37	0xb80f1033	-3.4108944e-05
38	0xb929eb07	-0.0001620465
39	0xb8a9340e	-8.068244e-05
40	0xb81fde64	-3.811567e-05
41	0xb896974f	-7.180741e-05
42	0xb803cac7	-3.1421685e-05
43	0xb7add73a	-2.072343e-05
44	0xb81cccbc	-3.7383972e-05
45	0xb699c45e	-4.5826155e-06
46	0xb8a8dbe7	-8.051824e-05
47	0xb9023e03	-0.00012420867
48	0xb8bcbab8	-8.999318e-05
49	0xb700455c	-7.6455435e-06
50	0xb7bf7136	-2.2821692e-05
51	0xb89da580	-7.51717e-05
52	0xb8a7ce3c	-8.001595e-05
53	0xb7d14666	-2.4947523e-05
54	0xb6bbb523	-5.5941214e-06
55	0xb868ca0f	-5.5501292e-05
56	0xb8a03af4	-7.6403754e-05
57	0xb8799697	-5.9506474e-05
58	0xb83dd596	-4.526003e-05
59	0xb8e2c588	-0.00010813313
60	0xb584ac9b	-9.885001e-07
61	0xb8d9db02	-0.0001038816
62	0xb88b152b	-6.631979e-05
63	0xb935623c	-0.000172981
64	0x37b49d61	2.1530957e-05
65	0xb7ffa0c7	-3.0473237e-05
66	0xb8f80e09	-0.00011828176
67	0xb5ea1fbf	-1.7443598e-06
68	0xb7c9a0de	-2.4035977e-05
69	0xb906dabc	-0.00012860721
70	0x3770ac56	1.434524e-05
71	0xb7e6f679	-2.753291e-05
72	0xb8dbe759	-0.000104858256
73	0xb7ce0739	-2.4560477e-05
74	0x38b969b8	8.841179e-05
75	0xb86b4c03	-5.6099158e-05
76	0x37a73390	1.9931962e-05
77	0x38a7e4a4	8.005768e-05
78	0xb70b034f	-8.285816e-06
79	0x38154ca3	3.559574e-05
80	0xb7068b2b	-8.019425e-06
81	0xb818b441	-3.64075e-05
82	0xb7c5056b	-2.3486753e-05
83	0xb82f9f4d	-4.187161e-05
84	0x37139864	8.797364e-06
85	0x37d2106b	2.5041596e-05
86	0xb87ba503	-5.9996742e-05
87	0xb748be2d	-1.1965208e-05
88	0xb7fb777b	-2.997717e-05
89	0x36406ab6	2.8672343e-06
90	0xb88b5047	-6.642989e-05
91	0x38962cf6	7.160932e-05
92	0xb8104913	-3.440033e-05
93	0x3885925d	6.3691965e-05
94	0x380eb977	3.4028166e-05
95	0xb8adc4f8	-8.285971e-05
96	0x369d03b1	4.6793944e-06
97	0xb5303ef8	-6.565674e-07
98	0x38c3ce7f	9.3367875e-05
99	0x35078c9e	5.0496044e-07
100	0x37cef320	2.4670328e-05
101	0xb7ab60b2	-2.0429816e-05
102	0x37b19d3c	2.1173262e-05
103	0x37e7d89f	2.7638218e-05
104	0xb9099d9c	-0.00013124052
105	0x38481497	4.770289e-05
106	0xb72102df	-9.597016e-06
107	0xb5b3b68e	-1.338967e-06
108	0xb74add04	-1.20915975e-05
109	0x381ca861	3.7350113e-05
110	0x38b56595	8.649674e-05
111	0x38b6a767	8.7096174e-05
112	0xb83677e4	-4.350384e-05
113	0x37efdce5	2.8593882e-05
114	0x3717589e	9.020934e-06
115	0xb7b80e56	-2.1941185e-05
116	0x373f8b18	1.1416872e-05
117	0x38914450	6.926863e-05
118	0x370b3dc5	8.2994275e-06
119	0xb895050f	-7.105816e-05
120	0xb8cce8df	-9.770854e-05
121	0xb5d85f15	-1.6120927e-06
122	0xb829ae14	-4.0454863e-05
123	0x37a3cd71	1.952678e-05
124	0x349a9c8a	2.8798632e-07
125	0xb82e9039	-4.161915e-05
126	0xb7f074a0	-2.8664537e-05
127	0x3874b549	5.834297e-05
128	0xb5fbd5ec	-1.8763217e-06
129	0xb5adadda	-1.2940102e-06
130	0x36b03b98	5.2521464e-06
131	0xb58bb453	-1.0408788e-06
132	0xb5e0aa81	-1.6738924e-06
133	0xb47afc70	-2.33749e-07
134	0xb5e651e3	-1.7160168e-06
135	0xb649e999	-3.0087306e-06
136	0x36de12e5	6.618315e-06
137	0x351d9528	5.870411e-07
138	0x35d0be06	1.5552512e-06
139	0xb63b37ea	-2.7897718e-06
140	0xb57356d3	-9.06509e-07
141	0x36ca7db9	6.034705e-06
142	0xb54d24f8	-7.642225e-07
143	0xb5e3e0f3	-1.6978287e-06
144	0xb3ab87bd	-7.987499e-08
145	0x361198e0	2.1695669e-06
146	0x370bdf68	8.337061e-06
147	0x36273c32	2.4919977e-06
148	0xb3d0f204	-9.729777e-08
149	0x356a918a	8.738358e-07
150	0x360081a8	1.9148956e-06
151	0x367055b7	3.581268e-06
152	0xb4922fda	-2.7229436e-07
153	0xb5e5655e	-1.7091331e-06
154	0x36948c3e	4.42707e-06
155	0xb5e7caed	-1.72699e-06
156	0x364b8afb	3.0330255e-06
157	0xb71550d8	-8.899915e-06
158	0x35c55fee	1.4705563e-06
159	0xb49a64c0	-2.875804e-07
160	0x37112d31	8.653195e-06
161	0x36be2963	5.6672593e-06
162	0x37686d04	1.385366e-05
163	0x33531f9e	4.915602e-08
164	0xb6169657	-2.243925e-06
165	0xb6683168	-3.4599452e-06
166	0x36a7a01a	4.995626e-06
167	0x361365f6	2.1964056e-06
168	0xb61bcb84	-2.3215262e-06
169	0xb5ebff44	-1.7583156e-06
170	0xb692d2e4	-4.37569e-06
171	0xb74c6bb7	-1.2184427e-05
172	0xb52f650e	-6.5339634e-07
173	0xb6194e77	-2.284445e-06
174	0xb5837721	-9.794932e-07
175	0x36825dcd	3.8852218e-06
176	0xb610272d	-2.1480475e-06
177	0xb53f5914	-7.128267e-07
178	0xb697f978	-4.5291927e-06
179	0xb50c8a0e	-5.235496e-07
180	0x36843e38	3.9411498e-06
181	0x3686e90f	4.020643e-06
182	0xb646c71e	-2.96202e-06
183	0x36efa87e	7.14237e-06
184	0xb58061d0	-9.56521e-07
185	0xb5cf5dc9	-1.5449997e-06
186	0xb7225643	-9.676037e-06
187	0x3632d4e5	2.6647988e-06
188	0xb39a40c6	-7.182966e-08
189	0x359d0a73	1.1700453e-06
190	0xb4d02b52	-3.877454e-07
191	0x36b03545	5.25141e-06
192	0x36964994	4.478914e-06
193	0x36456c65	2.9418381e-06
194	0x36ea3292	6.9796306e-06
195	0xb738a7d6	-1.1006332e-05
196	0xb61ebd76	-2.3654115e-06
197	0x36971dc7	4.503617e-06
198	0xb5e50786	-1.7064019e-06
199	0xb6f01330	-7.154791e-06
200	0xb7050ba5	-7.930129e-06
201	0x3593bcf0	1.1007342e-06
202	0xb6609662	-3.3466135e-06
203	0x36d34c42	6.2971676e-06
204	0x37a45cc4	1.959352e-05
205	0x36ac7c8c	5.1404986e-06
206	0x375a2e7f	1.3004638e-05
207	0x3692cf06	4.3752398e-06
208	0x36e70b52	6.8856543e-06
209	0x36bc4ed3	5.612013e-06
210	0x366a7acb	3.4940192e-06
211	0x376aeb2e	1.4002244e-05
212	0x3600ca28	1.9191157e-06
213	0x36fd534a	7.5496837e-06
214	0x371b79e2	9.267098e-06
215	0x37bb9723	2.2362516e-05
216	0x36cabf54	6.0423426e-06
217	0x35fbfa6a	1.8773837e-06
218	0x35594054	8.093241e-07
219	0xb731b2c8	-1.0591648e-05
220	0x363f8993	2.8541297e-06
221	0x37937a11	1.7580607e-05
222	0x361b5391	2.3145442e-06
223	0x375158ea	1.2478073e-05
224	0x360728da	2.0140346e-06
225	0x377988ea	1.4873434e-05
226	0x379df1f8	1.8828534e-05
227	0xb56d0396	-8.82946e-07
228	0xb6c8aaef	-5.9803638e-06
229	0x35da790e	1.6277497e-06
230	0x3790d7eb	1.7266682e-05
231	0x37aa342d	2.0289875e-05
232	0x3625f239	2.4727908e-06
233	0x36aaa158	5.0851777e-06
234	0x35b5a59c	1.353375e-06
235	0x36843806	3.9404285e-06
236	0xb58fa34c	-1.0701856e-06
237	0x35721ae3	9.019115e-07
238	0xb5c0a5a2	-1.435332e-06
239	0x37baef63	2.2284401e-05
240	0xb6456c88	-2.941846e-06
241	0x35deb996	1.6594302e-06
242	0x374a8f06	1.20734385e-05
243	0x36d54fbc	6.357177e-06
244	0x36682fb1	3.4598454e-06
245	0x35d90095	1.6167929e-06
246	0x369f12c8	4.7407557e-06
247	0x37628535	1.3501664e-05
248	0x371c60a5	9.320826e-06
249	0x35f51d0f	1.826238e-06
250	0xb71ad613	-9.228958e-06
251	0x36f98a37	7.4368686e-06
252	0xb548a9a7	-7.475268e-07
253	0x37196827	9.1437605e-06
254	0x3689f49b	4.111394e-06
255	0x376ec82f	1.4232514e-05

exp_avg_sq f4 [256, 64]
0	0x340e2170	1.3236945e-07
1	0x324ed297	1.2038661e-08
2	0x3431930c	1.6537905e-07
3	0x33ba132b	8.6647866e-08
4	0x3123796b	2.378864e-09
5	0x342d54d3	1.614274e-07
6	0x336d1afb	5.52054e-08
7	0x33099b6e	3.203916e-08
8	0x33626eef	5.272062e-08
9	0x33e8cf7b	1.0841082e-07
10	0x346af2a5	2.1881222e-07
11	0x337112e9	5.6129384e-08
12	0x32e25874	2.6350087e-08
13	0x34841817	2.4604444e-07
14	0x3389ace7	6.4110104e-08
15	0x32906f24	1.6814347e-08
16	0x337ef1d8	5.935894e-08
17	0x3498976f	2.842239e-07
18	0x34c6e0e9	3.7044018e-07
19	0x34065c41	1.2513284e-07
20	0x33eca8cc	1.102031e-07
21	0x347d9e0a	2.3619955e-07
22	0x3421a359	1.5053719e-07
23	0x33ff03a2	1.18750236e-07
24	0x3398ac9d	7.10945e-08
25	0x323a0b38	1.0829176e-08
26	0x333c9989	4.39118e-08
27	0x34877349	2.522959e-07
28	0x33731a99	5.6602037e-08
29	0x34a910d2	3.149094e-07
30	0x34138289	1.373793e-07
31	0x348384e1	2.4497334e-07
32	0x3471ad5b	2.250794e-07
33	0x34c3b9e0	3.6456822e-07
34	0x348d9ab4	2.6375858e-07
35	0x30863b7f	9.766693e-10
36	0x32cad824	2.3614184e-08
37	0x3334b0de	4.2070376e-08
38	0x3475e8a4	2.2902037e-07
39	0x33ffea3f	1.1916972e-07
40	0x33df0cd7	1.0386582e-07
41	0x33e5ef30	1.07071514e-07
42	0x321e4361	9.212131e-09
43	0x3336d6df	4.25706e-08
44	0x333aa8ec	4.3460133e-08
45	0x316a0189	3.4052354e-09
46	0x33c17b69	9.009711e-08
47	0x344a0043	1.8812811e-07
48	0x3436105c	1.6956022e-07
49	0x3150b2c0	3.0369591e-09
50	0x3256771e	1.24835235e-08
51	0x344c4a6d	1.9026056e-07
52	0x33fdb60a	1.1814343e-07
53	0x3184b48e	3.8622323e-09
54	0x32d50c40	2.4802034e-08
55	0x341602d7	1.3970872e-07
56	0x33d79e7c	1.0040546e-07
57	0x3323c33c	3.812896e-08
58	0x3367acfb	5.3941204e-08
59	0x345f4b36	2.0795855e-07
60	0x2fc8a7cf	3.6499023e-10
61	0x34d55074	3.973288e-07
62	0x33ce6d4b	9.612503e-08
63	0x34eddc30	4.4304898e-07
64	0x336b6542	5.4807295e-08
65	0x31556736	3.1054248e-09
66	0x33eab56b	1.0929474e-07
67	0x339b7de4	7.240649e-08
68	0x314ef18b	3.0114247e-09
69	0x33ad985b	8.0836536e-08
70	0x3326ce93	3.8837765e-08
71	0x33001ac6	2.9826673e-08
72	0x333fce8c	4.4658506e-08
73	0x33f51fcb	1.1414485e-07
74	0x33ed333f	1.1045494e-07
75	0x32ef4e03	2.7858738e-08
76	0x32b48a80	2.101774e-08
77	0x33f043db	1.1188214e-07
78	0x33119837	3.3898882e-08
79	0x31ded28a	6.484986e-09
80	0x32d678a0	2.4967733e-08
81	0x33ed562b	1.10518464e-07
82	0x3391b52a	6.785042e-08
83	0x3338b79c	4.300783e-08
84	0x33f8038d	1.1549046e-07
85	0x336d72dc	5.5285327e-08
86	0x33ce4f35	9.60703e-08
87	0x332e7662	4.06202e-08
88	0x328254de	1.5172585e-08
89	0x324d60f6	1.1954617e-08
90	0x328835ab	1.585689e-08
91	0x34062bf2	1.249571e-07
92	0x31c8269f	5.825157e-09
93	0x34548da2	1.9795564e-07
94	0x33b2cde7	8.326224e-08
95	0x3383405e	6.111871e-08
96	0x3418f0ae	1.4243662e-07
97	0x33921c32	6.8037835e-08
98	0x343046ed	1.641708e-07
99	0x30c2f0d6	1.4183807e-09
100	0x325a1123	1.26931665e-08
101	0x3254c54a	1.23848825e-08
102	0x341c61ee	1.4564259e-07
103	0x335afb60	5.0985705e-08
104	0x33537d6b	4.9241333e-08
105	0x331139a6	3.3812874e-08
106	0x328005e5	1.4903842e-08
107	0x319f6e2f	4.6400355e-09
108	0x3355c066	4.9767912e-08
109	0x3081dc34	9.448571e-10
110	0x33664f4f	5.362318e-08
111	0x33bb9c31	8.736277e-08
112	0x33cadca8	9.446495e-08
113	0x320c0323	8.149786e-09
114	0x32152fa6	8.6837755e-09
115	0x33a180a8	7.520549e-08
116	0x3353384b	4.9178464e-08
117	0x3318823b	3.55087e-08
118	0x314e8634	3.005323e-09
119	0x33642f94	5.312866e-08
120	0x338995c4	6.406802e-08
121	0x332a644c	3.967243e-08
122	0x33007cd7	2.9915864e-08
123	0x33aab1d3	7.948588e-08
124	0x2cc134bb	5.491244e-12
125	0x33bd3d25	8.8121205e-08
126	0x3364fe82	5.331686e-08
127	0x3436d7e1	1.7028607e-07
128	0x3168abc6	3.3858085e-09
129	0x30c4d557	1.4321512e-09
130	0x32127fc0	8.5273655e-09
131	0x31115fd5	2.1154751e-09
132	0x2f189497	1.3877109e-10
133	0x31dda5dc	6.4508026e-09
134	0x3118b431	2.2221338e-09
135	0x311c38b6	2.2733224e-09
136	0x3084b08a	9.65444e-10
137	0x31b808fa	5.3561253e-09
138	0x32020862	7.568902e-09
139	0x31553bf4	3.1029659e-09
140	0x3136d323	2.6604503e-09
141	0x324caf8b	1.1914277e-08
142	0x318e5a4d	4.14301e-09
143	0x30d50315	1.5498666e-09
144	0x318b76d2	4.0589407e-09
145	0x31d787fd	6.2727836e-09
146	0x3211f59a	8.495954e-09
147	0x322563e1	9.626974e-09
148	0x31ee655c	6.938235e-09
149	0x319d65cc	4.5808743e-09
150	0x320f23ce	8.3318366e-09
151	0x31de1ce4	6.464335e-09
152	0x315031e2	3.0296339e-09
153	0x2ecae892	9.227209e-11
154	0x31043b69	1.9242299e-09
155	0x31caa5a1	5.8978036e-09
156	0x30e3293d	1.6528144e-09
157	0x32ba8931	2.1715637e-08
158	0x31c2edac	5.6731633e-09
159	0x3191d328	4.244061e-09
160	0x31e83ac3	6.758769e-09
161	0x320f9629	8.357838e-09
162	0x321a9000	8.996722e-09
163	0x2f941bcf	2.6940802e-10
164	0x3121806a	2.3501578e-09
165	0x30f381e5	1.7717495e-09
166	0x32a1da8e	1.8842254e-08
167	0x32c5604c	2.297761e-08
168	0x31acd573	5.030125e-09
169	0x31560180	3.1141951e-09
170	0x2f818372	2.355836e-10
171	0x302aecba	6.218205e-10
172	0x31ac91f6	5.0224527e-09
173	0x2fda16b0	3.967009e-10
174	0x319227d8	4.253689e-09
175	0x31b3bcdc	5.2310565e-09
176	0x31c9e377	5.8757297e-09
177	0x2f4c80e3	1.8599482e-10
178	0x312957ee	2.464272e-09
179	0x320385f0	7.655657e-09
180	0x319479c2	4.321209e-09
181	0x2f8a519b	2.5160038e-10
182	0x31445f27	2.8575842e-09
183	0x31b2ff5d	5.2095133e-09
184	0x31d92bd4	6.320514e-09
185	0x31d55357	6.2085905e-09
186	0x3028deb5	6.143453e-10
187	0x32b63f3a	2.121634e-08
188	0x2d6a9502	1.3334446e-11
189	0x32593d55	1.2645008e-08
190	0x3301b115	3.0196208e-08
191	0x32857014	1.5534205e-08
192	0x342f666a	1.6335403e-07
193	0x3082c3b7	9.51437e-10
194	0x33ba500e	8.675862e-08
195	0x33470716	4.6339743e-08
196	0x2ef4ff82	1.1141223e-10
197	0x338e035d	6.613002e-08
198	0x32ab24db	1.992378e-08
199	0x31b46a17	5.2507505e-09
200	0x31a72279	4.8642588e-09
201	0x333dd8a5	4.420203e-08
202	0x3338bfc2	4.301524e-08
203	0x33824644	6.066378e-08
204	0x30f8fc00	1.8115998e-09
205	0x344f191e	1.9287515e-07
206	0x3399b7b7	7.158035e-08
207	0x31847ff8	3.856254e-09
208	0x3042f32a	7.0922346e-10
209	0x33957e8a	6.9613705e-08
210	0x3524d4ff	6.140471e-07
211	0x330a0fef	3.214512e-08
212	0x33a0e6c1	7.4925545e-08
213	0x3356d47c	5.001901e-08
214	0x34100386	1.3412327e-07
215	0x3415f5af	1.3966086e-07
216	0x310d347f	2.054804e-09
217	0x32253023	9.615209e-09
218	0x319f434c	4.63516e-09
219	0x344234b8	1.8086837e-07
220	0x3136cdf7	2.6601563e-09
221	0x34669de3	2.1477858e-07
222	0x33320e57	4.1456897e-08
223	0x34c19de6	3.6063938e-07
224	0x34326d3f	1.6617285e-07
225	0x35276307	6.235645e-07
226	0x342b4ff3	1.5954701e-07
227	0x2d083e9e	7.744609e-12
228	0x3043b115	7.1192235e-10
229	0x306b4dfe	8.5603336e-10
230	0x33e21ba3	1.0528972e-07
231	0x3210d992	8.431373e-09
232	0x32f0f6a4	2.8051836e-08
233	0x31f9d1ad	7.270691e-09
234	0x2fc6790e	3.6102005e-10
235	0x3053e5f7	7.708815e-10
236	0x324d83ae	1.1962511e-08
237	0x2fe7dff7	4.2177792e-10
238	0x3253d42d	1.233006e-08
239	0x33c38bc3	9.1058176e-08
240	0x340997a3	1.2814284e-07
241	0x2e5ad6ea	4.9758343e-11
242	0x32013534	7.520885e-09
243	0x3355b170	4.9754306e-08
244	0x33f27d63	1.1291811e-07
245	0x2fb6ae25	3.3229344e-10
246	0x2f847d76	2.4099805e-10
247	0x334f55e8	4.8274075e-08
248	0x328ef5b3	1.6642707e-08
249	0x2f81c6c8	2.3606206e-10
250	0x33a7a1a7	7.805948e-08
251	0x33bd9c64	8.8294456e-08
252	0x2d98e812	1.738346e-11
253	0x3529f671	6.3316025e-07
254	0x32392186	1.077604e-08
255	0x34e2ffb4	4.228183e-07
