saved_weights/linear/linear_filter_fc1_26_26_0.5/saved_weights_linear.pth.tar (torch_old, 106399 bytes, 6 tensors)

fc_in.weight f4 [64, 44]
000000 1a 5a dc 3d 1d aa f3 37 55 60 85 3c 73 59 4d bd
       0.10759373 2.9047073e-05 0.016281286 -0.050134134
000010 d6 45 b1 bc a6 00 53 3d 7c e4 11 be 1c e6 cf bd
       -0.021639746 0.05151429 -0.14247316 -0.10151312
000020 35 0b ff bd 09 7c 38 3b 7e 07 dd bc 10 3a 0d 3c
       -0.124533094 0.0028150103 -0.026981112 0.0086198
000030 c9 62 3d be b1 e2 55 bb 9d d1 f3 3d 4e 61 a5 bd
       -0.18494715 -0.003263634 0.11905215 -0.080752
000040 a1 28 37 3e 41 fc 17 3c 19 7d e9 3d 85 1a af bd
       0.17886592 0.009276451 0.114008136 -0.0854998
000050 9e 5b 19 be 32 81 8d bd 38 3a de bd b0 69 ac 3d
       -0.14976355 -0.06909408 -0.10850948 0.08418596
000060 38 77 be bc 00 06 f4 3a 9e 2b 0d 3e c3 1e 8a bd
       -0.023250207 0.0018617511 0.1378617 -0.067441486
000070 c6 9c 8f 3d b0 e1 49 3d f2 a2 80 3d 8e bd c9 3d
       0.07012324 0.049287498 0.06281079 0.09850608
000080 e9 ed 89 bd 68 28 0e 3e 30 26 9a bc 3a 1a e7 bd
       -0.06734831 0.13882601 -0.018817037 -0.11284299
000090 3e 93 a3 bd b7 18 16 be e8 a4 f9 bc 5a 6c 09 3e
       -0.079870686 -0.14657865 -0.030474141 0.13420239
0000a0 c4 bd 1c be 94 b3 20 bd db 20 0b be f5 81 8c 3b
       -0.15306765 -0.03923376 -0.13586752 0.004287953
0000b0 10 a0 8f 3d 77 db f1 3d 95 93 44 be a4 41 0b be
       0.070129514 0.11809438 -0.19196923 -0.13599259
0000c0 a9 81 2a bd ef 86 4f 3d bd ec 02 be c1 ba 14 bd
       -0.04162756 0.050665792 -0.12785621 -0.036310915
0000d0 c7 4a 7d bd f1 50 fb bd d1 62 be 3d 26 61 a9 bd
       -0.06183889 -0.12271298 0.092961915 -0.08270483
0000e0 72 9a 9c 3d 13 9f 33 bc 50 40 b3 bd a0 74 0c 3e
       0.076466456 -0.010963219 -0.08752501 0.13716364
0000f0 54 3c b9 bd bd e5 27 3e 4c 0e 21 be 48 f7 b9 3d
       -0.0904471 0.16396232 -0.1572811 0.09080368
000100 40 06 dd bd ec 60 27 3d 80 1d 41 bd 0c 41 61 3d
       -0.10792208 0.040863916 -0.047147274 0.054993674
000110 5f 1f 1a be 00 54 7a b9 1a 38 99 3d f1 99 11 be
       -0.1505103 -0.0002387315 0.07481404 -0.1421888
000120 2b d8 eb bd 60 4d ab 3b e8 95 f7 3c 48 52 4e 3d
       -0.1151584 0.0052277297 0.030222848 0.05037144
000130 98 d2 ab 3d 1e 15 c4 bd a8 a7 17 3d 95 ca f0 bd
       0.08389777 -0.0957434 0.037025124 -0.117573895
000140 ae 16 8f 3d 60 ce 6d 3d 40 a3 48 3b 7e 93 0a 3e
       0.06986748 0.058058143 0.0030614883 0.13532826
000150 eb ea 5c be 55 69 90 be c2 91 39 3e 57 6b dc 3b
       -0.21573989 -0.28205362 0.18122008 0.006726663
000160 21 d0 bc bd ce 2a ee 3c f6 89 65 3d 45 18 a4 bb
       -0.09219385 0.029073145 0.056039773 -0.005007776
000170 5a 65 e8 bc 62 67 8b bd e4 9c 74 bd a4 d8 cb 3d
       -0.02836864 -0.06806828 -0.059719935 0.0995343
000180 f9 e7 e3 3d 15 9a 0b 3e b9 65 8d bd c8 f1 48 bc
       0.1112823 0.13632996 -0.06904168 -0.012264676
000190 88 4d 5f 3d 3a e8 b1 bc d2 19 54 bd d5 59 e0 bd
       0.0545173 -0.02171718 -0.051782437 -0.10954634
0001a0 b7 a2 3f bd 0e 82 0f bd 56 db e7 3c 08 45 3b 3d
       -0.046786036 -0.03503614 0.02830283 0.04572013
0001b0 59 99 ef bd 02 26 a3 3d dd 44 de bd 3f 8f ab bd
       -0.116991706 0.07966234 -0.108529784 -0.083769314
0001c0 b0 43 ba bc 1c f6 68 3d 26 9d cb bd 80 70 f5 3d
       -0.022737354 0.056875333 -0.09942083 0.11984348
0001d0 f5 f7 08 be 30 46 fa 3d be 16 db bd 35 aa f5 bd
       -0.13375838 0.122204185 -0.10697697 -0.11995355
0001e0 68 cc de 3d 6e 75 a5 3d 30 4b df 3c 02 6a 81 3d
       0.10878831 0.080790386 0.027257532 0.063190475
0001f0 1c 28 04 3e 64 6b 0a 3e dd d7 01 be b8 e5 e1 3d
       0.12905926 0.13517529 -0.12680002 0.110301435
000200 63 1a a3 3e b7 f1 dc bd 2f 3c 2e 3e 4f cf b3 3d
       0.3185607 -0.10788291 0.17015146 0.08779775
000210 ae d5 b5 ba 31 22 cd 3c b9 ad 02 3c 10 c5 a6 3b
       -0.0013872886 0.025040718 0.007975989 0.0050894096
000220 89 7e 3d 3c eb 8c be 3b 78 76 46 3c 95 ce d8 bd
       0.011565813 0.0058151386 0.012113206 -0.105862774
000230 26 d1 d0 bc 14 ee f7 bb 92 49 9b 3c 06 b0 5a be
       -0.025490355 -0.007566223 0.01895598 -0.2135621
000240 29 ba b2 bc 71 b3 99 bc df 24 71 bc e7 13 cd bd
       -0.021817284 -0.018762322 -0.014718263 -0.10013562
000250 b2 5b 62 3c 49 ea 22 3c a2 f3 91 3c 82 9d 94 3d
       0.013815807 0.009943553 0.017816368 0.07256605
000260 ce 04 85 3d a8 32 06 3e b0 ba 78 bc e0 c1 cd bd
       0.06495057 0.13105261 -0.0151812285 -0.10046744
000270 58 ac eb 3c 0e 2d 76 bd ef f5 0a be 00 f4 49 bc
       0.028768703 -0.06010156 -0.13570379 -0.012326241
000280 f0 a5 6c 3d 03 76 c7 bd 8c 91 25 3d 1e 7a 86 3d
       0.057775438 -0.09739306 0.040422007 0.06566261
000290 06 b0 9c 3d 64 66 f3 bd 54 d4 0a 3e 50 92 10 3e
       0.07650761 -0.11884764 0.13557559 0.14118314
0002a0 54 32 ad bd 4a cd 21 bd 00 15 b1 3a e4 69 d7 bc
       -0.08456865 -0.03950242 0.0013510287 -0.02629561
0002b0 74 d1 11 bf 80 96 5b 3e f1 2f 22 3f 3e cc 42 bd
       -0.56960225 0.2144413 0.633544 -0.04755806
0002c0 b5 b6 ab 3d 6f e6 96 3d cb be 09 3e 61 f9 71 bd
       0.08384458 0.073681705 0.13451688 -0.059075717
0002d0 7a 66 1d 3e f3 f5 15 be 51 03 93 bd 05 7e 40 bc
       0.15371123 -0.14644603 -0.07178367 -0.011748795
0002e0 b9 7c d9 3d ed a2 e5 3d 51 f7 01 3d d1 ff d1 3d
       0.10619492 0.11212716 0.03173 0.10253871
0002f0 ed b9 ba 3d a2 08 de 3d 01 d8 35 bd 95 fc 90 3c
       0.09117494 0.1084149 -0.04439545 0.017698565
000300 9b 5f 5c 3e 59 5f 94 bc 9e b5 75 bc 0f 68 00 3e
       0.21520846 -0.018111872 -0.014996914 0.12539695
000310 b0 1e e5 3d 11 c9 ec bd cc 51 29 bd 68 6b d2 bc
       0.11187494 -0.11561788 -0.041337773 -0.02568598
000320 40 50 fc 3d 64 03 57 3d 28 21 29 3d 44 d1 0f 3e
       0.12319994 0.052493468 0.041291386 0.14044672
000330 00 fa a2 3c 36 d1 a7 3d 72 74 87 3d c2 d7 31 bd
       0.0198946 0.08194201 0.06614007 -0.043418653
000340 be 8c 00 bd d0 0a 0a be ca b6 98 bd b6 f6 02 be
       -0.031384222 -0.13480687 -0.07456739 -0.12789425
000350 04 0f 85 3d c0 03 dc 3d 00 da 53 bc 30 8a 17 3e
       0.06497005 0.10742903 -0.012930393 0.14798808
000360 ae c3 b7 be c8 b2 92 bc ec bf 4f 3d 46 3c 58 bd
       -0.3589148 -0.017907515 0.05072014 -0.052791856
000370 b9 f1 5c bc 90 9a a3 bd 76 fb d3 3d 03 1d b3 bd
       -0.013485366 -0.07988465 0.10350697 -0.08745768
000380 6d 4a 3b 3e ec 16 c1 3d 4c ea af bc 12 c0 42 bd
       0.1829011 0.094282 -0.021474026 -0.047546454
000390 68 dd aa 3d dd 2a 3f bc 7d 28 16 be 15 02 2e bd
       0.08343011 -0.011667934 -0.14663883 -0.042482454
0003a0 e9 5b 32 be 1d 2a 04 bb b1 cc de 3d fe 44 a3 bd
       -0.17417873 -0.0020166703 0.108788855 -0.079721436
0003b0 31 b8 5e 3d 52 fe 8f 3d e1 84 ab bd f1 9f 21 be
       0.054374877 0.070309296 -0.08374954 -0.15783669
0003c0 46 cb e3 bd f8 b8 a3 3d 68 a7 ed 3d b0 23 51 bc
       -0.11122756 0.07994264 0.11604196 -0.012764856
0003d0 e8 23 ed 3c 02 b7 c4 bd 2e 6b eb bd 38 72 ca 3d
       0.028947785 -0.096052185 -0.11495052 0.09885067
0003e0 f0 5f 65 bc a2 8f b1 3d 41 f1 93 bd 16 9f fd bd
       -0.013999924 0.08669974 -0.0722375 -0.12383859
0003f0 c2 2f c5 bd a0 17 d0 3d 1a 98 17 be 8e 00 0f 3e
       -0.0962825 0.10160756 -0.14804116 0.13965055

fc_in.bias f4 [64]
000000 06 fd ce 3d 72 ae 0b be 25 81 41 3e a8 34 85 3d
       0.10106854 -0.13640764 0.18896921 0.06504184
000010 d4 f9 02 be 76 93 38 3e cc 37 2c 3e f5 f1 b4 3d
       -0.12790614 0.18025002 0.1681816 0.08835212
000020 94 6a f2 3c f4 75 87 3d c2 03 cc 3d d6 0d d6 bd
       0.029591836 0.06614295 0.09961654 -0.10451858
000030 df ac 88 bd 05 fe c5 3d 65 2b 17 bd 67 7c 94 bc
       -0.066735975 0.09667591 -0.03690662 -0.018125726
000040 87 d0 89 bd 12 ed 3b 3e 2b a6 6d 3d 11 1f 0d 3e
       -0.067292266 0.18352154 0.0580198 0.13781382
000050 8e 63 bc 3d b3 71 a8 39 c5 e0 a3 3d 9c 4d 15 3e
       0.09198676 0.0003212817 0.08001856 0.14580387
000060 60 5d b2 3d 1c 3d 7d bd a0 75 91 3a 1d e0 40 3e
       0.08709216 -0.061825857 0.0011097677 0.18835492
000070 e0 5f eb 3d 31 22 23 3e f6 c5 37 3e 85 ba 0c bd
       0.11492896 0.15931012 0.1794661 -0.034357566
000080 b9 82 17 3e c1 5f 40 3d af c5 46 3e a1 d2 8f bd
       0.1479596 0.046966318 0.19411348 -0.07022596
000090 0d 15 a0 bd 4f 4f 55 3c 7d 05 35 3e e9 aa 5d 3d
       -0.07816515 0.013019397 0.17677875 0.05411807
0000a0 bb 68 06 be 68 05 e6 3d 71 b4 3a bc 6a 58 09 bc
       -0.13125889 0.112315 -0.01139556 -0.008382896
0000b0 9c 64 7b 3b 34 89 1a be 87 3b 1f 3c 3c b1 7e 3d
       0.0038359528 -0.15091401 0.009718782 0.062180743
0000c0 86 40 25 3e 72 ef c5 bd 2f 5d 82 bb a9 3b 0e 3e
       0.16137895 -0.09664811 -0.0039783935 0.13889946
0000d0 82 d4 ba 3c 4a 62 44 bd 38 c8 48 bc 92 fe 1c 3e
       0.02280641 -0.0479453 -0.012254767 0.15331486
0000e0 6c 7e 7f 3d 49 b8 b0 3d d6 a5 38 bb d7 14 1c 3d
       0.062376425 0.086288996 -0.0028175018 0.038105812
0000f0 f5 dc 50 be be d8 4d bd 5b 1c 7e 3d c9 af 2d 3e
       -0.20396788 -0.05025553 0.06203876 0.16961588

fc1.weight f4 [256, 64]
000000 92 46 07 3e f0 0d 1a 3e 11 9d 07 3d 5d 22 40 3d
       0.13210514 0.15044379 0.033108775 0.04690777
000010 fd da fd 3c a8 66 43 3c d6 51 1c be 0c 36 d4 bc
       0.03098821 0.011926331 -0.15265593 -0.025904678
000020 22 7e f8 bd ed 3b b1 3c d9 1c 3a 3c 0d 69 85 be
       -0.12133433 0.02163502 0.011359417 -0.2605671
000030 a0 cf 54 bd c2 1a 95 3d 44 2d b4 3d 66 a7 18 3e
       -0.05195582 0.07280494 0.08797696 0.14907607
000040 e5 bd 50 bd 9a af 1b 3e 2c 25 80 bd 97 3e 32 3e
       -0.050962348 0.15203705 -0.0625709 0.17406689
000050 0a 15 99 bd d9 7f 1c be 4f 61 bb bd b8 ae 79 3d
       -0.07474716 -0.15283145 -0.091494195 0.06095764
000060 05 0a 63 bd 15 6a 93 bd ec 8c 5f bd 5f 4a 70 bd
       -0.055429477 -0.07197968 -0.054577753 -0.058664676
000070 93 76 94 3d da 14 14 bb 45 81 f0 3c 85 40 ec bd
       0.07249179 -0.0022595436 0.029358516 -0.115357436
000080 50 4a 90 3d c8 ae 9b 3d 91 17 f4 3d 18 6a 7c bd
       0.07045424 0.07601696 0.119185574 -0.061624616
000090 6b 5e a3 3d ed f1 1a bd 22 10 2c bd 15 de 6c bd
       0.07976993 -0.037828375 -0.042007573 -0.05782898
0000a0 e6 d6 69 3d 7e 27 78 3c e1 1f 94 bd 67 f0 fb bd
       0.05708971 0.015146134 -0.07232643 -0.123017125
0000b0 95 ef 38 3d 48 a8 1e 3e 57 37 a7 bd 0c f3 4c 3c
       0.04515036 0.15493882 -0.08164852 0.012509119
0000c0 91 04 0a 3e 64 6a f3 bb 68 ce 6c be 4d c2 2c 3e
       0.13478304 -0.0074284542 -0.23125613 0.16870995
0000d0 f1 af bc bd f1 c0 71 bd 8b 56 d1 3d 84 cb a2 bd
       -0.09213246 -0.059021894 0.10221585 -0.07948974
0000e0 5a d8 89 bd 97 e6 d2 bd ac 0c d4 bd 96 43 9e bd
       -0.06730719 -0.10297888 -0.103539795 -0.07727735
0000f0 25 b8 86 be 1f 25 ae 3d 07 d1 63 bd ff b5 b5 3a
       -0.26312366 0.08503174 -0.055619266 0.0013863443
000100 e0 b2 22 3d a3 ee 7d bd d1 e4 cf bd d5 ee 72 3d
       0.03972137 -0.06199516 -0.10151065 0.0593098
000110 8d dd ae bd 6c ec af bd 54 15 14 3d da 93 68 3b
       -0.08538351 -0.08590016 0.036153153 0.0035488517
000120 3f 00 2f be 72 88 51 bd be 7c ea 3d e8 78 e5 bd
       -0.17089938 -0.051155515 0.11449574 -0.11204702
000130 33 cf 0d 3c 7a 72 ee 3d 2f c3 0a 3d 07 db b0 3d
       0.008655357 0.116429284 0.033877548 0.08635526
000140 0b 37 dc ba f4 32 54 bb 3e 32 d8 3c 9d 8e 51 3b
       -0.0016801072 -0.0032379003 0.026391145 0.0031975873
000150 ee c2 39 bd 14 be 4f 3d 3e c7 3c bd 3a af 12 3c
       -0.045351915 0.050718382 -0.04608845 0.00895291
000160 f4 94 cd bc 84 e4 43 3d 25 d7 80 bd 41 a2 f8 3d
       -0.02509544 0.04782535 -0.062910356 0.121403225
000170 88 1f 2d bd f2 8a 0a 3d 4f 73 47 3d f6 4e a4 bd
       -0.0422664 0.033823915 0.04869395 -0.08022873
000180 8c 1a 0b bd 77 a7 b3 3c 39 ae 82 3d ec db 3e 3d
       -0.033960864 0.02193044 0.063808866 0.046596453
000190 fc 84 62 3d 33 cc bb bd bb 9a 81 ba 66 1e 00 3c
       0.055302605 -0.09169807 -0.0009888032 0.007819748
0001a0 b7 45 17 be ee ef e9 3c 97 12 d7 bd a8 61 b7 bb
       -0.14772688 0.02855679 -0.105015926 -0.0055963583
0001b0 7b bb 4b 3c b4 3c 12 3e 57 f7 d2 3d a9 b2 c2 3d
       0.012434836 0.14280969 0.103010826 0.09506733
0001c0 77 2a fd bb a7 39 83 3c a5 4e de 3c fd a0 45 3c
       -0.0077260095 0.016018702 0.02713711 0.012062308
0001d0 97 46 94 3c a0 d1 d3 3c 68 f6 8b 3c 8c f6 85 bd
       0.018100066 0.025856793 0.01708527 -0.06541166
0001e0 09 7a a6 bd 25 b4 31 bd 7f 73 c1 bd b0 20 a0 ba
       -0.08128745 -0.04338469 -0.09445857 -0.0012216773
0001f0 68 e0 bb bd 20 a8 a8 bd 20 b1 ca bd 39 2d 1c 3d
       -0.091736615 -0.08235192 -0.09897065 0.038129065
000200 e4 a7 3b bd 18 f6 c0 3d 20 23 8e bd 34 8b 08 bd
       -0.04581441 0.09421939 -0.06940293 -0.03333588
000210 00 53 df 3c 64 cf 48 3d e8 96 a7 bc 2e 9e bd bd
       0.027261257 0.049025908 -0.0204577 -0.09258686
000220 66 72 e5 3d b0 73 6d 3c a4 1c 32 bd e8 7b 1c bd
       0.112034604 0.014492914 -0.043484345 -0.038204104
000230 24 38 37 3d e6 63 a2 bd 00 15 35 3b 2c 00 17 bd
       0.044731274 -0.0792921 0.0027630925 -0.0368654
000240 c8 3d c8 bc c6 05 83 bd 84 fc bf bd d4 d3 59 3d
       -0.024443522 -0.063975856 -0.093743354 0.05318053
000250 bc eb 13 bd 70 99 d7 bc c8 51 9b 3c 7c 15 4b 3d
       -0.036113486 -0.026318282 0.018959895 0.049581036
000260 cc c7 0b bd 10 00 6c 3d 86 82 d1 3d a2 7b 9f 3d
       -0.034126088 0.057617247 0.102299735 0.07787253
000270 8e 14 b6 3d 0e 5c c7 3d 2c 4f 7a bd a8 0d a1 bd
       0.08890639 0.09734355 -0.06111066 -0.07863933
000280 3e 05 ca bd ce f3 98 bd 9a 48 e4 bd e0 9b 25 bd
       -0.09864281 -0.07468377 -0.1114666 -0.040431857
000290 b0 08 08 3d 8c 96 4d bd a0 b7 bc bc 28 57 e7 3c
       0.03321141 -0.0501924 -0.023036778 0.028239802
0002a0 14 0b 91 3d 98 29 f7 bc 4c 46 63 3d 98 22 db bd
       0.07082191 -0.0301712 0.055486962 -0.106999576
0002b0 00 68 b7 bb 3e 59 97 bd 80 b0 d1 3c 6c bf c0 bd
       -0.0055971146 -0.073900685 0.025596857 -0.09411511
0002c0 86 68 bc 3d 10 21 03 3c 8a 90 c6 bd fe 9b 9c 3d
       0.09199624 0.008003488 -0.096955374 0.07646941
0002d0 6c 7a de bd 50 67 19 bc ec df 6a bd 4a d1 ed bd
       -0.10863194 -0.0093630105 -0.057342455 -0.11612184
0002e0 b0 ff 3e bd e0 7f 1c bc 00 62 ad bb 30 0c 74 bd
       -0.04663056 -0.009551972 -0.0052912235 -0.059581935
0002f0 b6 99 ac 3d a0 f0 f7 bb 58 42 e7 3c 08 81 4a 3d
       0.084277555 -0.0075665265 0.028229877 0.04943946
000300 f3 ef 8f bc cb a7 a7 bd bd 30 88 3c 83 a1 73 3d
       -0.017570471 -0.08186301 0.016624803 0.0594802
000310 ab fe 40 bd 63 31 a6 bd 8a 1f c4 3c 78 e7 29 3e
       -0.04711787 -0.081148885 0.02394082 0.16592205
000320 ec 7a c1 bc 04 96 c4 3d b9 92 2a be d2 cd e7 bd
       -0.023618184 0.09598926 -0.16657533 -0.11318554
000330 9b c6 88 3d 56 04 0a be 24 1c db bd 43 2b 5c 3d
       0.06678506 -0.13478217 -0.10698727 0.053752195
000340 f2 66 3d be 34 a8 f8 3c d9 92 b1 3d 58 f8 1e be
       -0.18496302 0.030353643 0.08670587 -0.15524423
000350 95 1c b4 bd c1 72 39 3e d8 77 27 3d cd 5b f7 bc
       -0.08794514 0.18110181 0.040885776 -0.030195141
000360 99 d5 0b 3e 7d cd 02 3e bf f5 1d be cb d5 ca bd
       0.136557 0.127737 -0.15425776 -0.09904059
000370 e0 ae 55 3d bc 91 a4 bd 4e d4 c4 bd 90 c4 60 3e
       0.052168727 -0.08035609 -0.096108064 0.21949983
000380 86 55 e7 bd 54 fa 24 3d 62 5c a9 bd 78 fe cc bd
       -0.11295609 0.040277794 -0.08269574 -0.100094736
000390 a6 b8 a7 bd 42 f8 0f bd 7c 7f 0e be a8 fa e4 3d
       -0.08189516 -0.035148866 -0.13915819 0.111806214
0003a0 96 97 58 3e 35 42 e6 bc 7f 14 de bd 95 3d f5 3d
       0.21151575 -0.028107742 -0.10843753 0.119746365
0003b0 4c 68 14 3e cb bc fc 3d 09 58 c0 bd 40 25 eb 3d
       0.14492911 0.12340697 -0.093917914 0.11481714
0003c0 76 0a e1 3c 22 fc 07 be 96 e4 71 3e 6c 47 66 bd
       0.027470808 -0.13279775 0.23622355 -0.056220457
0003d0 0c c6 6a bc 14 88 80 bd 52 de 0b 3e 59 1d 87 bb
       -0.014329445 -0.06275955 0.13659027 -0.0041233716
0003e0 41 84 d9 bd 9d 6f c7 be fd 33 e5 3d 28 64 a9 bd
       -0.106209286 -0.38952342 0.111915566 -0.082710564
0003f0 90 fd ed 3d 6c bd 02 3e fc b5 df bd 07 6f bd bd
       0.11620629 0.12767571 -0.10923383 -0.092496924

fc1.bias f4 [256]
000000 c9 6f e6 3d 53 43 a5 3d f8 7e 8c bd ef 65 2d 3d
       0.1125179 0.08069482 -0.06860155 0.04233354
000010 63 e6 7d 3d f1 6f 67 3d 87 16 96 bd 9a 2a f9 3c
       0.061987292 0.05650324 -0.073285155 0.030415822
000020 50 71 3c 3e 4e 15 21 3d 9f 27 9b 3c d9 02 d2 bd
       0.184026 0.03932696 0.018939791 -0.102544494
000030 69 b4 fe 3d 7c af c4 bc b4 70 f6 3d 4e 09 6f bd
       0.12436754 -0.024009459 0.12033215 -0.058358483
000040 64 b7 4d bd 86 4d e3 bc bf 09 ca bc 5a e2 d9 3d
       -0.050223723 -0.027746927 -0.02466285 0.10638876
000050 c3 42 13 3d da 02 dc 3d 6a ec 9c 3c 75 d7 ba 3d
       0.03595234 0.107427314 0.0191557 0.091231264
000060 ce 8a 59 3d a7 3e 97 3c ed 50 0c 3c bc f6 2e bd
       0.05311089 0.018462492 0.008564216 -0.042715773
000070 d5 99 f8 3d 74 d1 21 bc 5e fe 84 3d ad fc cf bd
       0.12138716 -0.009876598 0.06493829 -0.10155616
000080 68 77 d8 bd c1 39 4b 3d 5f 69 c5 3d be f2 16 bd
       -0.1056965 0.049615625 0.096392386 -0.03685259
000090 aa bd 04 3c 10 b8 6e 3d d0 56 de 3d 08 91 ca bd
       0.00810186 0.058281004 0.10856402 -0.09890944
0000a0 45 3d 1c 3e cf e0 f2 3d 2e 69 de 3d 4f 89 bf 3c
       0.15257747 0.11859285 0.10859905 0.023380904
0000b0 97 da 09 3e 3c 56 d1 bd 29 8d 97 bd 7b e4 94 bd
       0.13462292 -0.10221526 -0.07399971 -0.07270142
0000c0 39 fa 2c 3d f7 3e ef 3c 1d 89 14 3e b7 30 84 bd
       0.04223082 0.029204829 0.1450543 -0.06454604
0000d0 62 ce ed 3c de 58 a5 bd 3d 8b 13 3e 68 ec 95 3c
       0.029029075 -0.08073591 0.14408584 0.018301204
0000e0 85 32 86 bd 96 75 e5 3d 4c 94 78 bd 43 28 0e 3e
       -0.065526046 0.11204068 -0.060688302 0.13882546
0000f0 1e 18 3a 3d e5 b6 be 39 2f 0c 7f bd 40 75 38 3c
       0.045433156 0.0003637589 -0.06226748 0.011258423
000100 e3 1c ea 3d 14 e4 85 3d 02 40 ab bd 51 06 df bd
       0.11431291 0.06537643 -0.08361818 -0.10889877
000110 36 cf cb bd e8 ee 77 bd 67 04 a3 bb 41 73 fd 3c
       -0.09951632 -0.060530573 -0.00497489 0.030938746
000120 23 c8 e0 3d 7b 8e e5 3d ba bc 90 bd 2d d7 1f 3d
       0.10975673 0.112088166 -0.07067247 0.039023567
000130 be 5c 53 3d 87 e4 84 3c 44 67 fd bd 4d b7 ef 3d
       0.051602118 0.016222252 -0.12373212 0.11704884
000140 12 ce db 3d 7e 6e bb bc c8 0d 1e bc 54 40 fb bc
       0.10732664 -0.022879835 -0.00964684 -0.030670322
000150 f6 ef e8 bd d5 6b bf bc 9b 40 c2 3d 26 f6 4a bd
       -0.11373894 -0.023366848 0.09484979 -0.04955115
000160 b3 35 0a bc 63 53 b4 bc 22 ff 2e 3e 29 fa aa 3d
       -0.008435654 -0.022012418 0.17089513 0.083484955
000170 46 fd 98 3d da 35 f0 bb 79 7b bc 3d d3 7a c5 3d
       0.07470183 -0.0073306384 0.09203238 0.096425675
000180 ab 43 21 3d 20 12 97 3c 62 3b 04 3e 6a 3e 09 3e
       0.039371174 0.01844126 0.12913278 0.13402715
000190 02 b3 8b bd d9 ba 83 bc 91 c1 4d bd 69 0e 60 bd
       -0.068212524 -0.016080307 -0.050233427 -0.054701243
0001a0 26 e0 ac 3d bd aa 02 3e 4e 15 02 bd 18 e7 2d bd
       0.084411904 0.12760444 -0.0317586 -0.042456716
0001b0 aa 55 0e 3e 13 67 34 bd fe ce 1d 3e 83 84 13 3e
       0.13899866 -0.04404361 0.15410993 0.14406018
0001c0 63 9a ae 3d 05 8b e7 bc a1 2c 87 3d e7 4d 31 bd
       0.08525541 -0.028264532 0.06600309 -0.043287184
0001d0 aa 3c d8 3d 45 fe be 3c c1 f1 6c bd 3b 55 c9 3c
       0.10558446 0.023314605 -0.057847742 0.024576774
0001e0 ea fa d9 3d 0e 24 70 3d 90 f4 61 bd a2 e0 d1 bb
       0.10643561 0.058628134 -0.055164874 -0.006404952
0001f0 42 68 e0 bd 4b 4d 8d 3d ea 7e c0 3d b9 cf 0b 3d
       -0.109573856 0.06899508 0.09399207 0.034133647
000200 ad 0e ee bd 92 76 60 3c 7a 83 11 3e 83 dc 70 3d
       -0.11623893 0.013700144 0.1421031 0.058804046
000210 3f 5b 19 bb 30 b3 1b 3e 47 4c 40 bc b0 08 4f 3d
       -0.0023400334 0.15205073 -0.011736936 0.050545394
000220 86 40 07 bd 95 9f 8c bd 64 f4 a4 3c 62 bc cd bd
       -0.03302052 -0.06866375 0.020136066 -0.10045697
000230 94 99 0a be 84 48 97 3c 09 80 4b bc 07 1a 76 bd
       -0.13535148 0.018467195 -0.012420663 -0.060083415
000240 54 7a 31 bc 63 04 16 3d df 0f b0 bd fd 6e 23 bd
       -0.010832388 0.036625277 -0.08596777 -0.03990077
000250 2f 90 24 3e a7 39 47 bd 04 95 2a 3e f0 9f 00 be
       0.16070627 -0.048638966 0.16658407 -0.12561011
000260 a4 4f 02 3e 9e a7 1b 3e 4a 5b 09 3e 14 c8 0d 3e
       0.12725693 0.1520066 0.1341373 0.13845855
000270 ae 42 9e bd 14 3e 9c bd de 9a 8a bd 91 e0 14 3d
       -0.07727562 -0.07629028 -0.0676782 0.036346976
000280 86 5e 21 3d dc 60 0d 3d 3b 50 22 3e a6 f0 e2 ba
       0.039396785 0.0345162 0.15850918 -0.001731415
000290 fc ef d9 3d 72 fd e0 3d 9f 75 d2 3d 65 10 3f 3d
       0.106414765 0.10985841 0.10276341 0.046646494
0002a0 17 70 a2 3c c3 17 ac bd 4a da c7 bd d5 ee 20 3d
       0.01982884 -0.0840297 -0.09758432 0.039290268
0002b0 a5 4a 7e 3d 40 db 32 3d 54 59 0f 3e cf 2a d3 3d
       0.062082905 0.043666124 0.1399892 0.103108995
0002c0 7c 48 e0 bd 5b d1 8e 3d 70 76 47 3d 90 95 01 3e
       -0.10951325 0.06973525 0.048696935 0.1265471
0002d0 9f 95 ee bd 9a d0 05 3e 0d 91 b0 bb 11 79 53 3b
       -0.11649632 0.13067856 -0.005388385 0.0032268206
0002e0 84 f4 3a 3d 8a 3c 19 bd 6a 09 9b 3d 3f a9 0b 3e
       0.045643345 -0.03741125 0.07570155 0.13638781
0002f0 db a6 17 bd 57 91 bb 3c df 17 58 bd cb 6b 18 3e
       -0.03702436 0.022896452 -0.05275714 0.1488487
000300 44 38 d1 3d b2 eb 05 bc 6c f7 2b 3d 3b 70 09 bd
       0.1021581 -0.00817387 0.041984007 -0.033554297
000310 00 c0 8a 3d fb e8 e2 3d 91 57 2d bd d3 a6 e5 3d
       0.06774902 0.11079594 -0.042319838 0.1121346
000320 7e 7b b4 3d d8 3d e7 3d 45 41 90 bc 11 d2 a2 bc
       0.08812617 0.11291093 -0.017609248 -0.019875558
000330 36 6a cd 3d 8f 3f e9 bd 5a b6 a2 3d 4f cf b7 bd
       0.10030024 -0.11389076 0.07944937 -0.08975088
000340 32 1c b0 3d 71 00 c9 bd 3c 72 47 3d 9f aa 93 bd
       0.08599128 -0.09814537 0.048692927 -0.07210278
000350 c6 fb 3f bd 93 b7 dc 3c b0 0f f2 bc a6 c4 b1 3d
       -0.04687097 0.026943004 -0.029548496 0.08680086
000360 7b 17 0c 3e 01 4c 80 3d ed c0 0b 3e 88 4c f7 bd
       0.13680832 0.062644966 0.13647814 -0.12075144
000370 e6 3e d2 bd de d2 5e 3d 1e d6 12 3d c1 62 a6 3d
       -0.10265903 0.054400317 0.03584873 0.081243046
000380 f9 63 1c bd 1c d5 fc bd 17 4d d2 3d 66 3c bc 3d
       -0.03818128 -0.12345335 0.1026861 0.091912076
000390 63 ad 1f 3e 3d 48 5a 3b af 7f 48 bc 99 81 08 bd
       0.15593486 0.0033307218 -0.012237473 -0.03332672
0003a0 0b 5f fe 3c 8e 94 49 3d 8f 60 8e 3d b7 15 38 bd
       0.03105118 0.04921394 0.06952011 -0.044942584
0003b0 92 78 43 3d 7c b9 f1 3d b4 bc 8d bd dc 9f 8a bc
       0.047722407 0.118029565 -0.06920758 -0.01692193
0003c0 cb 2d d6 3d b8 08 38 3c 48 b7 d3 bd f8 0d ad bd
       0.10457953 0.011232547 -0.103376925 -0.0844993
0003d0 09 c9 fd bd 26 54 c0 bd 86 03 8e 3d 77 9a ee 3d
       -0.1239186 -0.0939105 0.06934266 0.116505556
0003e0 01 35 52 bd 42 fa d7 3d 84 c3 00 3e 70 e2 1e bd
       -0.05132008 0.1054578 0.12574583 -0.038790166
0003f0 5a 43 22 3e 68 a5 e0 bc 7e 67 d0 bd 0b 84 b4 3d
       0.15846005 -0.027422622 -0.101759896 0.08814248

fc_out.weight f4 [26, 256]
000000 03 a9 c7 3d d0 10 51 bc c0 7c 26 3d df 51 43 bc
       0.09749033 -0.012760356 0.040646315 -0.011921375
000010 a7 b9 10 bc 34 88 43 bc 41 2c 1a 3e 96 72 48 3d
       -0.0088333255 -0.011934329 0.15055944 0.048937403
000020 d3 fa 9a 3d d8 8d 16 3d 6f d3 6a bd 1c c4 e4 3d
       0.07567372 0.036756366 -0.057330545 0.111702174
000030 e0 2d a6 3c 76 ff ba 3d df 4b a2 3c cb 79 b9 3d
       0.020285547 0.091307566 0.019811569 0.09056433
000040 ca 43 b7 bc f3 0f a4 3d 3f 63 ef 3c e4 41 e9 bc
       -0.022371192 0.080108546 0.029222129 -0.028473802
000050 3c 34 e3 3d c0 4d 03 3c 0c 60 94 3d ac 33 f1 3c
       0.11093947 0.0080141425 0.07244882 0.029443584
000060 da 58 5a 3d f5 44 1c 3d 68 63 8c bd 00 f1 1e bd
       0.05330739 0.0381517 -0.06854898 -0.038804054
000070 39 5c 6a 3d 6a d4 3a bd c7 a4 42 be 9e 0c aa bd
       0.057216857 -0.04561273 -0.1900817 -0.08303188
000080 0c aa 3e bd 23 00 8a 3d 51 8d 80 bc de 4b 27 3d
       -0.046548888 0.06738307 -0.015692385 0.040843837
000090 d4 e6 dd bd 46 76 ae bc 72 a2 77 bc d4 4c ae bd
       -0.108350426 -0.021296632 -0.015114414 -0.085107476
0000a0 e3 8e 30 3c fd fb 94 3d 20 4a 75 bc f8 86 f8 3b
       0.010776254 0.072746255 -0.014971286 0.007584449
0000b0 56 9c 9b 3d 4e 1b 82 3c 78 83 0e 3e d6 ff 35 bd
       0.07598178 0.01588216 0.13917339 -0.044433437
0000c0 0a 6f 83 3c c8 ca 83 3d 56 2a 7e 3d 3e 78 86 3d
       0.016044158 0.06435162 0.062052093 0.06565903
0000d0 28 53 a6 3d 3e 37 10 3d 84 51 11 3d 15 76 bd bd
       0.081213295 0.035208933 0.03547813 -0.09251038
0000e0 22 a4 05 bd 54 91 4f 3d 3a 7f 00 3d 05 64 10 3c
       -0.032627232 0.050675705 0.031371333 0.008812909
0000f0 64 b8 c7 3c 2a de 90 3d 97 dd 28 3b 71 ef 96 b9
       0.024379916 0.070736244 0.0025766843 -0.00028788627
000100 a6 51 9b 3d 25 23 d9 3d b4 79 72 bd ee f3 9d 3d
       0.075839326 0.106024064 -0.059198096 0.077125415
000110 9a e2 14 3d eb 19 2b be ad f2 b1 3d 5d 72 46 3d
       0.036348917 -0.16709106 0.08688865 0.04844891
000120 fb cf 12 3d fe 89 b0 3d 5d 98 e3 3d b3 35 f5 bd
       0.035842877 0.0862007 0.11113045 -0.11973133
000130 d0 57 4a bb fe d7 25 3d de af b0 bd cd c0 a2 3c
       -0.0030875094 0.04048919 -0.08627294 0.019867325
000140 2a c2 79 3c 95 e8 db bc 00 55 62 3a 61 30 a9 3d
       0.015244046 -0.026844302 0.0008633882 0.08261181
000150 c2 fc ad 3d 99 3e 1e 3d f1 1d 82 3b 0f 5a 8a 3c
       0.08495475 0.038633917 0.0039708545 0.016888646
000160 06 0a 4a bd 6f 30 0d bd fe 9c 14 3d c4 e2 2a bb
       -0.049325965 -0.034470018 0.036282532 -0.0026075104
000170 8f ad 12 3d c5 cb dd 3b 71 49 8b 3d 97 c6 80 3d
       0.03581005 0.006768676 0.06801117 0.06287878
000180 40 95 c8 bc 14 45 ae 3d 7a 8c f9 3c 27 2e 5a 3d
       -0.02448523 0.08509269 0.030462492 0.05326667
000190 40 85 27 be 81 2d ba 3c 3a 6a e5 bd a1 fb 93 bc
       -0.16359425 0.022726776 -0.11201902 -0.018064322
0001a0 27 ff 28 bd 77 d6 bc ba 2b ec 75 bc 49 8d bc bd
       -0.041258957 -0.0014407177 -0.01500992 -0.092066355
0001b0 d8 e6 98 3d ad 29 4d 3d 93 7f 92 3d 12 53 fc 3c
       0.07465905 0.050088573 0.07153239 0.03080133
0001c0 4f 1e ce 3c 1d 80 3d 3c 10 e4 bd 3c 6c 6b 70 3d
       0.025160937 0.011566189 0.023180038 0.058696195
0001d0 e3 ed 1d be 04 e9 6c bc 80 1b 44 3e 7b 8f 94 3d
       -0.15422778 -0.014459852 0.19151115 0.07253929
0001e0 1b 30 92 3d 88 e4 1f 3d dc b3 ed bc e2 8a 2a 3d
       0.07138082 0.039036304 -0.029016428 0.041636355
0001f0 d0 c0 cf 3d 0b b0 6e 3d d8 f8 44 bd e9 59 8b 3d
       0.10144198 0.058273356 -0.04808888 0.068042584
000200 25 85 f1 bc 82 40 f0 3d d6 d9 0e 3d e3 55 80 3d
       -0.029482434 0.11731054 0.034875713 0.062663816
000210 62 50 02 3c ac b8 9f 3d 8f da 34 3e 6b 5d 92 3d
       0.007953735 0.07798895 0.17661498 0.07146724
000220 38 42 b6 be c4 36 81 3b 9a 11 28 3c 8b 9a 0e bd
       -0.35597396 0.003943296 0.010258103 -0.034815352
000230 8b fa 68 bd dc 17 28 3d 47 72 24 3d 9c a1 70 3d
       -0.05687956 0.04103838 0.040148046 0.058747873
000240 06 8a d0 bc 1c 6c 8b 3c 66 5d 02 3e cc 4e 40 3d
       -0.02545644 0.017019324 0.12730941 0.046950147
000250 b9 a9 a7 3c 87 40 e3 3d 5d 32 5b bc 00 7b f5 39
       0.020466672 0.11096292 -0.013378707 0.00046821684
000260 5c 0f 94 bd 2f 96 7a 3d 1f 1a a6 3d 86 84 82 3d
       -0.07229492 0.061178382 0.08110451 0.06372933
000270 79 f2 10 3d 81 d4 8b bd 42 ba 90 be cf 7f 20 bd
       0.03538749 -0.06827641 -0.28267103 -0.039184388
000280 7b 43 a5 3d 22 67 1b bd 0f 37 3b 3d d9 5d eb bc
       0.080695115 -0.037940152 0.045706805 -0.028731273
000290 2c a3 6f 3c 2c ab 23 bd 4f c0 88 3c 9c 6d 54 bd
       0.014626306 -0.039958164 0.016693262 -0.051862344
0002a0 72 58 34 3c 7b 34 99 3c b7 d6 bd be 0e 26 99 3c
       0.011007415 0.018701782 -0.37077877 0.018694904
0002b0 e8 e8 7b 3c af 1f 3d bd 54 85 fe 3c 10 cd 06 bc
       0.015375353 -0.046172794 0.031069435 -0.008227602
0002c0 5f 34 3f be 71 bc c3 bc 5f 21 fc 3b 95 80 29 3d
       -0.18672322 -0.023893567 0.007694408 0.04138239
0002d0 7f c7 ba bd 1a c5 9e 3d 6e cf 8b 3c 39 b1 d9 bd
       -0.09120082 0.07752438 0.017066684 -0.10629506
0002e0 c9 4b f1 bd 02 64 d3 3d f1 80 85 3d eb a4 ab 3a
       -0.11782033 0.10321809 0.06518734 0.0013095414
0002f0 d6 8e 54 be 42 48 5a 3c 6b 37 b1 bc 05 d6 99 3c
       -0.20757613 0.013322892 -0.02163287 0.01877881
000300 63 31 06 3e b9 39 b9 bd 29 94 cd 3c 53 7c d5 3d
       0.13104777 -0.09044213 0.025095062 0.104241036
000310 b6 0d 69 3d 98 48 10 bd 74 bb 82 bc b2 08 61 bc
       0.05689784 -0.03522548 -0.015958525 -0.013734983
000320 bf ff 96 bd 06 94 92 3d a3 bb 68 bd 9d 4b 11 3e
       -0.073729984 0.071571395 -0.05681957 0.14189
000330 2c eb d9 bb 81 66 2a 3e 92 7c 0c bd f2 7a 27 3e
       -0.006650349 0.16640665 -0.034298487 0.16355494
000340 89 0c 8b 3d 20 d2 1e 3b ce 34 0e 3e 2b 40 c8 3b
       0.067895 0.002423413 0.13887331 0.006111165
000350 aa dc 0e bc 05 77 ae bd 52 65 4e 3d 92 8f 66 3d
       -0.008719603 -0.08518795 0.050389595 0.056289263
000360 97 de 31 3d 7e b2 6a bc 58 3f f0 bb d4 59 dd bc
       0.04342517 -0.014324782 -0.00733177 -0.027020372
000370 f4 a9 1f be 1b 70 fa 3c f4 a0 86 3d 1e a8 a4 3b
       -0.15592176 0.030571034 0.06573668 0.005024924
000380 50 8c 86 3b b8 40 6a bd c8 ca 04 3b b0 1b 11 3e
       0.004106082 -0.057190627 0.0020262469 0.14170718
000390 8d 5d a8 3c 35 38 67 bc 56 a4 1a 3e 1f a6 39 bd
       0.020552421 -0.014112522 0.15101752 -0.04532444
0003a0 0e b0 8f 3d 38 71 5e bc 6c 0c d1 bc de 73 6e 3d
       0.07016002 -0.013576798 -0.025518619 0.05821597
0003b0 d0 1c e3 bd f1 36 3d 3c 04 b4 71 3d de 7c a6 3d
       -0.1108948 0.011548744 0.059009567 0.08129285
0003c0 cd c6 06 3e 10 cb a0 3d cc d1 a5 bd c5 56 f1 bd
       0.13161774 0.07851231 -0.08096656 -0.11784128
0003d0 0d 8a 7a be 78 60 a3 3c 05 08 85 3c 24 74 f0 3c
       -0.24466725 0.01994346 0.016239176 0.029352255
0003e0 9a 80 15 bc cc 3e 91 3d 47 97 6e ba 1e 8a 72 3d
       -0.009124899 0.07092056 -0.00091015216 0.05921375
0003f0 e6 4f de bb b7 26 e3 bd cf ab 26 be 4e 89 30 ba
       -0.006784427 -0.11091369 -0.16276477 -0.0006734327

fc_out.bias f4 [26]
000000 0d d8 f5 3c af 96 be bc 40 d2 30 3d d9 dc fe 3c
       0.030010248 -0.02326521 0.04316926 0.031111168
000010 17 5b 9d 3c a2 ce 6e 3d 17 f0 e0 3c 5b 75 75 3d
       0.019208474 0.05830253 0.027458234 0.059926372
000020 ea 55 99 3d dd 75 69 3a f5 67 7f 3d 24 b5 08 bc
       0.0748709 0.00089058076 0.062355 -0.008343969
000030 e3 b8 1c 3d 25 b3 16 3d e8 14 4c bc 0e 53 92 3d
       0.03826226 0.03679194 -0.012456156 0.07144748
000040 00 73 2b bc 8b 84 da bc 8e 0f a5 3d 29 18 00 3d
       -0.01046443 -0.02667453 0.080596074 0.03127304
000050 c4 77 68 bb b3 0c b9 3d fc 85 93 3d 8a b2 3c 3d
       -0.0035471777 0.09035625 0.0720329 0.046068706
000060 ed 0e f1 3c 61 fe 13 bc
       0.029426062 -0.009032817
