saved_weights/linear/linear_filter_fc1_26_26_0.5/saved_weights_linear_0.001.pth.tar (torch_old, 317132 bytes, 18 tensors)

exp_avg f4 [64]
00000000: b5a2 a2b8 fbcd 7c36 b785 5db9 f797 643a
00000010: d063 35b7 2205 8fb8 f3f0 26b8 0cec 8738
00000020: 6293 5f39 bf8b 3639 8dfa cfb9 4df5 3c39
00000030: 3748 3ab8 036c 95b9 bdec 2236 18a9 d938
00000040: a8e4 96b9 f644 b4b9 6e33 94b8 86a2 16b9
00000050: 5cf7 a3b8 4b50 83b8 5701 adb9 469d af38
00000060: bf85 ecb7 728d f8b7 5902 0138 824a 38b9
00000070: 1d41 1f38 be54 40b9 5230 08b9 89d8 0b39
00000080: 0f5c e2b9 d8d9 2639 a18a 15b9 0c22 9736
00000090: 12e0 15b8 13c4 8938 f23b 35b9 67e1 7237
000000a0: bbb3 e037 a67a 35b9 4534 ef37 89ca 6637
000000b0: d427 72b8 faec e7b6 a185 1738 1df5 84b9
000000c0: c0e9 8fb8 bbe7 36b7 40de 27b8 d464 45b7
000000d0: 9d60 8ab9 d5b4 4137 076a 8336 a333 81b8
000000e0: d000 cc37 d331 0e38 ad10 b038 868d 04b8
000000f0: 7ffa 9cb6 73b1 4239 2a0b 8139 09da 89b9
-7.7550685e-05 3.7670823e-06 -0.00021126015 0.00087201543 -1.081168e-05 -6.8197274e-05 -3.9801886e-05 6.481269e-05
0.00021321842 0.00017408932 -0.00039668792 0.00018020459 -4.441311e-05 -0.0002849997 2.427768e-06 0.000103788625
-0.00028780592 -0.00034383655 -7.0667695e-05 -0.0001436566 -7.81852e-05 -6.2615225e-05 -0.0003299813 8.373945e-05
-2.8195673e-05 -2.962977e-05 3.0758183e-05 -0.00017575364 3.7969196e-05 -0.00018342116 -0.00012987971 0.00013336739
-0.00043174668 0.00015912147 -0.0001426139 4.5041143e-06 -3.573305e-05 6.569191e-05 -0.00017283836 1.4476805e-05
2.6786574e-05 -0.00017307195 2.851536e-05 1.3756225e-05 -5.773439e-05 -6.911924e-06 3.6125657e-05 -0.00025359626
-6.862311e-05 -1.0901999e-05 -4.002289e-05 -1.1765591e-05 -0.00026393394 1.15458e-05 3.9164474e-06 -6.1608174e-05
2.4319073e-05 3.390184e-05 8.39544e-05 -3.1603056e-05 -4.678324e-06 0.00018567387 0.00024613115 -0.00026293125

exp_avg_sq f4 [64]
00000000: 9fc9 5935 4651 a333 0b18 d435 704e 3937
00000010: 5a3d c730 d493 8435 4fe6 3934 ee57 5134
00000020: 9236 0f36 f1a9 0d35 5cdc e236 3e4b 0335
00000030: f727 2f34 c679 b336 6087 8834 1bf5 2b36
00000040: 398f 2137 3ee1 e036 49a3 9635 8259 f934
00000050: 3085 f835 6d6b c334 8238 6c36 d81e 9e34
00000060: fa22 2c34 c3f3 2d33 09ae ac35 20ac 5d36
00000070: 10bc 2634 49bb 3836 0f6f 5f36 e299 a434
00000080: 136c f236 4a46 b835 2b59 e835 9770 f833
00000090: 8564 6233 3035 3734 f295 a235 b433 b134
000000a0: ff3f d134 bd00 6b35 2e52 8334 dfaa 4d32
000000b0: d350 3835 0a3d a732 6a54 3c34 9038 5936
000000c0: 7ada a335 e06d 4d33 d0b6 af34 6be2 5e35
000000d0: 4fd7 9035 2b46 b533 31c4 df33 39de b835
000000e0: fbe6 9e34 cc21 d634 3bf3 dc34 5b09 8135
000000f0: e7dd f12f f74d 2d36 cdb2 2736 d0d4 7f36
8.1132197e-07 7.6050625e-08 1.5802228e-06 1.1045122e-05 1.4496593e-09 9.87779e-07 1.7313253e-07 1.949663e-07
2.1340425e-06 5.277389e-07 6.760978e-06 4.8910795e-07 1.6312684e-07 5.348792e-06 2.5430472e-07 2.5623656e-06
9.629694e-06 6.701942e-06 1.1223393e-06 4.644499e-07 1.8516203e-06 3.6399743e-07 3.5199632e-06 2.9452235e-07
1.6031473e-07 4.05014e-08 1.286565e-06 3.3031756e-06 1.5528371e-07 2.752715e-06 3.3294234e-06 3.0659345e-07
7.2247435e-06 1.3729525e-06 1.7311298e-06 1.156888e-07 5.2711147e-08 1.7062553e-07 1.211358e-06 3.3006438e-07
3.8975847e-07 8.7545396e-07 2.4460445e-07 1.1971422e-08 6.8662956e-07 1.9469116e-08 1.7539574e-07 3.2368443e-06
1.2208031e-06 4.7830213e-08 3.2729304e-07 8.3030926e-07 1.0791499e-06 8.441233e-08 1.0419934e-07 1.3773744e-06
2.9597854e-07 3.9885197e-07 4.1155167e-07 9.613972e-07 4.3995316e-10 2.582439e-06 2.4989015e-06 3.8121834e-06

exp_avg f4 [256]
00000000: 2047 8fb9 82b5 8cb8 0400 0000 dc53 0a39
00000010: da7b 0db9 36b8 97b8 3d84 70b9 261a 1cb8
00000020: 9602 15b9 fb84 35b8 6115 2ab9 c969 cab7
00000030: 3112 30b9 785d 46b8 8f91 25b9 681d eeb8
00000040: 5589 20b7 04d5 e8b7 0400 0000 2e43 67b9
00000050: 5777 2bb9 992a 0d39 b765 cfb7 11c9 17b9
00000060: 8c0a 17b9 3457 bdb8 94d2 80b8 3e87 a2b8
00000070: 33a5 2db9 0400 0080 ab30 7f39 cc19 9237
00000080: 0400 0080 bdfa 12b8 8345 f7b8 0400 0080
00000090: 4dbd 31b9 807a 57b8 feb3 09b9 1dee 1e36
000000a0: 6090 b6b8 fe6e 4ab9 ae5c 09b9 da76 39b9
000000b0: 2bc3 42b9 0400 0080 5337 ad35 0400 0000
000000c0: 7870 cfb8 a6b3 27b9 5a54 1eb9 0400 0000
000000d0: e488 1bb9 874f 8838 d978 96b8 31a3 8b39
000000e0: 0400 0080 be43 8db9 0400 0000 1b68 0cb9
000000f0: 95f9 e6b8 158d 8fac 0400 0000 581d 1fb9
00000100: 8c12 f6b8 2719 9eb8 0400 0080 62f2 32b6
00000110: 0400 0080 d421 bc38 87ac acb7 a70b 01b9
00000120: df26 1db9 aab6 a0b8 b5b2 4437 654a 85b8
00000130: bdb6 1cb9 ebad 14b9 f600 e038 a9dd 0eb9
00000140: da31 8db9 0400 0080 0400 0000 11b3 28b6
00000150: 0400 0080 0400 0000 f3c9 e3b8 0400 0080
00000160: d74d 36b8 0400 0000 ddbf d4b8 2fa8 11b9
00000170: 60eb ffb8 0e5d 82b9 98b1 9cb8 368d b4b8
00000180: 7b97 8cb8 82c7 62b9 4b97 63b9 2b8b a2b8
00000190: 5743 9431 02cd c0b8 0400 0000 dbb0 2eb9
000001a0: 6c16 23b8 f104 ccb8 0400 0080 c1c8 d9b7
000001b0: 4d59 f0b8 cbea ddb8 328e 00b9 ffcb d7b8
000001c0: 60b5 2bb9 f787 00b6 063d 44b9 0412 48b8
000001d0: f2bd 24b9 da91 5504 623a 8eb9 0b70 44b9
000001e0: 2590 18b9 f1d9 e9b8 0400 0000 6a9d 63b4
000001f0: 0400 0000 739b 46b9 07a3 54b7 d796 c6b8
00000200: c198 c237 2bad e1b6 16bd 29b8 2ddd 61b8
00000210: b68e 800a f6ae 7cb8 0400 0000 35b3 8337
00000220: 2a4f 4f38 b2d4 beb6 1399 2fb9 36e1 e7b7
00000230: a85d f037 1fee dbb8 b78e 8a0b 0400 0000
00000240: 2bf4 96b8 d908 2eb9 1d40 8e36 334a 4835
00000250: e6a2 35b9 0400 0000 1091 00b9 0000 0000
00000260: baf3 d8b9 8d3c edb8 7b94 e3b8 ba42 45b9
00000270: e0a6 0a39 1669 6e39 0400 0080 2f8d d5b8
00000280: 4a64 c4b9 bbd2 bdb8 79c5 cb37 e41b 0fb8
00000290: d2d7 87b9 774f 8eb9 df2f 39b9 629e 4db7
000002a0: 3a57 92b6 0400 0080 e0d8 8d33 6251 6ab9
000002b0: 931e f738 09de 92b7 391d 31b9 faaf a1b8
000002c0: d937 4f37 0ed0 62b9 b2a9 42b9 0285 c9b6
000002d0: 0400 0000 9e33 44b9 0865 8aaf 8149 62b8
000002e0: 281c a52c 0400 0000 64a3 b6b8 422b 9336
000002f0: 6d3b 9d37 e8b1 12b7 0400 0000 c57d ae38
00000300: bb59 2ab9 0400 0000 e48b 0cb9 a63c ebb8
00000310: 8797 25b9 bc7e 47b9 dabf e715 0c9a b3b8
00000320: 1f0d 7137 cd5e f2b8 b0de 5839 7d1a 2eb9
00000330: eaae 1fb9 0400 0080 4c3d 0ab8 0400 0080
00000340: 4997 d5b8 0000 0000 f7f2 b4b9 0400 0080
00000350: 0400 0000 f39c 3b36 97d7 3eb9 3fba fab8
00000360: 0728 51b9 6ffd 28b9 501d 11b9 0000 0000
00000370: 0400 0000 96bf 23b9 64d2 81b8 3327 2bb9
00000380: 0400 0000 0000 0000 fff6 ceb8 0fc5 87b9
00000390: 2f5a 1db9 32c9 bcb8 0501 3fb9 0400 0000
000003a0: e2e3 7fb8 051e ebb8 3c00 83b8 d98c b395
000003b0: f2d3 9836 4b7f c7b8 0400 0000 f8eb ebb8
000003c0: d3fc 8fb8 2c41 fdb8 0400 0080 a9ee 7139
000003d0: 691d 729b 0400 0000 838d 65b9 4295 18b9
000003e0: e011 9138 0998 38b9 12e1 edb8 342b 95b9
000003f0: 5831 feb8 fbf2 8238 a6a1 0239 5144 bfb7
-0.00027328078 -6.709529e-05 6e-45 0.00013191946 -0.00013492946 -7.234553e-05 -0.00022937446 -3.721765e-05
-0.0001421071 -4.327761e-05 -0.00016220428 -2.4129537e-05 -0.00016791445 -4.729393e-05 -0.00015789851 -0.00011354202
-9.568718e-06 -2.7755748e-05 6e-45 -0.00022054903 -0.00016352288 0.00013462677 -2.4723688e-05 -0.00014475385
-0.00014404411 -9.028465e-05 -6.142739e-05 -7.749953e-05 -0.00016560107 -6e-45 0.00024336825 1.7416569e-05
-6e-45 -3.504263e-05 -0.000117908254 -6e-45 -0.00016950555 -5.137408e-05 -0.0001313239 2.3682435e-06
-8.705328e-05 -0.00019305569 -0.00013099864 -0.0001768725 -0.00018573987 -6e-45 1.2905606e-06 6e-45
-9.891478e-05 -0.00015993285 -0.00015099478 6e-45 -0.00014832948 6.4997985e-05 -7.175067e-05 0.00026633733
-6e-45 -0.00026944088 6e-45 -0.00013390223 -0.00011013743 -4.0799677e-12 6e-45 -0.00015174353
-0.00011733649 -7.538712e-05 -6e-45 -2.6665152e-06 -6e-45 8.9708396e-05 -2.0584337e-05 -0.0001230674
-0.00014987167 -7.6634184e-05 1.1724119e-05 -6.355791e-05 -0.00014945395 -0.0001417917 0.00010681331 -0.0001362475
-0.00026930758 -6e-45 6e-45 -2.5138181e-06 -6e-45 6e-45 -0.000108618195 -6e-45
-4.3464675e-05 6e-45 -0.00010144685 -0.00013890931 -0.000122031895 -0.00024864863 -7.471739e-05 -8.6093714e-05
-6.703936e-05 -0.00021627362 -0.00021704768 -7.750684e-05 4.3150226e-09 -9.193459e-05 6e-45 -0.00016659817
-3.888311e-05 -9.7283984e-05 -6e-45 -2.59619e-05 -0.00011460725 -0.00010581835 -0.00012260003 -0.00010289996
-0.00016375398 -1.9152628e-06 -0.0001871475 -4.7700494e-05 -0.00015711019 2.5105001e-36 -0.0002712785 -0.00018733756
-0.00014549548 -0.000111509005 6e-45 -2.119829e-07 6e-45 -0.00018940661 -1.2674142e-05 -9.469472e-05
2.3197734e-05 -6.725682e-06 -4.046884e-05 -5.3850166e-05 1.2379634e-32 -6.0244427e-05 6e-45 1.5699867e-05
4.9426373e-05 -5.6872022e-06 -0.00016746325 -2.7642218e-05 2.8653842e-05 -0.00010487087 5.33704e-32 6e-45
-7.198037e-05 -0.00016597229 4.2393935e-06 7.461378e-07 -0.0001732219 6e-45 -0.00012261071 0.0
-0.0004138032 -0.00011312319 -0.0001085186 -0.00018812242 0.00013222871 0.00022736596 -6e-45 -0.00010182929
-0.00037458754 -9.051474e-05 2.4291441e-05 -3.4119832e-05 -0.00025910005 -0.00027143557 -0.00017660808 -1.2255829e-05
-4.3612936e-06 -6e-45 6.6052735e-08 -0.00022346296 0.00011783573 -1.750795e-05 -0.00016890922 -7.7098564e-05
1.23511645e-05 -0.00021630546 -0.00018564498 -6.005751e-06 6e-45 -0.00018711246 -2.517384e-10 -5.3951055e-05
4.692708e-12 6e-45 -8.70887e-05 4.3859773e-06 1.874353e-05 -8.7437e-06 6e-45 8.320393e-05
-0.0001624589 6e-45 -0.00013403554 -0.0001121697 -0.00015792075 -0.00019025331 9.3602845e-26 -8.5640786e-05
1.4367774e-05 -0.00011557117 0.00020682323 -0.00016603801 -0.00015228582 -6e-45 -3.295885e-05 -6e-45
-0.000101848105 0.0 -0.00034513298 -6e-45 6e-45 2.7956528e-06 -0.00018200125 -0.0001195562
-0.00019946705 -0.0001611614 -0.00013839197 0.0 6e-45 -0.00015616263 -6.190388e-05 -0.00016322434
6e-45 0.0 -9.868852e-05 -0.00025896027 -0.00015006283 -9.002014e-05 -0.00018215559 6e-45
-6.100897e-05 -0.00011211265 -6.2466104e-05 -7.251974e-26 4.5546267e-06 -9.5127696e-05 6e-45 -0.00011249626
-6.8658635e-05 -0.00012076119 -6e-45 0.00023072459 -2.0027274e-22 6e-45 -0.00021891859 -0.00014551452
6.917468e-05 -0.00017604245 -0.00011342963 -0.00028451683 -0.00012120855 6.244142e-05 0.00012457985 -2.2800787e-05

exp_avg_sq f4 [256]
00000000: 043b da35 41f4 d935 11bd bd2c 7030 ba35
00000010: 8277 6135 2059 1935 1690 8836 0a46 6f35
00000020: 4ced 7b35 6442 9335 07af 0336 44ef 8734
00000030: 5b72 ac35 8d85 b735 0992 8f35 d311 3134
00000040: ff36 2434 e4d6 bd31 a8f4 1430 a124 5b36
00000050: 5a00 0a36 a1b1 4d35 1036 ff34 9b67 6235
00000060: 7ae3 0e35 4cd9 0f36 b0fd c435 7012 6f35
00000070: a7e4 a534 75f2 442d 2a5d f335 539c c934
00000080: 8863 4a2e 0535 2635 e56e f235 b619 4130
00000090: 6e69 d535 997a 7b35 c98a bf35 457e 5436
000000a0: 1019 f335 0ae2 6c35 06c0 be35 6c87 6436
000000b0: 5e2e dd35 bcd2 052b 5bc6 4935 9a0a 372f
000000c0: f4db 7e35 3a09 9536 f822 9335 9c92 032f
000000d0: 3ea2 4735 41dc 0036 6744 9c35 c277 1e36
000000e0: ac3e 0f2c 331f fe35 bf82 4223 c4cc 1035
000000f0: 68e9 8934 8acb bd33 e6c8 162b aa80 da35
00000100: 6ff8 1f35 1e5a 4c35 747f 7d20 bacb a234
00000110: ef57 822b 7a51 b634 8a30 c933 b4b4 d335
00000120: 584d b935 2ef7 4135 d002 8b35 3fd0 4034
00000130: b1a6 2435 31eb de35 98af 4135 ceb8 1235
00000140: 0aeb ac35 12e9 6530 ea21 1a30 e4a5 1435
00000150: 7faf 382c 287f f033 ac54 9a35 8e73 ad2d
00000160: 97b8 9635 8e69 c732 d2d4 d635 8488 4935
00000170: 1eea fc35 5b04 a936 15f2 1c34 06ff 2a35
00000180: f3bc 4734 92f0 6f35 3646 cc35 94f9 6e35
00000190: ab33 d22c 3e80 9035 f709 8332 f3f5 e735
000001a0: 05b6 8834 d515 c635 c029 4430 3de9 ad35
000001b0: 863c 8435 1e11 8934 8576 6f35 88f0 9235
000001c0: 18d7 2e35 6972 2731 da04 1f35 2653 b135
000001d0: 7de3 1235 34a6 7b35 f929 e136 8b7f dd35
000001e0: a0fd b935 0460 9a35 e557 cc2f e454 0a31
000001f0: 409d 822c a050 0c36 e660 6331 fa03 3235
00000200: 107f 3e31 3029 9b34 c098 8835 0002 b734
00000210: 468b c635 8c3f 8135 5738 8124 d03d 7434
00000220: 6727 9d33 d697 4233 c9bf 1635 e266 4036
00000230: afb9 8234 54d8 9135 c5ae 6036 5fe4 772e
00000240: f737 8f35 cfca 1535 4b94 dc35 45a6 a134
00000250: 2120 0135 4faa ec2b 5a21 1836 0000 0000
00000260: 29fc 9c36 b227 7e35 7358 7835 339d b635
00000270: cce4 3636 f630 6a36 5c20 732f e8f7 9735
00000280: 97d8 0637 c1aa e934 96f8 ea34 463a 2835
00000290: 683b 6536 c937 1436 02f9 0036 9538 b130
000002a0: d10d e134 2b6f 0f2d 69fe f330 c820 6836
000002b0: 17d3 6435 54d4 0d35 e464 8e35 0a4d 8c35
000002c0: c48a 2835 ae48 4f36 f450 9935 b898 0536
000002d0: d8ec a329 765b a935 a9d9 c533 9d15 ce34
000002e0: cc65 8a2d a224 822b 53f8 8b35 a3ee 9335
000002f0: c733 6a35 c5b4 0636 1536 1a2f 9198 0936
00000300: b9bc 1a35 beda c530 7af5 8735 5e00 d434
00000310: ff66 bd35 78b2 8a35 7657 3435 5145 db34
00000320: 8ee2 3036 4873 6b36 71bf c035 b46d 5635
00000330: 12d4 0136 7433 b42a 26da f535 d4d7 be2a
00000340: f004 2135 0000 0000 83a2 0b37 08fb 992f
00000350: 4449 2c30 7a42 5135 645c 9d35 44d9 8735
00000360: 7612 8436 b33c b935 139c 1135 0000 0000
00000370: 34e9 502d 1430 2e35 a113 0735 a440 d234
00000380: 88b8 0030 0000 0000 7fed 7d35 3993 0137
00000390: 2b59 9735 cfc1 a235 bda8 1c35 2ce5 f12f
000003a0: 8baa 0135 9a06 5036 79d0 aa35 574e 7a2e
000003b0: 1cfa ac35 2013 aa35 7334 822c b0c8 a035
000003c0: 2a1a d235 0886 2c35 925b cf2e 93bc 3436
000003d0: 7b2c c52d 6d1f 8020 8124 3f36 d55d cb35
000003e0: 9af1 cf35 b515 0935 7033 5935 143f de36
000003f0: 4c4f 7d35 7daa 3f33 bbb1 4c36 6be0 d235
1.6259442e-06 1.6238847e-06 5.3926937e-12 1.3872177e-06 8.399294e-07 5.7126636e-07 4.0698897e-06 8.913636e-07
9.38501e-07 1.0971676e-06 1.96224e-06 2.5319798e-07 1.284828e-06 1.3673431e-06 1.0696832e-06 1.6490894e-07
1.5293698e-07 5.525054e-09 5.4189764e-10 3.2654864e-06 2.0563807e-06 7.6626935e-07 4.7536787e-07 8.4342327e-07
5.3230144e-07 2.1435144e-06 1.4676971e-06 8.906127e-07 3.0900011e-07 1.1195146e-11 1.8132025e-06 3.7552908e-07
4.6017884e-11 6.191697e-07 1.806268e-06 7.024953e-10 1.5900421e-06 9.368319e-07 1.4271001e-06 3.166396e-06
1.8112205e-06 8.824578e-07 1.4211989e-06 3.4053473e-06 1.6479278e-06 4.7543545e-13 7.516698e-07 1.664752e-10
9.494245e-07 4.44162e-06 1.0962531e-06 1.1966467e-10 7.436937e-07 1.920169e-06 1.1642813e-06 2.3613543e-06
2.0356312e-12 1.8933555e-06 1.0544448e-17 5.3942153e-07 2.5688064e-07 8.838022e-08 5.356951e-13 1.6279712e-06
5.9593634e-07 7.612706e-07 2.1472104e-19 3.0323082e-07 9.261462e-13 3.3959424e-07 9.368621e-08 1.5773317e-06
1.3806084e-06 7.2257797e-07 1.0357126e-06 1.7957153e-07 6.133733e-07 1.6608739e-06 7.2153625e-07 5.4658165e-07
1.2883404e-06 8.364093e-10 5.607307e-10 5.53757e-07 2.6245393e-12 1.11990005e-07 1.1498537e-06 1.971914e-11
1.1229594e-06 2.321465e-08 1.6006181e-06 7.507699e-07 1.88436e-06 5.0370995e-06 1.4616701e-07 6.3701043e-07
1.8602059e-07 8.9384514e-07 1.5219618e-06 8.9025093e-07 5.9742953e-12 1.076616e-06 1.5254939e-08 1.7282422e-06
2.546441e-07 1.4758504e-06 7.1363715e-10 1.2957386e-06 9.852381e-07 2.5530693e-07 8.9206907e-07 1.0947851e-06
6.5133054e-07 2.4366733e-09 5.9239176e-07 1.3211727e-06 5.472028e-07 9.3746644e-07 6.710409e-06 1.6502903e-06
1.3857389e-06 1.1501838e-06 3.7169837e-10 2.0129898e-09 3.7122805e-12 2.0908556e-06 3.3087928e-09 6.6315954e-07
2.7720866e-09 2.8900968e-07 1.0177246e-06 3.4087861e-07 1.4792683e-06 9.629744e-07 5.6040276e-17 2.2746758e-07
7.3180495e-08 4.530724e-08 5.615844e-07 2.8670115e-06 2.434949e-07 1.0866302e-06 3.348033e-06 5.6364132e-11
1.0670618e-06 5.580195e-07 1.6434436e-06 3.0109564e-07 4.8103e-07 1.6816079e-12 2.2669178e-06 0.0
4.6785176e-06 9.468014e-07 9.251591e-07 1.3605808e-06 2.725329e-06 3.4897216e-06 2.2112218e-10 1.1322527e-06
8.037451e-06 4.3523872e-07 4.3766767e-07 6.2669676e-07 3.4158238e-06 2.208619e-06 1.9218428e-06 1.2894527e-09
4.191957e-07 8.153293e-12 1.7752885e-09 3.4589775e-06 8.5243795e-07 5.283557e-07 1.0609187e-06 1.0453234e-06
6.278681e-07 3.0887709e-06 1.1422949e-06 1.9907438e-06 7.27974e-14 1.26181e-06 9.2131195e-08 3.8386216e-07
1.573399e-11 9.247223e-13 1.0428579e-06 1.1021806e-06 8.724714e-07 2.0072778e-06 1.4025432e-10 2.0503396e-06
5.76441e-07 1.4395807e-09 1.0129727e-06 3.9488344e-07 1.4111573e-06 1.0333742e-06 6.71825e-07 4.0842363e-07
2.6357916e-06 3.5084831e-06 1.4360832e-06 7.988085e-07 1.934594e-06 3.2010126e-13 1.8317412e-06 3.390054e-13
5.998436e-07 0.0 8.322883e-06 2.8008906e-10 6.267735e-10 7.7955303e-07 1.1724301e-06 1.0121516e-06
3.9360557e-06 1.380124e-06 5.424383e-07 0.0 1.1875213e-11 6.4890014e-07 5.0319983e-07 3.916258e-07
4.6828363e-10 0.0 9.4595447e-07 7.723277e-06 1.1276328e-06 1.2126346e-06 5.8360075e-07 4.400048e-10
4.830442e-07 3.0998258e-06 1.272666e-06 5.6913e-11 1.288779e-06 1.2671553e-06 3.7006453e-12 1.1979337e-06
1.5653834e-06 6.4270034e-07 9.429536e-11 2.6931855e-06 2.241606e-11 2.170484e-19 2.8482466e-06 1.5151987e-06
1.5493017e-06 5.1068065e-07 8.091365e-07 6.623459e-06 9.4365237e-07 4.462571e-08 3.0501822e-06 1.5711533e-06

exp_avg f4 [26, 256]
00000000: 0400 0080 0400 0080 0000 0000 0400 0080
00000010: 0400 0000 0400 0080 0400 0080 0400 0080
00000020: 0400 0080 0400 0080 0400 0080 0400 0080
00000030: 0400 0080 0400 0080 0400 0080 0400 0000
00000040: 0400 0080 0400 0080 0400 0080 0400 0080
00000050: 0400 0080 0400 0080 0400 0080 0400 0080
00000060: 0400 0080 0400 0080 0400 0080 0400 0080
00000070: 0400 0080 0000 0000 0400 0080 0400 0080
00000080: 0000 0000 0400 0080 0400 0080 0400 0080
00000090: 0400 0080 0400 0080 0400 0080 0400 0080
000000a0: 0400 0080 0400 0080 0400 0080 0400 0080
000000b0: 0400 0080 0400 0080 0400 0080 0400 0080
000000c0: 0400 0080 0400 0080 0400 0080 0400 0000
000000d0: 0400 0080 0400 0080 0400 0080 0000 0000
000000e0: 0400 0080 0400 0080 0000 0000 0400 0080
000000f0: 0400 0080 0400 0080 0000 0000 0400 0080
00000100: 0400 0080 0400 0080 0000 0000 0400 0080
00000110: 0000 0000 0400 0080 0400 0080 0400 0080
00000120: 0400 0080 0400 0080 0400 0080 0400 0080
00000130: 0400 0080 0400 0080 0400 0080 0400 0080
00000140: 0400 0080 0400 0080 0000 0000 0000 0000
00000150: 0400 0080 0400 0080 0400 0080 0400 0080
00000160: 0400 0080 0400 0080 0400 0080 0400 0080
00000170: 0400 0080 0400 0080 0400 0080 0400 0080
00000180: 0400 0080 0400 0080 0400 0080 0400 0080
00000190: 0000 0000 0400 0080 0400 0080 0400 0080
000001a0: 0400 0080 0400 0080 0400 0080 0000 0000
000001b0: 0400 0080 0400 0080 0400 0080 0400 0080
000001c0: 0400 0080 0400 0000 0400 0080 0400 0080
000001d0: 0400 0080 0000 0000 0400 0080 0400 0080
000001e0: 0400 0080 0400 0080 0000 0000 0400 0080
000001f0: 0400 0080 0400 0080 0000 0000 0400 0080
00000200: 0400 0000 0400 0000 0400 0080 0400 0080
00000210: 0400 0080 0400 0080 0000 0000 0400 0080
00000220: 0400 0000 0400 0000 0400 0080 0400 0080
00000230: 0400 0080 0400 0080 0000 0000 0400 0080
00000240: 0000 0000 0400 0080 0400 0000 0000 0000
00000250: 0400 0080 0400 0080 0400 0080 0000 0000
00000260: 0400 0080 0400 0080 0400 0080 0400 0080
00000270: 0400 0080 0400 0080 0400 0000 0400 0000
00000280: 0400 0080 0400 0080 0400 0080 0400 0080
00000290: 0400 0080 0400 0080 0400 0080 0000 0000
000002a0: 0400 0080 0000 0000 0000 0000 0400 0080
000002b0: 0400 0000 0400 0080 0400 0080 0400 0080
000002c0: 0400 0080 0400 0080 0400 0080 0400 0080
000002d0: 0000 0000 0400 0080 0400 0080 0400 0080
000002e0: 0400 0080 0400 0080 0400 0080 0400 0080
000002f0: 0400 0080 0400 0080 0400 0000 0400 0080
00000300: 0400 0080 0400 0080 0400 0080 0400 0080
00000310: 0400 0080 0400 0080 0400 0080 0400 0080
00000320: 0400 0080 0400 0080 0400 0080 0400 0080
00000330: 0400 0080 0000 0000 0000 0000 0000 0000
00000340: 0400 0080 0000 0000 0400 0080 0400 0080
00000350: 0400 0080 0400 0080 0400 0080 0400 0080
00000360: 0400 0080 0400 0080 0400 0080 0000 0000
00000370: 0400 0080 0400 0080 0400 0080 0400 0080
00000380: 0400 0080 0000 0000 0400 0080 0400 0080
00000390: 0400 0080 0400 0080 0400 0080 0400 0080
000003a0: 0400 0080 0400 0080 0400 0080 0400 0000
000003b0: 0400 0000 0400 0080 0000 0000 0400 0080
000003c0: 0400 0080 0400 0080 0400 0080 0400 0080
000003d0: 0400 0080 0000 0000 0400 0080 0400 0080
000003e0: 0400 0080 0400 0080 0400 0080 0400 0080
000003f0: 0400 0080 0400 0080 0400 0080 0400 0080
-6e-45 -6e-45 0.0 -6e-45 6e-45 -6e-45 -6e-45 -6e-45
-6e-45 -6e-45 -6e-45 -6e-45 -6e-45 -6e-45 -6e-45 6e-45
-6e-45 -6e-45 -6e-45 -6e-45 -6e-45 -6e-45 -6e-45 -6e-45
-6e-45 -6e-45 -6e-45 -6e-45 -6e-45 0.0 -6e-45 -6e-45
0.0 -6e-45 -6e-45 -6e-45 -6e-45 -6e-45 -6e-45 -6e-45
-6e-45 -6e-45 -6e-45 -6e-45 -6e-45 -6e-45 -6e-45 -6e-45
-6e-45 -6e-45 -6e-45 6e-45 -6e-45 -6e-45 -6e-45 0.0
-6e-45 -6e-45 0.0 -6e-45 -6e-45 -6e-45 0.0 -6e-45
-6e-45 -6e-45 0.0 -6e-45 0.0 -6e-45 -6e-45 -6e-45
-6e-45 -6e-45 -6e-45 -6e-45 -6e-45 -6e-45 -6e-45 -6e-45
-6e-45 -6e-45 0.0 0.0 -6e-45 -6e-45 -6e-45 -6e-45
-6e-45 -6e-45 -6e-45 -6e-45 -6e-45 -6e-45 -6e-45 -6e-45
-6e-45 -6e-45 -6e-45 -6e-45 0.0 -6e-45 -6e-45 -6e-45
-6e-45 -6e-45 -6e-45 0.0 -6e-45 -6e-45 -6e-45 -6e-45
-6e-45 6e-45 -6e-45 -6e-45 -6e-45 0.0 -6e-45 -6e-45
-6e-45 -6e-45 0.0 -6e-45 -6e-45 -6e-45 0.0 -6e-45
6e-45 6e-45 -6e-45 -6e-45 -6e-45 -6e-45 0.0 -6e-45
6e-45 6e-45 -6e-45 -6e-45 -6e-45 -6e-45 0.0 -6e-45
0.0 -6e-45 6e-45 0.0 -6e-45 -6e-45 -6e-45 0.0
-6e-45 -6e-45 -6e-45 -6e-45 -6e-45 -6e-45 6e-45 6e-45
-6e-45 -6e-45 -6e-45 -6e-45 -6e-45 -6e-45 -6e-45 0.0
-6e-45 0.0 0.0 -6e-45 6e-45 -6e-45 -6e-45 -6e-45
-6e-45 -6e-45 -6e-45 -6e-45 0.0 -6e-45 -6e-45 -6e-45
-6e-45 -6e-45 -6e-45 -6e-45 -6e-45 -6e-45 6e-45 -6e-45
-6e-45 -6e-45 -6e-45 -6e-45 -6e-45 -6e-45 -6e-45 -6e-45
-6e-45 -6e-45 -6e-45 -6e-45 -6e-45 0.0 0.0 0.0
-6e-45 0.0 -6e-45 -6e-45 -6e-45 -6e-45 -6e-45 -6e-45
-6e-45 -6e-45 -6e-45 0.0 -6e-45 -6e-45 -6e-45 -6e-45
-6e-45 0.0 -6e-45 -6e-45 -6e-45 -6e-45 -6e-45 -6e-45
-6e-45 -6e-45 -6e-45 6e-45 6e-45 -6e-45 0.0 -6e-45
-6e-45 -6e-45 -6e-45 -6e-45 -6e-45 0.0 -6e-45 -6e-45
-6e-45 -6e-45 -6e-45 -6e-45 -6e-45 -6e-45 -6e-45 -6e-45

exp_avg_sq f4 [26, 256]
00000000: 5588 bf27 cc52 8d26 0000 0000 8397 ca26
00000010: 5cb6 8927 63b0 3927 6374 3827 8258 fe28
00000020: 613d 9628 9903 b827 9aeb c521 6458 c620
00000030: 0d7c ee28 4ef5 bd29 0353 b928 3872 2f22
00000040: 3285 2a28 7b19 6925 4c7e d027 127a c325
00000050: 32ed e728 47c7 a528 7ec1 2429 2f1a fd27
00000060: b248 0f29 9d5f 3c28 e848 2529 fb82 4829
00000070: d8ed d328 0000 0000 e031 0625 646c c81a
00000080: 0000 0000 2003 5926 a7da 9a27 f759 4a28
00000090: 44d1 4a21 9441 4428 b530 bc28 f45d 0b28
000000a0: b36a 5928 4e35 f228 9d8d 2e26 83ac c728
000000b0: b3ed a029 f45b 9620 6cd8 9727 a719 d825
000000c0: 5f8f 0d28 f52a 4c26 6f60 2628 149f 591f
000000d0: 5039 7329 e653 1523 c19a 3228 0000 0000
000000e0: 68c5 6b18 44f0 b828 0000 0000 5203 5629
000000f0: 1c0f 1927 9f20 0527 0000 0000 7c36 b128
00000100: 78a2 1d29 f195 3c28 0000 0000 549d c11a
00000110: 0000 0000 e05d d524 d869 1220 0ce9 0d28
00000120: 9e4c ed28 fbfd 3b28 f46e a320 9cce 1429
00000130: ffed 1b29 9f82 0b26 77c9 bc20 261d 2629
00000140: a9f3 7c27 70bf a626 0000 0000 0000 0000
00000150: 2bfd 0c28 3aa5 0628 fc7d 6428 47e2 e526
00000160: 47ef ad25 bfbe ff1a 6cdf 2828 4773 c225
00000170: e757 e728 64d6 e326 0e4f 2028 123c dd28
00000180: 03f9 8122 4676 f120 9251 cd24 5b50 0b28
00000190: 0000 0000 53f6 c528 d6df 5b28 59ed b028
000001a0: 67c8 9e27 3dd3 2929 d3b6 6620 0000 0000
000001b0: 6a4a 8d28 cfda c524 04bf 5b28 201b 1528
000001c0: c4d2 bc28 c0c4 0f1b 2e27 2c28 f294 9a28
000001d0: c13e 1021 0000 0000 2605 4a28 0ca8 5420
000001e0: ef3c 1d29 70ef ec28 0000 0000 8896 1221
000001f0: 2b23 2826 96b0 6627 0000 0000 c179 bd28
00000200: d395 161a 624c a120 d83a 3c26 aca4 d627
00000210: 9538 8227 663e 2529 0000 0000 f025 af28
00000220: c7df c618 8d40 131f bf22 ea27 01d4 d326
00000230: b440 ea26 e476 8828 0000 0000 7284 1c25
00000240: 0000 0000 cc6e 5228 d094 841c 0000 0000
00000250: abdd 9328 eb9b cd26 e9de a927 0000 0000
00000260: 2722 a01f afa1 f928 3e9a 1f27 50da b329
00000270: e7cb b928 bcfa 3723 ab31 6423 77b1 c420
00000280: 801f 4128 68f5 8f28 3d6a 1329 7a42 e31f
00000290: a0f5 bd26 57bd c220 4470 c226 0000 0000
000002a0: 1e8c 5726 0000 0000 0000 0000 b53a 6a1f
000002b0: 98b0 901f 34e3 0027 92d0 7828 2efb 5b26
000002c0: 1d92 2a27 673c f726 5847 5429 4ba5 d526
000002d0: 0000 0000 7b00 aa26 0365 bd28 f818 e01d
000002e0: 1f21 d812 3b7b 1c26 0025 5727 cdaf ae27
000002f0: 5abc 3926 3292 7126 e85e ee1c 4034 e927
00000300: 14e7 fa28 e8bc 0525 75c4 8426 6aca 5c29
00000310: 3190 4028 6969 8a27 78d5 0028 0208 5a28
00000320: ef70 9026 0f1c d522 b16f 4d28 1e85 8026
00000330: f6e9 8727 0000 0000 0000 0000 0000 0000
00000340: 5749 8b28 0000 0000 e609 1621 5147 7928
00000350: 3b4f b826 b13b 951f 7b8b 8529 9848 9926
00000360: 2624 c528 36ea 9b27 f523 5129 0000 0000
00000370: 54cd d61f 43e3 ea28 c79e c028 2545 c427
00000380: c3d4 a226 0000 0000 c0fe 7a28 ec5b 511e
00000390: 7e0d ca27 9e42 5e27 19b5 4e27 e159 1d20
000003a0: c744 6a27 dc05 361f b53c a027 a142 ee24
000003b0: 5a89 2e20 0563 2b27 0000 0000 1666 8d27
000003c0: 2714 4126 7e8a 6a29 af50 5127 238b 8527
000003d0: 2d5e 861f 0000 0000 8725 3828 4ed5 df26
000003e0: 9b81 9427 f314 2928 9cf1 9226 139c d320
000003f0: c45c 1829 cb67 1d27 1dc1 112a 8131 3e28
5.316096e-15 9.806283e-16 0.0 1.4057633e-15 3.8222853e-15 2.5769527e-15 2.5598223e-15 2.8238049e-14
1.6679964e-14 5.107416e-15 1.3411602e-18 3.3600997e-19 2.6477106e-14 8.4358396e-14 2.0575127e-14 2.377739e-18
9.465778e-15 2.0218162e-16 5.786853e-15 3.3909826e-16 2.5749019e-14 1.8405103e-14 3.6583143e-14 7.0249995e-15
3.181543e-14 1.0456829e-14 3.6700596e-14 4.452253e-14 2.3528854e-14 0.0 1.1639546e-16 8.2893176e-23
0.0 7.5291234e-16 4.298065e-15 1.12327606e-14 6.8717223e-19 1.0894406e-14 2.0893316e-14 7.736423e-15
1.20690565e-14 2.6890514e-14 6.05603e-16 2.2168253e-14 7.1466616e-14 2.5471838e-19 4.2145564e-15 3.748741e-16
7.858161e-15 7.0834935e-16 9.235762e-15 4.6083124e-20 5.400655e-14 8.095072e-18 9.914542e-15 0.0
3.0472703e-24 2.0532302e-14 0.0 4.7520425e-14 2.1241206e-15 1.8475142e-15 0.0 1.9674576e-14
3.5001922e-14 1.046861e-14 0.0 8.0077106e-23 0.0 9.2533056e-17 1.2401702e-19 7.877606e-15
2.6345513e-14 1.04356585e-14 2.7686697e-19 3.3041807e-14 3.4623342e-14 4.8402337e-16 3.1981757e-19 3.6884687e-14
3.5104114e-15 1.1570453e-15 0.0 0.0 7.826458e-15 7.474322e-15 1.2683861e-14 1.59514e-15
3.0172857e-16 1.05773695e-22 9.37432e-15 3.373175e-16 2.5684273e-14 1.58094e-15 8.8989264e-15 2.456198e-14
3.522917e-18 4.0905255e-19 8.9042764e-17 7.733474e-15 0.0 2.197822e-14 1.2205479e-14 1.9642858e-14
4.4071086e-15 3.7708758e-14 1.9542249e-19 0.0 1.5686417e-14 8.580581e-17 1.2198362e-14 8.277043e-15
2.0963598e-14 1.1892256e-22 9.556414e-15 1.716203e-14 4.887215e-19 0.0 1.1214369e-14 1.80127e-19
3.4913854e-14 2.6305103e-14 0.0 4.966595e-19 5.833437e-16 3.201464e-15 0.0 2.1036018e-14
3.11403e-23 2.7325007e-19 6.530535e-16 5.957547e-15 3.6143595e-15 3.6691482e-14 0.0 1.9445356e-14
5.1407758e-24 3.1181856e-20 6.498572e-15 1.469853e-15 1.625455e-15 1.5150594e-14 0.0 1.3575717e-16
0.0 1.1681367e-14 8.773494e-22 0.0 1.6416412e-14 1.4266994e-15 4.7148602e-15 0.0
6.7819136e-20 2.7714672e-14 2.2149297e-15 7.987068e-14 2.0627555e-14 9.973545e-18 1.2370422e-17 3.3321128e-19
1.0720483e-14 1.5982617e-14 3.2732704e-14 9.6248216e-20 1.3181086e-15 3.2990173e-19 1.3491884e-15 0.0
7.4783004e-16 0.0 0.0 4.959999e-20 6.127852e-20 1.7886735e-15 1.3811992e-14 7.63213e-16
2.3671447e-15 1.715544e-15 4.7135337e-14 1.4824647e-15 0.0 1.179625e-15 2.1027022e-14 5.9318123e-21
1.3639681e-27 5.429038e-16 2.9857302e-15 4.8485305e-15 6.444003e-16 8.3811803e-16 1.5774052e-21 6.472714e-15
2.785579e-14 1.1599915e-16 9.21259e-16 4.902538e-14 1.06894076e-14 3.841698e-15 7.151716e-15 1.2103167e-14
1.0022618e-15 5.7763474e-18 1.1404005e-14 8.917866e-16 3.772369e-15 0.0 0.0 0.0
1.5463906e-14 0.0 5.0835077e-19 1.3837741e-14 1.278904e-15 6.3202706e-20 5.9305825e-14 1.0636184e-15
2.188707e-14 4.3275074e-15 4.643851e-14 0.0 9.097221e-20 2.6077778e-14 2.138514e-14 5.4475895e-15
1.1298677e-15 0.0 1.3933028e-14 1.1083377e-20 5.608089e-15 3.0844802e-15 2.8686416e-15 1.3328156e-19
3.2511308e-15 3.8544846e-20 4.447474e-15 1.0332892e-16 1.4783819e-19 2.3784696e-15 0.0 3.9246043e-15
6.698764e-16 5.207856e-14 2.9048315e-15 3.706577e-15 5.690701e-20 0.0 1.0222189e-14 1.553155e-15
4.121877e-15 9.385927e-15 1.0196273e-15 3.5848072e-19 3.383124e-14 2.1844393e-15 1.2945587e-13 1.0557853e-14

exp_avg f4 [26]
00000000: 0400 0080 f024 d2b8 0400 0080 4226 44ba
00000010: a02a 6eb9 fc07 bd05 0400 0080 78af 41ba
00000020: 0400 0080 0400 0080 0400 0080 0400 0000
00000030: 1d83 30b9 db1a 19ba 9f16 2fb8 0400 0000
00000040: 0400 0080 0400 0000 5558 02ba b0ef 16b9
00000050: 0400 0000 3b80 0538 0adb b7b9 331b e839
00000060: 95d8 c439 78b2 c0b5
-6e-45 -0.000100204605 -6e-45 -0.00074825075 -0.00022713328 1.7776408e-35 -6e-45 -0.00073885126
-6e-45 -6e-45 -6e-45 6e-45 -0.00016833511 -0.00058404886 -4.174432e-05 6e-45
-6e-45 6e-45 -0.0004972269 -0.00014394405 6e-45 3.1829095e-05 -0.00035067677 0.00044270753
0.000375454 -1.4357056e-06

exp_avg_sq f4 [26]
00000000: bd65 a82a dd3e 1d38 c3f0 242e b10f 9e38
00000010: e6ef e535 9109 3d38 b246 642a 048b dc36
00000020: 27d7 582b 7375 d12a fa08 122c 136d d72c
00000030: b481 7535 6ff8 1c36 f936 d338 b05c 292e
00000040: 52f8 992c 7820 852c 75b4 1c36 6898 6236
00000050: edc7 b42c cede 2635 fda7 3036 3fa5 0837
00000060: b587 ee35 756c 3c38
2.991339e-13 3.7490263e-05 3.7503122e-11 7.53695e-05 1.7131649e-06 4.507002e-05 2.0274995e-13 6.5726945e-06
7.70372e-13 3.7207355e-13 2.075283e-12 6.122777e-12 9.1458355e-07 2.3390419e-06 0.000100715035 3.8508474e-11
4.3760906e-12 3.783692e-12 2.3350851e-06 3.3765336e-06 5.138104e-12 6.216404e-07 2.6323826e-06 8.144706e-06
1.7771878e-06 4.49237e-05

exp_avg f4 [256, 64]
00000000: c572 6fb8 fd82 8db6 d3b6 9cb8 eaa4 86b8
00000010: 51b1 30b7 356e ccb8 cf71 3db8 279d 3bb8
00000020: 8f41 22b8 1f5c 59b8 3bb3 8eb8 5c32 f3b7
00000030: 5112 99b7 092e cdb8 9f55 45b8 df21 0cb7
00000040: ad04 0e37 f4e3 bbb8 5a2e 38b8 f092 16b8
00000050: 277d 99b8 e5f8 a5b8 3cab a4b8 1b56 4eb7
00000060: b575 81b7 5e97 aeb7 9d07 a2b6 a8ec c8b8
00000070: 895e 28b8 9bea 8db8 1db5 0db8 9308 8eb8
00000080: cbd9 4cb8 98db 22b8 b1ec abb8 51da b036
00000090: adbd dfb6 f275 97b4 853f 6cb8 b3bc 8fb7
000000a0: c7dd 59b7 ec3f 05b7 efbe 9636 de78 0137
000000b0: 5ab0 6ab7 d471 8ab6 4ba3 ddb7 5182 7db8
000000c0: 0e3e 56b8 39e7 df36 5939 45b7 bf36 71b8
000000d0: f79f 41b8 f065 3db6 2a02 4437 c278 36b8
000000e0: ab44 32b7 35a7 5d35 a5b4 67b7 6c18 8ab8
000000f0: 2289 46b6 fd93 8db8 c8a2 00b7 9030 8cb8
00000100: b26c 61b7 ba40 a2b6 0069 c5b7 6db2 92b5
00000110: 8f99 49b6 2d3d e3b7 c938 bfb7 6488 a1b7
00000120: fb6c 4536 57d0 9e37 3954 c0b7 7751 22b7
00000130: ca78 0db7 679b 15b8 a668 c9b7 40ef 4d36
00000140: f490 1237 72f7 20b7 852e 30b8 a768 a1b7
00000150: af68 d8b6 f354 80b7 ac7e 1eb8 d662 4036
00000160: cab1 8cb5 c26b 17b7 0737 3a37 2ad7 e8b7
00000170: 3387 74b7 fa34 b8b7 ac0b 7ab6 0505 1ab8
00000180: 6632 69b7 3f20 eeb7 fd68 dfb7 81e7 ab36
00000190: 98aa 2bb7 9037 ab35 ce41 95b7 ff02 8434
000001a0: e333 1ab7 1593 d5b6 c80c a1b5 cf5c be37
000001b0: 3af4 6bb7 2570 5434 5ee7 afb7 6f34 bdb7
000001c0: 8b5d 9ab7 0d22 c735 9108 d3b6 ce9b 9db7
000001d0: 51b2 9bb7 5467 1536 5798 1fb5 6b2f 13b7
000001e0: 1dab 68b6 0b85 a936 efb9 07b7 cde3 7936
000001f0: ccff a1b5 568d d2b7 2ca6 1436 5fe5 81b6
00000200: 4100 0000 0400 0080 6b12 0303 0400 0000
00000210: 0300 0080 5662 0000 0400 0080 0300 0000
00000220: 0400 0000 0400 0000 f226 3100 0f00 0000
00000230: 0400 0080 7412 0387 1905 0000 0300 0000
00000240: 0400 0080 0400 0000 9c9b c403 0400 0080
00000250: c249 0c80 d8a3 0000 3e60 6502 5400 0000
00000260: 0000 0080 0400 0000 0400 0080 0400 0080
00000270: 0400 0080 7412 830d 763d 0a00 0400 0080
00000280: 9c9b c401 9c9b 4403 05d7 2304 0400 0000
00000290: 0400 0080 0400 0000 6b12 830b a59b 448d
000002a0: 9041 0000 0500 0000 0400 0000 0100 0000
000002b0: 6210 0000 0100 0000 1905 0000 500c 0280
000002c0: 0400 0080 0100 0000 0500 0000 9cc4 2080
000002d0: 8741 0080 0000 0000 0500 0080 2131 0880
000002e0: 0400 0080 0400 0080 0000 0000 7412 838b
000002f0: 0200 0000 3e60 6586 9c9b c48d 9c9b c409
00000300: 6f6c 8e37 ab20 6536 e209 2438 a908 9137
00000310: 9608 9fb5 c616 ee37 92de a237 f91d da36
00000320: 8066 8a37 07ce b637 afc2 2838 a30b 2837
00000330: 675e 1137 3a22 1f38 aaa2 6537 7065 bd36
00000340: 3476 ee35 1931 f237 a813 da37 5cd4 cd37
00000350: 868f d337 cb84 dc37 6601 1338 9347 2037
00000360: f187 e036 4ae5 fa36 8760 9137 ac05 ce37
00000370: 801b 8937 f2d0 4e38 6a13 e037 26c3 a637
00000380: 2c91 0638 cb3b 0838 ebc2 2638 5a13 2236
00000390: 7f7c c536 7bf6 6435 f8a6 4638 3692 e037
000003a0: 382d 3d37 1ce2 9337 3458 4f37 d629 a134
000003b0: 344a 4e37 cdaa de35 abef f037 4c2d 1738
000003c0: 68de 9d37 38f0 28b6 f215 a536 67b0 d137
000003d0: 7b6f ad37 80c3 1437 1163 1a37 fcd7 8d37
000003e0: 8077 a637 ea40 9a37 d91b 0a37 16f6 0438
000003f0: df6e a135 9c72 b837 1595 a237 ea9a 1f38
-5.7088928e-05 -4.2173765e-06 -7.472713e-05 -6.4203356e-05 -1.0531702e-05 -9.748006e-05 -4.5167104e-05 -4.4730634e-05
-3.8684866e-05 -5.1822626e-05 -6.804472e-05 -2.8991308e-05 -1.824755e-05 -9.7837365e-05 -4.70482e-05 -8.3525365e-06
8.464948e-06 -8.9593144e-05 -4.3912187e-05 -3.5899633e-05 -7.31892e-05 -7.914173e-05 -7.852024e-05 -1.2298605e-05
-1.543281e-05 -2.0812902e-05 -4.8288625e-06 -9.580824e-05 -4.0142364e-05 -6.7671026e-05 -3.3785695e-05 -6.772685e-05
-4.8840226e-05 -3.8828322e-05 -8.1980026e-05 5.270624e-06 -6.667999e-06 -2.8211758e-07 -5.6325942e-05 -1.7134798e-05
-1.29858445e-05 -7.942301e-06 4.492576e-06 7.717141e-06 -1.3988547e-05 -4.125972e-06 -2.6421292e-05 -6.0441267e-05
-5.107937e-05 6.6728358e-06 -1.1755467e-05 -5.7509864e-05 -4.6163765e-05 -2.822253e-06 1.1683014e-05 -4.3504646e-05
-1.0625615e-05 8.2572234e-07 -1.38107325e-05 -6.584902e-05 -2.958412e-06 -6.750969e-05 -7.667295e-06 -6.684766e-05
-1.3436353e-05 -4.8355114e-06 -2.3533124e-05 -1.0929776e-06 -3.0040717e-06 -2.7088996e-05 -2.2795417e-05 -1.9256207e-05
2.9418723e-06 1.8932084e-05 -2.2927403e-05 -9.67492e-06 -8.432378e-06 -3.5669098e-05 -2.4009798e-05 3.0686642e-06
8.736028e-06 -9.594356e-06 -4.2004995e-05 -1.9241428e-05 -6.4494884e-06 -1.5298347e-05 -3.7788108e-05 2.866776e-06
-1.0482556e-06 -9.025391e-06 1.1099276e-05 -2.7756749e-05 -1.4575012e-05 -2.1959178e-05 -3.7259697e-06 -3.6721136e-05
-1.38996165e-05 -2.8386827e-05 -2.663256e-05 5.1231477e-06 -1.0232114e-05 1.2756664e-06 -1.7792827e-05 2.4589096e-07
-9.191196e-06 -6.3650173e-06 -1.1999155e-06 2.2692982e-05 -1.4063955e-05 1.9784837e-07 -2.0969364e-05 -2.2554972e-05
-1.840179e-05 1.4836565e-06 -6.2892873e-06 -1.878841e-05 -1.8560475e-05 2.2262875e-06 -5.94538e-07 -8.772923e-06
-3.4670295e-06 5.0520807e-06 -8.089918e-06 3.723649e-06 -1.2069881e-06 -2.5099765e-05 2.2150443e-06 -3.871202e-06
9.1e-44 -6e-45 3.8518583e-37 6e-45 -4e-45 3.5276e-41 -6e-45 4e-45
6e-45 6e-45 4.51391e-39 2.1e-44 -6e-45 -9.860768e-35 1.829e-42 4e-45
-6e-45 6e-45 1.1555571e-36 -6e-45 -1.128485e-39 5.8776e-41 1.6851883e-37 1.18e-43
-0.0 6e-45 -6e-45 -6e-45 -6e-45 8.077941e-31 9.40403e-40 -6e-45
7.222232e-38 5.7777854e-37 1.925929e-36 6e-45 -6e-45 6e-45 5.0487077e-32 -6.0584513e-31
2.352e-41 7e-45 6e-45 1e-45 5.877e-42 1e-45 1.829e-42 -1.88088e-40
-6e-45 1e-45 7e-45 -3.009266e-39 -2.3507e-41 0.0 -7e-45 -7.52308e-40
-6e-45 -6e-45 0.0 -5.048713e-32 3e-45 -4.314082e-35 -1.2116894e-30 4.7331618e-33
1.6978212e-05 3.4142674e-06 3.910985e-05 1.728938e-05 -1.1848922e-06 2.8382416e-05 1.9415547e-05 6.5003956e-06
1.6498612e-05 2.179203e-05 4.0235635e-05 1.001629e-05 8.664653e-06 3.794043e-05 1.3687337e-05 5.644448e-06
1.7766783e-06 2.8871511e-05 2.5996778e-05 2.4536792e-05 2.5219993e-05 2.628788e-05 3.5048834e-05 9.553408e-06
6.691546e-06 7.4772734e-06 1.7330296e-05 2.4559755e-05 1.6344478e-05 4.9308823e-05 2.6711921e-05 1.9879615e-05
3.208329e-05 3.2480613e-05 3.9759016e-05 2.4151145e-06 5.8855508e-06 8.5295295e-07 4.736238e-05 2.6770966e-05
1.1275806e-05 1.7629056e-05 1.2358698e-05 3.0019027e-07 1.2295834e-05 1.6589998e-06 2.8721834e-05 3.604339e-05
1.8819424e-05 -2.5173777e-06 4.919938e-06 2.4996885e-05 2.067512e-05 8.867006e-06 9.202181e-06 1.6909085e-05
1.9844389e-05 1.8388459e-05 8.231925e-06 3.1700438e-05 1.2027702e-06 2.1987878e-05 1.9381327e-05 3.805283e-05

exp_avg_sq f4 [256, 64]
00000000: 4f21 6b33 c74b 3131 be83 1f34 a0d5 a034
00000010: 5ea0 b92f b787 1c34 c8e5 9f33 9323 3133
00000020: 45b9 3733 f4a3 2234 3956 3934 8a81 a832
00000030: 29cf 0033 4739 8134 036c d733 cd18 1733
00000040: 8e11 a933 f49f 1734 af19 a633 0175 d733
00000050: d521 3f34 d6f2 8233 8bec 2f34 66a6 1734
00000060: b76a 8232 bc88 ab31 6396 4933 40b7 2634
00000070: 0da2 f032 0233 3e34 498d ee33 8cf5 b333
00000080: cee1 a633 7f4b e133 8e1c 0534 6886 8f32
00000090: b7ed 3233 9e25 0032 2be4 0034 772d 0b33
000000a0: 9bb7 7833 a866 ef31 33ab 8c32 b6fd 9832
000000b0: e7df 3533 e78b 7f30 366b 8033 ef4c 1634
000000c0: 9d6f 0d34 9134 9332 2994 7b33 2a5b de33
000000d0: c824 b933 837f b732 d20d 7832 0732 0f33
000000e0: d094 fc33 71ca 0a33 628a c332 d03e 9d33
000000f0: a22c 802e 5176 f232 ba55 e932 e3d4 cf33
00000100: 3db1 8e33 67df 5030 e6c4 2f34 26ba 1735
00000110: 8e4c 332f e887 0434 a06a 3333 f6ec 1433
00000120: d2a9 9333 69da ae34 0714 1d34 8949 2c33
00000130: 7161 4832 d85e 5334 bf74 be33 4eaf 2433
00000140: e456 5c34 cc40 4734 08fe 0334 a91c 3534
00000150: 49e4 0e34 a268 d433 a3df 1a34 2557 c434
00000160: f815 de32 8c2a 8431 cdff 3633 b168 4434
00000170: ee62 a832 e064 3f34 7119 2134 6138 9733
00000180: d666 8833 ea90 8134 a61d 1934 be06 fc32
00000190: adf5 ef32 f343 9c32 0dda d233 285d 3333
000001a0: 131d 5c33 e56e ca31 a977 1f32 47da 5f33
000001b0: 4ee8 1833 2165 0930 f7dc 1e33 64b0 4434
000001c0: f3e2 2e34 a238 0232 c6c4 5e33 9f3f c133
000001d0: 84b1 0134 1ffb 3532 246d 3d31 88ca 5d33
000001e0: e30c 0734 daa7 3733 dac0 1633 1ba4 1734
000001f0: 706b 572d 8775 f032 1f0c 4f33 ed34 3e34
00000200: a07b 3e2a 6915 a129 1510 f12a 75e9 ed29
00000210: 7de2 f927 8e54 b52a 81ff f929 2209 002a
00000220: 540d 5b29 0b91 962a 54de d42a 6ab7 2e2a
00000230: b897 152a 3ebd 282b 2ff1 682a 625d ae29
00000240: 2931 642a 777e b02a 8640 f22a 657a 072b
00000250: 2b08 c32a 33c9 802a 9061 ea2a c42e b62a
00000260: 4a53 2a2a 682e a627 0734 d929 6fe2 a52a
00000270: f42d ba29 a347 9b2b 7d8a 9f2a 7b99 6e2a
00000280: 58e5 c02a 077d ec2a 5e88 032b 1a56 7228
00000290: 8941 042a c9af c729 be21 852b e1a4 a12b
000002a0: 568c 8d2a 902f 2f2a 020c 5528 d45e 1029
000002b0: 9130 8d2a 4ba4 b228 332f 6f2a 7e7d 932a
000002c0: ce51 a52a 8b54 2728 0e1b 0b2a 1834 d72a
000002d0: afb0 732a 4452 6328 6eee 202a ddf1 932a
000002e0: 88b3 b12a 399b ae2a b8f8 0c29 e453 952b
000002f0: a1e9 3f26 cec5 312b d333 d42b 529f 5b2b
00000300: 69d7 ab33 5731 2c30 a7d1 1d34 c946 2434
00000310: 0c74 052f a3e7 5034 b151 a933 c333 bd32
00000320: f602 5632 a686 8c33 81c4 c333 0a32 e731
00000330: eae8 4633 9a9c 5834 332d 3a34 45ca 1f33
00000340: ddd9 0531 dca8 bf33 6791 a733 ed9a 2233
00000350: d66b bb33 4e35 2433 610a 9634 7a93 9532
00000360: 96d4 0033 a955 a932 474d 9b33 99f0 9933
00000370: eb8b ad33 b4ae 4934 3856 c233 83d1 9833
00000380: 168d 5c33 39aa 1833 1602 b833 972f a632
00000390: 6e18 c132 f888 202f 310d 0934 a0fa d632
000003a0: a6c2 0f33 8abe 8231 93a5 7b32 f507 9f2f
000003b0: 4ed1 3933 2d8f b831 1e6e 2b33 e3dc 1734
000003c0: 5b82 c133 6602 6332 d003 3b34 5f93 f833
000003d0: 0b4c 2333 75e0 5033 c74f 0133 2a4e 5233
000003e0: 5ac4 9233 8a91 2233 6459 c232 2a47 6632
000003f0: 4b36 202d 43fa 3e32 7b8f 5930 bf22 2633
5.4745495e-08 2.5799964e-09 1.4855956e-07 2.9957755e-07 3.3765252e-10 1.4578005e-07 7.4458114e-08 4.124338e-08
4.277651e-08 1.5147072e-07 1.7260835e-07 1.9616682e-08 2.9990733e-08 2.4069797e-07 1.0031365e-07 3.5179983e-08
7.872869e-08 1.4121161e-07 7.734649e-08 1.00330006e-07 1.7800569e-07 6.097768e-08 1.6384199e-07 1.4123506e-07
1.518252e-08 4.9923e-09 4.6935735e-08 1.552662e-07 2.801337e-08 1.7713685e-07 1.1108438e-07 8.380002e-08
7.771051e-08 1.04911116e-07 1.2396978e-07 1.6708512e-08 4.1660055e-08 7.459134e-09 1.2003936e-07 3.240481e-08
5.7908988e-08 6.967486e-09 1.6375997e-08 1.7810503e-08 4.2345984e-08 9.296727e-10 5.979966e-08 1.3997827e-07
1.3172253e-07 1.7136957e-08 5.8575242e-08 1.0354263e-07 8.621424e-08 2.136199e-08 1.4438642e-08 3.334028e-08
1.1761733e-07 3.2314748e-08 2.2763917e-08 7.322308e-08 5.8286945e-11 2.8226312e-08 2.7163754e-08 9.6779125e-08
6.64463e-08 7.5987433e-10 1.6369776e-07 5.6522765e-07 1.6307153e-10 1.23429e-07 4.177366e-08 3.467445e-08
6.876111e-08 3.256894e-07 1.462905e-07 4.011375e-08 1.1663688e-08 1.968541e-07 8.8688004e-08 3.8343664e-08
2.0520707e-07 1.8556892e-07 1.2292742e-07 1.6867365e-07 1.330783e-07 9.891052e-08 1.4423726e-07 3.657125e-07
2.5854192e-08 3.8465426e-09 4.2607827e-08 1.8292009e-07 1.9602762e-08 1.7824959e-07 1.5003549e-07 7.041741e-08
6.351699e-08 2.413356e-07 1.4260021e-07 2.9339727e-08 2.7934982e-08 1.819169e-08 9.81855e-08 4.176141e-08
5.1249184e-08 5.891581e-09 9.282226e-09 5.2119756e-08 3.5601538e-08 4.998402e-10 3.6988208e-08 1.8318093e-07
1.6287576e-07 7.579873e-09 5.1867367e-08 8.9988355e-08 1.2078641e-07 1.0592685e-08 2.756516e-09 5.1639773e-08
1.2577543e-07 4.2760668e-08 3.5099994e-08 1.4122672e-07 1.2245191e-11 2.7993122e-08 4.8206967e-08 1.7714383e-07
1.6918281e-13 7.1535503e-14 4.282136e-13 1.05654126e-13 6.9356942e-15 3.221073e-13 1.1102144e-13 1.1371852e-13
4.863933e-14 2.6745996e-13 3.7813036e-13 1.5517939e-13 1.3286496e-13 5.9948216e-13 2.0689417e-13 7.7433516e-14
2.0267524e-13 3.1351633e-13 4.3032608e-13 4.813149e-13 3.4644626e-13 2.2876978e-13 4.1634448e-13 3.2362145e-13
1.512793e-13 4.612457e-15 9.645761e-14 2.9467008e-13 8.268031e-14 1.1033296e-12 2.834017e-13 2.1191896e-13
3.426519e-13 4.2008777e-13 4.6729797e-13 1.3452369e-14 1.1746692e-13 8.867869e-14 9.459584e-13 1.1485501e-12
2.514401e-13 1.5559624e-13 1.1826479e-14 3.2056673e-14 2.508033e-13 1.983322e-14 2.124384e-13 2.6199523e-13
2.936665e-13 9.288695e-15 1.2355067e-13 3.822782e-13 2.1644035e-13 1.261887e-14 1.4293577e-13 2.6280272e-13
3.156609e-13 3.1016316e-13 3.1301974e-14 1.0610371e-12 6.6583063e-16 6.315754e-13 1.507789e-12 7.802553e-13
8.001991e-08 6.264335e-10 1.4698035e-07 1.5299442e-07 1.2137508e-10 1.9455778e-07 7.884535e-08 2.2026034e-08
1.2457113e-08 6.5437504e-08 9.116139e-08 6.7286736e-09 4.63123e-08 2.0173539e-07 1.7339043e-07 3.7204035e-08
1.9477888e-09 8.924846e-08 7.802992e-08 3.785947e-08 8.727481e-08 3.8232706e-08 2.794723e-07 1.7412948e-08
2.9995668e-08 1.9713143e-08 7.2318066e-08 7.168382e-08 8.081391e-08 1.878314e-07 9.049512e-08 7.1161615e-08
5.135106e-08 3.5545074e-08 8.568547e-08 1.9346585e-08 2.2479266e-08 1.4600576e-10 1.2763918e-07 2.502685e-08
3.3471814e-08 3.8051597e-09 1.464777e-08 2.8927585e-10 4.326403e-08 5.371382e-09 3.991419e-08 1.4143329e-07
9.0109744e-08 1.3213684e-08 1.7417119e-07 1.15752066e-07 3.8020556e-08 4.8632916e-08 3.010771e-08 4.8965525e-08
6.834371e-08 3.785093e-08 2.2625223e-08 1.3403943e-08 9.1070025e-12 1.11163585e-08 7.914804e-10 3.868149e-08

exp_avg f4 [64, 44]
00000000: 2cea e437 acbc 0a38 1a45 89b8 c41b 0237
00000010: ba9c 32b6 5cb7 ce37 fd61 f437 c41b 0237
00000020: 240a 32b8 4305 8d37 1679 e437 c41b 0237
00000030: 06db 2938 9000 4bb6 30c8 05b8 c41b 0237
00000040: 1a7e 9637 098f 9b37 69c7 f1b6 c41b 0237
00000050: 0000 0000 0000 0000 0000 0000 0000 0000
00000060: 0000 0000 0000 0000 0000 0000 0000 0000
00000070: 0000 0000 0000 0000 0000 0000 0000 0000
00000080: 0000 0000 0000 0000 0000 0000 0000 0000
00000090: 0000 0000 0000 0000 0000 0000 0000 0000
000000a0: 9a32 8c38 dd57 2c38 931f 56b7 b5a2 a2b8
000000b0: 2316 ce36 3d8d 7fb7 8326 1cb7 643e cab4
000000c0: f966 25b5 7cf9 df36 148b 2537 643e cab4
000000d0: d6fe 10b7 b4a1 b935 f201 10b7 643e cab4
000000e0: a473 4537 391b 88b7 9065 7eb7 643e cab4
000000f0: be7a 2c37 e202 eab6 01dc 1db7 643e cab4
00000100: 0000 0000 0000 0000 0000 0000 0000 0000
00000110: 0000 0000 0000 0000 0000 0000 0000 0000
00000120: 0000 0000 0000 0000 0000 0000 0000 0000
00000130: 0000 0000 0000 0000 0000 0000 0000 0000
00000140: 0000 0000 0000 0000 0000 0000 0000 0000
00000150: 63c6 1fb6 a23a 6035 9537 80b6 ffcd 7c36
00000160: dfd6 abb5 9ce8 b438 9614 a537 c737 b137
00000170: 42f0 7538 165e cc37 62bc cc37 c737 b137
00000180: eeb8 a037 ddf7 5838 c1cc 9f38 c737 b137
00000190: 9076 2738 ff89 4b37 3a2c 8137 c737 b137
000001a0: 2f84 15b8 455f 7037 341b 8438 c737 b137
000001b0: 0000 0000 0000 0000 0000 0000 0000 0000
000001c0: 0000 0000 0000 0000 0000 0000 0000 0000
000001d0: 0000 0000 0000 0000 0000 0000 0000 0000
000001e0: 0000 0000 0000 0000 0000 0000 0000 0000
000001f0: 0000 0000 0000 0000 0000 0000 0000 0000
00000200: 302f 5f37 4c67 a037 6b59 ddb7 b385 5db9
00000210: 3236 a5b5 2095 f6b8 b28a 47b7 fadf b6b8
00000220: 9d0c b5b8 7a8f 27b9 f0d0 6db8 fadf b6b8
00000230: 5d55 51b8 80f7 5db8 7bee 4bb9 fadf b6b8
00000240: 7fc0 c0b8 f0a4 9eb8 ec43 ba37 fadf b6b8
00000250: f804 26b5 c29c eeb8 ce3f 02b9 fadf b6b8
00000260: 0000 0000 0000 0000 0000 0000 0000 0000
00000270: 0000 0000 0000 0000 0000 0000 0000 0000
00000280: 0000 0000 0000 0000 0000 0000 0000 0000
00000290: 0000 0000 0000 0000 0000 0000 0000 0000
000002a0: 0000 0000 0000 0000 0000 0000 0000 0000
000002b0: daf5 6cb8 0a47 3db8 250e d837 f697 643a
000002c0: bc8f 20b6 1157 9436 52e6 66b6 a71c 9135
000002d0: 01ae 70b5 9489 7c36 761d 2db6 a71c 9135
000002e0: bc1d 5ab6 e692 f235 68d5 3db5 a71c 9135
000002f0: c881 ceb5 72cb 2936 4b43 65b5 a71c 9135
00000300: 32ec ecb5 5e42 e534 00db a4b5 a71c 9135
00000310: 0000 0000 0000 0000 0000 0000 0000 0000
00000320: 0000 0000 0000 0000 0000 0000 0000 0000
00000330: 0000 0000 0000 0000 0000 0000 0000 0000
00000340: 0000 0000 0000 0000 0000 0000 0000 0000
00000350: 0000 0000 0000 0000 0000 0000 0000 0000
00000360: 9d53 9e36 e751 6036 6768 32b6 d063 35b7
00000370: d0c2 6a36 e2b9 ec37 5d3a 95b6 06d5 e436
00000380: f78d 8137 b83a 0038 50fd 9237 06d5 e436
00000390: 1340 80b7 471a b437 3de4 e736 06d5 e436
000003a0: 8599 0b38 8150 4d37 5cbe adb5 06d5 e436
000003b0: 3370 abb6 d1a5 4936 0827 1437 06d5 e436
000003c0: 0000 0000 0000 0000 0000 0000 0000 0000
000003d0: 0000 0000 0000 0000 0000 0000 0000 0000
000003e0: 0000 0000 0000 0000 0000 0000 0000 0000
000003f0: 0000 0000 0000 0000 0000 0000 0000 0000
2.7288763e-05 3.307748e-05 -6.54554e-05 7.7550685e-06 -2.6615294e-06 2.4642497e-05 2.9132696e-05 7.7550685e-06
-4.244795e-05 1.681096e-05 2.7236103e-05 7.7550685e-06 4.049672e-05 -3.0249685e-06 -3.189611e-05 7.7550685e-06
1.7940114e-05 1.8544046e-05 -7.205574e-06 7.7550685e-06 0.0 0.0 0.0 0.0
0.0 0.0 0.0 0.0 0.0 0.0 0.0 0.0
0.0 0.0 0.0 0.0 0.0 0.0 0.0 0.0
6.6851455e-05 4.1089825e-05 -1.2762745e-05 -7.7550685e-05 6.1418555e-06 -1.5232069e-05 -9.307291e-06 -3.7670827e-07
-6.1617135e-07 6.6749617e-06 9.867148e-06 -3.7670827e-07 -8.6424025e-06 1.3830636e-06 -8.583522e-06 -3.7670827e-07
1.176904e-05 -1.622514e-05 -1.5163227e-05 -3.7670827e-07 1.0280577e-05 -6.974079e-06 -9.409153e-06 -3.7670827e-07
0.0 0.0 0.0 0.0 0.0 0.0 0.0 0.0
0.0 0.0 0.0 0.0 0.0 0.0 0.0 0.0
0.0 0.0 0.0 0.0 -2.3808323e-06 8.3531825e-07 -3.821168e-06 3.7670832e-06
-1.2803029e-06 8.626396e-05 1.9679119e-05 2.1126018e-05 5.863631e-05 2.4362507e-05 2.4406418e-05 2.1126018e-05
1.9159601e-05 5.1729254e-05 7.619849e-05 2.1126018e-05 3.9926323e-05 1.2131873e-05 1.5398593e-05 2.1126018e-05
-3.5647474e-05 1.4327296e-05 6.2993175e-05 2.1126018e-05 0.0 0.0 0.0 0.0
0.0 0.0 0.0 0.0 0.0 0.0 0.0 0.0
0.0 0.0 0.0 0.0 0.0 0.0 0.0 0.0
1.33028225e-05 1.9121588e-05 -2.6386891e-05 -0.00021126009 -1.2309231e-06 -0.00011757971 -1.1893617e-05 -8.720155e-05
-8.633102e-05 -0.0001597981 -5.669979e-05 -8.720155e-05 -4.9908984e-05 -5.292101e-05 -0.0001944843 -8.720155e-05
-9.1911286e-05 -7.564749e-05 2.2204556e-05 -8.720155e-05 -6.184705e-07 -0.00011377923 -0.00012421535 -8.720155e-05
0.0 0.0 0.0 0.0 0.0 0.0 0.0 0.0
0.0 0.0 0.0 0.0 0.0 0.0 0.0 0.0
0.0 0.0 0.0 0.0 -5.649575e-05 -4.512727e-05 2.5755793e-05 0.0008720154
-2.3925522e-06 4.4208796e-06 -3.4406735e-06 1.0811681e-06 -8.9660176e-07 3.7631007e-06 -2.5796157e-06 1.0811681e-06
-3.250184e-06 1.8073158e-06 -7.0718534e-07 1.0811681e-06 -1.5385967e-06 2.5301383e-06 -8.540707e-07 1.0811681e-06
-1.7652112e-06 4.2702862e-07 -1.228269e-06 1.0811681e-06 0.0 0.0 0.0 0.0
0.0 0.0 0.0 0.0 0.0 0.0 0.0 0.0
0.0 0.0 0.0 0.0 0.0 0.0 0.0 0.0
4.718501e-06 3.3426275e-06 -2.6584837e-06 -1.081168e-05 3.4982113e-06 2.821995e-05 -4.4473404e-06 6.8197287e-06
1.5444106e-05 3.0572264e-05 1.7522514e-05 6.8197287e-06 -1.5288626e-05 2.1469908e-05 6.910907e-06 6.8197287e-06
3.328316e-05 1.2237696e-05 -1.2944906e-06 6.8197287e-06 -5.109259e-06 3.0047852e-06 8.830575e-06 6.8197287e-06
0.0 0.0 0.0 0.0 0.0 0.0 0.0 0.0
0.0 0.0 0.0 0.0 0.0 0.0 0.0 0.0
