saved_weights/linear/linear_filter_fc1_26_26_0.5/saved_weights_linear_0.1_epoch-1_top1-1.000.pth.tar (torch_old, 317148 bytes, 18 tensors)

exp_avg f4 [64]
00000000: 4696 5538 425e 87b6 1ad5 c237 cd82 afb8
00000010: 35c9 70b6 5ec9 88b6 42a8 83b7 764b 29b7
00000020: 47c2 3d37 a418 ccb7 ceaa 8138 92b2 7bb8
00000030: eb21 15b7 820e fe37 1ced bd37 85a4 d7b7
00000040: c26a b7b6 a591 9038 df60 b934 3d4b 1d38
00000050: 3641 a537 e1fc 9a35 1edf 5b38 0bcc 9cb8
00000060: 19c1 13b7 0213 0eb7 60e5 0c38 d180 0138
00000070: 9b86 6db5 d646 a037 3789 6e38 7a85 e036
00000080: 05c2 8b38 fdbe 76b8 2041 2738 261a 3936
00000090: 358f 9c37 a2d9 4ab7 0419 0538 b024 9d35
000000a0: c1af c036 8211 4e36 6822 4db6 b4aa 7436
000000b0: 5512 a937 7571 4736 1e16 c4b6 f17d 0838
000000c0: 34da 65b7 991e 5b35 7eea 8fb6 1faa 80b7
000000d0: c49b 1d38 be4b 6ab7 fcd4 a636 5d7d 8b36
000000e0: 7935 8236 279c 92b7 6d31 d0b7 297e f237
000000f0: 7317 c434 1e7c 1538 ff59 e0b7 eff7 4738
5.092311e-05 -4.0342866e-06 2.3225835e-05 -8.369014e-05 -3.5879905e-06 -4.076558e-06 -1.5694768e-05 -1.0090755e-05
1.1310512e-05 -2.433017e-05 6.183014e-05 -6.000937e-05 -8.888989e-06 3.0285915e-05 2.2640968e-05 -2.5706608e-05
-5.4662532e-06 6.8935835e-05 3.4529418e-07 3.7501788e-05 1.9699899e-05 1.1547492e-06 5.2421463e-05 -7.4766656e-05
-8.806842e-06 -8.468285e-06 3.3592223e-05 3.0875966e-05 -8.8485257e-07 1.9106472e-05 5.6871413e-05 6.691259e-06
6.6641755e-05 -5.8828842e-05 3.9876555e-05 2.7582369e-06 1.8663335e-05 -1.209081e-05 3.173297e-05 1.1708089e-06
5.7425063e-06 3.0706583e-06 -3.0567408e-06 3.6458196e-06 2.0154906e-05 2.9719351e-06 -5.84383e-06 3.254222e-05
-1.3700268e-05 8.1628383e-07 -4.2890306e-06 -1.5338008e-05 3.7576785e-05 -1.3965122e-05 4.97198e-06 4.157117e-06
3.880527e-06 -1.747727e-05 -2.4818548e-05 2.8907396e-05 3.6524906e-07 3.563996e-05 -2.6744789e-05 4.7676203e-05

exp_avg_sq f4 [64]
00000000: 817c 2234 cb5d 5131 3723 1a34 9a8f a535
00000010: 9fda e030 4b7c a633 c99e ce32 98d1 1632
00000020: ef81 0234 7a22 8b33 df9b 3335 dfa4 b533
00000030: aa1e f531 5ab2 a534 8dff 4a33 3175 3b34
00000040: 6ef6 4235 f995 3a35 ef22 1934 250c 9d33
00000050: 54ea ea33 e8fd e032 1560 d234 b132 8d34
00000060: 0b23 dc32 be46 8732 083c 1434 b9fb 8b34
00000070: ff62 4c32 a6ea a634 13e1 bc34 eac8 7f33
00000080: 42fb eb34 b457 c934 c496 1734 d697 8731
00000090: f2c4 b931 32ed a732 9e2a 0134 d357 db33
000000a0: 13aa 5532 5c03 0933 c07c a432 d83a da31
000000b0: d714 2433 2529 cd2f 5cf9 af32 f10b 8934
000000c0: fdbf 5a33 bb98 0431 9afb 2d32 83ca e633
000000d0: 14f5 3a34 761e ce31 91b7 7d31 0ade 6233
000000e0: 0f39 2e33 09de 2d34 9cb8 4a33 3632 9133
000000f0: 5c8f 3730 6ce1 c934 746e 0c35 38c9 7a34
1.513272e-07 3.0466818e-09 1.4355179e-07 1.2335252e-06 1.6360281e-09 7.752586e-08 2.4053763e-08 8.778805e-09
1.2154463e-07 6.478963e-08 6.690952e-07 8.458459e-08 7.1339246e-09 3.0863413e-07 4.7264212e-08 1.7458366e-07
7.2629234e-07 6.950864e-07 1.4261944e-07 7.313091e-08 1.0939098e-07 2.6192495e-08 3.9185457e-07 2.630018e-07
2.5627306e-08 1.5748238e-08 1.3805413e-07 2.607392e-07 1.1896872e-08 3.109064e-07 3.5181492e-07 5.9554544e-08
4.3954975e-07 3.750298e-07 1.4117819e-07 3.946279e-09 5.4065987e-09 1.9549223e-08 1.2029565e-07 1.0213957e-07
1.2436902e-08 3.1900854e-08 1.9148843e-08 6.351325e-09 3.820318e-08 3.7318518e-10 2.0486077e-08 2.5526927e-07
5.0931693e-08 1.9295345e-09 1.0127133e-08 1.0747046e-07 1.7411759e-07 5.998852e-09 3.692069e-09 5.282167e-08
4.0564426e-08 1.6192656e-07 4.719969e-08 6.761222e-08 6.677874e-10 3.7603184e-07 5.2314795e-07 2.3356267e-07

exp_avg f4 [256]
00000000: e789 7a38 2d1a afb7 0400 0000 45f3 fdb7
00000010: 3088 b138 9656 dfb5 a0c9 bcb7 2e4f ad37
00000020: 9d74 3238 d7df 24b7 3014 4537 42cb ec35
00000030: 4be7 1638 879e 8a36 5672 0138 b3d2 a3b7
00000040: bf1c 5337 65e0 ffb6 0400 0000 ab05 1538
00000050: eaf7 a237 ff99 a737 ff55 e536 dc7b 3738
00000060: 8081 1d38 ca76 a037 f44b f4b7 fa10 8eb8
00000070: 1744 0038 0400 0080 8bb4 19b8 631f c9b7
00000080: 0400 0080 3bab 86b6 d559 0b38 0400 0080
00000090: ef63 d337 b57e 74b7 8b8b b537 458b 4438
000000a0: c38b 6836 7acf 1538 c182 0ab8 6471 6838
000000b0: 02b0 9838 0400 0080 bfdf 8cb6 0400 0000
000000c0: cb70 5038 a6d0 2938 6e34 d435 0400 0000
000000d0: 805a 5437 f8c3 98b7 3f0b 0e38 48d2 2fb6
000000e0: 0400 0080 6218 42b7 0400 0000 0198 2238
000000f0: 4cda 2b38 0400 0000 0400 0000 b221 29b4
00000100: 3fa6 3837 a906 1737 0400 0080 3d95 c9b5
00000110: 0400 0080 c63e 0337 d742 61b8 dd25 ad38
00000120: 1a87 4738 e92b d5b7 1539 8936 509c b9b7
00000130: 953b 6538 1fc7 9fb6 4fdb dbb7 d8c3 fa37
00000140: 619f 2538 0400 0080 0400 0000 7112 94b7
00000150: 0400 0080 0400 0000 c181 5038 0400 0080
00000160: 54ab dbb6 0400 0000 5834 7f37 a370 c837
00000170: 2f2c ab36 8367 38b8 b5cd 0537 3099 4938
00000180: 9cb8 8a38 59d9 9037 e33d ca37 c697 1d36
00000190: f2e5 920b c5e5 9437 0400 0000 9651 b8b6
000001a0: bad9 9a37 d748 f437 0400 0080 3c4d 0a37
000001b0: 650b d337 4b7c 3a38 eb8b a4b5 2b24 fb37
000001c0: 18ed 8a38 2c11 19b6 6bc8 4d38 cd88 e033
000001d0: 3838 71b7 2e13 8038 4502 0f38 c0b2 9b37
000001e0: f638 0338 a428 b537 0400 0000 0400 0080
000001f0: 0400 0000 198e 3d38 3057 42b6 b353 be35
00000200: 2ab8 1e35 a6f1 8538 450c fd37 41ae aa37
00000210: 0400 0000 ac47 6b38 0400 0000 2ea9 ce37
00000220: e123 fb35 0b16 2db6 4dc0 0938 a47f cbb6
00000230: 3b81 c937 1ea7 ac37 0400 0000 0400 0000
00000240: 9eb4 ef36 d7e6 2f37 ddca 0637 6f02 9537
00000250: 9a57 f037 0400 0000 bea3 2e38 0000 0000
00000260: 7518 e7b5 042e 3b35 7cdb 7e38 f229 d537
00000270: 08d3 13b7 40d7 0eb7 0400 0080 5576 db36
00000280: 3b02 f536 5711 6338 625d 63b7 08aa bdb6
00000290: 8f9e 0fb8 d93b 8438 4363 5db7 af7c 34b4
000002a0: fb2e a836 0400 0080 0400 0000 8264 6335
000002b0: d1f8 1538 ba05 d537 671e d4b7 a8d3 0138
000002c0: e68d 46b7 e45f f338 7eb2 1638 4d51 ca37
000002d0: 0400 0000 640f 3938 0400 0000 84ff 3bb7
000002e0: 9a3a 51ac 0400 0000 791f 4138 8b52 eb37
000002f0: 9caa 4ab7 17bb bcb6 0400 0000 946c 42b5
00000300: b029 1938 0400 0000 a6d9 e037 232b 3538
00000310: 8e47 82b7 5d69 8037 0400 0000 0482 5538
00000320: cae7 aab7 1480 6538 650e 2ab6 5077 eb37
00000330: 4b81 4638 0400 0080 1fe5 9838 0400 0080
00000340: 086c 8638 0000 0000 2db1 8d38 0400 0080
00000350: 0400 0000 71b1 dd37 b22e 0e38 05a4 0bb8
00000360: 7f6f d537 74ac 1e38 f328 9237 0000 0000
00000370: 0400 0000 5fc8 1338 aaf1 ae37 95a5 4e38
00000380: 0400 0000 0000 0000 3f72 cf37 ec84 b437
00000390: 26f2 c837 46d5 d137 8a7d c937 0400 0000
000003a0: 66c1 c737 81ab 9638 03b2 0a38 0a2b 570c
000003b0: 1c12 0c38 5add 8f35 0400 0000 9f8f 50b8
000003c0: a2a6 0b38 6f6d ff37 0400 0080 1991 fbb7
000003d0: a604 0080 0400 0000 844b 4d37 67da 1038
000003e0: 0a87 38b5 a373 2538 abcb 81b7 eef1 c637
000003f0: 565e 6e38 b59b e937 86a4 5737 cf54 07b4
5.9733076e-05 -2.0873815e-05 6e-45 -3.0273231e-05 8.4653846e-05 -1.6639995e-06 -2.2505235e-05 2.0660078e-05
4.254711e-05 -9.8272785e-06 1.1746815e-05 1.7642526e-06 3.5978195e-05 4.1311755e-06 3.086248e-05 -1.9529229e-05
1.2583273e-05 -7.625715e-06 6e-45 3.5529647e-05 1.9427349e-05 1.9979661e-05 6.834743e-06 4.3745953e-05
3.7552323e-05 1.9128802e-05 -2.9122435e-05 -6.77425e-05 3.058099e-05 -6e-45 -3.6646186e-05 -2.3975683e-05
-6e-45 -4.013445e-06 3.3223845e-05 -6e-45 2.5199695e-05 -1.4573035e-05 2.1641861e-05 4.6859746e-05
3.4652046e-06 3.5717596e-05 -3.3023538e-05 5.5418714e-05 7.280709e-05 -6e-45 -4.1983726e-06 6e-45
4.969611e-05 4.048706e-05 1.581049e-06 6e-45 1.2657256e-05 -1.8211067e-05 3.3865912e-05 -2.6199432e-06
-6e-45 -1.1568978e-05 6e-45 3.8765374e-05 4.0972882e-05 6e-45 6e-45 -1.575161e-07
1.1005962e-05 9.001852e-06 -6e-45 -1.5019101e-06 -6e-45 7.822824e-06 -5.370643e-05 8.2563354e-05
4.757112e-05 -2.5412026e-05 4.0895634e-06 -2.2126507e-05 5.4653345e-05 -4.76175e-06 -2.6208958e-05 2.989352e-05
3.94875e-05 -6e-45 6e-45 -1.7651562e-05 -6e-45 6e-45 4.9711907e-05 -6e-45
-6.546654e-06 6e-45 1.5211372e-05 2.3894308e-05 5.101341e-06 -4.396542e-05 7.975313e-06 4.80648e-05
6.614739e-05 1.7267348e-05 2.4109095e-05 2.3483167e-06 5.658314e-32 1.774997e-05 6e-45 -5.493125e-06
1.8459617e-05 2.9120985e-05 -6e-45 8.2434235e-06 2.5158466e-05 4.4461613e-05 -1.2259674e-06 2.9938374e-05
6.624515e-05 -2.2808772e-06 4.9062462e-05 1.0455697e-07 -1.4377809e-05 6.107088e-05 3.409597e-05 1.8560677e-05
3.1285883e-05 2.1595806e-05 6e-45 -6e-45 6e-45 4.519345e-05 -2.8959003e-06 1.4180463e-06
5.912758e-07 6.386945e-05 3.0165664e-05 2.0346723e-05 6e-45 5.6095116e-05 6e-45 2.4635894e-05
1.87114e-06 -2.579184e-06 3.284244e-05 -6.0647308e-06 2.4021245e-05 2.0581818e-05 6e-45 6e-45
7.1437817e-06 1.0484559e-05 8.034255e-06 1.7763317e-05 2.8651022e-05 6e-45 4.163733e-05 0.0
-1.7217959e-06 6.972989e-07 6.076273e-05 2.5411111e-05 -8.811017e-06 -8.513976e-06 -6e-45 6.5404843e-06
7.3018286e-06 5.4137166e-05 -1.3551997e-05 -5.652433e-06 -3.4241526e-05 6.305398e-05 -1.3195738e-05 -1.6809166e-07
5.0122594e-06 -6e-45 6e-45 8.471035e-07 3.5756097e-05 2.5394245e-05 -2.5286527e-05 3.0953117e-05
-1.1834758e-05 0.00011605004 3.592902e-05 2.4118135e-05 6e-45 4.412177e-05 6e-45 -1.120556e-05
-2.9733217e-12 6e-45 4.6044097e-05 2.805262e-05 -1.2079861e-05 -5.6246167e-06 6e-45 -7.2428634e-07
3.6516867e-05 6e-45 2.6804231e-05 4.3193937e-05 -1.5530528e-05 1.5307853e-05 6e-45 5.0904244e-05
-2.0373514e-05 5.4717137e-05 -2.5340353e-06 2.8069742e-05 4.7327292e-05 -6e-45 7.290602e-05 -6e-45
6.40974e-05 0.0 6.7564055e-05 -6e-45 6e-45 2.642788e-05 3.3898927e-05 -3.3292938e-05
2.5443498e-05 3.7830745e-05 1.7423625e-05 0.0 6e-45 3.523414e-05 2.085495e-05 4.9268438e-05
6e-45 0.0 2.4729523e-05 2.1519569e-05 2.3954617e-05 2.5014055e-05 2.4019526e-05 6e-45
2.3812707e-05 7.1845025e-05 3.306755e-05 1.6575949e-31 3.3395467e-05 1.0718752e-06 6e-45 -4.9724822e-05
3.329537e-05 3.0449328e-05 -6e-45 -2.9989098e-05 -1.668e-42 6e-45 1.22365345e-05 3.453568e-05
-6.874185e-07 3.944676e-05 -1.5472839e-05 2.3716097e-05 5.683148e-05 2.7848271e-05 1.2853305e-05 -1.2603708e-07

exp_avg_sq f4 [256]
00000000: 0857 8634 d980 cf33 cd26 7e25 f870 a333
00000010: ce93 0634 f67f 8333 ef1c 8c34 a0e1 c233
00000020: 159c c833 4051 ab33 b8b7 2c34 5517 c931
00000030: 459a ad33 f187 3934 71f0 f033 5017 7d33
00000040: 8780 2a32 676b 1032 0286 c728 2e55 af34
00000050: 3915 3034 2ca7 fd33 575d 6333 eed4 d133
00000060: c505 7a33 837d 1a34 50d2 e033 2b1e 7633
00000070: f81b 3b33 54e7 0326 d86e ec33 cd9f 0534
00000080: 638c 0727 86d7 4533 4013 2a34 aa53 0129
00000090: 00af 1a34 7a80 ac33 030a f233 5d9f 1734
000000a0: 243f 1434 235d a633 e737 dc33 b9e5 7434
000000b0: 8e63 2b34 0241 b323 d449 3531 212e f527
000000c0: a3a6 0d34 11af d434 49f6 9c33 4d3d b027
000000d0: 7455 f433 9176 ef33 c18e d033 a7fd 0134
000000e0: c3df bf24 25f8 1134 ad45 021c 6bf3 8e33
000000f0: 6c5a 3233 b73a 7e2c 1bf9 c923 a0ee 2b34
00000100: 3592 8233 33ac 6733 31c7 2919 4e87 bb31
00000110: ea97 2e24 0b08 8733 0679 a833 b392 6f34
00000120: fdda 1634 54fa c633 0f8f 1234 787e 5734
00000130: d283 b133 e157 0034 6aa0 a733 6313 7d33
00000140: 6252 fe33 0efb 1929 2775 ce28 7e42 3333
00000150: 5162 f724 3212 a12c 4e30 f533 e155 6826
00000160: a039 fd33 218e 852b 2435 e733 501b b633
00000170: 7a48 0834 a03f c834 dc73 f332 0c23 8933
00000180: f0a5 2833 5f95 4234 99d0 1134 6399 a533
00000190: 07eb 2a29 88d5 ca33 3886 2f2b 47c6 fc33
000001a0: 9b8c 1033 339d 0134 ef60 0329 eb61 ab33
000001b0: d2a1 b233 fb84 f033 bfba 8033 562d 8d33
000001c0: e912 c433 900f e52f 1c1d d833 2910 e533
000001d0: 6883 5434 65db 5a34 cd9e 0635 4f5f 0334
000001e0: bd83 df33 d495 cb33 73db 8828 094b b929
000001f0: c1f4 2e25 f8ed 0334 8578 9433 e70e c033
00000200: 7b92 fc30 2d35 f133 a0cd d533 b4f9 fe32
00000210: 17ef 7632 3e18 a633 8e16 2d1d 4263 0133
00000220: 3d45 6f32 c3c4 1133 73b8 1734 6242 3534
00000230: b426 6134 214c d333 ce7a 162f 1a06 2627
00000240: 0d04 8834 a3f6 8133 4a9b 0934 5962 9134
00000250: ed51 8533 1281 9e24 4d91 4134 0000 0000
00000260: 09da 0135 697b a933 886a ac33 15c0 ed33
00000270: 47f9 2533 714a 4c34 03d5 2228 0d3b 7434
00000280: 785d ef34 567b 9233 e4d9 8133 520d 2034
00000290: b421 8234 2193 b334 37aa f033 37f2 4f2f
000002a0: caaa 8d33 8420 c025 58b4 272b 30a9 9334
000002b0: 924c b833 516b 7333 8fa6 af33 cc7b e933
000002c0: 71ce 6a33 09c0 be34 ac5d e533 4871 f933
000002d0: 3a93 5b22 9f8f e833 2882 842c 39be ed33
000002e0: 5783 ac28 0a53 2e24 663d 8f33 d254 ac33
000002f0: 9635 5233 6089 8933 4490 ce27 fbf5 6534
00000300: 9141 9833 e982 8429 3b7f e633 0239 8133
00000310: d241 a933 34b9 ea33 6c4c 192f d548 8833
00000320: f11c 8334 e0ac 2f34 f4b9 b233 637c 0f34
00000330: a69b 7834 5860 7123 7f7b 4b34 9aa1 7f23
00000340: 4854 9833 0000 0000 2575 5035 2941 4e28
00000350: fac5 e628 7cfd 0934 3355 fc33 3377 ae33
00000360: c141 4f34 b28b e133 3c68 c133 0000 0000
00000370: b0ea 0b26 a2a9 7a33 ca79 8f33 7e39 9733
00000380: 456b ac28 0000 0000 569d 9c33 2985 e434
00000390: 26bb fc33 6e21 d833 1328 da33 c401 a228
000003a0: 1f6e 8933 c4b0 ab34 e524 0334 df80 282a
000003b0: d376 f133 59ed d933 3068 2e25 d7d7 5434
000003c0: 9e52 0f34 fd0f 5733 4ae0 8a27 fd98 8334
000003d0: bec8 112b 599e 2b19 2341 4e34 f140 0c34
000003e0: e1db c033 5a3d b433 3752 a433 7f23 dc34
000003f0: cc6e 9e33 2b3e 5d32 c14d 3e34 38aa 1f34
2.5022769e-07 9.662626e-08 2.2044134e-16 7.610828e-08 1.2533494e-07 6.123439e-08 2.6098084e-07 9.07487e-08
9.341617e-08 7.977587e-08 1.6085585e-07 5.8525225e-09 8.084002e-08 1.7278923e-07 1.1219607e-07 5.8927355e-08
9.924526e-09 8.406324e-09 2.2151555e-14 3.2658266e-07 1.6398998e-07 1.1811639e-07 5.2937448e-08 9.7710526e-08
5.821291e-08 1.4388029e-07 1.04690685e-07 5.7303776e-08 4.3564768e-08 4.5763263e-16 1.1009769e-07 1.2444725e-07
1.8811117e-15 4.6063654e-08 1.5839487e-07 2.871632e-14 1.4406032e-07 8.032744e-08 1.1270824e-07 1.4120947e-07
1.3806545e-07 7.746919e-08 1.0254717e-07 2.2807843e-07 1.5961834e-07 1.943475e-17 2.6380933e-09 6.8051173e-15
1.319227e-07 3.9615455e-07 7.309115e-08 4.8916276e-15 1.1377679e-07 1.1150872e-07 9.7117216e-08 1.210634e-07
8.321211e-17 1.3594452e-07 4.3103446e-22 6.656668e-08 4.1526093e-08 3.6128164e-12 2.1897964e-17 1.6012427e-07
6.0801916e-08 5.3940493e-08 8.7773216e-24 5.4577987e-09 3.7858912e-17 6.2878904e-08 7.845124e-08 2.2311978e-07
1.4049506e-07 9.265628e-08 1.3649354e-07 2.0069444e-07 8.266183e-08 1.1952899e-07 7.805723e-08 5.8923785e-08
1.1842782e-07 3.419058e-14 2.2921401e-14 4.173716e-08 1.0728573e-16 4.5779153e-12 1.1417488e-07 8.0607557e-16
1.17917125e-07 9.489667e-13 1.0766442e-07 8.4800035e-08 1.2692354e-07 3.7299196e-07 2.834161e-08 6.3859346e-08
3.9266467e-08 1.8121999e-07 1.3580065e-07 7.711312e-08 3.7951437e-14 9.445199e-08 6.2358755e-13 1.1770731e-07
3.3655493e-08 1.207125e-07 2.917192e-14 7.980619e-08 8.318206e-08 1.120006e-07 5.9944334e-08 6.574071e-08
9.130401e-08 4.1665915e-10 1.0063579e-07 1.0666583e-07 1.9791844e-07 2.0382647e-07 5.0149976e-07 1.2234999e-07
1.040821e-07 9.480178e-08 1.5194204e-14 8.228667e-14 1.517502e-16 1.2286898e-07 6.9137094e-08 8.9434074e-08
1.8377045e-09 1.12321096e-07 9.9559884e-08 2.9683044e-08 1.4373447e-08 7.734387e-08 2.290802e-21 3.0125427e-08
1.3927374e-08 3.3939397e-08 1.4130073e-07 1.6881089e-07 2.0968838e-07 9.839301e-08 1.368605e-10 2.3040435e-15
2.533492e-07 6.0518936e-08 1.2815613e-07 2.7079912e-07 6.208197e-08 6.874023e-17 1.8027386e-07 0.0
4.837353e-07 7.892124e-08 8.028752e-08 1.1071112e-07 3.8643773e-08 1.9026062e-07 9.038996e-15 2.2745753e-07
4.4585227e-07 6.8210895e-08 6.046665e-08 1.4906007e-07 2.423891e-07 3.3448399e-07 1.1206833e-07 1.8912592e-10
6.5968905e-08 3.3328724e-16 5.9580596e-13 2.7503984e-07 8.582096e-08 5.667545e-08 8.1793694e-08 1.08724265e-07
5.4670128e-08 3.5529982e-07 1.0680682e-07 1.1615572e-07 2.9757976e-18 1.08294664e-07 3.766116e-12 1.1070774e-07
1.9152796e-14 3.7800572e-17 6.670125e-08 8.024803e-08 4.894317e-08 6.404548e-08 5.73329e-15 2.1416774e-07
7.089978e-08 5.884687e-14 1.0733353e-07 6.0174e-08 7.8816484e-08 1.09301624e-07 1.394242e-10 6.3462416e-08
2.442171e-07 1.6361037e-07 8.3225956e-08 1.3363164e-07 2.3153424e-07 1.3085038e-17 1.8950776e-07 1.3857798e-17
7.093382e-08 0.0 7.7656506e-07 1.14494265e-14 2.5620988e-14 1.2851336e-07 1.1750162e-07 8.1241886e-08
1.9302298e-07 1.05027894e-07 9.006223e-08 0.0 4.8543374e-16 5.836194e-08 6.68111e-08 7.041943e-08
1.9142357e-14 0.0 7.292935e-08 4.2565196e-07 1.17687065e-07 1.00643646e-07 1.01587055e-07 1.7986379e-14
6.3995905e-08 3.1979846e-07 1.2213748e-07 1.4966109e-13 1.1244051e-07 1.0148023e-07 1.5127394e-16 1.982256e-07
1.3347969e-07 5.007313e-08 3.854587e-15 2.4511965e-07 5.1792934e-13 8.872471e-24 1.9208942e-07 1.3062142e-07
8.9806925e-08 8.393063e-08 7.6518e-08 4.100402e-07 7.377602e-08 1.2878028e-08 1.7723416e-07 1.4869954e-07

exp_avg f4 [26, 256]
00000000: 0400 0080 0400 0080 0000 0000 0400 0080
00000010: 0400 0000 0400 0080 0400 0080 0400 0080
00000020: 0400 0080 0400 0080 0400 0080 0400 0080
00000030: 0400 0080 0400 0080 0400 0080 0400 0000
00000040: 0400 0080 0400 0080 0400 0080 0400 0080
00000050: 0400 0080 0400 0080 0400 0080 0400 0080
00000060: 0400 0080 0400 0080 0400 0080 0400 0080
00000070: 0400 0080 0000 0000 0400 0080 0400 0080
00000080: 0000 0000 0400 0080 0400 0080 0400 0080
00000090: 0400 0080 0400 0080 0400 0080 0400 0080
000000a0: 0400 0080 0400 0080 0400 0080 0400 0080
000000b0: 0400 0080 0400 0080 0400 0080 0400 0080
000000c0: 0400 0080 0400 0080 0400 0080 0400 0000
000000d0: 0400 0080 0400 0080 0400 0080 0000 0000
000000e0: 0400 0080 0400 0080 0000 0000 0400 0080
000000f0: 0400 0080 0400 0080 0000 0000 0400 0080
00000100: 0400 0080 0400 0080 0000 0000 0400 0080
00000110: 0000 0000 0400 0080 0400 0080 0400 0080
00000120: 0400 0080 0400 0080 0400 0080 0400 0080
00000130: 0400 0080 0400 0080 0400 0080 0400 0080
00000140: 0400 0080 0400 0080 0000 0000 0000 0000
00000150: 0400 0080 0400 0080 0400 0080 0400 0080
00000160: 0400 0080 0400 0080 0400 0080 0400 0080
00000170: 0400 0080 0400 0080 0400 0080 0400 0080
00000180: 0400 0080 0400 0080 0400 0080 0400 0080
00000190: 0000 0000 0400 0080 0400 0080 0400 0080
000001a0: 0400 0080 0400 0080 0400 0080 0000 0000
000001b0: 0400 0080 0400 0080 0400 0080 0400 0080
000001c0: 0400 0080 0400 0000 0400 0080 0400 0080
000001d0: 0400 0080 0000 0000 0400 0080 0400 0080
000001e0: 0400 0080 0400 0080 0000 0000 0400 0080
000001f0: 0400 0080 0400 0080 0000 0000 0400 0080
00000200: 0400 0000 0400 0000 0400 0080 0400 0080
00000210: 0400 0080 0400 0080 0000 0000 0400 0080
00000220: 0400 0000 0400 0000 0400 0080 0400 0080
00000230: 0400 0080 0400 0080 0000 0000 0400 0080
00000240: 0000 0000 0400 0080 0400 0000 0000 0000
00000250: 0400 0080 0400 0080 0400 0080 0000 0000
00000260: 0400 0080 0400 0080 0400 0080 0400 0080
00000270: 0400 0080 0400 0080 0400 0000 0400 0000
00000280: 0400 0080 0400 0080 0400 0080 0400 0080
00000290: 0400 0080 0400 0080 0400 0080 0000 0000
000002a0: 0400 0080 0000 0000 0000 0000 0400 0080
000002b0: 0400 0000 0400 0080 0400 0080 0400 0080
000002c0: 0400 0080 0400 0080 0400 0080 0400 0080
000002d0: 0000 0000 0400 0080 0400 0080 0400 0080
000002e0: 0400 0080 0400 0080 0400 0080 0400 0080
000002f0: 0400 0080 0400 0080 0400 0000 0400 0080
00000300: 0400 0080 0400 0080 0400 0080 0400 0080
00000310: 0400 0080 0400 0080 0400 0080 0400 0080
00000320: 0400 0080 0400 0080 0400 0080 0400 0080
00000330: 0400 0080 0000 0000 0000 0000 0000 0000
00000340: 0400 0080 0000 0000 0400 0080 0400 0080
00000350: 0400 0080 0400 0080 0400 0080 0400 0080
00000360: 0400 0080 0400 0080 0400 0080 0000 0000
00000370: 0400 0080 0400 0080 0400 0080 0400 0080
00000380: 0400 0080 0000 0000 0400 0080 0400 0080
00000390: 0400 0080 0400 0080 0400 0080 0400 0080
000003a0: 0400 0080 0400 0080 0400 0080 0400 0000
000003b0: 0400 0000 0400 0080 0000 0000 0400 0080
000003c0: 0400 0080 0400 0080 0400 0080 0400 0080
000003d0: 0400 0080 0000 0000 0400 0080 0400 0080
000003e0: 0400 0080 0400 0080 0400 0080 0400 0080
000003f0: 0400 0080 0400 0080 0400 0080 0400 0080
-6e-45 -6e-45 0.0 -6e-45 6e-45 -6e-45 -6e-45 -6e-45
-6e-45 -6e-45 -6e-45 -6e-45 -6e-45 -6e-45 -6e-45 6e-45
-6e-45 -6e-45 -6e-45 -6e-45 -6e-45 -6e-45 -6e-45 -6e-45
-6e-45 -6e-45 -6e-45 -6e-45 -6e-45 0.0 -6e-45 -6e-45
0.0 -6e-45 -6e-45 -6e-45 -6e-45 -6e-45 -6e-45 -6e-45
-6e-45 -6e-45 -6e-45 -6e-45 -6e-45 -6e-45 -6e-45 -6e-45
-6e-45 -6e-45 -6e-45 6e-45 -6e-45 -6e-45 -6e-45 0.0
-6e-45 -6e-45 0.0 -6e-45 -6e-45 -6e-45 0.0 -6e-45
-6e-45 -6e-45 0.0 -6e-45 0.0 -6e-45 -6e-45 -6e-45
-6e-45 -6e-45 -6e-45 -6e-45 -6e-45 -6e-45 -6e-45 -6e-45
-6e-45 -6e-45 0.0 0.0 -6e-45 -6e-45 -6e-45 -6e-45
-6e-45 -6e-45 -6e-45 -6e-45 -6e-45 -6e-45 -6e-45 -6e-45
-6e-45 -6e-45 -6e-45 -6e-45 0.0 -6e-45 -6e-45 -6e-45
-6e-45 -6e-45 -6e-45 0.0 -6e-45 -6e-45 -6e-45 -6e-45
-6e-45 6e-45 -6e-45 -6e-45 -6e-45 0.0 -6e-45 -6e-45
-6e-45 -6e-45 0.0 -6e-45 -6e-45 -6e-45 0.0 -6e-45
6e-45 6e-45 -6e-45 -6e-45 -6e-45 -6e-45 0.0 -6e-45
6e-45 6e-45 -6e-45 -6e-45 -6e-45 -6e-45 0.0 -6e-45
0.0 -6e-45 6e-45 0.0 -6e-45 -6e-45 -6e-45 0.0
-6e-45 -6e-45 -6e-45 -6e-45 -6e-45 -6e-45 6e-45 6e-45
-6e-45 -6e-45 -6e-45 -6e-45 -6e-45 -6e-45 -6e-45 0.0
-6e-45 0.0 0.0 -6e-45 6e-45 -6e-45 -6e-45 -6e-45
-6e-45 -6e-45 -6e-45 -6e-45 0.0 -6e-45 -6e-45 -6e-45
-6e-45 -6e-45 -6e-45 -6e-45 -6e-45 -6e-45 6e-45 -6e-45
-6e-45 -6e-45 -6e-45 -6e-45 -6e-45 -6e-45 -6e-45 -6e-45
-6e-45 -6e-45 -6e-45 -6e-45 -6e-45 0.0 0.0 0.0
-6e-45 0.0 -6e-45 -6e-45 -6e-45 -6e-45 -6e-45 -6e-45
-6e-45 -6e-45 -6e-45 0.0 -6e-45 -6e-45 -6e-45 -6e-45
-6e-45 0.0 -6e-45 -6e-45 -6e-45 -6e-45 -6e-45 -6e-45
-6e-45 -6e-45 -6e-45 6e-45 6e-45 -6e-45 0.0 -6e-45
-6e-45 -6e-45 -6e-45 -6e-45 -6e-45 0.0 -6e-45 -6e-45
-6e-45 -6e-45 -6e-45 -6e-45 -6e-45 -6e-45 -6e-45 -6e-45

exp_avg_sq f4 [26, 256]
00000000: 0547 8020 d04c 3d1f 0000 0000 4caf 871f
00000010: a076 3820 2dba f81f 0b13 f71f 9058 aa21
00000020: 553e 4921 ef7b 7620 468e 841a 27d7 8419
00000030: 0eb9 9f21 2f72 7e22 2a3d 7821 f201 eb1a
00000040: d868 e420 e01d 1c1e 17a3 8b20 52eb 821e
00000050: b354 9b21 b90e 5e21 10b0 dc21 7183 a920
00000060: 15ed bf21 e952 fc20 7465 dd21 934a 0622
00000070: f0ef 8d21 0000 0000 78c0 b31d 593b 8613
00000080: 0000 0000 9757 111f 8c6c 4f20 0986 0721
00000090: dad5 071a e470 0321 0f14 7c21 1dae ba20
000000a0: 089d 1121 9237 a221 a6cf e91e e7ba 8521
000000b0: c38f 5722 7a67 4919 1b65 4b20 39bb 901e
000000c0: 089e bd20 68bd 081f d0db de20 19c0 1118
000000d0: c8e5 2222 b605 c81b 8d3c ef20 0000 0000
000000e0: f5e7 1d11 ffb8 7721 0000 0000 7255 0f22
000000f0: 2705 cd1f 7c52 b21f 0000 0000 855f 6d21
00000100: 3b26 d321 889b fc20 0000 0000 0dac 8113
00000110: 0000 0000 95e6 8e1d 5d1e c418 2f16 be20
00000120: e2ed 9e21 f7cf fb20 b5ea 5a19 0853 c721
00000130: 7edd d021 30df ba1e 97e0 7c19 b081 de21
00000140: 8269 2920 395b 5f1f 0000 0000 0000 0000
00000150: 1ada bc20 075b b420 fc07 1921 8af6 991f
00000160: 70fb 681e 9748 ab13 8133 e220 623b 821e
00000170: b3f0 9a21 b797 981f 30bb d620 8d2b 9421
00000180: 9918 2e1b a7b7 a119 c182 891d e89b ba20
00000190: 0000 0000 6895 8421 6642 1321 a9fd 6c21
000001a0: e5af 5420 377a e321 e284 1a19 0000 0000
000001b0: a041 3d21 ee82 841d 5a2c 1321 83b9 c720
000001c0: ecec 7c21 6093 c013 c098 e620 300f 4f21
000001d0: de36 c119 0000 0000 274d 0721 d16c 0e19
000001e0: 499e d221 80af 9e21 0000 0000 385a c419
000001f0: b337 e11e c380 1a20 0000 0000 bacc 7d21
00000200: d2b4 c912 8e0e 5819 b121 fc1e 62c1 8f20
00000210: dd6d 2e20 4957 dd21 0000 0000 c79b 6a21
00000220: c731 8511 ee3d c517 8ecf 9c20 b6de 8d1f
00000230: 7de3 9c1f d0ca 3621 0000 0000 1da7 d11d
00000240: 0000 0000 8bef 0c21 3897 3115 0000 0000
00000250: 7610 4621 7bb4 891f f989 6320 0000 0000
00000260: ee7e 5618 7130 a721 f6c8 d51f 24e9 7022
00000270: 3cdf 7821 1870 f61b b6d4 181c cabb 8319
00000280: af57 0121 9fd4 4021 d575 c521 7434 9818
00000290: 7b72 7e1f e66c 8219 2b39 821f 0000 0000
000002a0: 715c 101f 0000 0000 0000 0000 64df 1c18
000002b0: 3ccf 4118 99a4 ac1f 28a4 2621 ac54 131f
000002c0: c479 e41f 8f95 a51f 1a2c 0e22 6916 8f1f
000002d0: 0000 0000 08b7 631f c4b0 7d21 5716 9616
000002e0: 2dc0 900b cb9a d11e 5917 1020 90fd 6920
000002f0: 53ca f81e 64ca 211f aca5 9f15 b52f 9c20
00000300: 3d0a a821 dc23 b31d ead6 311f 7cdf 1322
00000310: c5f7 0021 4866 3920 3792 ac20 5106 1221
00000320: e579 411f 8bba 8e1b e796 0921 8826 2c1f
00000330: fe0d 3620 0000 0000 0000 0000 0000 0000
00000340: 4e92 3a21 0000 0000 51f9 c819 b9f3 2621
00000350: f9e0 761f 33e5 4718 9ee1 3222 df51 4d1f
00000360: 9808 8421 5dd8 5020 f011 0c22 0000 0000
00000370: a7dc 8f18 6050 9d21 8701 8121 5473 8320
00000380: 291c 5a1f 0000 0000 041a 2821 6737 0c17
00000390: bc52 8720 5ddb 1420 ce70 0a20 f3c4 d218
000003a0: 56e6 1c20 17d1 f317 94a2 5620 a192 9f1d
000003b0: 0dca e918 1392 e51f 0000 0000 a466 3d20
000003c0: 1650 011f fb14 1d22 0030 0c20 34e1 3220
000003d0: e4fb 3318 0000 0000 46a9 f620 efe8 951f
000003e0: f6eb 4620 697b e220 47d4 441f 5ab9 8d19
000003f0: 5d16 cc21 80d7 d21f 5c3c c322 f3c2 fe20
2.173104e-19 4.0085845e-20 0.0 5.746473e-20 1.5624656e-19 1.0534009e-19 1.0464007e-19 1.154309e-18
6.8183945e-19 2.0878017e-19 5.4823776e-23 1.373538e-23 1.0823243e-18 3.4483867e-18 8.410662e-19 9.7196865e-23
3.8694082e-19 8.264749e-21 2.365544e-19 1.3861612e-20 1.0525628e-18 7.523601e-19 1.4954383e-18 2.8716694e-19
1.3005419e-18 4.2745326e-19 1.5002397e-18 1.8199866e-18 9.618043e-19 0.0 4.7579914e-21 3.3884877e-27
0.0 3.0777397e-20 1.7569497e-19 4.5917173e-19 2.8090094e-23 4.4533936e-19 8.540747e-19 3.1624844e-19
4.933574e-19 1.0992256e-18 2.4755716e-20 9.061903e-19 2.921404e-18 1.0412353e-23 1.7228222e-19 1.5324027e-20
3.2122422e-19 2.8955793e-20 3.7753723e-19 1.8837795e-24 2.207674e-18 3.3090915e-22 4.0528244e-19 0.0
1.2456593e-28 8.3931695e-19 0.0 1.9425348e-18 8.68294e-20 7.552239e-20 0.0 8.042514e-19
1.4308036e-18 4.2793382e-19 0.0 3.2733833e-27 0.0 3.7825503e-21 5.069547e-24 3.2201932e-19
1.0769464e-18 4.2658674e-19 1.13177346e-23 1.3506743e-18 1.4153257e-18 1.9785824e-20 1.307345e-23 1.5077633e-18
1.4349766e-19 4.7297544e-20 0.0 0.0 3.1992766e-19 3.0553423e-19 5.1848984e-19 6.5205885e-20
1.2333974e-20 4.3238048e-27 3.8319972e-19 1.3788846e-20 1.0499158e-18 6.4625495e-20 3.637688e-19 1.0040398e-18
1.440089e-22 1.6721186e-23 3.6398794e-21 3.1612796e-19 0.0 8.984215e-19 4.9893415e-19 8.0295627e-19
1.8015297e-19 1.5414468e-18 7.988449e-24 0.0 6.4122545e-19 3.5075487e-21 4.9864236e-19 3.3834673e-19
8.5694485e-19 4.8612937e-27 3.9064597e-19 7.015443e-19 1.9977893e-23 0.0 4.584189e-19 7.363203e-24
1.4272051e-18 1.0752951e-18 0.0 2.0302364e-23 2.3845838e-20 1.3086911e-19 0.0 8.599069e-19
1.2729459e-27 1.11698776e-23 2.6695472e-20 2.4353112e-19 1.4774724e-19 1.4998647e-18 0.0 7.9488453e-19
2.1014378e-28 1.274646e-24 2.6564776e-19 6.008427e-20 6.644492e-20 6.193242e-19 0.0 5.549463e-21
0.0 4.775088e-19 3.5864156e-26 0.0 6.7106795e-19 5.832034e-20 1.9273299e-19 0.0
2.7722935e-24 1.1329183e-18 9.054147e-20 3.2649489e-18 8.4321117e-19 4.0769725e-22 5.0567504e-22 1.362093e-23
4.382295e-19 6.533353e-19 1.3380429e-18 3.9344043e-24 5.3881288e-20 1.3485669e-23 5.515172e-20 0.0
3.0569652e-20 0.0 0.0 2.027531e-24 2.5049292e-24 7.311714e-20 5.6460247e-19 3.11985e-20
9.67632e-20 7.012764e-20 1.9267936e-18 6.059993e-20 0.0 4.822052e-20 8.595368e-19 2.4247905e-25
5.5755936e-32 2.2192757e-20 1.2205e-19 1.9819764e-19 2.63417e-20 3.426049e-20 6.448097e-26 2.6458998e-19
1.1386833e-18 4.7417983e-21 3.765898e-20 2.0040527e-18 4.3696007e-19 1.5703952e-19 2.923469e-19 4.9475084e-19
4.097017e-20 2.361248e-22 4.6617123e-19 3.645429e-20 1.5420629e-19 0.0 0.0 0.0
6.3212884e-19 0.0 2.0780213e-23 5.656555e-19 5.227862e-20 2.5835863e-24 2.424294e-18 4.347816e-20
8.946943e-19 1.7689874e-19 1.8983034e-18 0.0 3.7187436e-24 1.0660009e-18 8.741784e-19 2.226858e-19
4.618659e-20 0.0 5.6955045e-19 4.5306367e-25 2.2924639e-19 1.2608669e-19 1.1726379e-19 5.4482596e-24
1.3289926e-19 1.5756289e-24 1.8180298e-19 4.223856e-21 6.0433108e-24 9.722693e-20 0.0 1.6042884e-19
2.7383058e-20 2.1288575e-18 1.1874343e-19 1.51517e-19 2.326238e-24 0.0 4.1786037e-19 6.348931e-20
1.6849325e-19 3.8367555e-19 4.1680206e-20 1.4653921e-23 1.3829497e-18 8.9294974e-20 5.2918764e-18 4.315828e-19

exp_avg f4 [26]
00000000: 0400 0080 526c b5b9 0400 0080 b310 62b8
00000010: 8b83 ff38 89cc 0137 0400 0080 3e70 a537
00000020: 0400 0080 0400 0080 0400 0080 0400 0000
00000030: 3996 91b8 e1c2 0938 3f72 feb7 0400 0000
00000040: 0400 0080 0400 0000 0fe6 1639 9a6b ff39
00000050: 0400 0000 5968 e8b8 0ecd 81b6 63e9 cf38
00000060: 143b f537 98db 2839
-6e-45 -0.00034603715 -6e-45 -5.389815e-05 0.00012183849 7.736621e-06 -6e-45 1.97218e-05
-6e-45 -6e-45 -6e-45 6e-45 -6.94212e-05 3.284484e-05 -3.033236e-05 6e-45
-6e-45 6e-45 0.00014390818 0.0004871756 6e-45 -0.00011082058 -3.868371e-06 9.914001e-05
2.9233786e-05 0.00016103534

exp_avg_sq f4 [26]
00000000: a590 6123 353a 4736 82ef dc26 559d 5936
00000010: e516 f534 c155 d036 dee2 1823 8613 7e35
00000020: 303a 1124 9448 8c23 b09c c324 a847 9025
00000030: 84c4 2936 1128 c535 cc62 7d36 97db e226
00000040: a23d 4e25 5852 3225 7ae6 9b35 f361 ff35
00000050: 3727 7225 6a2b a834 43c4 5b35 1bf8 7b35
00000060: a929 8535 7b4e b935
1.2227904e-17 2.9687192e-06 1.5330485e-15 3.24271e-06 4.5651464e-07 6.208866e-06 8.2879775e-18 9.4650784e-07
3.149115e-17 1.5209568e-17 8.483321e-17 2.5028574e-16 2.529735e-06 1.4689305e-06 3.7757445e-06 1.574142e-15
1.7888534e-16 1.5466938e-16 1.1615477e-06 1.9027487e-06 2.100344e-16 3.1324026e-07 8.1869456e-07 9.386583e-07
9.921397e-07 1.3806415e-06

exp_avg f4 [256, 64]
00000000: 36bb 16b6 58ba 2bb6 a4a6 b937 0df0 e936
00000010: ddf0 9b35 aa25 48b6 4ef6 2637 bdc3 92b4
00000020: 0538 5a37 2fa8 e236 ddd7 aa37 a489 cab6
00000030: 2a58 8936 65bc 7a37 9d56 b2b4 b222 0436
00000040: 033a 3337 aefd 5837 d1a1 7536 8432 3037
00000050: 531b a437 73b4 a436 eba6 f336 cc2e 9c37
00000060: a44a eb35 4c10 47b6 6804 fcb6 63cd 9037
00000070: 6229 17b7 f7b5 de37 4a04 2337 580b af37
00000080: a8a6 9437 0a95 5737 f4bc ec37 0a91 0fb6
00000090: afc0 d035 af76 7b35 eb92 9437 0416 9836
000000a0: 725d f0b5 85c7 0637 a19a a637 b4d2 6a35
000000b0: ac42 3cb6 e228 b9b5 dba6 8237 9160 c637
000000c0: 1809 8f37 f178 a734 7a02 9bb4 3683 f736
000000d0: d7ad 8f37 61ad ea36 f4c1 e534 893f 09b5
000000e0: b384 ac37 b08f 13b5 68aa e636 6367 2c37
000000f0: b6bc 7634 3cc8 7937 5558 7e36 efd3 c437
00000100: ae29 f435 23fe 0e36 f39c 66b7 a555 85b7
00000110: 8395 7834 0191 d6b6 69d8 2937 af5f 6036
00000120: 0f49 5536 ea48 3fb7 2067 a4b7 3e13 58b6
00000130: 9830 83b6 bd69 40b7 4325 5c36 ab61 a236
00000140: 1c6c ddb6 7d96 81b7 cfe2 9eb6 330f 50b6
00000150: aae8 10b7 53f9 46b7 29f3 fab6 81c0 7536
00000160: 46c8 1234 2758 cf36 9e4d 63b6 dd69 1fb7
00000170: 815c 0db6 3a44 0ab7 c8de 41b7 713f 1937
00000180: 6547 09b7 1463 2b37 fcbd efb6 7047 89b4
00000190: 6b6b 2036 135a bb34 4157 28b7 601c 0ab7
000001a0: 2ee1 9ab4 8f43 7a36 6663 b336 fb4b 48b2
000001b0: e81a 82b6 af58 4db5 cdc7 3836 b2e7 37b7
000001c0: 4309 7cb7 a5e0 6434 ae92 79b6 69a3 51b6
000001d0: 8939 41b5 2969 0836 d6c3 efb5 ea46 86b6
000001e0: fce6 e0b6 89fe e0b6 5c07 c936 5e94 03b7
000001f0: b725 8a33 80bd a236 6694 dcb6 074c 22b7
00000200: a305 1ab2 27b1 87b1 ebf7 9532 036d e532
00000210: 54a6 1332 a53f ab31 f866 21b3 95a2 6d31
00000220: 1368 0eb3 a448 ebb2 4422 fbb2 727e 6b32
00000230: 6f10 c232 1b51 0433 1038 1fb3 5d3f d7b0
00000240: 6e7f d732 8d3d 29b1 65a4 03b2 18bc c0b2
00000250: 0699 1933 ff4c 8bb2 7a00 f831 37e1 4d31
00000260: 19d7 a5b2 1364 d6b1 6da8 d532 d899 5631
00000270: b955 fb31 2f18 e8b2 5814 3db2 3a9a 51b2
00000280: 9737 52b2 bdf7 19b3 dfaf 7ab1 3741 00b3
00000290: b8e1 59b2 5d94 cbb2 7684 0833 5421 61b2
000002a0: 4517 b431 6f7a 3831 a0f7 10b1 74fe 8131
000002b0: a104 3832 1c42 8bb2 87db bf32 08cb 30b2
000002c0: 7f99 1433 89dc aab2 b36f f832 733b ae32
000002d0: 1185 c3b2 db97 bd32 1fa2 c3b2 9e8a d132
000002e0: ee1e 08b3 0035 e1b2 be29 d232 8a3c fc32
000002f0: 3bfd 33b2 196b d7b2 91ac 9eb0 2025 ba32
00000300: 1288 e8b6 865a bbb5 12c9 2eb7 73a3 03b7
00000310: 2190 0634 cda2 2db7 ddcb ffb6 ec0b 9eb6
00000320: 982a 91b5 68ef 30b6 9fa3 cab6 d281 3bb6
00000330: 7f2e 67b4 2a3a 39b7 aa5c bcb6 1694 9fb5
00000340: 5f4d 7436 a23a 14b7 b1e5 9ab7 6e44 8fb6
00000350: 22b6 adb6 4558 e5b6 e574 0bb7 4785 a9b6
00000360: e607 f1b4 1f85 71b6 4f57 93b4 4f77 59b7
00000370: e96e d9b5 78f0 2ab7 2fd6 76b6 54c4 5cb7
00000380: 5050 a8b6 e475 50b7 6c18 3eb7 e5fe 3cb4
00000390: f300 9fb5 c9c7 8ab3 ef13 a2b6 b005 64b5
000003a0: 090f 7db6 65e8 db35 fafa 28b5 cf0e 50b5
000003b0: 1c84 8eb5 feef 922f 3c77 46b6 3dfe e5b6
000003c0: 8fe1 fbb6 55ca 6f33 7247 1db6 a5fe 18b7
000003d0: 1618 dab6 5204 3cb5 cf5c a2b5 e359 7eb6
000003e0: fc63 3bb6 de95 deb5 5d08 9fb5 3dbf 0ab7
000003f0: 1660 03b5 5645 1eb7 79a9 3bb5 70d2 f7b6
-2.2460713e-06 -2.5589452e-06 2.2131317e-05 6.9718867e-06 1.16185e-06 -2.9824246e-06 9.951718e-06 -2.7337038e-07
1.3006856e-05 6.754904e-06 2.0366098e-05 -6.0360926e-06 4.093182e-06 1.4945025e-05 -3.3218103e-07 1.9689728e-06
1.0682738e-05 1.2933668e-05 3.6602034e-06 1.0502179e-05 1.9563047e-05 4.908588e-06 7.261396e-06 1.861844e-05
1.7530588e-06 -2.9662797e-06 -7.510698e-06 1.7261778e-05 -9.009937e-06 2.6549196e-05 9.716556e-06 2.0866908e-05
1.772058e-05 1.28496995e-05 2.822138e-05 -2.1393084e-06 1.5553286e-06 9.3677494e-07 1.7711389e-05 4.532516e-06
-1.790859e-06 8.033477e-06 1.9860747e-05 8.7478406e-07 -2.8052991e-06 -1.3795473e-06 1.5574906e-05 2.3648407e-05
1.7051163e-05 3.119417e-07 -2.8872802e-07 7.3764486e-06 1.7127879e-05 6.9939274e-06 4.2795693e-07 -5.1128933e-07
2.056579e-05 -5.497086e-07 6.874372e-06 1.02760705e-05 2.2979188e-07 1.4888177e-05 3.7900365e-06 2.346371e-05
1.8191547e-06 2.1307576e-06 -1.3745611e-05 -1.5894717e-05 2.3151192e-07 -6.3945777e-06 1.0123572e-05 3.3434296e-06
3.1782e-06 -1.1401464e-05 -1.9598345e-05 -3.2197709e-06 -3.9097613e-06 -1.1468711e-05 3.2804244e-06 4.8393463e-06
-6.598899e-06 -1.5448075e-05 -4.735171e-06 -3.1003262e-06 -8.63724e-06 -1.185977e-05 -7.478888e-06 3.6619897e-06
1.3670169e-07 6.179343e-06 -3.3870815e-06 -9.501787e-06 -2.1064482e-06 -8.241326e-06 -1.1555567e-05 9.134282e-06
-8.182459e-06 1.0215463e-05 -7.144872e-06 -2.5570216e-07 2.3904383e-06 3.4897002e-07 -1.0033896e-05 -8.232048e-06
-2.8848575e-07 3.7292227e-06 5.346187e-06 -1.1658808e-08 -3.877434e-06 -7.64975e-07 2.7534436e-06 -1.0961596e-05
-1.5022527e-05 2.131588e-07 -3.718927e-06 -3.1238544e-06 -7.198183e-07 2.032679e-06 -1.7863883e-06 -4.0017667e-06
-6.7026103e-06 -6.705352e-06 5.9911235e-06 -7.842753e-06 6.432986e-08 4.850037e-06 -6.573787e-06 -9.673654e-06
-8.965261e-09 -3.949157e-09 1.7458623e-08 2.6708681e-08 8.594345e-09 4.9839906e-09 -3.7579383e-08 3.4580456e-09
-3.3156606e-08 -2.7390634e-08 -2.9235828e-08 1.3707551e-08 2.2592046e-08 3.080741e-08 -3.707106e-08 -1.5661318e-09
2.5087243e-08 -2.4627724e-09 -7.662583e-09 -2.2437277e-08 3.5762262e-08 -1.6216744e-08 7.217804e-09 2.9959446e-09
-1.9306343e-08 -6.239597e-09 2.4873055e-08 3.1228549e-09 7.314807e-09 -2.7019352e-08 -1.10058735e-08 -1.2200468e-08
-1.22362485e-08 -3.5848405e-08 -3.647976e-09 -2.9861635e-08 -1.2682385e-08 -2.3699778e-08 3.178544e-08 -1.3104302e-08
5.241335e-09 2.684512e-09 -2.1095516e-09 3.783322e-09 1.0711262e-08 -1.6211793e-08 2.2335156e-08 -1.0290712e-08
3.459854e-08 -1.9890892e-08 2.8921795e-08 2.02833e-08 -2.27615e-08 2.2071552e-08 -2.2774712e-08 2.4393838e-08
-3.1693098e-08 -2.6217549e-08 2.44662e-08 2.9364191e-08 -1.0476749e-08 -2.5077997e-08 -1.1545059e-09 2.1670132e-08
-6.9299795e-06 -1.3958932e-06 -1.04180235e-05 -7.846264e-06 1.2532156e-07 -1.0349509e-05 -7.623325e-06 -4.710155e-06
-1.0815738e-06 -2.6365396e-06 -6.039117e-06 -2.7940737e-06 -2.1530467e-07 -1.1040402e-05 -5.613624e-06 -1.1889522e-06
3.640387e-06 -8.835139e-06 -1.8465189e-05 -4.2696984e-06 -5.177005e-06 -6.8350078e-06 -8.312262e-06 -5.052108e-06
-4.4895495e-07 -3.5989285e-06 -2.744441e-07 -1.2961987e-05 -1.6200039e-06 -1.0188778e-05 -3.6781528e-06 -1.3158733e-05
-5.0161398e-06 -1.2425215e-05 -1.1330569e-05 -1.7601594e-07 -1.1846699e-06 -6.4624665e-08 -4.830297e-06 -8.4944895e-07
-3.770869e-06 1.6384407e-06 -6.2950096e-07 -7.750759e-07 -1.0618273e-06 2.672777e-10 -2.9573703e-06 -6.854329e-06
-7.5066414e-06 5.5830544e-08 -2.343641e-06 -9.119195e-06 -6.4997103e-06 -7.0041744e-07 -1.2096951e-06 -3.790127e-06
-2.792337e-06 -1.6583906e-06 -1.1848857e-06 -8.269967e-06 -4.8941126e-07 -9.433677e-06 -6.9909544e-07 -7.385672e-06

exp_avg_sq f4 [256, 64]
00000000: 5de0 ec31 9899 a230 a2ce c532 9693 1932
00000010: 7931 8b2f ad8a 4c32 d5dd 8731 f846 2131
00000020: 0526 c931 a25d 2132 b436 ce32 ba6e 8e31
00000030: 6243 3f31 8389 bb32 db4b e631 0792 f030
00000040: a757 c231 627a 8e32 61ee 7b32 78d7 a532
00000050: cff7 5332 31b6 4832 ce18 6a32 96fd 5d32
00000060: 9ed9 b031 49bf fe30 9dfb 5731 92c2 8132
00000070: 5fc4 7431 94ad 0933 4685 6a32 3539 f031
00000080: 0108 b332 696b 8232 3321 c032 c668 0a30
00000090: 6c05 fe30 5865 2131 c592 e932 9361 5732
000000a0: b051 4232 422b d131 54de f130 8ca6 e62f
000000b0: ce18 0132 7ae9 1e2e c9d8 e931 c585 9d32
000000c0: 2fda 7e32 50bb 482f ecd9 3c30 ea6f 4a32
000000d0: c163 6c32 1a7d a730 3ecb 4a30 e34f 0832
000000e0: dd6a 6932 a875 3b32 07b7 7d31 493b b132
000000f0: 43f0 282e 3df5 5432 cb1c 4032 f333 0033
00000100: 3411 6731 a305 2330 f248 3432 a0ed c831
00000110: f678 032f 453d c631 6a3c a830 c00b cd30
00000120: ba73 fb30 0da7 cd31 6540 2b32 951b 9e30
00000130: ea60 4430 9b59 0432 f72d 5431 a70a 3f30
00000140: 5f95 e930 06d2 ce31 1e5c df31 a7a4 d331
00000150: 7716 7e31 03ac 9a31 c451 c931 e185 6031
00000160: d36d d430 84d3 8130 c868 d830 e100 e531
00000170: aeea bc30 864b 3c32 6c49 0b32 b21a e830
00000180: 13df ee31 708e 8731 80e1 ca31 9dd1 cb2f
00000190: 91d1 4e30 bc87 ca2f b668 1b32 5494 7931
000001a0: 5d7a ca31 8562 c230 3c1e 8b2f 6ab8 1f2f
000001b0: 2daa be31 6a05 6b2d 6392 fd30 ed7b 0532
000001c0: c48e 1032 c348 862e 517e 972f 5043 8a31
000001d0: 4fda a031 9c30 ec2f 7b05 822f 9016 ae31
000001e0: c0f9 b131 6148 7a31 65b2 2b31 6457 9c31
000001f0: e224 012d 5974 0c31 c07e 2831 fdcd 4632
00000200: bb08 642c a18b 072c 2924 492c f615 442c
00000210: 6991 5f2c a5a2 262c 04bd f32b 9b27 fb2b
00000220: f460 262c 32ce 032c 242b 422c 6fc4 012c
00000230: 3907 312c db58 3e2c 1a15 4c2c c666 5b2c
00000240: 8f46 fc2b ce2d 4a2c e2b7 102c 2264 5f2c
00000250: 0041 4f2c a451 582c d9de 5f2c af91 c72b
00000260: 4378 062c c327 422c 9805 532c 7b4b 422c
00000270: 2746 fa2b bb99 202c 3049 c62b 4de4 d92b
00000280: d23a cb2b a927 532c d0ef 5a2c d5fc 412c
00000290: e5ee 592c d454 122c 895e 1c2c 7710 4f2c
000002a0: 6f14 e52b f4b1 cb2b ee43 512c ead3 df2b
000002b0: 7ba9 052c 3a1f 5a2c ec33 df2b 3e4f 4f2c
000002c0: 6fc6 502c 284c 552c e2a3 ea2b 85dd ca2b
000002d0: 3db1 032c 17ed 192c bbae 2e2c a4d1 fc2b
000002e0: e71d 322c 3c7c 0a2c 723c 012c 52ab 482c
000002f0: 4ff0 ce2b 5c8e 662c b984 fa2b 0d84 5c2c
00000300: 66d2 c930 d2f3 f02e 0bd0 6332 a819 7331
00000310: 49bd 002e a63d 7331 2a47 5131 8c5d 3430
00000320: ed70 0131 3a1e 2a31 b8de cf31 97ec 942f
00000330: cea2 a62f d4e5 9a31 3e16 af31 c276 5c31
00000340: e3f2 9730 b372 b731 332b d632 e60b 7531
00000350: 4b2d 0331 f49d 7931 fe06 fd31 2571 5b32
00000360: fd21 7c30 efb8 c230 d14a 4d30 d5ab 6c31
00000370: 36a5 1f30 916c f231 89fa 8031 34e5 b331
00000380: ea9a c231 0a9b 8432 df97 0832 c6e2 cd2e
00000390: 8521 0330 2a6d ca2f d4ef a531 6011 1e30
000003a0: dd46 c92f 6151 0131 e73b 2130 5904 832e
000003b0: a608 0031 54ce 352c 7ed6 1331 8213 2832
000003c0: ce06 5132 a1ec 1f2e 2187 3230 4abd 2b32
000003d0: 30a3 9e31 e2a8 ad2f 34a2 562e 5a44 3f31
000003e0: ae53 5c31 4155 af2f 0bc0 fc30 ec6a a930
000003f0: bcea 432e 9ebc 0d31 a791 0f2f fe06 eb31
6.894011e-09 1.1830705e-09 2.3027784e-08 8.939329e-09 2.5319105e-10 1.1905894e-08 3.9542365e-09 2.3468925e-09
5.8541922e-09 9.392723e-09 2.4006432e-08 4.145332e-09 2.783246e-09 2.1832198e-08 6.7025048e-09 1.7503802e-09
5.656108e-09 1.6586629e-08 1.4664324e-08 1.9306512e-08 1.2338162e-08 1.1682958e-08 1.3626233e-08 1.2921552e-08
5.1470144e-09 1.8535299e-09 3.1429643e-09 1.5106057e-08 3.5618297e-09 3.2055667e-08 1.36508955e-08 6.991423e-09
2.0841982e-08 1.5182836e-08 2.2366839e-08 5.0353e-10 1.8482473e-09 2.348619e-09 2.7191513e-08 1.2536833e-08
1.131086e-08 6.0876184e-09 1.7598247e-09 4.1955095e-10 7.514428e-09 3.613241e-11 6.805838e-09 1.8338037e-08
1.4834355e-08 1.8256441e-10 6.8703687e-10 1.1783394e-08 1.3759689e-08 1.2186405e-09 7.3775996e-10 7.934406e-09
1.3586683e-08 1.09115845e-08 3.6920385e-09 2.0632472e-08 3.8412173e-11 1.2395785e-08 1.1182418e-08 2.984957e-08
3.3624703e-09 5.9307065e-10 1.0493965e-08 5.847781e-09 1.1957355e-10 5.769524e-09 1.224078e-09 1.4919053e-09
1.8295545e-09 5.9852767e-09 9.968152e-09 1.1503852e-09 7.144211e-10 7.703785e-09 3.0876188e-09 6.9500533e-10
1.6995435e-09 6.019266e-09 6.5006267e-09 6.159627e-09 3.6974634e-09 4.5015454e-09 5.8591656e-09 3.2672391e-09
1.5456244e-09 9.446102e-10 1.5745849e-09 6.664877e-09 1.37455e-09 1.0960212e-08 8.107559e-09 1.6887809e-09
6.9520723e-09 3.9452104e-09 5.90461e-09 3.7074424e-10 7.5240175e-10 3.684003e-10 9.045996e-09 3.6318584e-09
5.892885e-09 1.4143359e-09 2.5305436e-10 1.4526483e-10 5.5490745e-09 1.3359406e-11 1.8449778e-09 7.769796e-09
8.414364e-09 6.1065396e-11 2.7556493e-10 4.023981e-09 4.6814317e-09 4.296269e-10 2.3650756e-10 5.0666316e-09
5.1797713e-09 3.642093e-09 2.498518e-09 4.5501327e-09 7.340991e-12 2.0438817e-09 2.4519267e-09 1.1571953e-08
3.2405595e-12 1.9262163e-12 2.858389e-12 2.7865466e-12 3.1770925e-12 2.3680305e-12 1.7318651e-12 1.7845615e-12
2.3643839e-12 1.873068e-12 2.7593006e-12 1.8441045e-12 2.5157222e-12 2.7049949e-12 2.9001857e-12 3.1178823e-12
1.7925261e-12 2.8731353e-12 2.0565706e-12 3.174579e-12 2.9452552e-12 3.0740766e-12 3.1813911e-12 1.4180236e-12
1.9109304e-12 2.759113e-12 2.9988009e-12 2.7610958e-12 1.778304e-12 2.2822705e-12 1.408906e-12 1.5482144e-12
1.4440343e-12 3.000692e-12 3.1112786e-12 2.75673e-12 3.0970168e-12 2.0794937e-12 2.222141e-12 2.942561e-12
1.62771e-12 1.4473409e-12 2.9738395e-12 1.5903921e-12 1.8994517e-12 3.0996998e-12 1.5859514e-12 2.9460458e-12
2.966873e-12 3.0311396e-12 1.6672187e-12 1.4414447e-12 1.8714607e-12 2.187422e-12 2.4823882e-12 1.7963864e-12
2.531192e-12 1.9679943e-12 1.8365556e-12 2.8516811e-12 1.4703879e-12 3.2763991e-12 1.7800406e-12 3.1337183e-12
1.4684474e-09 1.09572476e-10 1.32604425e-08 3.5375738e-09 2.927195e-11 3.5396197e-09 3.0453955e-09 6.5616557e-10
1.8836162e-09 2.4755438e-09 6.049813e-09 2.708915e-10 3.0310904e-10 4.5081183e-09 5.095699e-09 3.208172e-09
1.1055729e-09 5.3390408e-09 2.4932524e-08 3.5658956e-09 1.9088755e-09 3.6324055e-09 7.364064e-09 1.2773204e-08
9.1725366e-10 1.4167919e-09 7.4684886e-10 3.4440195e-09 5.807864e-10 7.0554695e-09 3.753773e-09 5.235643e-09
5.663755e-09 1.5437326e-08 7.950773e-09 9.362604e-11 4.7705156e-10 3.6821152e-10 4.8293973e-09 5.7504757e-10
3.6612038e-10 1.881823e-09 5.8656585e-10 5.9579626e-11 1.8631368e-09 2.5836182e-12 2.151324e-09 9.783323e-09
1.2166948e-08 3.6362583e-11 6.494805e-10 9.996549e-09 4.6169575e-09 3.1588515e-10 4.8802032e-11 2.7833011e-09
3.206178e-09 3.189289e-10 1.8389995e-09 1.2326757e-09 4.4546353e-11 2.0625417e-09 1.305752e-10 6.840195e-09

exp_avg f4 [64, 44]
00000000: fbaf 5136 582a b6b7 1500 7fb7 9fde aab6
00000010: fda3 6035 8085 14b8 cd70 2237 9fde aab6
00000020: 69a2 4537 7cb3 a836 c5bc 8d36 9fde aab6
00000030: 888b e437 5af0 0cb8 fa7d 1fb6 9fde aab6
00000040: 385b 1037 87a5 c5b7 5186 3eb6 9fde aab6
00000050: 0000 0000 0000 0000 0000 0000 0000 0000
00000060: 0000 0000 0000 0000 0000 0000 0000 0000
00000070: 0000 0000 0000 0000 0000 0000 0000 0000
00000080: 0000 0000 0000 0000 0000 0000 0000 0000
00000090: 0000 0000 0000 0000 0000 0000 0000 0000
000000a0: 778a d935 7be9 98b6 c06b e4b6 4896 5538
000000b0: 8a0e 3f36 60fa 9435 934c d3b6 d696 d834
000000c0: c7c4 a136 8562 1236 a3ff c1b4 d696 d834
000000d0: 8878 5836 8c3d 01b6 884d b0b5 d696 d834
000000e0: 838e f834 5a12 9535 4f68 5bb6 d696 d834
000000f0: 2970 a836 084d 4035 2fa8 bcb5 d696 d834
00000100: 0000 0000 0000 0000 0000 0000 0000 0000
00000110: 0000 0000 0000 0000 0000 0000 0000 0000
00000120: 0000 0000 0000 0000 0000 0000 0000 0000
00000130: 0000 0000 0000 0000 0000 0000 0000 0000
00000140: 0000 0000 0000 0000 0000 0000 0000 0000
00000150: f801 c736 5c31 75b5 57b5 a9b6 445e 87b6
00000160: 9014 14b7 5ab7 19b6 e139 c737 b0dd 1bb6
00000170: de5f 2fb7 6ace 38b7 b216 9435 b0dd 1bb6
00000180: 485d 9636 5e48 a035 5e10 a537 b0dd 1bb6
00000190: cfca c737 b14b 10b7 dc13 4fb6 b0dd 1bb6
000001a0: dbc5 9f36 622f b3b6 6d6b 63b7 b0dd 1bb6
000001b0: 0000 0000 0000 0000 0000 0000 0000 0000
000001c0: 0000 0000 0000 0000 0000 0000 0000 0000
000001d0: 0000 0000 0000 0000 0000 0000 0000 0000
000001e0: 0000 0000 0000 0000 0000 0000 0000 0000
000001f0: 0000 0000 0000 0000 0000 0000 0000 0000
00000200: 4dc9 7f36 8e2d bc34 ff0e 8037 19d5 c237
00000210: 9def 2bb7 279d c937 a8f9 6238 aa68 0c37
00000220: c718 8036 c5a4 9338 30d3 9537 aa68 0c37
00000230: 9931 36b5 b987 d2b7 d353 d137 aa68 0c37
00000240: 3e20 85b8 6613 3238 e3f0 ce37 aa68 0c37
00000250: ec26 b5b5 285c 3737 897c 4038 aa68 0c37
00000260: 0000 0000 0000 0000 0000 0000 0000 0000
00000270: 0000 0000 0000 0000 0000 0000 0000 0000
00000280: 0000 0000 0000 0000 0000 0000 0000 0000
00000290: 0000 0000 0000 0000 0000 0000 0000 0000
000002a0: 0000 0000 0000 0000 0000 0000 0000 0000
000002b0: e8c5 1338 1bc9 8836 74d5 13b7 ce82 afb8
000002c0: 5f44 9335 abbc 83b5 6e80 a9b5 f6a0 c034
000002d0: 6c4c 0635 d480 9735 7fad a4b5 f6a0 c034
000002e0: 8358 0436 17c0 dcb5 3ddb 0eb6 f6a0 c034
000002f0: 2d9b 50b5 b93a b3b5 86d4 c234 f6a0 c034
00000300: 2741 c834 ba8e b034 baa5 0335 f6a0 c034
00000310: 0000 0000 0000 0000 0000 0000 0000 0000
00000320: 0000 0000 0000 0000 0000 0000 0000 0000
00000330: 0000 0000 0000 0000 0000 0000 0000 0000
00000340: 0000 0000 0000 0000 0000 0000 0000 0000
00000350: 0000 0000 0000 0000 0000 0000 0000 0000
00000360: 67b2 c835 3161 3334 1aea 4ab6 36c9 70b6
00000370: 7a16 21b6 07c8 eeb6 c43f ed36 c9db da34
00000380: 0b9e 64b7 8a1f 0ab7 f0bb 8fb6 c9db da34
00000390: 4691 d536 9ad3 fcb6 d32f 23b6 c9db da34
000003a0: 7912 b533 0d01 afb6 5e1d 00b7 c9db da34
000003b0: 4c39 c7b6 b30b ddb6 5798 2fb7 c9db da34
000003c0: 0000 0000 0000 0000 0000 0000 0000 0000
000003d0: 0000 0000 0000 0000 0000 0000 0000 0000
000003e0: 0000 0000 0000 0000 0000 0000 0000 0000
000003f0: 0000 0000 0000 0000 0000 0000 0000 0000
3.124586e-06 -2.1715809e-05 -1.51992035e-05 -5.0923113e-06 8.3685137e-07 -3.541028e-05 9.682216e-06 -5.0923113e-06
1.1779929e-05 5.027685e-06 4.224103e-06 -5.0923113e-06 2.7244692e-05 -3.3602446e-05 -2.3766174e-06 -5.0923113e-06
8.604307e-06 -2.356131e-05 -2.8390389e-06 -5.0923113e-06 0.0 0.0 0.0 0.0
0.0 0.0 0.0 0.0 0.0 0.0 0.0 0.0
0.0 0.0 0.0 0.0 0.0 0.0 0.0 0.0
1.6208058e-06 -4.5571337e-06 -6.8074733e-06 5.0923118e-05 2.846968e-06 1.1099728e-06 -6.2972044e-06 4.0342883e-07
4.821082e-06 2.1813041e-06 -3.6135052e-07 4.0342883e-07 3.2256667e-06 -1.9258323e-06 -1.3135586e-06 4.0342883e-07
4.629729e-07 1.1106706e-06 -3.2694259e-06 4.0342883e-07 5.0198473e-06 7.163767e-07 -1.4056039e-06 4.0342883e-07
0.0 0.0 0.0 0.0 0.0 0.0 0.0 0.0
0.0 0.0 0.0 0.0 0.0 0.0 0.0 0.0
0.0 0.0 0.0 0.0 5.9308913e-06 -9.134144e-07 -5.057703e-06 -4.0342875e-06
-8.826275e-06 -2.2905501e-06 2.37496e-05 -2.322584e-06 -1.0453134e-05 -1.1015314e-05 1.1033464e-06 -2.322584e-06
4.4812077e-06 1.1941991e-06 1.9677154e-05 -2.322584e-06 2.3817089e-05 -8.600692e-06 -3.0856963e-06 -2.322584e-06
4.7616027e-06 -5.340132e-06 -1.3555266e-05 -2.322584e-06 0.0 0.0 0.0 0.0
0.0 0.0 0.0 0.0 0.0 0.0 0.0 0.0
0.0 0.0 0.0 0.0 0.0 0.0 0.0 0.0
3.8115134e-06 3.5050874e-07 1.5265772e-05 2.3225834e-05 -1.0248184e-05 2.4034247e-05 5.411511e-05 8.369019e-06
3.8175817e-06 7.040197e-05 1.7860526e-05 8.369019e-06 -6.787246e-07 -2.5097152e-05 2.4953775e-05 8.369019e-06
-6.34794e-05 4.2456573e-05 2.4669285e-05 8.369019e-06 -1.3496879e-06 1.0929107e-05 4.589235e-05 8.369019e-06
0.0 0.0 0.0 0.0 0.0 0.0 0.0 0.0
0.0 0.0 0.0 0.0 0.0 0.0 0.0 0.0
0.0 0.0 0.0 0.0 3.5231846e-05 4.0765276e-06 -8.811581e-06 -8.3690145e-05
1.0972252e-06 -9.81517e-07 -1.2628859e-06 3.58799e-07 5.00301e-07 1.1287871e-06 -1.2269446e-06 3.58799e-07
1.9721053e-06 -1.6447183e-06 -2.1287262e-06 3.58799e-07 -7.771185e-07 -1.335363e-06 3.6289947e-07 3.58799e-07
3.7300308e-07 3.2886402e-07 4.9042467e-07 3.58799e-07 0.0 0.0 0.0 0.0
0.0 0.0 0.0 0.0 0.0 0.0 0.0 0.0
0.0 0.0 0.0 0.0 0.0 0.0 0.0 0.0
1.4953083e-06 1.6706032e-07 -3.023661e-06 -3.5879907e-06 -2.4003953e-06 -7.116239e-06 7.0705737e-06 4.076558e-07
-1.3626656e-05 -8.232784e-06 -4.283611e-06 4.076558e-07 6.3648067e-06 -7.534819e-06 -2.431673e-06 4.076558e-07
8.4318295e-08 -5.2155287e-06 -7.636232e-06 4.076558e-07 -5.9373324e-06 -6.587675e-06 -1.0466282e-05 4.076558e-07
0.0 0.0 0.0 0.0 0.0 0.0 0.0 0.0
0.0 0.0 0.0 0.0 0.0 0.0 0.0 0.0
