saved_weights/linear/linear_filter_fc1_204_26_0.5/saved_weights_linear_0.01_epoch-1_top1-1.000.pth.tar (torch_old, 440032 bytes, 18 tensors)

exp_avg f4 [64, 204]
00000000: d3b7 9735 a3f3 1237 2d84 1937 4930 a836
00000010: 6b3a 3437 afb1 ff34 3b83 2db7 4930 a836
00000020: a09b 12b6 45ba 9535 184d 6136 4930 a836
00000030: 2f70 4e36 60fd 8136 6a37 0bb7 4930 a836
00000040: ff1b 1237 a19e 7e35 9bbb 0e37 4930 a836
00000050: 0000 0000 0000 0000 0000 0000 0000 0000
00000060: 0000 0000 0000 0000 0000 0000 0000 0000
00000070: 0000 0000 0000 0000 0000 0000 0000 0000
00000080: 0000 0000 0000 0000 0000 0000 0000 0000
00000090: 0000 0000 0000 0000 0000 0000 0000 0000
000000a0: 0000 0000 0000 0000 0000 0000 0000 0000
000000b0: 0000 0000 0000 0000 0000 0000 0000 0000
000000c0: 0000 0000 0000 0000 0000 0000 0000 0000
000000d0: 0000 0000 0000 0000 0000 0000 0000 0000
000000e0: 0000 0000 0000 0000 0000 0000 0000 0000
000000f0: 0000 0000 0000 0000 0000 0000 0000 0000
00000100: 0000 0000 0000 0000 0000 0000 0000 0000
00000110: 0000 0000 0000 0000 0000 0000 0000 0000
00000120: 0000 0000 0000 0000 0000 0000 0000 0000
00000130: 0000 0000 0000 0000 0000 0000 0000 0000
00000140: 0000 0000 0000 0000 0000 0000 0000 0000
00000150: 0000 0000 0000 0000 0000 0000 0000 0000
00000160: 0000 0000 0000 0000 0000 0000 0000 0000
00000170: 0000 0000 0000 0000 0000 0000 0000 0000
00000180: 0000 0000 0000 0000 0000 0000 0000 0000
00000190: 0000 0000 0000 0000 0000 0000 0000 0000
000001a0: 0000 0000 0000 0000 0000 0000 0000 0000
000001b0: 0000 0000 0000 0000 0000 0000 0000 0000
000001c0: 0000 0000 0000 0000 0000 0000 0000 0000
000001d0: 0000 0000 0000 0000 0000 0000 0000 0000
000001e0: 0000 0000 0000 0000 0000 0000 0000 0000
000001f0: 0000 0000 0000 0000 0000 0000 0000 0000
00000200: 0000 0000 0000 0000 0000 0000 0000 0000
00000210: 0000 0000 0000 0000 0000 0000 0000 0000
00000220: 0000 0000 0000 0000 0000 0000 0000 0000
00000230: 0000 0000 0000 0000 0000 0000 0000 0000
00000240: 0000 0000 0000 0000 0000 0000 0000 0000
00000250: 0000 0000 0000 0000 0000 0000 0000 0000
00000260: 0000 0000 0000 0000 0000 0000 0000 0000
00000270: 0000 0000 0000 0000 0000 0000 0000 0000
00000280: 0000 0000 0000 0000 0000 0000 0000 0000
00000290: 0000 0000 0000 0000 0000 0000 0000 0000
000002a0: 0000 0000 0000 0000 0000 0000 0000 0000
000002b0: 0000 0000 0000 0000 0000 0000 0000 0000
000002c0: 0000 0000 0000 0000 0000 0000 0000 0000
000002d0: 0000 0000 0000 0000 0000 0000 0000 0000
000002e0: 0000 0000 0000 0000 0000 0000 0000 0000
000002f0: 0000 0000 0000 0000 0000 0000 0000 0000
00000300: 0000 0000 0000 0000 0000 0000 0000 0000
00000310: 0000 0000 0000 0000 0000 0000 0000 0000
00000320: 1608 b537 914e ac37 e3d4 ab36 603c 52b8
00000330: eef2 aeb7 911a 56b7 d42a c8b4 c45d 3f37
00000340: 24cd 6eb7 c127 99b7 3044 cab7 c45d 3f37
00000350: 205d 91b7 ee75 ac34 6e5d 2937 c45d 3f37
00000360: 5964 b4b6 7508 7736 17cf c1b6 c45d 3f37
00000370: be04 b3b7 5b0b 8637 3ed9 cf37 c45d 3f37
00000380: 0000 0000 0000 0000 0000 0000 0000 0000
00000390: 0000 0000 0000 0000 0000 0000 0000 0000
000003a0: 0000 0000 0000 0000 0000 0000 0000 0000
000003b0: 0000 0000 0000 0000 0000 0000 0000 0000
000003c0: 0000 0000 0000 0000 0000 0000 0000 0000
000003d0: 0000 0000 0000 0000 0000 0000 0000 0000
000003e0: 0000 0000 0000 0000 0000 0000 0000 0000
000003f0: 0000 0000 0000 0000 0000 0000 0000 0000
1.1303877e-06 8.759004e-06 9.150285e-06 5.0124113e-06 1.0742438e-05 4.7626733e-07 -1.0342158e-05 5.0124113e-06
-2.184628e-06 1.1155577e-06 3.3572487e-06 5.0124113e-06 3.0761692e-06 3.8739963e-06 -8.297948e-06 5.0124113e-06
8.7087965e-06 9.485321e-07 8.50754e-06 5.0124113e-06 0.0 0.0 0.0 0.0
0.0 0.0 0.0 0.0 0.0 0.0 0.0 0.0
0.0 0.0 0.0 0.0 0.0 0.0 0.0 0.0
0.0 0.0 0.0 0.0 0.0 0.0 0.0 0.0
0.0 0.0 0.0 0.0 0.0 0.0 0.0 0.0
0.0 0.0 0.0 0.0 0.0 0.0 0.0 0.0
0.0 0.0 0.0 0.0 0.0 0.0 0.0 0.0
0.0 0.0 0.0 0.0 0.0 0.0 0.0 0.0
0.0 0.0 0.0 0.0 0.0 0.0 0.0 0.0
0.0 0.0 0.0 0.0 0.0 0.0 0.0 0.0
0.0 0.0 0.0 0.0 0.0 0.0 0.0 0.0
0.0 0.0 0.0 0.0 0.0 0.0 0.0 0.0
0.0 0.0 0.0 0.0 0.0 0.0 0.0 0.0
0.0 0.0 0.0 0.0 0.0 0.0 0.0 0.0
0.0 0.0 0.0 0.0 0.0 0.0 0.0 0.0
0.0 0.0 0.0 0.0 0.0 0.0 0.0 0.0
0.0 0.0 0.0 0.0 0.0 0.0 0.0 0.0
0.0 0.0 0.0 0.0 0.0 0.0 0.0 0.0
0.0 0.0 0.0 0.0 0.0 0.0 0.0 0.0
0.0 0.0 0.0 0.0 0.0 0.0 0.0 0.0
0.0 0.0 0.0 0.0 0.0 0.0 0.0 0.0
0.0 0.0 0.0 0.0 0.0 0.0 0.0 0.0
0.0 0.0 0.0 0.0 0.0 0.0 0.0 0.0
2.1580647e-05 2.0540583e-05 5.1209804e-06 -5.012413e-05 -2.085554e-05 -1.27615795e-05 -3.7284065e-07 1.1406319e-05
-1.42336685e-05 -1.8257533e-05 -2.4112029e-05 1.1406319e-05 -1.7328712e-05 3.2123302e-07 1.0094938e-05 1.1406319e-05
-5.3761e-06 3.681079e-06 -5.7759567e-06 1.1406319e-05 -2.1340671e-05 1.5979333e-05 2.4777484e-05 1.1406319e-05
0.0 0.0 0.0 0.0 0.0 0.0 0.0 0.0
0.0 0.0 0.0 0.0 0.0 0.0 0.0 0.0
0.0 0.0 0.0 0.0 0.0 0.0 0.0 0.0
0.0 0.0 0.0 0.0 0.0 0.0 0.0 0.0

exp_avg_sq f4 [64, 204]
00000000: 7eb5 6c35 d52e 0134 5b3b 7334 e1d7 0233
00000010: 1f6d ec34 bf25 2735 f791 8535 e1d7 0233
00000020: 9720 0735 8853 4135 8a1c 2035 e1d7 0233
00000030: 57b6 a134 e128 ba35 6cfb 2035 e1d7 0233
00000040: b895 7f35 6592 8434 d53d 8834 e1d7 0233
00000050: 0000 0000 0000 0000 0000 0000 0000 0000
00000060: 0000 0000 0000 0000 0000 0000 0000 0000
00000070: 0000 0000 0000 0000 0000 0000 0000 0000
00000080: 0000 0000 0000 0000 0000 0000 0000 0000
00000090: 0000 0000 0000 0000 0000 0000 0000 0000
000000a0: 0000 0000 0000 0000 0000 0000 0000 0000
000000b0: 0000 0000 0000 0000 0000 0000 0000 0000
000000c0: 0000 0000 0000 0000 0000 0000 0000 0000
000000d0: 0000 0000 0000 0000 0000 0000 0000 0000
000000e0: 0000 0000 0000 0000 0000 0000 0000 0000
000000f0: 0000 0000 0000 0000 0000 0000 0000 0000
00000100: 0000 0000 0000 0000 0000 0000 0000 0000
00000110: 0000 0000 0000 0000 0000 0000 0000 0000
00000120: 0000 0000 0000 0000 0000 0000 0000 0000
00000130: 0000 0000 0000 0000 0000 0000 0000 0000
00000140: 0000 0000 0000 0000 0000 0000 0000 0000
00000150: 0000 0000 0000 0000 0000 0000 0000 0000
00000160: 0000 0000 0000 0000 0000 0000 0000 0000
00000170: 0000 0000 0000 0000 0000 0000 0000 0000
00000180: 0000 0000 0000 0000 0000 0000 0000 0000
00000190: 0000 0000 0000 0000 0000 0000 0000 0000
000001a0: 0000 0000 0000 0000 0000 0000 0000 0000
000001b0: 0000 0000 0000 0000 0000 0000 0000 0000
000001c0: 0000 0000 0000 0000 0000 0000 0000 0000
000001d0: 0000 0000 0000 0000 0000 0000 0000 0000
000001e0: 0000 0000 0000 0000 0000 0000 0000 0000
000001f0: 0000 0000 0000 0000 0000 0000 0000 0000
00000200: 0000 0000 0000 0000 0000 0000 0000 0000
00000210: 0000 0000 0000 0000 0000 0000 0000 0000
00000220: 0000 0000 0000 0000 0000 0000 0000 0000
00000230: 0000 0000 0000 0000 0000 0000 0000 0000
00000240: 0000 0000 0000 0000 0000 0000 0000 0000
00000250: 0000 0000 0000 0000 0000 0000 0000 0000
00000260: 0000 0000 0000 0000 0000 0000 0000 0000
00000270: 0000 0000 0000 0000 0000 0000 0000 0000
00000280: 0000 0000 0000 0000 0000 0000 0000 0000
00000290: 0000 0000 0000 0000 0000 0000 0000 0000
000002a0: 0000 0000 0000 0000 0000 0000 0000 0000
000002b0: 0000 0000 0000 0000 0000 0000 0000 0000
000002c0: 0000 0000 0000 0000 0000 0000 0000 0000
000002d0: 0000 0000 0000 0000 0000 0000 0000 0000
000002e0: 0000 0000 0000 0000 0000 0000 0000 0000
000002f0: 0000 0000 0000 0000 0000 0000 0000 0000
00000300: 0000 0000 0000 0000 0000 0000 0000 0000
00000310: 0000 0000 0000 0000 0000 0000 0000 0000
00000320: c7c5 a635 53d1 b534 fca3 3c35 8971 4c36
00000330: 40ee b136 4954 6035 9689 5b36 9e74 8434
00000340: 6379 8536 5f5c 0037 bdac c936 9e74 8434
00000350: ed4f ff36 0960 9035 7827 c436 9e74 8434
00000360: f4a1 1736 28e1 8e37 cb05 fc36 9e74 8434
00000370: efbb 6237 1c34 0c33 38e3 5e36 9e74 8434
00000380: 0000 0000 0000 0000 0000 0000 0000 0000
00000390: 0000 0000 0000 0000 0000 0000 0000 0000
000003a0: 0000 0000 0000 0000 0000 0000 0000 0000
000003b0: 0000 0000 0000 0000 0000 0000 0000 0000
000003c0: 0000 0000 0000 0000 0000 0000 0000 0000
000003d0: 0000 0000 0000 0000 0000 0000 0000 0000
000003e0: 0000 0000 0000 0000 0000 0000 0000 0000
000003f0: 0000 0000 0000 0000 0000 0000 0000 0000
8.8180957e-07 1.2031099e-07 2.2652732e-07 3.0464324e-08 4.4037822e-07 6.2267276e-07 9.951754e-07 3.0464324e-08
5.0338843e-07 7.2019657e-07 5.9646175e-07 3.0464324e-08 3.0121257e-07 1.3869977e-06 5.997051e-07 3.0464324e-08
9.521277e-07 2.4693432e-07 2.5376963e-07 3.0464324e-08 0.0 0.0 0.0 0.0
0.0 0.0 0.0 0.0 0.0 0.0 0.0 0.0
0.0 0.0 0.0 0.0 0.0 0.0 0.0 0.0
0.0 0.0 0.0 0.0 0.0 0.0 0.0 0.0
0.0 0.0 0.0 0.0 0.0 0.0 0.0 0.0
0.0 0.0 0.0 0.0 0.0 0.0 0.0 0.0
0.0 0.0 0.0 0.0 0.0 0.0 0.0 0.0
0.0 0.0 0.0 0.0 0.0 0.0 0.0 0.0
0.0 0.0 0.0 0.0 0.0 0.0 0.0 0.0
0.0 0.0 0.0 0.0 0.0 0.0 0.0 0.0
0.0 0.0 0.0 0.0 0.0 0.0 0.0 0.0
0.0 0.0 0.0 0.0 0.0 0.0 0.0 0.0
0.0 0.0 0.0 0.0 0.0 0.0 0.0 0.0
0.0 0.0 0.0 0.0 0.0 0.0 0.0 0.0
0.0 0.0 0.0 0.0 0.0 0.0 0.0 0.0
0.0 0.0 0.0 0.0 0.0 0.0 0.0 0.0
0.0 0.0 0.0 0.0 0.0 0.0 0.0 0.0
0.0 0.0 0.0 0.0 0.0 0.0 0.0 0.0
0.0 0.0 0.0 0.0 0.0 0.0 0.0 0.0
0.0 0.0 0.0 0.0 0.0 0.0 0.0 0.0
0.0 0.0 0.0 0.0 0.0 0.0 0.0 0.0
0.0 0.0 0.0 0.0 0.0 0.0 0.0 0.0
0.0 0.0 0.0 0.0 0.0 0.0 0.0 0.0
1.2425525e-06 3.386618e-07 7.0274086e-07 3.0464455e-06 5.302747e-06 8.3569154e-07 3.2713629e-06 2.4671766e-07
3.97784e-06 7.650901e-06 6.010376e-06 2.4671766e-07 7.608897e-06 1.0756786e-06 5.84585e-06 2.4671766e-07
2.2595023e-06 1.7032566e-05 7.5108596e-06 2.4671766e-07 1.3514406e-05 3.2643683e-08 3.3212837e-06 2.4671766e-07
0.0 0.0 0.0 0.0 0.0 0.0 0.0 0.0
0.0 0.0 0.0 0.0 0.0 0.0 0.0 0.0
0.0 0.0 0.0 0.0 0.0 0.0 0.0 0.0
0.0 0.0 0.0 0.0 0.0 0.0 0.0 0.0

exp_avg f4 [256, 64]
00000000: 3b42 c6ab 06d4 76a2 26a3 d22b 3331 12ac
00000010: 1f19 1d26 c2a9 832a a771 01b2 0300 0080
00000020: a0ca 38a8 b0d5 b71e 8694 6929 0100 0080
00000030: 212e a331 49af 3ab1 331e edab a445 232d
00000040: d3a3 0232 4e5d 5d2d 4df5 2828 be97 14aa
00000050: 4d5d 379c 041d 4eb2 bde0 8a31 73dc f3a0
00000060: f077 38b2 0606 1c2c f9fb 0e31 08ff a3a7
00000070: c8ef a504 ef6c c4b2 d74d 6218 48a4 3628
00000080: ea24 37b2 922b 79ac e56a 98a9 1e7d d21d
00000090: c04b 4fad e498 3031 af66 97ab 3d59 8e9c
000000a0: 56b2 5aad 0500 0000 8175 27a9 c828 b9a7
000000b0: eff0 982b f969 7ab1 57e7 d32a 6a67 102e
000000c0: 0300 0000 4452 3cb1 1778 25a9 b7fa 522e
000000d0: ce79 c9ac aa0f e6a7 d307 b82c 2e4a 48ae
000000e0: a26e 2734 1570 e523 7255 c5a4 003c 3eb2
000000f0: 41dd 91aa c853 ac32 b7ad 162f b4b4 81a6
00000100: c591 a6b1 3738 74b1 3ec6 9cb1 7c14 e5b0
00000110: afc0 3fb1 d719 7131 d15c 7b30 cf44 7ab1
00000120: b741 3432 6341 8f31 0187 0831 7ea9 52b1
00000130: e20d ae30 d9bc 9cb1 26a0 acb1 0300 0080
00000140: a155 0231 972a e6b0 a3cb 7ab2 78fd 92b1
00000150: 76a2 0c31 7c04 a131 e5ff a731 38a0 6eb1
00000160: 14af 95b1 7d44 07b2 3fdd ff31 0010 f631
00000170: be1f 00b1 75d5 b6b1 0a72 3bb1 4ec9 b031
00000180: b8b3 b931 92a4 8d31 4f65 ff30 172b 06b1
00000190: 863a c831 f88f eab1 7362 3530 5dd3 8eaf
000001a0: 6e3f c331 3388 7131 0000 0000 0c1e b931
000001b0: 6110 31b1 a09a fab1 1373 c5b1 2add c92f
000001c0: c40e d0b1 ef41 a7b1 667f a7af 7882 b431
000001d0: 3291 8e31 6991 b131 6a5d c1b1 0000 0000
000001e0: 40f2 8831 c4cf b6b1 c4e9 b131 898f 24b1
000001f0: aa82 89b0 bff3 4ab0 1c30 d2af 8b50 9eb1
00000200: e5fc 7535 553e 7c36 a03f cb36 8e41 21b5
00000210: a1f0 7036 a9c3 c836 dff7 3836 b73f 1cb3
00000220: 5629 3436 d127 3036 000e bd36 e2cc 37b5
00000230: 09dd d8b6 27e4 7c35 8ba9 bf36 3189 9736
00000240: 2bbe c535 a438 a236 8dec 1b37 4839 f3b4
00000250: 1c84 e536 0400 0000 0400 0000 a18c 2537
00000260: 0400 0000 b517 b435 98f1 2c27 0708 d836
00000270: 34d8 9132 470e 1daf 873f 26b5 d728 9636
00000280: eecf 1d35 3d42 5d36 3362 3537 5601 2636
00000290: 1b6e ac36 17cd 3cb6 acf2 a336 ec08 49b4
000002a0: 070c 8436 fc9d 6eb5 f496 3bb6 7717 8d35
000002b0: 984a 8736 0400 0000 12c4 ad36 c99f 3e37
000002c0: ddf0 2932 5cf9 e736 5f0f 9037 c2fd d837
000002d0: a41b 4d37 f6c0 0536 5506 1337 b341 7c35
000002e0: 1a33 ac36 33a9 7f36 d225 9136 dea8 99b6
000002f0: ede6 3f37 a7a4 5fb2 5f24 8db6 c616 d9b3
00000300: e6c5 21b9 7893 6c39 775b 05b8 2987 a5b8
00000310: 5c2e 44b8 21c0 95b7 a1d2 2ab8 90f2 3c34
00000320: 26e3 35b7 f68e 20b5 e3e0 1d39 71fc 1f34
00000330: fe11 9bb8 6014 1535 f2ef 28b8 c43c 3db9
00000340: ef19 e4b7 d295 8138 01bc 6cb8 69c7 1338
00000350: d12e a036 359e 8531 7dba 97af 542c 32b8
00000360: f131 feb1 7310 49b7 5fd6 2b2c 2aae 0137
00000370: 13e1 89b3 d770 7d2f 2423 90b7 e10b b0b8
00000380: 895c ec38 ae12 1bb6 b7b3 dfb6 4c3f a136
00000390: b219 c638 061e 9e37 0812 dab5 507c ac36
000003a0: abed 8db7 fed0 2f36 5274 bbb8 5dfe 7bb8
000003b0: 5a56 cfb7 eb1e 26b1 692c 8bb8 735d 18b8
000003c0: ae94 f7b5 1117 73b8 a609 08b8 e1fc eab5
000003d0: 80c7 37b8 ce3c a6b7 fe5d 81b8 fd83 10b8
000003e0: ddf9 87b8 a4e1 b037 bc61 54b7 8f97 9037
000003f0: 6a5f f7b7 7686 0934 d4e6 a6b7 f3e1 6db9
-1.4087129e-12 -3.3451461e-18 1.496668e-12 -2.077516e-12 5.450436e-16 2.3388068e-13 -7.53463e-09 -4e-45
-1.0257989e-14 1.9464258e-20 5.1865216e-14 -1e-45 4.7491686e-09 -2.71662e-09 -1.6848245e-12 9.280941e-12
7.604245e-09 1.2583113e-11 9.3790645e-15 -1.3197687e-13 -6.067021e-22 -1.19973755e-08 4.0418784e-09 -4.1311682e-19
-1.073748e-08 2.2172277e-12 2.080695e-09 -4.5518094e-15 3.9011518e-36 -2.286694e-08 2.9249114e-24 1.0138652e-14
-1.0660395e-08 -3.5409215e-12 -6.768699e-14 5.5715905e-21 -1.1783408e-11 2.569828e-09 -1.0757696e-12 -9.419839e-22
-1.2431464e-11 7e-45 -3.7183367e-14 -5.139203e-15 1.0867122e-12 -3.6440027e-09 3.7641654e-13 3.283366e-11
4e-45 -2.7404363e-09 -3.674152e-14 4.797115e-11 -5.7262866e-12 -6.3854807e-15 5.230463e-12 -4.554062e-11
1.5593335e-07 2.4875698e-17 -8.557988e-17 -1.1073098e-08 -2.59107e-13 2.0061535e-08 1.3704136e-10 -9.000153e-16
-4.847808e-09 -3.5538628e-09 -4.562735e-09 -1.6667765e-09 -2.7903686e-09 3.5084804e-09 9.144517e-10 -3.6418901e-09
1.0492321e-08 4.1692814e-09 1.9867346e-09 -3.0655367e-09 1.2664112e-09 -4.561667e-09 -5.0240656e-09 -4e-45
1.8966164e-09 -1.6746807e-09 -1.4598217e-08 -4.2779753e-09 2.046503e-09 4.6862265e-09 4.8894315e-09 -3.4724632e-09
-4.356375e-09 -7.873607e-09 7.4466295e-09 7.1613613e-09 -1.8644495e-09 -5.3211644e-09 -2.7276905e-09 5.14516e-09
5.4046403e-09 4.1223496e-09 1.8582486e-09 -1.952406e-09 5.8274194e-09 -6.8266637e-09 6.598732e-10 -2.5979832e-10
5.682458e-09 3.5147536e-09 0.0 5.3876246e-09 -2.57662e-09 -7.2935364e-09 -5.746537e-09 3.6718834e-10
-6.0552754e-09 -4.8678355e-09 -3.0467645e-10 5.253522e-09 4.1492507e-09 5.167909e-09 -5.6276592e-09 0.0
3.9856616e-09 -5.3205174e-09 5.177954e-09 -2.3946731e-09 -1.0005199e-09 -7.3833556e-10 -3.823296e-10 -4.607562e-09
9.163762e-07 3.7587208e-06 6.0572784e-06 -6.007257e-07 3.5902851e-06 5.9832423e-06 2.7562417e-06 -3.637953e-08
2.684615e-06 2.624922e-06 5.6342687e-06 -6.8470956e-07 -6.4630335e-06 9.420932e-07 5.711981e-06 4.516122e-06
1.473299e-06 4.83457e-06 9.293796e-06 -4.5303955e-07 6.8401114e-06 6e-45 6e-45 9.867509e-06
6e-45 1.3417945e-06 2.4000763e-15 6.438236e-06 1.697854e-08 -1.4284139e-10 -6.1932263e-07 4.4751027e-06
5.8789635e-07 3.2970122e-06 1.08113045e-05 2.4736705e-06 5.1388174e-06 -2.813356e-06 4.8860293e-06 -1.872283e-07
3.9353067e-06 -8.8891807e-07 -2.7953038e-06 1.0512148e-06 4.0319974e-06 6e-45 5.1786274e-06 1.1362085e-05
9.891861e-09 6.9133657e-06 1.7173295e-05 2.5867372e-05 1.2225388e-05 1.9930862e-06 8.763357e-06 9.397292e-07
5.1319485e-06 3.8096448e-06 4.3257396e-06 -4.579414e-06 1.1438254e-05 -1.3017746e-08 -4.2063616e-06 -1.01089924e-07
-0.0001542788 0.0002256165 -3.1794854e-05 -7.892989e-05 -4.6773217e-05 -1.7851651e-05 -4.0727322e-05 1.7597108e-07
-1.0841328e-05 -5.981268e-07 0.00015056464 1.4899867e-07 -7.394327e-05 5.5536475e-07 -4.0277788e-05 -0.00018047082
-2.7191794e-05 6.1791055e-05 -5.6441877e-05 3.5233246e-05 4.7738217e-06 3.8887955e-09 -2.7599248e-10 -4.247979e-05
-7.3980506e-09 -1.19843635e-05 2.4419561e-12 7.72955e-06 -6.4205004e-08 2.3050305e-10 -1.7182501e-05 -8.3945466e-05
0.00011270593 -2.3107673e-06 -6.6668395e-06 4.8055426e-06 9.446162e-05 1.8849049e-05 -1.6247513e-06 5.1404713e-06
-1.6919183e-05 2.6198682e-06 -8.938521e-05 -6.0079958e-05 -2.4716534e-05 -2.4173754e-09 -6.6363085e-05 -3.6326655e-05
-1.8446206e-06 -5.7957197e-05 -3.2433913e-05 -1.7507956e-06 -4.38164e-05 -1.9817056e-05 -6.168707e-05 -3.44552e-05
-6.483842e-05 2.1085907e-05 -1.265894e-05 1.7236713e-05 -2.9489125e-05 1.2808036e-07 -1.989623e-05 -0.00022686254

exp_avg_sq f4 [256, 64]
00000000: 23a2 852d f5b7 592c f981 392d bb4b 8d2d
00000010: 79b9 fc2c fd4f 852d 8c3d 9d2e 5700 f026
00000020: 6ff5 b42c 702a ee2b 6aca 012d 697b e225
00000030: 1b3f 9c2e ffb3 c527 93ae c92d 3ab2 be2d
00000040: 5955 642e 52d3 a82d 27f6 362d 5821 132d
00000050: 1efa d02b 8307 8927 ec9a 9327 ad6d 352c
00000060: 1074 8827 ffe4 4f2d 0307 7127 3f15 0a2d
00000070: a00e 022a e0ba 9625 0d24 922b 16db cd2c
00000080: 3c19 872e 336f ed2d e1be 072d 1d07 c62b
00000090: 2a89 a72d 8376 3c2e 4d2e 8c2d 32a4 de2b
000000a0: c5e8 b02d 95ce 1727 4a4e 602d aa2f d72c
000000b0: 1545 a02d 0d35 c427 f765 532d 3be5 012e
000000c0: 0403 8828 646e 3a2e 09bf 292d 0a35 0b2e
000000d0: bec9 a82d f3d8 ba2c 64e5 c32d beaf f12d
000000e0: 361c 102f 0bac 692c a672 7d2c 17e3 892e
000000f0: fb22 1f2d ba5d 1727 4172 122e 9eed a22c
00000100: e56e dc27 d9d1 c527 a77f aa27 12db ce27
00000110: 16f4 d327 52fc e727 6d34 c627 be17 f427
00000120: 1b77 2b27 c3f3 e327 4549 cb26 420a c227
00000130: caca d827 3270 d327 1cd9 df27 da0e 2d2a
00000140: de70 c627 056e f027 fada 5227 423d ec27
00000150: cdcb d527 5b85 f027 fe7d d427 56ae c927
00000160: c635 b227 e142 b127 7f93 9027 410a 5127
00000170: 052a cd27 10de eb27 d455 ca27 d697 ed27
00000180: 6d95 ec27 1e36 c027 101c da27 6415 cc27
00000190: 11f8 dc27 d722 9727 06b3 c627 22f3 db27
000001a0: 702e ee27 1c40 c127 3424 3822 d7ec ba27
000001b0: 645c c127 1248 b527 51a2 d027 c6be ef27
000001c0: b665 ca27 71f7 d527 531d e327 8489 ce27
000001d0: a40d ea27 c518 de27 2970 e327 cdf3 7128
000001e0: 7f8c bf27 51c4 e927 4e15 e727 b9c0 e127
000001f0: c16b dd27 5ee9 c927 f4a0 d427 ae1f df27
00000200: dc56 2233 784a 7f33 89d0 0d33 44b0 0433
00000210: 0841 0b33 2cca ae33 2dd0 1531 de3b e830
00000220: 6115 0a33 8b4b 0832 398e 7133 0533 792f
00000230: b8af 9933 d99f 052f 128f 0033 fe86 2833
00000240: 8c6e d933 fe98 2134 72b1 2634 5fa0 ea31
00000250: 181a c732 2858 0d21 884e b920 e918 d632
00000260: 6cf2 8721 4da8 8e31 df28 1b28 cb9f e033
00000270: ef68 b931 4bad 3528 c418 8730 0014 a433
00000280: a159 8432 1967 9333 1b95 2e34 2a52 9533
00000290: ff9f 8733 7023 9233 b420 cf33 bf83 3a34
000002a0: 8eff 2435 dfd0 c730 ebfe 8633 97ea 4231
000002b0: 3538 d633 9687 1c21 df03 4433 af93 6534
000002c0: 4fbb e732 2510 a833 7c61 b034 802e 9735
000002d0: 7585 0934 92a5 ae32 2f2d 3235 113a 0a2e
000002e0: 64a4 1034 af26 cc32 32dd 0233 fc20 3933
000002f0: c4c6 cb34 7fa9 ac27 d835 0433 8b23 d732
00000300: b3f7 6d35 1ddb 4235 95cf 2435 5f40 7a35
00000310: 3fab 7533 6781 9635 f0e1 8b36 f52b 542f
00000320: 3a60 1e34 6b71 6632 6566 2234 f33e ac2e
00000330: 5122 ea36 68b7 082f 5900 cf35 ab5d 9a35
00000340: 1ee7 3437 0fe0 9734 8a46 6335 5c39 7034
00000350: 5853 2736 1970 ef27 47d8 e426 6f52 8a36
00000360: fb92 7b27 bcaf f034 e1a0 e426 036c 5a35
00000370: 6f76 1430 2143 5827 96a1 6c35 b57e 1435
00000380: ddca 0836 1da2 2736 1778 5533 ec5f 3332
00000390: 3c31 9635 f096 1b36 8eb2 6a34 1dac f232
000003a0: ee1e 0c34 d56d 6b32 344f 1236 cc30 c435
000003b0: e4e6 1b36 c5ce e727 3c6e 1735 8292 5635
000003c0: 72ad 2e32 3a16 8136 d0f2 4235 31eb 8634
000003d0: 613b d235 0b59 7335 b73c 1236 019a f036
000003e0: 8247 6b36 f5ea 2f33 05af 4233 398b 1b37
000003f0: 1e22 5635 ec48 c22d c639 0b36 6220 b635
1.5192353e-11 3.0939671e-12 1.0544892e-11 1.6063475e-11 7.1828624e-12 1.5155871e-11 7.150466e-11 1.6653437e-15
5.1431563e-12 1.6922696e-12 7.377746e-12 3.9288377e-16 7.1052685e-11 5.4873636e-15 2.2928581e-11 2.1679648e-11
5.1917002e-11 1.9193234e-11 1.0400159e-11 8.363386e-12 1.484871e-12 3.8033283e-15 4.0968663e-15 2.578253e-12
3.787342e-15 1.1817435e-11 3.344927e-15 7.849109e-12 1.1551394e-13 2.6147484e-16 1.038393e-12 5.850774e-12
6.143572e-11 2.6993163e-11 7.716245e-12 1.407072e-12 1.9046615e-11 4.285151e-11 1.5936719e-11 1.5819622e-12
2.0112254e-11 2.1067448e-15 1.27503095e-11 6.1159593e-12 1.8220573e-11 5.4458446e-15 1.2016602e-11 2.95348e-11
1.5100341e-14 4.238955e-11 9.648956e-12 3.165205e-11 1.918898e-11 5.310524e-12 2.2270803e-11 2.7476573e-11
1.3106746e-10 3.3206795e-12 3.6017105e-12 6.270378e-11 9.045871e-12 2.1006269e-15 3.3298034e-11 4.6306977e-12
6.11825e-15 5.4906e-15 4.732288e-15 5.7414002e-15 5.8828903e-15 6.4388946e-15 5.501288e-15 6.7749346e-15
2.3795584e-15 6.3269444e-15 1.4105814e-15 5.385694e-15 6.0171908e-15 5.8685907e-15 6.2130324e-15 1.537064e-13
5.507841e-15 6.6732665e-15 2.9262062e-15 6.5569574e-15 5.9340337e-15 6.6757966e-15 5.897842e-15 5.5977722e-15
4.9463226e-15 4.919988e-15 4.0127944e-15 2.9010135e-15 5.6944488e-15 6.5466363e-15 5.6159318e-15 6.5945335e-15
6.5665166e-15 5.334938e-15 6.053758e-15 5.6644566e-15 6.133122e-15 4.1948693e-15 5.5150137e-15 6.1048316e-15
6.6108618e-15 5.363777e-15 2.4955816e-18 5.1882153e-15 5.366843e-15 5.031573e-15 5.790758e-15 6.6542663e-15
5.617654e-15 5.9387653e-15 6.303695e-15 5.732558e-15 6.4962836e-15 6.1644233e-15 6.312676e-15 1.3431053e-14
5.3165476e-15 6.4883338e-15 6.413848e-15 6.2658995e-15 6.145665e-15 5.6041724e-15 5.9016326e-15 6.192928e-15
3.7797562e-08 5.9439543e-08 3.3018782e-08 3.0893958e-08 3.2422605e-08 8.139281e-08 2.1800688e-09 1.6897237e-09
3.2150073e-08 7.933418e-09 5.6241536e-08 2.2664544e-10 7.156581e-08 1.2153069e-10 2.9932444e-08 3.9238323e-08
1.0124958e-07 1.5049952e-07 1.5524509e-07 6.8285284e-09 2.3178515e-08 4.788933e-19 3.1392187e-19 2.4924207e-08
9.212124e-19 4.1518775e-09 8.613091e-15 1.0459879e-07 5.396138e-09 1.0085095e-14 9.829582e-10 7.640483e-08
1.5407581e-08 6.863974e-08 1.6259257e-07 6.953299e-08 6.3155305e-08 6.805101e-08 9.645137e-08 1.7370529e-07
6.146664e-07 1.453852e-09 6.2862306e-08 2.8364064e-09 9.9753755e-08 5.30343e-19 4.5638327e-08 2.1381014e-07
2.6977117e-08 7.826046e-08 3.2853484e-07 1.126391e-06 1.280767e-07 2.0331559e-08 6.637592e-07 3.142914e-11
1.347085e-07 2.3766317e-08 3.046916e-08 4.3103668e-08 3.7956318e-07 4.792336e-15 3.0782616e-08 2.5045457e-08
8.864983e-07 7.2589484e-07 6.139683e-07 9.322593e-07 5.7199255e-08 1.1213532e-06 4.1688254e-06 1.9296904e-10
1.4749904e-07 1.341355e-08 1.5124677e-07 7.8328365e-11 6.9777384e-06 1.2434287e-10 1.5422803e-06 1.1501155e-06
1.0782647e-05 2.8288966e-07 8.466674e-07 2.2372609e-07 2.4933452e-06 6.6457362e-15 1.58793e-15 4.122317e-06
3.4912926e-15 4.4831347e-07 1.5864284e-15 8.1368506e-07 5.401039e-10 3.0012412e-15 8.815199e-07 5.531868e-07
2.0383661e-06 2.4979302e-06 4.9702148e-08 1.0440981e-08 1.11902e-06 2.3184657e-06 2.1857906e-07 2.8250776e-08
1.3049768e-07 1.3703773e-08 2.1801798e-06 1.461734e-06 2.3231196e-06 6.433956e-15 5.6412296e-07 7.993441e-07
1.016757e-08 3.847087e-06 7.262397e-07 2.513057e-07 1.5663501e-06 9.065413e-07 2.1791036e-06 7.170486e-06
3.5059352e-06 4.0959055e-08 4.5328324e-08 9.271135e-06 7.977086e-07 2.208763e-11 2.0746243e-06 1.3569481e-06

exp_avg f4 [64]
00000000: 5f3c 52b8 3735 efb8 dcba 5e38 9c61 28b8
00000010: b223 0db8 c428 a738 978a 73b8 1b89 2738
00000020: 3121 6ab8 0974 edb7 7578 16b9 4443 e3b4
00000030: 02c1 2cb8 df3b 29b7 fdb5 8c36 2918 a0b8
00000040: c00d e5b8 2d63 a0b8 3b91 84b6 fecb 7fb7
00000050: eb25 9035 0400 0000 1a84 569a fdd3 7638
00000060: 0400 0000 8e66 6a35 2168 70a9 d0d2 c7b8
00000070: b10c 0f36 1f20 dfb2 8297 1438 dfb4 34b8
00000080: c050 b5b7 c006 4fb8 2a09 cc38 d51e e6b7
00000090: 11e8 4db6 c1fa 0eb9 5aeb f0b7 9eae c435
000000a0: c7bd 1b39 f89e 0eb8 5429 bcb8 bbf0 f237
000000b0: 2c57 da38 0400 0000 d59f 19b5 f123 aeb8
000000c0: 6157 acb2 64a5 48b8 1b5f 8bb7 b142 0e38
000000d0: d1c2 2738 d9aa a5b8 9924 86b6 3c6a 75b8
000000e0: dc25 3137 1beb 9ab7 e536 2138 3d8a acb8
000000f0: 8aac 46b9 4b54 0db6 57ed a5b8 3960 b8b8
-5.0124127e-05 -0.0001140632 5.310295e-05 -4.0145227e-05 -3.3650264e-05 7.970774e-05 -5.8064787e-05 3.9943592e-05
-5.582086e-05 -2.8306635e-05 -0.00014349988 -4.2330987e-07 -4.1187748e-05 -1.0087125e-05 4.1935114e-06 -7.633895e-05
-0.00010922132 -7.6478675e-05 -3.9508136e-06 -1.524668e-05 1.0739872e-06 6e-45 -4.4360874e-23 5.88484e-05
6e-45 8.732103e-07 -5.3381023e-14 -9.528326e-05 2.1316048e-06 -2.5975224e-08 3.5427052e-05 -4.3083794e-05
-2.1614484e-05 -4.9358932e-05 9.729185e-05 -2.7432494e-05 -3.068246e-06 -0.00013635588 -2.8719824e-05 1.4653958e-06
0.0001485265 -3.400349e-05 -8.9722365e-05 2.8960747e-05 0.00010411287 6e-45 -5.722953e-07 -8.303661e-05
-2.006317e-08 -4.7837748e-05 -1.6614378e-05 3.391755e-05 3.999734e-05 -7.899636e-05 -3.9977717e-06 -5.851149e-05
1.0558837e-05 -1.846771e-05 3.8436516e-05 -8.227348e-05 -0.00018947027 -2.1059702e-06 -7.912021e-05 -8.7917266e-05

exp_avg_sq f4 [64]
00000000: 8971 4c36 21f6 ce37 a971 9836 b901 2338
00000010: fe1c f536 2e1e 5d38 57c0 6e38 8ac2 0b34
00000020: 7f76 0738 7f31 2437 4164 cc37 dc16 8133
00000030: 9385 a938 b93c 0e34 669f 7738 116b 5a38
00000040: 224a d338 0217 e237 646b 1539 e2d9 a636
00000050: b2bb 1139 b98d 8b22 9aaf 5727 bfd6 8f37
00000060: 2e75 0b21 3030 8e38 1acd 502b 4fbd 4a38
00000070: 24ec 2635 1b2a 572c 6a7b 3938 5aa2 be38
00000080: 7756 8637 147c 2139 6fc2 f836 eed4 6b35
00000090: b704 b638 5335 a238 156f 0938 0da2 1634
000000a0: 94bc 2336 b263 0a37 90ec 0d39 1fff 1738
000000b0: f638 f938 0165 6226 bdba cf36 7ecc fd38
000000c0: f9fd f133 2ee3 7538 584e 0638 fbca 7936
000000d0: 2869 1f39 0d62 9f37 277d 3538 f9cb ce39
000000e0: 66be 6439 d3f0 f536 80c7 fe35 0be9 8039
000000f0: e1c7 7738 5959 2231 d392 b637 da00 1c38
3.0464455e-06 2.4671726e-05 4.543185e-06 3.8863833e-05 7.304944e-06 5.2718613e-05 5.6922752e-05 1.3016157e-07
3.2296866e-05 9.786686e-06 2.436538e-05 6.011189e-08 8.083428e-05 1.3246871e-07 5.903784e-05 5.2074964e-05
0.00010075072 2.6952013e-05 0.00014249753 4.9725504e-06 0.000138982 3.782608e-18 2.9932438e-15 1.7146927e-05
4.725012e-19 6.780063e-05 7.418108e-13 4.833686e-05 6.218345e-07 3.057671e-12 4.4222375e-05 9.090146e-05
1.6014308e-05 0.00015400379 7.413611e-06 8.7854175e-07 8.6793145e-05 7.7346944e-05 3.27668e-05 1.4028792e-07
2.439866e-06 8.248653e-06 0.00013534934 3.6238805e-05 0.00011883855 7.8546387e-16 6.19082e-06 0.0001210207
1.12686344e-07 5.862413e-05 3.2021053e-05 3.7222042e-06 0.00015202595 1.8999935e-05 4.327032e-05 0.00039443353
0.00021814703 7.3296046e-06 1.8982537e-06 0.00024587693 5.907554e-05 2.362489e-09 2.1764461e-05 3.719409e-05

exp_avg f4 [256]
00000000: 0400 0080 0000 0000 3cb2 f637 25b4 85b7
00000010: f81c ab37 0400 0000 0400 0080 0400 0000
00000020: f38e 4bb7 0400 0080 4938 0637 b43b cf37
00000030: 9e1c 34b8 8768 1cb8 3278 b437 0be7 ebb7
00000040: 4527 08ad 0400 0000 bbdc 4238 3dd2 d9b5
00000050: 8e03 2fb7 7de4 3db8 0000 0000 0000 0000
00000060: 8317 8637 89b4 27b9 05ad abb8 25da 0d37
00000070: 5e1c 34b9 7a6e 6ab7 fd48 a937 3f44 1439
00000080: 0000 0000 06d2 14b8 0400 0080 3487 88b6
00000090: e458 4fb8 933e f9b6 690e 3eb6 8ab6 2939
000000a0: 0000 0000 d15f ec37 4310 0db7 5bec b3b7
000000b0: 2094 9cb8 0000 0000 9aed 33b8 b157 01b7
000000c0: 53bc b437 18d4 8437 da67 8035 cac7 bab7
000000d0: ca03 27b8 3035 7ab6 b9cb f6b8 5415 68b7
000000e0: a3dd fab4 0000 0000 a1a4 ceb8 fd56 1338
000000f0: 5a08 8db8 8b28 a2b8 26ee d8b7 f55b 9937
00000100: 3eb2 f935 0000 0000 f592 85b6 0400 0080
00000110: 70c3 36b5 00bc c338 0400 0000 a0e2 6037
00000120: c614 4338 4c23 ed31 00c9 d9b3 4665 3fb7
00000130: 6815 86b8 377e bcb6 a7f1 dd38 0000 0000
00000140: d1db 9bb7 b01b 06b8 b56f 8ab6 0400 0080
00000150: ad31 dcb7 3242 36b8 d7a2 6d37 193b 3738
00000160: fe1f cab7 0400 0080 cb5d 1538 d2fa 5f37
00000170: 6989 5ab9 0400 0080 f412 beb7 7bc6 07b9
00000180: dbc8 48b8 0400 0000 a671 4038 d6c2 9238
00000190: f93a 8436 6432 9fb8 2587 0bb7 1bcf 9ab7
000001a0: 0000 0000 9571 08b9 62e8 a336 21fd 8337
000001b0: d8b0 b1b8 6be2 3835 10ad 4eb7 623d 1338
000001c0: 0400 0000 52e5 2ab7 c213 c937 4587 a136
000001d0: 7a84 c137 f4e2 7d38 2f90 10b8 d5cc 1e8e
000001e0: 1dc2 40b9 5513 6338 7aa3 8cb8 0000 0000
000001f0: d13c 26b8 0000 0000 1a6e 5d34 eb8c 98b8
00000200: 024c 16b8 0400 0000 0000 0000 0000 0000
00000210: f081 26b8 477f 2db3 a968 0fb7 42fc b0b8
00000220: 85dc de36 0400 0080 a6a0 82b8 5eb5 44b8
00000230: 9631 3337 314b a238 0920 30b9 7fee 2a38
00000240: 0000 0000 bc46 20b4 6103 10b8 703b 34b8
00000250: b361 4fb8 0400 0000 363b 6835 2992 0cb8
00000260: 970f f837 0400 0080 ff9a fbb7 0000 0000
00000270: 0400 0000 0400 0000 b62b dbb7 0400 0080
00000280: b91c ddb8 a8b2 9eb8 0e13 bb37 e21a 9135
00000290: 30d0 fdb7 ff58 1c38 c910 a1b7 b103 63b8
000002a0: 6788 4539 e6ea 34b9 0400 0080 da0b 6f38
000002b0: a345 2038 ad09 8cb7 e40c 8eb8 3f65 1eb8
000002c0: b9fb ae36 2025 d438 a55d fe38 0d13 6f34
000002d0: 9e79 b634 59e6 d738 ba55 93b7 0000 0000
000002e0: 0067 4637 c51e 6e37 98ff 90b4 f087 c2b7
000002f0: 2034 6e38 e48e c3b6 8641 74b8 0400 0080
00000300: 040a a6b8 f84e a0b7 463e 1f37 164a 2eb8
00000310: 7000 8537 afd7 6f37 37ed 1ab8 1929 3fb8
00000320: 9cfd 3337 d166 bfb6 153f d5b8 2542 3938
00000330: d2a2 0bb7 0000 0000 81aa fab8 5aad 97b7
00000340: 0000 0000 0400 0000 6793 6cb7 36c0 ae37
00000350: 222e 06b8 edb2 d537 daaf 8c37 6fb4 39b8
00000360: e7fa 0e37 0400 0080 e58b 7337 0000 0000
00000370: e289 4eb9 0400 0000 b514 49b7 b2ed a2b8
00000380: 989f a237 0400 0000 7e9b 0ab9 719e 1737
00000390: 10a3 a0b8 50fc e4b5 640d f137 3b1e 29b9
000003a0: 0000 0000 82d9 50b8 0000 0000 c0d0 3d37
000003b0: 0400 0000 34e5 4937 0000 0000 143f 9f37
000003c0: 201a dab7 12f1 8fb7 3f34 2e37 0000 0000
000003d0: 2092 1a35 acc3 73b8 0400 0000 a5dc 9c37
000003e0: c0a3 a838 bc0e d733 58f6 0137 7f5d e937
000003f0: 4810 abb8 0481 c4b7 0843 e1b5 337b 59b7
-6e-45 0.0 2.9408482e-05 -1.5938722e-05 2.0398278e-05 6e-45 -6e-45 6e-45
-1.2133026e-05 -6e-45 8.000127e-06 2.4704124e-05 -4.2941996e-05 -3.7290647e-05 2.1513642e-05 -2.812177e-05
-7.7394246e-12 6e-45 4.6458776e-05 -1.6228947e-06 -1.04316405e-05 -4.5273908e-05 0.0 0.0
1.5984993e-05 -0.00015993616 -8.186143e-05 8.455046e-06 -0.00017176705 -1.3973209e-05 2.0180358e-05 0.00014139804
0.0 -3.548155e-05 -6e-45 -4.0688556e-06 -4.943543e-05 -7.428063e-06 -2.8320594e-06 0.00016185097
0.0 2.817801e-05 -8.408041e-06 -2.1448524e-05 -7.46625e-05 0.0 -4.289821e-05 -7.709416e-06
2.1545367e-05 1.583439e-05 9.566968e-07 -2.2265962e-05 -3.981943e-05 -3.7283862e-06 -0.000117681404 -1.3833243e-05
-4.672739e-07 0.0 -9.85351e-05 3.5128545e-05 -6.7249595e-05 -7.732314e-05 -2.5860103e-05 1.8281842e-05
1.8603821e-06 0.0 -3.980817e-06 -6e-45 -6.808468e-07 9.333342e-05 6e-45 1.3404206e-05
4.651097e-05 6.9016206e-09 -1.01414116e-07 -1.1408067e-05 -6.393605e-05 -5.61753e-06 0.000105831125 0.0
-1.85798e-05 -3.1973876e-05 -4.125725e-06 -6e-45 -2.6249176e-05 -4.345383e-05 1.4164215e-05 4.368564e-05
-2.4095174e-05 -6e-45 3.561172e-05 1.3350234e-05 -0.0002084129 -6e-45 -2.265859e-05 -0.00012948543
-4.7870777e-05 6e-45 4.588221e-05 6.9981135e-05 3.940772e-06 -7.591097e-05 -8.316511e-06 -1.8454672e-05
0.0 -0.00013012283 4.8848315e-06 1.573429e-05 -8.4729574e-05 6.8874823e-07 -1.2318851e-05 3.51047e-05
6e-45 -1.0186182e-05 2.3970268e-05 4.8139214e-06 2.3069082e-05 6.0531267e-05 -3.4466557e-05 -1.9573627e-30
-0.0001838286 5.413902e-05 -6.70617e-05 0.0 -3.9634124e-05 0.0 2.0622284e-07 -7.274173e-05
-3.5833575e-05 6e-45 0.0 0.0 -3.9698498e-05 -4.039546e-08 -8.547832e-06 -8.439321e-05
6.6417874e-06 -6e-45 -6.228806e-05 -4.6898953e-05 1.06807765e-05 7.7387675e-05 -0.00016796602 4.0753275e-05
0.0 -1.4926894e-07 -3.4335422e-05 -4.29707e-05 -4.9443635e-05 6e-45 8.65129e-07 -3.3514723e-05
2.9571163e-05 -6e-45 -2.9993707e-05 0.0 6e-45 6e-45 -2.6127189e-05 -6e-45
-0.00010543451 -7.5673044e-05 2.230101e-05 1.0811166e-06 -3.0256895e-05 3.7276182e-05 -1.9200512e-05 -5.4124455e-05
0.00018838198 -0.00017253644 -6e-45 5.6993078e-05 3.8211827e-05 -1.6693806e-05 -6.773489e-05 -3.776443e-05
5.2149085e-06 0.00010115863 0.000121291065 2.226554e-07 3.398863e-07 0.000102949045 -1.7563685e-05 0.0
1.1825701e-05 1.419307e-05 -2.700806e-07 -2.3189903e-05 5.6792167e-05 -5.8280875e-06 -5.8235157e-05 -6e-45
-7.9173624e-05 -1.9110259e-05 9.491638e-06 -4.155383e-05 1.585504e-05 1.4295728e-05 -3.6937385e-05 -4.5576224e-05
1.0728279e-05 -5.704213e-06 -0.000101683814 4.416904e-05 -8.322955e-06 0.0 -0.00011952688 -1.8081326e-05
0.0 6e-45 -1.4101016e-05 2.0831922e-05 -3.1991054e-05 2.5474897e-05 1.6771188e-05 -4.427548e-05
8.522277e-06 -6e-45 1.45165e-05 0.0 -0.00019697056 6e-45 -1.1985355e-05 -7.769036e-05
1.9386222e-05 6e-45 -0.00013218631 9.037191e-06 -7.659767e-05 -1.7060756e-06 2.8735674e-05 -0.00016128358
0.0 -4.9793634e-05 0.0 1.1313881e-05 6e-45 1.2033899e-05 0.0 1.898365e-05
-2.599979e-05 -1.7159186e-05 1.0383373e-05 0.0 5.758211e-07 -5.811795e-05 6e-45 1.8699395e-05
8.041365e-05 1.0014398e-07 7.746356e-06 2.7819302e-05 -8.156948e-05 -2.3425098e-05 -1.6783315e-06 -1.29628925e-05

exp_avg_sq f4 [256]
00000000: 8b6a 0130 0000 0000 9182 2c36 a1b5 5e38
00000010: fa9b 2338 fcf7 7332 5b32 2333 a435 8c18
00000020: fc47 8638 65b5 9323 54b2 8038 bb1b 2938
00000030: 945d 2f39 8432 2139 e36f 5a37 f5b5 9638
00000040: ee62 a433 14f8 b620 c762 3939 6ab0 8939
00000050: e496 1239 a8a6 0239 0000 0000 0000 0000
00000060: 249b 1b39 d6e5 e739 9bd6 b439 3233 b137
00000070: d8a0 bb39 2666 eb38 c228 2a38 44f6 f136
00000080: 0000 0000 1b50 8738 7719 6031 e62d a639
00000090: 0ca8 2e38 a5d7 7b38 d62a 0439 bfb2 b938
000000a0: 0000 0000 0f27 6438 c449 9f37 8275 9c38
000000b0: 91f5 c937 0000 0000 2e60 a738 60c6 8834
000000c0: 6a25 9638 a887 bf38 6540 1f38 fafb 2c39
000000d0: a077 5b38 1cc3 0b36 f17c c838 f394 7c34
000000e0: 8726 bf36 0000 0000 0270 ab38 90d9 4c38
000000f0: bb9f 7138 22ac 7338 c14d bc37 6160 f137
00000100: ca62 4738 0000 0000 7322 3438 f0fa 8b2d
00000110: 7579 4338 edeb 1239 0e14 1629 8e38 a538
00000120: f127 3b39 77bf b534 7324 1138 40a1 7338
00000130: 45b6 fa38 2df5 ac38 bccf 4939 0000 0000
00000140: 952c 5338 8913 6639 b672 9d38 b831 5e20
00000150: 1b2a a138 1f59 7b38 1166 4239 adbb e738
00000160: ffeb da37 6a70 1d31 25db 1c36 963e 8e38
00000170: 1b20 5937 58e7 b535 614f be38 9ec6 2238
00000180: 682c bc37 d444 5023 7f39 3e37 e287 8239
00000190: b940 2d39 a353 4837 4621 8837 b577 d938
000001a0: 0000 0000 481b b739 9c99 5533 4732 6538
000001b0: 7a83 4439 7470 9435 3ba8 033a 13a8 4938
000001c0: 9156 842d 1d03 8f35 f4f1 d938 6d3a 4e32
000001d0: d902 bd39 bcae 1f38 c5f9 6937 72f1 b636
000001e0: 41b5 1e39 67f4 4739 a554 4637 0000 0000
000001f0: d932 fd38 0000 0000 8171 e037 bbb0 e337
00000200: b798 1138 60b1 0e33 0000 0000 0000 0000
00000210: 1644 8b38 322c 7237 005a 3a38 8a25 6039
00000220: f0f4 f437 1156 c22d ec24 5535 0e2f e238
00000230: 3091 9238 da4f da37 055c df35 f26d e538
00000240: 0000 0000 8df2 4e39 7c59 8e38 dda2 9838
00000250: 8a6d 8338 8edb 2334 3f1d 0839 99f0 2138
00000260: c6ae ad38 e0dc 651d 0a49 6b38 0000 0000
00000270: 0f3b c32f 6baa 602b 7434 ef38 26da 831d
00000280: 961e b238 99b0 7738 db9a e137 dc8f 8836
00000290: f174 2537 f3c2 3639 aeef 4138 639f 1038
000002a0: 20ea 6237 25d2 9238 cf3b 022c 7721 5739
000002b0: c5f1 c838 5f50 0b39 36cf 8337 13f0 d337
000002c0: f179 1035 ce08 3938 8aa9 0936 d935 4f37
000002d0: c20d 5238 30f3 dd38 5315 9a38 0000 0000
000002e0: 2b00 2138 f32c d138 ab40 2d36 2dd7 d638
000002f0: 3633 e239 6fa5 a838 815d ab38 b528 2531
00000300: b0b0 2d38 3768 4938 beb3 9538 94d9 7a38
00000310: ec3a 2838 12eb b938 b124 9d39 e698 8037
00000320: d628 8d36 cce1 e238 6e3e 7337 e775 8f38
00000330: 5796 d038 0000 0000 caed 4338 edce e837
00000340: 0000 0000 cfb8 2634 cafa 9338 04e0 2138
00000350: a07e 4e38 2069 9c38 0cce fb38 485f 9f37
00000360: 70ab 2638 7c10 882d 9183 af38 0000 0000
00000370: 1a39 2839 0625 8527 80d5 5f38 226b 8638
00000380: a73e 4d38 e469 9620 6340 7039 d83d b237
00000390: 2e80 c437 0a84 a838 674d f938 0a26 2b38
000003a0: 0000 0000 e70f fd38 0000 0000 ccec 2b39
000003b0: 66d7 a71d 70d2 a738 0000 0000 442b a338
000003c0: 2707 5f38 317a 4038 5842 9437 0000 0000
000003d0: 9485 a735 246d ac38 1820 4c34 dc12 9c35
000003e0: 6b3c 8038 6fae f235 8211 c538 accd 0c38
000003f0: cab3 9e37 ba96 1837 7330 8d2f 2d50 1138
4.7081333e-10 0.0 2.5705997e-06 5.309808e-05 3.9007493e-05 1.4200847e-08 3.7997193e-08 3.6243315e-24
6.403026e-05 1.6014596e-17 6.136732e-05 4.0318566e-05 0.00016724161 0.00015372975 1.3019863e-05 7.1864495e-05
7.65484e-08 3.0996164e-19 0.00017679772 0.00026262115 0.00013979856 0.0001245985 0.0 0.0
0.00014839746 0.00044230995 0.0003449217 2.1123884e-05 0.00035787257 0.000112247 4.0569117e-05 7.211029e-06
0.0 6.4522224e-05 3.2610765e-09 0.00031696184 4.164134e-05 6.0043898e-05 0.00012604459 8.8547815e-05
0.0 5.4395812e-05 1.8988627e-05 7.460547e-05 2.4075418e-05 0.0 7.9810954e-05 2.547631e-07
7.159526e-05 9.132858e-05 3.7968526e-05 0.00016497067 5.232508e-05 2.0826183e-06 9.560015e-05 2.3523516e-07
5.6967287e-06 0.0 8.1747785e-05 4.884001e-05 5.7607638e-05 5.8096026e-05 2.2447553e-05 2.8774319e-05
4.75373e-05 0.0 4.2947428e-05 1.5913909e-11 4.660474e-05 0.00014011534 3.3324085e-14 7.878347e-05
0.00017848589 3.3853186e-07 3.460464e-05 5.808589e-05 0.00011954879 8.247267e-05 0.00019246241 0.0
5.034784e-05 0.00021941787 7.50771e-05 1.8820582e-19 7.684921e-05 5.9926064e-05 0.00018539304 0.00011049896
2.609752e-05 2.2910407e-09 2.337337e-06 6.782745e-05 1.2941683e-05 1.3552881e-06 9.0746915e-05 3.8808786e-05
2.2432025e-05 1.12902775e-17 1.1338269e-05 0.00024896773 0.00016522677 1.1940402e-05 1.6227958e-05 0.000103696635
0.0 0.00034924806 4.9732634e-08 5.464468e-05 0.00018740995 1.1059587e-06 0.0005022322 4.8078666e-05
1.5045106e-11 1.0655236e-06 0.000103924336 1.2004063e-08 0.0003605101 3.8071288e-05 1.3946036e-05 5.4521306e-06
0.00015135577 0.00019069166 1.18214275e-05 0.0 0.00012073451 0.0 2.6755735e-05 2.7142805e-05
3.471292e-05 3.3223273e-08 0.0 0.0 6.6407185e-05 1.4434614e-05 4.4429675e-05 0.00021376289
2.9201125e-05 2.2093468e-11 7.940241e-07 0.000107852844 6.988866e-05 2.6024809e-05 1.6641576e-06 0.0001094005
0.0 0.00019736048 6.7877554e-05 7.2782605e-05 6.26697e-05 1.5260431e-07 0.00012980866 3.8609465e-05
8.281837e-05 3.0422087e-21 5.609639e-05 0.0 3.5512257e-10 7.981729e-13 0.00011406178 3.490097e-21
8.4933985e-05 5.905386e-05 2.68942e-05 4.0698633e-06 9.861994e-06 0.00017429497 4.6238005e-05 3.4480716e-05
1.3525161e-05 7.000965e-05 1.8507312e-12 0.00020516464 9.581776e-05 0.00013286014 1.5712907e-05 2.5264953e-05
5.382163e-07 4.4115637e-05 2.0513276e-06 1.2350699e-05 5.0080715e-05 0.000105833984 7.347264e-05 0.0
3.8385548e-05 9.974269e-05 2.581665e-06 0.00010244395 0.00043144234 8.041679e-05 8.171332e-05 2.40338e-09
4.1410967e-05 4.8019192e-05 7.138353e-05 5.980728e-05 4.0109197e-05 8.865273e-05 0.0002997271 1.5329988e-05
4.2068814e-06 0.00010818578 1.4498464e-05 6.8407324e-05 9.946216e-05 0.0 4.671308e-05 2.7752913e-05
0.0 1.5527188e-07 7.056219e-05 3.8594022e-05 4.9232156e-05 7.458241e-05 0.00012006992 1.8998646e-05
3.9737148e-05 1.546873e-11 8.3691564e-05 0.0 0.00016043 3.6955056e-15 5.336618e-05 6.409573e-05
4.893416e-05 2.548106e-19 0.0002291217 2.1248052e-05 2.3424709e-05 8.0354584e-05 0.000118876625 4.0805004e-05
0.0 0.00012066942 0.0 0.00016396045 4.442725e-21 8.0023776e-05 0.0 7.7805045e-05
5.3174004e-05 4.5890167e-05 1.7673869e-05 0.0 1.2481346e-06 8.221928e-05 1.9010656e-07 1.1628395e-06
6.114769e-05 1.8081172e-06 9.396953e-05 3.3570148e-05 1.8918789e-05 9.095e-06 2.5682176e-10 3.4645363e-05

exp_avg f4 [26, 256]
00000000: 0400 0000 0000 0000 0400 0080 0400 0000
00000010: 0400 0000 0400 0080 0400 0080 0000 0000
00000020: 0400 0000 0000 0000 0400 0000 0400 0000
00000030: 0400 0000 0400 0000 0000 0000 0400 0000
00000040: 0000 0000 0000 0000 0400 0000 0400 0000
00000050: 0400 0000 0400 0000 0000 0000 0000 0000
00000060: 0000 0000 0000 0000 0400 0000 0400 0000
00000070: 0400 0000 0400 0080 0400 0080 0400 0000
00000080: 0000 0000 0400 0000 0400 0000 0000 0000
00000090: 0400 0000 0000 0000 0000 0000 0400 0000
000000a0: 0000 0000 0400 0000 0400 0000 0400 0000
000000b0: 0400 0000 0000 0000 0400 0000 0400 0000
000000c0: 0400 0000 0400 0000 0400 0000 0400 0000
000000d0: 0400 0000 0000 0000 0400 0080 0000 0000
000000e0: 0000 0000 0000 0000 0400 0000 0400 0000
000000f0: 0400 0000 0400 0000 0400 0000 0400 0000
00000100: 0400 0000 0000 0000 0400 0000 0000 0000
00000110: 0400 0000 0400 0000 0000 0000 0400 0080
00000120: 0400 0000 0000 0000 0400 0000 0400 0000
00000130: 0000 0000 0400 0000 0400 0080 0000 0000
00000140: 0400 0000 0000 0000 0400 0000 0000 0000
00000150: 0400 0000 0400 0000 0400 0000 0400 0000
00000160: 0400 0000 0400 0000 0400 0000 0400 0000
00000170: 0400 0000 0000 0000 0400 0000 0400 0000
00000180: 0400 0000 0000 0000 0400 0000 0000 0000
00000190: 0400 0000 0400 0080 0400 0000 0400 0000
000001a0: 0000 0000 0400 0080 0000 0000 0400 0000
000001b0: 0400 0080 0400 0000 0000 0000 0400 0000
000001c0: 0400 0000 0400 0000 0400 0000 0000 0000
000001d0: 0400 0080 0400 0000 0400 0000 0400 0000
000001e0: 0000 0000 0000 0000 0400 0080 0000 0000
000001f0: 0400 0000 0000 0000 0400 0000 0400 0080
00000200: 0400 0000 0400 0000 0000 0000 0000 0000
00000210: 0400 0000 0400 0080 0400 0000 0400 0000
00000220: 0400 0000 0000 0000 0400 0080 0400 0000
00000230: 0400 0000 0400 0000 0000 0000 0400 0000
00000240: 0000 0000 0400 0000 0400 0000 0400 0000
00000250: 0400 0000 0400 0000 0400 0000 0400 0000
00000260: 0400 0000 0000 0000 0400 0000 0000 0000
00000270: 0000 0000 0000 0000 0400 0000 0000 0000
00000280: 0400 0080 0400 0000 0400 0000 0400 0000
00000290: 0400 0000 0400 0000 0400 0000 0400 0000
000002a0: 0400 0000 0400 0000 0000 0000 0400 0000
000002b0: 0400 0000 0000 0000 0400 0000 0400 0000
000002c0: 0400 0000 0400 0000 0000 0000 0400 0080
000002d0: 0400 0000 0400 0080 0400 0000 0000 0000
000002e0: 0400 0000 0400 0000 0400 0000 0400 0000
000002f0: 0400 0000 0400 0000 0400 0000 0000 0000
00000300: 0400 0000 0400 0000 0400 0000 0400 0000
00000310: 0400 0000 0400 0000 0400 0000 0400 0000
00000320: 0400 0000 0400 0000 0400 0000 0400 0000
00000330: 0400 0000 0000 0000 0400 0080 0400 0080
00000340: 0000 0000 0000 0000 0000 0000 0400 0000
00000350: 0400 0000 0400 0000 0400 0000 0400 0000
00000360: 0400 0000 0400 0000 0400 0000 0000 0000
00000370: 0400 0080 0000 0000 0400 0000 0400 0000
00000380: 0400 0000 0000 0000 0400 0080 0400 0000
00000390: 0000 0000 0400 0080 0400 0000 0400 0000
000003a0: 0000 0000 0400 0080 0000 0000 0400 0000
000003b0: 0000 0000 0400 0000 0000 0000 0400 0000
000003c0: 0400 0000 0400 0000 0400 0080 0000 0000
000003d0: 0400 0000 0400 0000 0000 0000 0400 0000
000003e0: 0400 0000 0400 0000 0400 0000 0400 0000
000003f0: 0400 0000 0400 0000 0000 0000 0000 0000
6e-45 0.0 -6e-45 6e-45 6e-45 -6e-45 -6e-45 0.0
6e-45 0.0 6e-45 6e-45 6e-45 6e-45 0.0 6e-45
0.0 0.0 6e-45 6e-45 6e-45 6e-45 0.0 0.0
0.0 0.0 6e-45 6e-45 6e-45 -6e-45 -6e-45 6e-45
0.0 6e-45 6e-45 0.0 6e-45 0.0 0.0 6e-45
0.0 6e-45 6e-45 6e-45 6e-45 0.0 6e-45 6e-45
6e-45 6e-45 6e-45 6e-45 6e-45 0.0 -6e-45 0.0
0.0 0.0 6e-45 6e-45 6e-45 6e-45 6e-45 6e-45
6e-45 0.0 6e-45 0.0 6e-45 6e-45 0.0 -6e-45
6e-45 0.0 6e-45 6e-45 0.0 6e-45 -6e-45 0.0
6e-45 0.0 6e-45 0.0 6e-45 6e-45 6e-45 6e-45
6e-45 6e-45 6e-45 6e-45 6e-45 0.0 6e-45 6e-45
6e-45 0.0 6e-45 0.0 6e-45 -6e-45 6e-45 6e-45
0.0 -6e-45 0.0 6e-45 -6e-45 6e-45 0.0 6e-45
6e-45 6e-45 6e-45 0.0 -6e-45 6e-45 6e-45 6e-45
0.0 0.0 -6e-45 0.0 6e-45 0.0 6e-45 -6e-45
6e-45 6e-45 0.0 0.0 6e-45 -6e-45 6e-45 6e-45
6e-45 0.0 -6e-45 6e-45 6e-45 6e-45 0.0 6e-45
0.0 6e-45 6e-45 6e-45 6e-45 6e-45 6e-45 6e-45
6e-45 0.0 6e-45 0.0 0.0 0.0 6e-45 0.0
-6e-45 6e-45 6e-45 6e-45 6e-45 6e-45 6e-45 6e-45
6e-45 6e-45 0.0 6e-45 6e-45 0.0 6e-45 6e-45
6e-45 6e-45 0.0 -6e-45 6e-45 -6e-45 6e-45 0.0
6e-45 6e-45 6e-45 6e-45 6e-45 6e-45 6e-45 0.0
6e-45 6e-45 6e-45 6e-45 6e-45 6e-45 6e-45 6e-45
6e-45 6e-45 6e-45 6e-45 6e-45 0.0 -6e-45 -6e-45
0.0 0.0 0.0 6e-45 6e-45 6e-45 6e-45 6e-45
6e-45 6e-45 6e-45 0.0 -6e-45 0.0 6e-45 6e-45
6e-45 0.0 -6e-45 6e-45 0.0 -6e-45 6e-45 6e-45
0.0 -6e-45 0.0 6e-45 0.0 6e-45 0.0 6e-45
6e-45 6e-45 -6e-45 0.0 6e-45 6e-45 0.0 6e-45
6e-45 6e-45 6e-45 6e-45 6e-45 6e-45 0.0 0.0

exp_avg_sq f4 [26, 256]
00000000: 16ab b226 0000 0000 5aa0 8d23 1485 b627
00000010: 627d a22a edb3 f61b 2104 a922 0000 0000
00000020: 60cd 1429 0000 0000 c661 322a b8c8 162a
00000030: dabf 1d29 77ab 1d29 0000 0000 7727 8a29
00000040: 0000 0000 0000 0000 568c b227 a74c c526
00000050: 5ab2 242a 805c 5e29 0000 0000 0000 0000
00000060: 0000 0000 0000 0000 f71e 7e27 9378 8a28
00000070: 4609 1e1a 4a09 9322 048a c31e 90e8 472b
00000080: 0000 0000 b22b ad28 9aa8 fa27 0000 0000
00000090: fd02 2929 0000 0000 0000 0000 2a8e 321d
000000a0: 0000 0000 a56d 4f2a 41c8 131e d00c 812a
000000b0: a12c c725 0000 0000 b801 302b 1157 ae1e
000000c0: 1a99 012a 5220 4a2a f5d2 9727 dd09 c028
000000d0: a6c3 2329 0000 0000 4b88 7724 0000 0000
000000e0: 0000 0000 0000 0000 48cb ad2a 4676 1829
000000f0: a1cf 012a 30c6 6529 dee1 4d27 adc0 4828
00000100: 1ab0 2a29 0000 0000 092c ab29 0000 0000
00000110: 3ce1 952a eecd 112a 0000 0000 3d89 9522
00000120: d480 0629 0000 0000 46f8 b62a 7507 b429
00000130: 0000 0000 634f 392b b5c0 1f25 0000 0000
00000140: 3d6f 5129 0000 0000 861d 0626 0000 0000
00000150: b628 3b29 44f4 5f2a 87ad 392b fb32 da29
00000160: 0d98 c62a 7886 ba27 c757 d129 b023 142a
00000170: a4a2 b127 0000 0000 59e4 e329 8ab5 c929
00000180: e740 392a 0000 0000 d9c1 4729 0000 0000
00000190: 2900 012a 1e0f 5623 222c 862a d673 6c29
000001a0: 0000 0000 f656 e122 0000 0000 b5d0 5b2b
000001b0: 0c1a ea24 b806 0e2a 0000 0000 7a76 c62a
000001c0: fac9 1028 6756 6425 3665 462a 0000 0000
000001d0: 6c38 8a23 f253 8729 734b 7c27 b53f c927
000001e0: 0000 0000 0000 0000 d6ea 5e22 0000 0000
000001f0: 1797 052a 0000 0000 465a 842a 1d96 8d24
00000200: bc37 ac28 0556 6b2a 0000 0000 0000 0000
00000210: f144 9d2a 14ac 3c1f f5ad 8c29 16b1 371a
00000220: 50c7 ba2a 0000 0000 4ec6 0d1a f597 ea2a
00000230: 9d67 012b 3ed3 8624 0000 0000 008f c329
00000240: 0000 0000 abd3 a025 a946 6c2a f4e6 9f2a
00000250: 9636 3929 486c b829 83cf 5a28 780b f628
00000260: 2bef 672b 0000 0000 a9c4 4329 0000 0000
00000270: 0000 0000 0000 0000 19e1 e229 0000 0000
00000280: e6d9 1d25 8b39 a12a 941c f029 d516 9d29
00000290: e2bf 022a c609 e526 7d0b 7e25 5e59 b829
000002a0: f18c cf29 8923 d326 0000 0000 8ea9 b227
000002b0: 611f 2b2a 0000 0000 2ca8 e429 5a45 842a
000002c0: 5fdd b622 f691 0e2a 0000 0000 af6e 951f
000002d0: f60a 0528 190c bb1e 75c3 882a 0000 0000
000002e0: 642b 1e2a 1b74 092a 42f4 4228 44ba 1229
000002f0: 3e6b 2729 9301 a52a 5c6a 4927 0000 0000
00000300: a317 222b 4985 2e2a 33c0 7c29 19bb a527
00000310: c3fa 2f29 7a82 0629 f6b1 192a 2cde 1f2b
00000320: d69f c926 ce98 232a 48dd f726 b5c2 a228
00000330: f119 5f2b 0000 0000 ac2d 5224 531a d220
00000340: 0000 0000 0000 0000 0000 0000 210a c229
00000350: 32c0 9f28 388a 012a 88d5 802a cca9 bf29
00000360: 5b5d 5b2a 0be4 f427 3644 5c2a 0000 0000
00000370: a6be fc24 0000 0000 494b 3229 b444 6429
00000380: 9244 5327 0000 0000 76ab 9320 d89b 2429
00000390: 0000 0000 3275 211f f05d 282a bd15 352b
000003a0: 0000 0000 bfc5 8825 0000 0000 8eda 1a29
000003b0: 0000 0000 4bfa d32a 0000 0000 a7a4 7729
000003c0: d1e9 622a f0c8 612a c994 fc23 0000 0000
000003d0: de43 ef28 0408 982a 0000 0000 3186 2f2b
000003e0: f747 c628 6efa 361d 60ad 0b2a 1673 f129
000003f0: d2e3 8329 33ff cd26 0000 0000 0000 0000
1.2397604e-15 0.0 1.5355162e-17 5.065943e-15 2.8863983e-13 4.081356e-22 4.5811913e-18 0.0
3.3040736e-14 0.0 1.5843498e-13 1.3392315e-13 3.5027408e-14 3.5009725e-14 0.0 6.135277e-14
0.0 0.0 4.9557077e-15 1.3690398e-15 1.4628004e-13 4.9374133e-14 0.0 0.0
0.0 0.0 3.5266367e-15 1.5373368e-14 3.2681125e-23 3.9854265e-18 2.070351e-20 7.102175e-13
0.0 1.9225808e-14 6.9571737e-15 0.0 3.752813e-14 0.0 0.0 2.36316e-21
0.0 1.8423334e-13 7.823527e-21 2.2923894e-13 3.455124e-16 0.0 6.2530146e-13 1.8458976e-20
1.151062e-13 1.7952417e-13 4.213964e-15 2.132056e-14 3.636297e-14 0.0 5.3675032e-17 0.0
0.0 0.0 3.0872028e-13 3.3853366e-14 1.1529537e-13 5.1020115e-14 2.8571908e-15 1.114401e-14
3.7900327e-14 0.0 7.6015644e-14 0.0 2.6624005e-13 1.2950033e-13 0.0 4.0531838e-18
2.9865718e-14 0.0 3.250197e-13 7.9948994e-14 0.0 6.5835374e-13 1.3856343e-16 0.0
4.6503806e-14 0.0 4.65306e-16 0.0 4.1557652e-14 1.9891125e-13 6.596602e-13 9.6899885e-14
3.5277372e-13 5.177116e-15 9.2966914e-14 1.3157422e-13 4.9303704e-15 0.0 1.0120437e-13 8.957685e-14
1.6453818e-13 0.0 4.4355012e-14 0.0 1.1457557e-13 1.16041644e-17 2.3833805e-13 5.2503e-14
0.0 6.1078446e-18 0.0 7.809407e-13 1.0152545e-16 1.2614465e-13 0.0 3.5254075e-13
8.0374025e-15 1.9805122e-16 1.7621047e-13 0.0 1.4985886e-17 6.0097665e-14 3.5012926e-15 5.585778e-15
0.0 0.0 3.0210931e-18 0.0 1.1865193e-13 0.0 2.351055e-13 6.1403304e-17
1.9120007e-14 2.0902037e-13 0.0 0.0 2.793664e-13 3.9952888e-20 6.247426e-14 3.7986562e-23
3.3178538e-13 0.0 2.9318306e-23 4.1672191e-13 4.59738e-13 5.8471095e-17 0.0 8.684546e-14
0.0 2.7899007e-16 2.0985526e-13 2.840433e-13 4.1125598e-14 8.190025e-14 1.2146428e-14 2.731646e-14
8.23996e-13 0.0 4.3469273e-14 0.0 0.0 0.0 1.00754644e-13 0.0
1.3691406e-16 2.8639274e-13 1.06630986e-13 6.976161e-14 1.1612892e-13 1.5892716e-15 2.203488e-16 8.186744e-14
9.217096e-14 1.4650698e-15 0.0 4.9588756e-15 1.5198738e-13 0.0 1.0154407e-13 2.3496033e-13
4.9565585e-18 1.2662774e-13 0.0 6.3287065e-20 7.38536e-15 1.9804399e-20 2.4294079e-13 0.0
1.4048273e-13 1.2208327e-13 1.0822128e-14 3.2580072e-14 3.7174467e-14 2.931098e-13 2.795201e-15 0.0
5.7586764e-13 1.5500547e-13 5.6121947e-14 4.599955e-15 3.9075307e-14 2.9867147e-14 1.3650872e-13 5.6796473e-13
1.39905e-15 1.4530323e-13 1.7199046e-15 1.8070054e-14 7.9261516e-13 0.0 4.5575177e-17 3.5592804e-19
0.0 0.0 0.0 8.617088e-14 1.7735898e-14 1.1505456e-13 2.2885535e-13 8.511559e-14
1.9483497e-13 6.797085e-15 1.956359e-13 0.0 1.0961055e-16 0.0 3.958924e-14 5.068576e-14
2.9319304e-15 0.0 2.5016232e-19 3.6550488e-14 0.0 3.4190018e-20 1.4953989e-13 6.4334286e-13
0.0 2.3726237e-16 0.0 3.4384435e-14 0.0 3.7654805e-13 0.0 5.498783e-14
2.0153954e-13 2.0053729e-13 2.7384908e-17 0.0 2.6563763e-14 2.7006186e-13 0.0 6.235872e-13
2.2013626e-14 2.4216969e-21 1.2405832e-13 1.0722514e-13 5.857089e-14 1.4293904e-15 0.0 0.0
