saved_weights/linear/linear_filter_fc1_204_26_0.5/saved_weights_linear_0.01.pth.tar (torch_old, 440032 bytes, 18 tensors)

exp_avg f4 [64, 204]
0	0x380863c0	3.2517826e-05
1	0xb50f8ed4	-5.3479494e-07
2	0xb71181ee	-8.672925e-06
3	0xb6121401	-2.176734e-06
4	0x35694b53	8.6908875e-07
5	0xb7711bf0	-1.4371224e-05
6	0xb7b172a6	-2.1153432e-05
7	0xb6121401	-2.176734e-06
8	0x37356e7f	1.0814168e-05
9	0x37a7e8de	2.0016389e-05
10	0xb7d4f998	-2.5388596e-05
11	0xb6121401	-2.176734e-06
12	0x36942fce	4.416309e-06
13	0x37b8a8ec	2.201317e-05
14	0x36fb6674	7.49231e-06
15	0xb6121401	-2.176734e-06
16	0xb7939e02	-1.7597344e-05
17	0x35da70ef	1.6275134e-06
18	0x370549a2	7.944562e-06
19	0xb6121401	-2.176734e-06
20	0x00000000	0.0
21	0x00000000	0.0
22	0x00000000	0.0
23	0x00000000	0.0
24	0x00000000	0.0
25	0x00000000	0.0
26	0x00000000	0.0
27	0x00000000	0.0
28	0x00000000	0.0
29	0x00000000	0.0
30	0x00000000	0.0
31	0x00000000	0.0
32	0x00000000	0.0
33	0x00000000	0.0
34	0x00000000	0.0
35	0x00000000	0.0
36	0x00000000	0.0
37	0x00000000	0.0
38	0x00000000	0.0
39	0x00000000	0.0
40	0x00000000	0.0
41	0x00000000	0.0
42	0x00000000	0.0
43	0x00000000	0.0
44	0x00000000	0.0
45	0x00000000	0.0
46	0x00000000	0.0
47	0x00000000	0.0
48	0x00000000	0.0
49	0x00000000	0.0
50	0x00000000	0.0
51	0x00000000	0.0
52	0x00000000	0.0
53	0x00000000	0.0
54	0x00000000	0.0
55	0x00000000	0.0
56	0x00000000	0.0
57	0x00000000	0.0
58	0x00000000	0.0
59	0x00000000	0.0
60	0x00000000	0.0
61	0x00000000	0.0
62	0x00000000	0.0
63	0x00000000	0.0
64	0x00000000	0.0
65	0x00000000	0.0
66	0x00000000	0.0
67	0x00000000	0.0
68	0x00000000	0.0
69	0x00000000	0.0
70	0x00000000	0.0
71	0x00000000	0.0
72	0x00000000	0.0
73	0x00000000	0.0
74	0x00000000	0.0
75	0x00000000	0.0
76	0x00000000	0.0
77	0x00000000	0.0
78	0x00000000	0.0
79	0x00000000	0.0
80	0x00000000	0.0
81	0x00000000	0.0
82	0x00000000	0.0
83	0x00000000	0.0
84	0x00000000	0.0
85	0x00000000	0.0
86	0x00000000	0.0
87	0x00000000	0.0
88	0x00000000	0.0
89	0x00000000	0.0
90	0x00000000	0.0
91	0x00000000	0.0
92	0x00000000	0.0
93	0x00000000	0.0
94	0x00000000	0.0
95	0x00000000	0.0
96	0x00000000	0.0
97	0x00000000	0.0
98	0x00000000	0.0
99	0x00000000	0.0
100	0x00000000	0.0
101	0x00000000	0.0
102	0x00000000	0.0
103	0x00000000	0.0
104	0x00000000	0.0
105	0x00000000	0.0
106	0x00000000	0.0
107	0x00000000	0.0
108	0x00000000	0.0
109	0x00000000	0.0
110	0x00000000	0.0
111	0x00000000	0.0
112	0x00000000	0.0
113	0x00000000	0.0
114	0x00000000	0.0
115	0x00000000	0.0
116	0x00000000	0.0
117	0x00000000	0.0
118	0x00000000	0.0
119	0x00000000	0.0
120	0x00000000	0.0
121	0x00000000	0.0
122	0x00000000	0.0
123	0x00000000	0.0
124	0x00000000	0.0
125	0x00000000	0.0
126	0x00000000	0.0
127	0x00000000	0.0
128	0x00000000	0.0
129	0x00000000	0.0
130	0x00000000	0.0
131	0x00000000	0.0
132	0x00000000	0.0
133	0x00000000	0.0
134	0x00000000	0.0
135	0x00000000	0.0
136	0x00000000	0.0
137	0x00000000	0.0
138	0x00000000	0.0
139	0x00000000	0.0
140	0x00000000	0.0
141	0x00000000	0.0
142	0x00000000	0.0
143	0x00000000	0.0
144	0x00000000	0.0
145	0x00000000	0.0
146	0x00000000	0.0
147	0x00000000	0.0
148	0x00000000	0.0
149	0x00000000	0.0
150	0x00000000	0.0
151	0x00000000	0.0
152	0x00000000	0.0
153	0x00000000	0.0
154	0x00000000	0.0
155	0x00000000	0.0
156	0x00000000	0.0
157	0x00000000	0.0
158	0x00000000	0.0
159	0x00000000	0.0
160	0x00000000	0.0
161	0x00000000	0.0
162	0x00000000	0.0
163	0x00000000	0.0
164	0x00000000	0.0
165	0x00000000	0.0
166	0x00000000	0.0
167	0x00000000	0.0
168	0x00000000	0.0
169	0x00000000	0.0
170	0x00000000	0.0
171	0x00000000	0.0
172	0x00000000	0.0
173	0x00000000	0.0
174	0x00000000	0.0
175	0x00000000	0.0
176	0x00000000	0.0
177	0x00000000	0.0
178	0x00000000	0.0
179	0x00000000	0.0
180	0x00000000	0.0
181	0x00000000	0.0
182	0x00000000	0.0
183	0x00000000	0.0
184	0x00000000	0.0
185	0x00000000	0.0
186	0x00000000	0.0
187	0x00000000	0.0
188	0x00000000	0.0
189	0x00000000	0.0
190	0x00000000	0.0
191	0x00000000	0.0
192	0x00000000	0.0
193	0x00000000	0.0
194	0x00000000	0.0
195	0x00000000	0.0
196	0x00000000	0.0
197	0x00000000	0.0
198	0x00000000	0.0
199	0x00000000	0.0
200	0x37b7142e	2.1824697e-05
201	0x3744da5e	1.1733353e-05
202	0xb626eed5	-2.4874946e-06
203	0x37b698fc	2.176733e-05
204	0x3759c9e0	1.2981211e-05
205	0x37681bfa	1.3834791e-05
206	0xb7e5cab8	-2.7393326e-05
207	0xb589fee5	-1.028148e-06
208	0xb83478a8	-4.3027714e-05
209	0xb717b3b5	-9.042143e-06
210	0xb817c585	-3.618516e-05
211	0xb589fee5	-1.028148e-06
212	0xb64bb4f3	-3.0354684e-06
213	0x36e0557e	6.685673e-06
214	0xb774ab43	-1.4583408e-05
215	0xb589fee5	-1.028148e-06
216	0xb73ebe55	-1.1369198e-05
217	0x37d3e1ce	2.5258309e-05
218	0xb73709d0	-1.0909935e-05
219	0xb589fee5	-1.028148e-06
220	0xb7ff1cfc	-3.0411866e-05
221	0x37dfbf9f	2.6672902e-05
222	0xb78f9253	-1.7115066e-05
223	0xb589fee5	-1.028148e-06
224	0x00000000	0.0
225	0x00000000	0.0
226	0x00000000	0.0
227	0x00000000	0.0
228	0x00000000	0.0
229	0x00000000	0.0
230	0x00000000	0.0
231	0x00000000	0.0
232	0x00000000	0.0
233	0x00000000	0.0
234	0x00000000	0.0
235	0x00000000	0.0
236	0x00000000	0.0
237	0x00000000	0.0
238	0x00000000	0.0
239	0x00000000	0.0
240	0x00000000	0.0
241	0x00000000	0.0
242	0x00000000	0.0
243	0x00000000	0.0
244	0x00000000	0.0
245	0x00000000	0.0
246	0x00000000	0.0
247	0x00000000	0.0
248	0x00000000	0.0
249	0x00000000	0.0
250	0x00000000	0.0
251	0x00000000	0.0
252	0x00000000	0.0
253	0x00000000	0.0
254	0x00000000	0.0
255	0x00000000	0.0

exp_avg_sq f4 [64, 204]
0	0x372767ef	9.978175e-06
1	0x3798bb96	1.8207164e-05
2	0x37bacccb	2.2268292e-05
3	0x34c6a1e0	3.6998154e-07
4	0x37896a94	1.6381302e-05
5	0x3763b1eb	1.3571679e-05
6	0x36a5bb7e	4.93921e-06
7	0x34c6a1e0	3.6998154e-07
8	0x379f29e0	1.8973777e-05
9	0x3675231a	3.6528277e-06
10	0x36abab34	5.116128e-06
11	0x34c6a1e0	3.6998154e-07
12	0x367877c1	3.7024586e-06
13	0x372c6275	1.0274923e-05
14	0x3714e9df	8.87594e-06
15	0x34c6a1e0	3.6998154e-07
16	0x369515c4	4.44308e-06
17	0x36dcac60	6.576578e-06
18	0x377e4590	1.5155776e-05
19	0x34c6a1e0	3.6998154e-07
20	0x00000000	0.0
21	0x00000000	0.0
22	0x00000000	0.0
23	0x00000000	0.0
24	0x00000000	0.0
25	0x00000000	0.0
26	0x00000000	0.0
27	0x00000000	0.0
28	0x00000000	0.0
29	0x00000000	0.0
30	0x00000000	0.0
31	0x00000000	0.0
32	0x00000000	0.0
33	0x00000000	0.0
34	0x00000000	0.0
35	0x00000000	0.0
36	0x00000000	0.0
37	0x00000000	0.0
38	0x00000000	0.0
39	0x00000000	0.0
40	0x00000000	0.0
41	0x00000000	0.0
42	0x00000000	0.0
43	0x00000000	0.0
44	0x00000000	0.0
45	0x00000000	0.0
46	0x00000000	0.0
47	0x00000000	0.0
48	0x00000000	0.0
49	0x00000000	0.0
50	0x00000000	0.0
51	0x00000000	0.0
52	0x00000000	0.0
53	0x00000000	0.0
54	0x00000000	0.0
55	0x00000000	0.0
56	0x00000000	0.0
57	0x00000000	0.0
58	0x00000000	0.0
59	0x00000000	0.0
60	0x00000000	0.0
61	0x00000000	0.0
62	0x00000000	0.0
63	0x00000000	0.0
64	0x00000000	0.0
65	0x00000000	0.0
66	0x00000000	0.0
67	0x00000000	0.0
68	0x00000000	0.0
69	0x00000000	0.0
70	0x00000000	0.0
71	0x00000000	0.0
72	0x00000000	0.0
73	0x00000000	0.0
74	0x00000000	0.0
75	0x00000000	0.0
76	0x00000000	0.0
77	0x00000000	0.0
78	0x00000000	0.0
79	0x00000000	0.0
80	0x00000000	0.0
81	0x00000000	0.0
82	0x00000000	0.0
83	0x00000000	0.0
84	0x00000000	0.0
85	0x00000000	0.0
86	0x00000000	0.0
87	0x00000000	0.0
88	0x00000000	0.0
89	0x00000000	0.0
90	0x00000000	0.0
91	0x00000000	0.0
92	0x00000000	0.0
93	0x00000000	0.0
94	0x00000000	0.0
95	0x00000000	0.0
96	0x00000000	0.0
97	0x00000000	0.0
98	0x00000000	0.0
99	0x00000000	0.0
100	0x00000000	0.0
101	0x00000000	0.0
102	0x00000000	0.0
103	0x00000000	0.0
104	0x00000000	0.0
105	0x00000000	0.0
106	0x00000000	0.0
107	0x00000000	0.0
108	0x00000000	0.0
109	0x00000000	0.0
110	0x00000000	0.0
111	0x00000000	0.0
112	0x00000000	0.0
113	0x00000000	0.0
114	0x00000000	0.0
115	0x00000000	0.0
116	0x00000000	0.0
117	0x00000000	0.0
118	0x00000000	0.0
119	0x00000000	0.0
120	0x00000000	0.0
121	0x00000000	0.0
122	0x00000000	0.0
123	0x00000000	0.0
124	0x00000000	0.0
125	0x00000000	0.0
126	0x00000000	0.0
127	0x00000000	0.0
128	0x00000000	0.0
129	0x00000000	0.0
130	0x00000000	0.0
131	0x00000000	0.0
132	0x00000000	0.0
133	0x00000000	0.0
134	0x00000000	0.0
135	0x00000000	0.0
136	0x00000000	0.0
137	0x00000000	0.0
138	0x00000000	0.0
139	0x00000000	0.0
140	0x00000000	0.0
141	0x00000000	0.0
142	0x00000000	0.0
143	0x00000000	0.0
144	0x00000000	0.0
145	0x00000000	0.0
146	0x00000000	0.0
147	0x00000000	0.0
148	0x00000000	0.0
149	0x00000000	0.0
150	0x00000000	0.0
151	0x00000000	0.0
152	0x00000000	0.0
153	0x00000000	0.0
154	0x00000000	0.0
155	0x00000000	0.0
156	0x00000000	0.0
157	0x00000000	0.0
158	0x00000000	0.0
159	0x00000000	0.0
160	0x00000000	0.0
161	0x00000000	0.0
162	0x00000000	0.0
163	0x00000000	0.0
164	0x00000000	0.0
165	0x00000000	0.0
166	0x00000000	0.0
167	0x00000000	0.0
168	0x00000000	0.0
169	0x00000000	0.0
170	0x00000000	0.0
171	0x00000000	0.0
172	0x00000000	0.0
173	0x00000000	0.0
174	0x00000000	0.0
175	0x00000000	0.0
176	0x00000000	0.0
177	0x00000000	0.0
178	0x00000000	0.0
179	0x00000000	0.0
180	0x00000000	0.0
181	0x00000000	0.0
182	0x00000000	0.0
183	0x00000000	0.0
184	0x00000000	0.0
185	0x00000000	0.0
186	0x00000000	0.0
187	0x00000000	0.0
188	0x00000000	0.0
189	0x00000000	0.0
190	0x00000000	0.0
191	0x00000000	0.0
192	0x00000000	0.0
193	0x00000000	0.0
194	0x00000000	0.0
195	0x00000000	0.0
196	0x00000000	0.0
197	0x00000000	0.0
198	0x00000000	0.0
199	0x00000000	0.0
200	0x37460426	1.1802686e-05
201	0x367f1cd1	3.8014734e-06
202	0x378a4a7a	1.6485563e-05
203	0x381b2e8b	3.6998226e-05
204	0x3611e54b	2.174015e-06
205	0x367a48e2	3.7295326e-06
206	0x3691c436	4.3441787e-06
207	0x33f4691f	1.1381257e-07
208	0x369d4f65	4.6882074e-06
209	0x36ca6db4	6.0328402e-06
210	0x36220bb6	2.4146698e-06
211	0x33f4691f	1.1381257e-07
212	0x36a8cb3b	5.0304493e-06
213	0x3663bfd6	3.39373e-06
214	0x3546cc24	7.405781e-07
215	0x33f4691f	1.1381257e-07
216	0x35e7ea30	1.7278999e-06
217	0x369106e4	4.322139e-06
218	0x364b941e	3.0335573e-06
219	0x33f4691f	1.1381257e-07
220	0x35c4303d	1.4617177e-06
221	0x35b58036	1.3522865e-06
222	0x3632e2bb	2.6656041e-06
223	0x33f4691f	1.1381257e-07
224	0x00000000	0.0
225	0x00000000	0.0
226	0x00000000	0.0
227	0x00000000	0.0
228	0x00000000	0.0
229	0x00000000	0.0
230	0x00000000	0.0
231	0x00000000	0.0
232	0x00000000	0.0
233	0x00000000	0.0
234	0x00000000	0.0
235	0x00000000	0.0
236	0x00000000	0.0
237	0x00000000	0.0
238	0x00000000	0.0
239	0x00000000	0.0
240	0x00000000	0.0
241	0x00000000	0.0
242	0x00000000	0.0
243	0x00000000	0.0
244	0x00000000	0.0
245	0x00000000	0.0
246	0x00000000	0.0
247	0x00000000	0.0
248	0x00000000	0.0
249	0x00000000	0.0
250	0x00000000	0.0
251	0x00000000	0.0
252	0x00000000	0.0
253	0x00000000	0.0
254	0x00000000	0.0
255	0x00000000	0.0

exp_avg f4 [256, 64]
0	0x00000001	1e-45
1	0x94006043	-6.481333e-27
2	0x00000001	1e-45
3	0x80000003	-4e-45
4	0x00000002	3e-45
5	0x00000001	1e-45
6	0x80000003	-4e-45
7	0x8f00fb93	-6.359339e-30
8	0x00000003	4e-45
9	0x11654022	1.8084677e-28
10	0x80000001	-1e-45
11	0x0e0d0add	1.7384822e-30
12	0x80000003	-4e-45
13	0x0f21626a	7.956867e-30
14	0x00000000	0.0
15	0x00000002	3e-45
16	0x00000002	3e-45
17	0x80000004	-6e-45
18	0x00000001	1e-45
19	0x80000004	-6e-45
20	0x926900fb	-7.3523045e-28
21	0x12efee27	1.514173e-27
22	0x912c56cb	-1.3595153e-28
23	0x92d496f2	-1.3416292e-27
24	0x92cf60f5	-1.3087438e-27
25	0x00000002	3e-45
26	0x167a0aa9	2.0198203e-25
27	0x00000003	4e-45
28	0x80000004	-6e-45
29	0x11640e08	1.7990352e-28
30	0x0b01a1b3	2.4966145e-32
31	0x00000002	3e-45
32	0x00000004	6e-45
33	0x80000004	-6e-45
34	0x00000001	1e-45
35	0x1ae054be	9.278114e-23
36	0x80000002	-3e-45
37	0x80000002	-3e-45
38	0x80000004	-6e-45
39	0x0f6b1ab5	1.1591538e-29
40	0x00000004	6e-45
41	0x95d6b058	-8.671213e-26
42	0x80000001	-1e-45
43	0x80000001	-1e-45
44	0x00000003	4e-45
45	0x925cc70c	-6.9665104e-28
46	0x80000004	-6e-45
47	0x00000004	6e-45
48	0x00000004	6e-45
49	0x80000002	-3e-45
50	0x80000002	-3e-45
51	0x00000003	4e-45
52	0x00000004	6e-45
53	0x80000002	-3e-45
54	0x00000003	4e-45
55	0x80000004	-6e-45
56	0x00000002	3e-45
57	0x139b96db	3.9276256e-27
58	0x149cd2d9	1.583514e-26
59	0x00000002	3e-45
60	0x80000004	-6e-45
61	0x10419c3e	3.8182903e-29
62	0x80000001	-1e-45
63	0x0adcce13	2.1262746e-32
64	0x9214440f	-4.6784454e-28
65	0x915a913d	-1.7241923e-28
66	0x10bf0508	7.534397e-29
67	0x90e54af7	-9.0440075e-29
68	0x9713fd3b	-4.7817884e-25
69	0x113862e1	1.454551e-28
70	0x11c8c855	3.16779e-28
71	0x9104aa5d	-1.0465461e-28
72	0x16bcce9a	3.0503422e-25
73	0x06900900	5.4180004e-35
74	0x00000004	6e-45
75	0x00000004	6e-45
76	0x12466bbc	6.2610577e-28
77	0x94a9543b	-1.7097862e-26
78	0x92317217	-5.599198e-28
79	0x84e674c8	-5.4179987e-36
80	0x112b8e92	1.3533454e-28
81	0x902e2a9e	-3.434828e-29
82	0x990d92f7	-7.3192085e-24
83	0x101c4da3	3.0825384e-29
84	0x1704eedb	4.295298e-25
85	0x126fb653	7.5639834e-28
86	0x970cbc2f	-4.547396e-25
87	0x9210b14b	-4.565692e-28
88	0x1218b29e	4.8182906e-28
89	0x8fdc3011	-2.171219e-29
90	0x915d9a3b	-1.7481352e-28
91	0x90adfbeb	-6.862461e-29
92	0x960bf9b6	-1.1307125e-25
93	0x80000004	-6e-45
94	0x0781a1b3	1.95048e-34
95	0x886674c8	-6.9350383e-34
96	0x90c3f1c3	-7.728643e-29
97	0x06e674c8	8.668798e-35
98	0x910a66d7	-1.091797e-28
99	0x13060dc9	1.6919974e-27
100	0x1220fb69	5.0796985e-28
101	0x90d4666d	-8.377707e-29
102	0x91d3ba88	-3.340489e-28
103	0x135acd62	2.761673e-27
104	0x119ac9a5	2.442119e-28
105	0x973acc61	-6.0357804e-25
106	0x9bd06c45	-3.448068e-22
107	0x80000004	-6e-45
108	0x80000004	-6e-45
109	0x929ebb9d	-1.0017452e-27
110	0x92b6d8e4	-1.1539282e-27
111	0x10a09956	6.3345124e-29
112	0x8a100900	-6.9350405e-33
113	0x9804c529	-1.716014e-24
114	0x00000004	6e-45
115	0x1610a45d	1.1684091e-25
116	0x123e715f	6.009317e-28
117	0x0fbb4a04	1.8468133e-29
118	0x16dd5a96	3.5761643e-25
119	0x97a4ec1b	-1.0657853e-24
120	0x982ac508	-2.207146e-24
121	0x9718c847	-4.9366634e-25
122	0x90f1ca91	-9.536984e-29
123	0x80000004	-6e-45
124	0x88c9a632	-1.213632e-33
125	0x1005c75b	2.6383203e-29
126	0x9738a6fc	-5.966437e-25
127	0x80000004	-6e-45
128	0x3410f6c5	1.350082e-07
129	0xb6cf07aa	-6.169973e-06
130	0x36aea10b	5.204352e-06
131	0x360c90b9	2.0945865e-06
132	0xb5077254	-5.045779e-07
133	0x35a1321a	1.2010016e-06
134	0x36d663ed	6.38933e-06
135	0x356185a5	8.401351e-07
136	0x356c4ba5	8.802693e-07
137	0xb5711ef6	-8.982455e-07
138	0xb664244b	-3.3995773e-06
139	0xb40d211a	-1.314369e-07
140	0x37b648d2	2.173e-05
141	0xb4c943a8	-3.7488394e-07
142	0x35a9edf9	1.266074e-06
143	0x35869237	1.0026332e-06
144	0x365711f0	3.2047938e-06
145	0xb646dd75	-2.9633204e-06
146	0x33a6ea00	7.772542e-08
147	0x35353fc1	6.752053e-07
148	0x368f8c4a	4.278064e-06
149	0x80000004	-6e-45
150	0x0b1fda8f	3.078671e-32
151	0x36d98576	6.482641e-06
152	0x00000004	6e-45
153	0xb6b77358	-5.467253e-06
154	0xaf2be2b9	-1.5632907e-10
155	0xb58861cf	-1.0161256e-06
156	0xb244b10e	-1.1448959e-08
157	0xb4a92c31	-3.1510857e-07
158	0x358ca2cf	1.0478196e-06
159	0x36987cd0	4.544483e-06
160	0x36c44dd8	5.8503174e-06
161	0x36d13040	6.2343024e-06
162	0xb6a7f232	-5.005183e-06
163	0xb68a68e3	-4.124931e-06
164	0x3704ae98	7.908464e-06
165	0x36f90f76	7.422578e-06
166	0xb5465f81	-7.3899724e-07
167	0xb5904a30	-1.0750427e-06
168	0xb78d4d2c	-1.6844446e-05
169	0x35795236	9.287936e-07
170	0x374a6318	1.206321e-05
171	0x36d443ce	6.325986e-06
172	0x36c3d503	5.8362507e-06
173	0x00000004	6e-45
174	0xb62053f4	-2.3890725e-06
175	0x359a7ed9	1.1510812e-06
176	0x33a2ef8c	7.587286e-08
177	0x3713f7e9	8.819604e-06
178	0xb6311705	-2.6388454e-06
179	0xb784d013	-1.5832518e-05
180	0x3643c7a8	2.917348e-06
181	0xb5f62637	-1.833955e-06
182	0xb43125f6	-1.649822e-07
183	0x35dc4cd4	1.6413637e-06
184	0x36e08949	6.6917023e-06
185	0xb580e76e	-9.604098e-07
186	0xb681436e	-3.8523494e-06
187	0x375ee5eb	1.3285763e-05
188	0xb7ac24b8	-2.0521096e-05
189	0x33a6d1d1	7.768143e-08
190	0x37086d25	8.131644e-06
191	0x36da1377	6.4991723e-06
192	0xb79ba4f4	-1.8554252e-05
193	0xb78f576f	-1.7087643e-05
194	0xb816adc5	-3.5924622e-05
195	0xb8357cbc	-4.326993e-05
196	0xb7586342	-1.28977135e-05
197	0xb897466c	-7.213358e-05
198	0xb8899584	-6.5605185e-05
199	0xb2ff6903	-2.973366e-08
200	0x369d7364	4.692398e-06
201	0xb7a9bb74	-2.023366e-05
202	0xb7a50ead	-1.9676367e-05
203	0x32d797be	2.5098299e-08
204	0xb8195d5b	-3.6564987e-05
205	0xb60da08e	-2.1104092e-06
206	0xb83c4a85	-4.4892095e-05
207	0xb7e31c18	-2.707359e-05
208	0x3641ffe3	2.8908187e-06
209	0xb78d41c8	-1.6839142e-05
210	0xb843cf70	-4.6684814e-05
211	0xb5f7cb85	-1.8462166e-06
212	0xb805c29a	-3.1890908e-05
213	0x0cc3f8dd	3.0194286e-31
214	0x1fadb748	7.3571563e-20
215	0xb80859ad	-3.2508444e-05
216	0x9d0c5921	-1.8574924e-21
217	0xb8581599	-5.1518527e-05
218	0xb6e44f7b	-6.8041822e-06
219	0xb74ad32d	-1.2089306e-05
220	0xb752d7f3	-1.2567255e-05
221	0xb465a3d4	-2.1386887e-07
222	0xb7eea29a	-2.8447528e-05
223	0xb77777ef	-1.47502715e-05
224	0xb81c5502	-3.7272468e-05
225	0xb87545ac	-5.847744e-05
226	0xb7c6dc5e	-2.3706056e-05
227	0xb7b3991d	-2.1409762e-05
228	0xb73065eb	-1.0514147e-05
229	0xb80e51ba	-3.3931552e-05
230	0xb79fa206	-1.9029725e-05
231	0xb73e9931	-1.136055e-05
232	0xb823bfc1	-3.9040813e-05
233	0x33fc980b	1.1762321e-07
234	0xb85a93b5	-5.2112813e-05
235	0xb8542755	-5.058137e-05
236	0xb8664196	-5.4897355e-05
237	0x964297c5	-1.5719085e-25
238	0xb7ca8ecf	-2.4146777e-05
239	0xb8401aba	-4.580126e-05
240	0xb7e99275	-2.7843964e-05
241	0xb8304f6a	-4.203563e-05
242	0xb82e4803	-4.15519e-05
243	0xb6f73959	-7.36785e-06
244	0xb875dab4	-5.8616235e-05
245	0xb7ade8e9	-2.0731664e-05
246	0xb8990f0f	-7.2984134e-05
247	0xb8858d6e	-6.3682775e-05
248	0xb89de16d	-7.528332e-05
249	0xb7a82807	-2.00458e-05
250	0xb7bf613f	-2.2814258e-05
251	0xb83ed154	-4.5494482e-05
252	0x36f16691	7.1943e-06
253	0xb64e68a9	-3.0757312e-06
254	0xb7ec1808	-2.8144583e-05
255	0xb8506d0a	-4.9692615e-05

exp_avg_sq f4 [256, 64]
0	0x25cdaaec	3.5677652e-16
1	0x25ddc59a	3.847129e-16
2	0x258ec08c	2.4763548e-16
3	0x25d975e2	3.772338e-16
4	0x25427a4d	1.6868255e-16
5	0x25cd2c63	3.559191e-16
6	0x26f1fffe	1.6792121e-15
7	0x250870c2	1.1834323e-16
8	0x250b405e	1.2078137e-16
9	0x267fd86e	8.8764214e-16
10	0x2547c0d7	1.7325835e-16
11	0x26151ce3	5.173391e-16
12	0x26f07863	1.6685976e-15
13	0x25b73253	3.177954e-16
14	0x261b32f6	5.3845493e-16
15	0x2612bea7	5.091231e-16
16	0x26afb52c	1.2192171e-15
17	0x2601ea0b	4.5073053e-16
18	0x258ccae6	2.4423618e-16
19	0x256270a7	1.9640543e-16
20	0x2aaed8ab	3.1058953e-13
21	0x258f9ad9	2.4911475e-16
22	0x2602dead	4.540459e-16
23	0x26162c90	5.21021e-16
24	0x259029d1	2.5008354e-16
25	0x259ffae0	2.7752103e-16
26	0x256dd35c	2.0628085e-16
27	0x255483e9	1.8432762e-16
28	0x2517cbce	1.3166214e-16
29	0x25d3621f	3.6669155e-16
30	0x253b7a57	1.6261115e-16
31	0x251e690e	1.373991e-16
32	0x26cfec64	1.4427584e-15
33	0x2636b621	6.3390765e-16
34	0x2550eb41	1.8120831e-16
35	0x25086bd3	1.1832652e-16
36	0x2600ec18	4.472889e-16
37	0x269106e1	1.0063261e-15
38	0x25d7be8d	3.7425677e-16
39	0x26832767	9.100631e-16
40	0x260822bd	4.723156e-16
41	0x256c68fe	2.050531e-16
42	0x25ac9bad	2.9942734e-16
43	0x25259727	1.4362681e-16
44	0x25f6a9a2	4.2789145e-16
45	0x2558b064	1.8794777e-16
46	0x25a2acfd	2.8219742e-16
47	0x2647ea11	6.9359213e-16
48	0x28441434	1.08845665e-14
49	0x268f768c	9.95475e-16
50	0x25829fa1	2.2659574e-16
51	0x26563ed7	7.433133e-16
52	0x2601e2de	4.506333e-16
53	0x250fc862	1.2471165e-16
54	0x2616bf23	5.2300743e-16
55	0x2639fbc7	6.452599e-16
56	0x275dcacd	3.077985e-15
57	0x25c51335	3.4187068e-16
58	0x25b1442b	3.0750798e-16
59	0x26d436d7	1.4725319e-15
60	0x2574eb2d	2.1243307e-16
61	0x25712c42	2.0918413e-16
62	0x26616335	7.8197007e-16
63	0x24fac0d5	1.0874689e-16
64	0x256b3b3b	2.0403069e-16
65	0x255edfc4	1.9331245e-16
66	0x25ca3659	3.5078242e-16
67	0x25840cd9	2.2907056e-16
68	0x2569da72	2.028354e-16
69	0x25beb7ce	3.3084297e-16
70	0x255c0c95	1.9086221e-16
71	0x265315e9	7.3235024e-16
72	0x2568d969	2.0196454e-16
73	0x2543641e	1.6947475e-16
74	0x2560e6fb	1.9507162e-16
75	0x270f5f0c	1.9896762e-15
76	0x2581f3df	2.2543186e-16
77	0x255ff738	1.9425928e-16
78	0x25881614	2.36072e-16
79	0x2584bded	2.3027049e-16
80	0x255ce311	1.9158891e-16
81	0x265d7cd1	7.6843935e-16
82	0x2590de7d	2.5130782e-16
83	0x26621483	7.84373e-16
84	0x256d377a	2.057527e-16
85	0x2583959a	2.2826251e-16
86	0x25782454	2.152288e-16
87	0x257d7221	2.198292e-16
88	0x255df07d	1.9250175e-16
89	0x25b5c8eb	3.1534642e-16
90	0x25c3d4db	3.3971344e-16
91	0x2585933d	2.3171595e-16
92	0x25684093	2.0144671e-16
93	0x255c62b9	1.9115407e-16
94	0x2544bb2e	1.7063709e-16
95	0x2688663a	9.464604e-16
96	0x26d28768	1.4608379e-15
97	0x2605659f	4.6281367e-16
98	0x258c4f1c	2.4339735e-16
99	0x2583ee8c	2.2886523e-16
100	0x266e101e	8.259468e-16
101	0x265ebefd	7.728056e-16
102	0x2554a9a0	1.844554e-16
103	0x256bbbec	2.0446671e-16
104	0x25939c58	2.5606378e-16
105	0x256de52e	2.0634122e-16
106	0x258da3f7	2.4570708e-16
107	0x25cecd78	3.5874535e-16
108	0x271e8c28	2.2002884e-15
109	0x2565355f	1.9880667e-16
110	0x258177b3	2.2459044e-16
111	0x2665b8e9	7.9700935e-16
112	0x2603bed2	4.5708365e-16
113	0x25816fe6	2.2453758e-16
114	0x25094cfd	1.190894e-16
115	0x2561a773	1.9572373e-16
116	0x253db7d8	1.6455426e-16
117	0x25897d2a	2.3850526e-16
118	0x25815eb1	2.2442098e-16
119	0x25053f5e	1.1557381e-16
120	0x257028e8	2.0830541e-16
121	0x2568d19c	2.0193811e-16
122	0x25a61e46	2.8816924e-16
123	0x252fc7ec	1.5246567e-16
124	0x256f525e	2.0757853e-16
125	0x2664bbae	7.9357744e-16
126	0x256ff7cb	2.0813901e-16
127	0x2559dd80	1.8896797e-16
128	0x3607f0c4	2.0256712e-06
129	0x36dad662	6.5218637e-06
130	0x35c7203e	1.4836039e-06
131	0x368a60d2	4.123992e-06
132	0x363f4b07	2.850489e-06
133	0x372880c5	1.0043562e-05
134	0x311094ac	2.1039268e-09
135	0x3046a9b5	7.227315e-10
136	0x34e0b50f	4.185499e-07
137	0x35c2374a	1.4470218e-06
138	0x36e3953e	6.7825013e-06
139	0x31876eb7	3.941604e-09
140	0x329f4b0d	1.8544165e-08
141	0x2f91e700	2.6539482e-10
142	0x3723f182	9.7717875e-06
143	0x37064089	8.002048e-06
144	0x33954c0e	6.9521874e-08
145	0x37b26bad	2.1269394e-05
146	0x3780b53e	1.5343187e-05
147	0x3493f3d4	2.7558292e-07
148	0x33408f72	4.4833946e-08
149	0x249b1ca6	6.726907e-17
150	0x246ae22f	5.0932247e-17
151	0x32a612ab	1.9333433e-08
152	0x19d13a97	2.1633758e-23
153	0x3597c453	1.1307515e-06
154	0x2aa560f6	2.9377168e-13
155	0x36d98287	6.4822993e-06
156	0x359159e0	1.0829499e-06
157	0x2ea14d1c	7.33513e-11
158	0x308ea00e	1.037735e-09
159	0x364b6705	3.0309322e-06
160	0x35b2c844	1.3320318e-06
161	0x35c12fa7	1.4393489e-06
162	0x37a87235	2.0080342e-05
163	0x367ed0be	3.7970453e-06
164	0x3535df63	6.7752825e-07
165	0x35a505a2	1.2295097e-06
166	0x36d2b10c	6.2790987e-06
167	0x357703c6	9.202016e-07
168	0x38a57993	7.890458e-05
169	0x2ebef02e	8.682864e-11
170	0x33346bd3	4.200758e-08
171	0x308e3cbd	1.0349123e-09
172	0x370fefa2	8.579258e-06
173	0x1970e7f5	1.24545525e-23
174	0x36980b09	4.5312377e-06
175	0x380fa328	3.4245808e-05
176	0x2ed82665	9.829363e-11
177	0x35a7d4ae	1.2504368e-06
178	0x380bda5d	3.334355e-05
179	0x39208f79	0.00015312237
180	0x370ff645	8.580803e-06
181	0x36dbf927	6.5557138e-06
182	0x38585ef9	5.1586863e-05
183	0x300b05b9	5.057604e-10
184	0x3733b019	1.0710232e-05
185	0x35ad2aab	1.2901922e-06
186	0x3694eb3e	4.4381295e-06
187	0x32cd76b6	2.3919124e-08
188	0x3882552c	6.2147476e-05
189	0x2be8f7c1	1.6553357e-12
190	0x328534ef	1.550731e-08
191	0x357d7b9a	9.442971e-07
192	0x3505ce55	4.9846614e-07
193	0x35ba6a09	1.388894e-06
194	0x35b56fb4	1.3518061e-06
195	0x360fb0fd	2.1411681e-06
196	0x3521586b	6.010584e-07
197	0x3724f402	9.831974e-06
198	0x37c76b24	2.377254e-05
199	0x2f862da4	2.4406888e-10
200	0x34a01d27	2.9823534e-07
201	0x3508c9d0	5.0957624e-07
202	0x35bf7e32	1.4267337e-06
203	0x2f918bc7	2.6474664e-10
204	0x37ca332e	2.4104109e-05
205	0x33d35f74	9.842816e-08
206	0x36a35393	4.867508e-06
207	0x36125e75	2.1810677e-06
208	0x3536d7a7	6.81141e-07
209	0x36a1c25b	4.8208e-06
210	0x36acff7a	5.155741e-06
211	0x33b885fe	8.592541e-08
212	0x36f678c2	7.3454294e-06
213	0x26b1d885	1.234053e-15
214	0x2988d6a4	6.0768475e-14
215	0x375bc7a5	1.3099901e-05
216	0x254a1e8d	1.7531058e-16
217	0x37134839	8.778698e-06
218	0x3387500e	6.300989e-08
219	0x35ee77ec	1.7767284e-06
220	0x34712a2e	2.2460219e-07
221	0x2dfe1836	2.8887209e-11
222	0x3696ddd8	4.4961744e-06
223	0x35f0b2d2	1.7933437e-06
224	0x36bd0647	5.6333697e-06
225	0x3706e8bc	8.04121e-06
226	0x369317b0	4.383699e-06
227	0x35594a32	8.094677e-07
228	0x36afa833	5.2349874e-06
229	0x3643e55f	2.9190776e-06
230	0x3623d56f	2.4413127e-06
231	0x344a0438	1.8814251e-07
232	0x379889b1	1.818393e-05
233	0x31783304	3.6117749e-09
234	0x36f1c210	7.2049515e-06
235	0x3664c7d7	3.409097e-06
236	0x37582ea8	1.2885466e-05
237	0x281f3b96	8.839194e-15
238	0x358b65b2	1.0385904e-06
239	0x371b3783	9.251645e-06
240	0x35317cf9	6.61195e-07
241	0x373118a0	1.0555756e-05
242	0x378ff8ea	1.7162838e-05
243	0x38329864	4.2580432e-05
244	0x369135f5	4.327618e-06
245	0x35bfca7b	1.4289539e-06
246	0x37a37f03	1.9490259e-05
247	0x3859851b	5.1860796e-05
248	0x378867b6	1.6260758e-05
249	0x34a9c882	3.1624592e-07
250	0x3588819a	1.0170509e-06
251	0x380fcd45	3.428503e-05
252	0x37619640	1.3446028e-05
253	0x32f9ab54	2.9065326e-08
254	0x367d5596	3.7749755e-06
255	0x3612c870	2.1872365e-06

exp_avg f4 [64]
0	0x37b698ff	2.1767335e-05
1	0x372c7ea2	1.0281483e-05
2	0xb9011bbf	-0.00012312735
3	0xb7d1da92	-2.5016521e-05
4	0x36d66b54	6.3901916e-06
5	0xb8beb89b	-9.0942915e-05
6	0xb7ecefac	-2.8244998e-05
7	0xb7904c76	-1.7201743e-05
8	0x388536e3	6.352158e-05
9	0x37fdb5ba	3.0244573e-05
10	0x380b84c2	3.3263823e-05
11	0xb41a23fd	-1.435546e-07
12	0x3902e437	0.00012482783
13	0x37eb902a	2.8081315e-05
14	0x37e8093b	2.7660853e-05
15	0xb760d341	-1.3400627e-05
16	0x392ac95b	0.00016287474
17	0x3822263f	3.865943e-05
18	0xb7e93947	-2.7802436e-05
19	0x379ae42a	1.8464478e-05
20	0xb899ec6c	-7.3396455e-05
21	0x00000004	6e-45
22	0x14dbc1f7	2.2189855e-26
23	0xb8aae474	-8.1487844e-05
24	0x85951b36	-1.4021888e-35
25	0xb905cb39	-0.00012759575
26	0x32b33483	2.0862222e-08
27	0x3697cffc	4.5243632e-06
28	0xb5081b3b	-5.0703574e-07
29	0xb6a801f5	-5.007018e-06
30	0x388d50b7	6.738438e-05
31	0x3772c674	1.447053e-05
32	0x38956559	7.123751e-05
33	0xb8aec31a	-8.333307e-05
34	0xb92d4886	-0.00016525583
35	0x381746ee	3.6067264e-05
36	0x38d59963	0.00010185202
37	0xb808205c	-3.2455064e-05
38	0xb88ec65a	-6.8080335e-05
39	0xb74fbf76	-1.2382739e-05
40	0xb930b351	-0.00016851469
41	0xb7a1ddf6	-1.9296054e-05
42	0x399e3302	0.00030174112
43	0xb8440e69	-4.6743462e-05
44	0xb8be0616	-9.0610396e-05
45	0x8000000d	-1.8e-44
46	0xb8889ff4	-6.514779e-05
47	0x3889b3fa	6.566192e-05
48	0xb7e26651	-2.6988944e-05
49	0x3873c841	5.8122216e-05
50	0xb9620a8f	-0.00021556973
51	0xb9ba6a00	-0.0003555566
52	0xb80ce53f	-3.3592103e-05
53	0x38007aa0	3.063178e-05
54	0xba190c3a	-0.0005838309
55	0x38d19ade	9.994743e-05
56	0x3843cc23	4.668174e-05
57	0xb877833c	-5.901161e-05
58	0xb737d90a	-1.0958183e-05
59	0x385ffacc	5.3400916e-05
60	0x38e66548	0.0001098612
61	0x3833ea64	4.289522e-05
62	0x3902ba71	0.00012467221
63	0xb7e51aa8	-2.731134e-05

exp_avg_sq f4 [64]
0	0x381b2e8b	3.6998226e-05
1	0x373ef229	1.1381265e-05
2	0x387b8348	5.996533e-05
3	0x378dc9c7	1.690247e-05
4	0x3881dfbd	6.192874e-05
5	0x3886e32e	6.4319334e-05
6	0x39144091	0.00014138433
7	0x33fb23e2	1.16946254e-07
8	0x384890d3	4.7818594e-05
9	0x385cf7df	5.2682935e-05
10	0x391f4db8	0.00015192374
11	0x32209444	9.3469374e-09
12	0x38d37707	0.000100834346
13	0x363e746f	2.837998e-06
14	0x380316a9	3.1253938e-05
15	0x382925ef	4.032807e-05
16	0x39385ada	0.00017581452
17	0x37fa69ad	2.9851532e-05
18	0x390eb07d	0.00013607922
19	0x36332969	2.6697182e-06
20	0x385aeef2	5.2197785e-05
21	0x2a3b6875	1.6645177e-13
22	0x2afc81d6	4.4854284e-13
23	0x38d5f054	0.00010201396
24	0x29b7270f	8.133608e-14
25	0x399a1fcd	0.00029396862
26	0x36d0b07b	6.219428e-06
27	0x385a5f20	5.2063842e-05
28	0x37573337	1.2826923e-05
29	0x31b958bc	5.3942966e-09
30	0x391f5022	0.00015193273
31	0x398b5720	0.0002657706
32	0x3891521a	6.9294314e-05
33	0x3964d413	0.00021822778
34	0x386bd0e7	5.622292e-05
35	0x38e23d37	0.00010787922
36	0x39ee6ace	0.00045474473
37	0x38b6bd4d	8.713696e-05
38	0x38cfbc17	9.905564e-05
39	0x37f240e1	2.887886e-05
40	0x37fda07c	3.0234682e-05
41	0x3789b18d	1.6414351e-05
42	0x39db1070	0.00041783182
43	0x380dc0de	3.379664e-05
44	0x39418885	0.00018456772
45	0x2b681a1e	8.24592e-13
46	0x37317b82	1.05787785e-05
47	0x3827ec3f	4.0035924e-05
48	0x37796c6e	1.4866802e-05
49	0x38932bb1	7.0176444e-05
50	0x38b745d1	8.739124e-05
51	0x39fe9de0	0.0004856428
52	0x38b9371c	8.831752e-05
53	0x38e6bb27	0.000110021145
54	0x39863f7a	0.00025605765
55	0x39d1fcbe	0.00040051894
56	0x38de0414	0.000105865445
57	0x389eb17a	7.567085e-05
58	0x370cce4e	8.392684e-06
59	0x39ce37da	0.00039332994
60	0x3909c113	0.00013137264
61	0x36ed10af	7.0650926e-06
62	0x39206ba5	0.0001529889
63	0x38265d1f	3.966421e-05

exp_avg f4 [256]
0	0x80000004	-6e-45
1	0x00000000	0.0
2	0x3809542f	3.2741747e-05
3	0x37c190d5	2.3074836e-05
4	0x3802764a	3.110458e-05
5	0x00000004	6e-45
6	0x80000004	-6e-45
7	0x00000004	6e-45
8	0x382df0fd	4.1470852e-05
9	0x80000004	-6e-45
10	0x386de59a	5.6719036e-05
11	0x383516d1	4.3175012e-05
12	0xb89edd72	-7.5752745e-05
13	0xb71be675	-9.292377e-06
14	0xb8bf7d25	-9.1309e-05
15	0x38365d1c	4.3478896e-05
16	0x80000004	-6e-45
17	0x00000004	6e-45
18	0xb8783cea	-5.918454e-05
19	0x38844047	6.306223e-05
20	0xb7dde69f	-2.6452644e-05
21	0x35845fb8	9.862624e-07
22	0x00000000	0.0
23	0x00000000	0.0
24	0xb917dffb	-0.00014483921
25	0xb7d5db53	-2.549371e-05
26	0xb7a2cfa3	-1.9408593e-05
27	0xb78974d2	-1.6386071e-05
28	0x3926d809	0.00015911473
29	0x393eca3e	0.00018195153
30	0xb80cdb3d	-3.3582783e-05
31	0xb960e729	-0.00021448419
32	0x00000000	0.0
33	0x3860c90d	5.3593005e-05
34	0x80000004	-6e-45
35	0x80000004	-6e-45
36	0x3866ba1e	5.500961e-05
37	0x38b54ef2	8.645457e-05
38	0x00000004	6e-45
39	0x3975fa87	0.0002345835
40	0x00000000	0.0
41	0x3802249f	3.102852e-05
42	0xb706ecf6	-8.042194e-06
43	0xb65889dc	-3.2266753e-06
44	0x00000004	6e-45
45	0x00000000	0.0
46	0x3829d289	4.0488816e-05
47	0x3831304d	4.2245072e-05
48	0x3819d3ff	3.667548e-05
49	0xb8791669	-5.9387097e-05
50	0x38ab81f6	8.1781225e-05
51	0xb85200e3	-5.0068727e-05
52	0xb69e3280	-4.714646e-06
53	0x36db0ba0	6.528062e-06
54	0xb802dd50	-3.120053e-05
55	0x00000004	6e-45
56	0x00000004	6e-45
57	0x00000000	0.0
58	0x390bf0dd	0.00013345802
59	0xb7c2003d	-2.3126713e-05
60	0x383717b7	4.3652686e-05
61	0x388b1e41	6.633672e-05
62	0x38bef3f2	9.105344e-05
63	0x389ebb39	7.5689e-05
64	0x37aa1e0f	2.0279576e-05
65	0x00000000	0.0
66	0x378acc4e	1.6546019e-05
67	0x80000004	-6e-45
68	0x37336368	1.0692376e-05
69	0x37309444	1.0524938e-05
70	0xb530251d	-6.5619116e-07
71	0x38920f7b	6.964706e-05
72	0xb6c32b1a	-5.8164705e-06
73	0x00000004	6e-45
74	0x389af751	7.3893585e-05
75	0xb7c263ac	-2.3173016e-05
76	0xba098f2c	-0.00052474695
77	0x384c100f	4.8652346e-05
78	0xb99ddb01	-0.00030108544
79	0x00000000	0.0
80	0x37b39dab	2.1411883e-05
81	0x384a0384	4.8163827e-05
82	0xb610f159	-2.1598155e-06
83	0x80000004	-6e-45
84	0x385afc6c	5.2210336e-05
85	0x35f0c084	1.7937423e-06
86	0xb63ad602	-2.7840729e-06
87	0x382aca7e	4.0719744e-05
88	0x37afaa66	2.0940974e-05
89	0x80000004	-6e-45
90	0x344bd7d8	1.8984372e-07
91	0x34857ab9	2.4862473e-07
92	0x396cdadc	0.00022588245
93	0x80000004	-6e-45
94	0xb8805b50	-6.120524e-05
95	0xb809bbfd	-3.2838423e-05
96	0x3853658b	5.040089e-05
97	0x00000004	6e-45
98	0xb6cf0460	-6.16959e-06
99	0xb9173c49	-0.0001442294
100	0x38aa83f2	8.1308084e-05
101	0x3812cdd4	3.5000805e-05
102	0x38665102	5.4911718e-05
103	0x38094f7a	3.2737364e-05
104	0x00000000	0.0
105	0xb5886a01	-1.0163641e-06
106	0xb61d6d7d	-2.3458554e-06
107	0xb8149dca	-3.5432902e-05
108	0x3702ecb8	7.803719e-06
109	0x00000004	6e-45
110	0xb7189711	-9.095079e-06
111	0x3806e99d	3.216566e-05
112	0x00000004	6e-45
113	0x3802b039	3.1158535e-05
114	0xb79b1b7c	-1.8490238e-05
115	0xb5f71938	-1.8410274e-06
116	0x3859d4f2	5.1935152e-05
117	0x371f151e	9.482055e-06
118	0x00000004	6e-45
119	0x80000004	-6e-45
120	0x37cb2fe5	2.4221788e-05
121	0x384c2ac2	4.867721e-05
122	0x3801fb40	3.098999e-05
123	0x00000000	0.0
124	0xb834022a	-4.291736e-05
125	0x00000000	0.0
126	0x00000004	6e-45
127	0x3825decb	3.9546558e-05
128	0x38af6ef0	8.365314e-05
129	0x00000004	6e-45
130	0x00000000	0.0
131	0x00000000	0.0
132	0xb773a152	-1.4521489e-05
133	0x80000004	-6e-45
134	0x36276d68	2.4948622e-06
135	0x3904826e	0.0001263709
136	0x366b11c7	3.5028077e-06
137	0x80000004	-6e-45
138	0x00000004	6e-45
139	0xb84fea4b	-4.957085e-05
140	0x38e03275	0.00010690551
141	0x36b1c7c1	5.2982655e-06
142	0xb8a2b224	-7.757943e-05
143	0x384ab224	4.832646e-05
144	0x00000000	0.0
145	0x3852848f	5.0191356e-05
146	0xb7b5de24	-2.1680324e-05
147	0xb875f80c	-5.8643564e-05
148	0xb813d41e	-3.524508e-05
149	0x00000004	6e-45
150	0x37da2467	2.6004576e-05
151	0xb826bd66	-3.9753875e-05
152	0x380d7dd5	3.373421e-05
153	0x80000004	-6e-45
154	0x388d473f	6.7366745e-05
155	0x00000000	0.0
156	0x00000004	6e-45
157	0x00000004	6e-45
158	0x370877bb	8.134109e-06
159	0x80000004	-6e-45
160	0x38001306	3.0535295e-05
161	0xb7516b08	-1.2482291e-05
162	0x37dc51d7	2.6264153e-05
163	0x00000004	6e-45
164	0x37f2aa5d	2.892798e-05
165	0xb683fda3	-3.9336314e-06
166	0xb69d5c7e	-4.689732e-06
167	0x385536c9	5.083418e-05
168	0xb91e5545	-0.0001509982
169	0x38822b2a	6.206923e-05
170	0x80000004	-6e-45
171	0x389687e8	7.177872e-05
172	0xb7d7e9fd	-2.5738957e-05
173	0x39617f9b	0.00021505209
174	0x00000004	6e-45
175	0x80000004	-6e-45
176	0xb84e2844	-4.9151728e-05
177	0xb80099e5	-3.0660904e-05
178	0xb964bf7a	-0.00021815105
179	0x80000004	-6e-45
180	0xb84423d9	-4.6763427e-05
181	0xb7fad048	-2.989931e-05
182	0xb7579580	-1.2849807e-05
183	0x00000000	0.0
184	0x382c98d5	4.115033e-05
185	0xb817c841	-3.6187706e-05
186	0x80000004	-6e-45
187	0xb79eb020	-1.8917082e-05
188	0xb971ba04	-0.00023052847
189	0x36dce390	6.5830027e-06
190	0xb70d62a4	-8.4272215e-06
191	0x80000004	-6e-45
192	0x390c6ff0	0.0001339314
193	0x38d7c048	0.00010287814
194	0x37f6d62f	2.9425222e-05
195	0x37babd06	2.2260949e-05
196	0x3791d536	1.7384631e-05
197	0x37dcb5ef	2.6310763e-05
198	0xb8094570	-3.2728014e-05
199	0x389eeb73	7.577883e-05
200	0xb7049708	-7.902978e-06
201	0xb7f816f7	-2.9574598e-05
202	0x38996846	7.315031e-05
203	0xb7456b9b	-1.1767169e-05
204	0x383c8ffe	4.4956796e-05
205	0x00000000	0.0
206	0x38ada260	8.2795275e-05
207	0x80000004	-6e-45
208	0x00000000	0.0
209	0x00000004	6e-45
210	0xb8c91300	-9.587966e-05
211	0x387eeec4	6.0780687e-05
212	0xb8fe70ff	-0.00012132711
213	0x37b0b3d7	2.106458e-05
214	0x3766cd45	1.3756861e-05
215	0x38c29049	9.277516e-05
216	0x37fb700c	2.9973708e-05
217	0x80000004	-6e-45
218	0x37e82a88	2.767636e-05
219	0x00000000	0.0
220	0x3846d646	4.7406436e-05
221	0x00000004	6e-45
222	0x384973d1	4.8029997e-05
223	0x3881ee2d	6.195563e-05
224	0x37fdb14d	3.0242512e-05
225	0x00000004	6e-45
226	0xb6ab7589	-5.10988e-06
227	0x383a8855	4.4472825e-05
228	0xb84015d6	-4.5796703e-05
229	0x382ab629	4.070081e-05
230	0xb8f1d5a5	-0.0001153157
231	0xb7af2cd4	-2.08825e-05
232	0x00000000	0.0
233	0x373e4ade	1.1342314e-05
234	0x00000000	0.0
235	0x38211e4f	3.841362e-05
236	0x00000004	6e-45
237	0xb6679d5c	-3.4513278e-06
238	0x00000000	0.0
239	0x37e02e4b	2.6724438e-05
240	0x38b33289	8.544798e-05
241	0xb88c5aad	-6.69261e-05
242	0xb922b3bd	-0.00015516482
243	0x00000000	0.0
244	0x80000004	-6e-45
245	0x36b103fd	5.2754754e-06
246	0x00000004	6e-45
247	0xb87be07f	-6.005214e-05
248	0x387edd50	6.0764432e-05
249	0x00000004	6e-45
250	0x38131c39	3.5073816e-05
251	0x3724242c	9.783584e-06
252	0x390743fd	0.00012899931
253	0x37ea3c9d	2.7923199e-05
254	0xb8380b99	-4.387982e-05
255	0x80000004	-6e-45

exp_avg_sq f4 [256]
0	0x28472d7e	1.1056584e-14
1	0x00000000	0.0
2	0x399b934c	0.00029673649
3	0x39772c5b	0.0002357228
4	0x38a8a1c9	8.040999e-05
5	0x2abbbd2b	3.3349135e-13
6	0x2b7b2ad3	8.9232544e-13
7	0x10d7c9df	8.511358e-29
8	0x39056260	0.00012720516
9	0x1be3549d	3.760868e-22
10	0x38e10a72	0.00010730782
11	0x38a6aa4c	7.947217e-05
12	0x39346762	0.00017204651
13	0x38dbff73	0.00010490315
14	0x37c23bb1	2.3154398e-05
15	0x399c6a86	0.00029834005
16	0x2bfcff6e	1.7976573e-12
17	0x190ccc8a	7.279137e-24
18	0x38c5ce1f	9.432085e-05
19	0x3a05a354	0.0005097885
20	0x3905f7c4	0.00012776168
21	0x3964001f	0.0002174382
22	0x00000000	0.0
23	0x00000000	0.0
24	0x38856ab3	6.3618085e-05
25	0x3ae8ffbf	0.0017776414
26	0x3a8983a3	0.0010491501
27	0x3811e4dd	3.478384e-05
28	0x3a109055	0.0005514671
29	0x390e23d3	0.00013555521
30	0x38a960ff	8.076615e-05
31	0x385622b7	5.1053907e-05
32	0x00000000	0.0
33	0x39065112	0.00012809437
34	0x29ac72e7	7.658267e-14
35	0x32023024	7.577942e-09
36	0x38bbe2f9	8.959132e-05
37	0x37df3fe6	2.6613427e-05
38	0x314bff26	2.9685423e-09
39	0x39885364	0.00026002072
40	0x00000000	0.0
41	0x394c2765	0.00019469632
42	0x399126e5	0.00027685534
43	0x39b0388e	0.00033611472
44	0x301b76e5	5.655763e-10
45	0x00000000	0.0
46	0x3a583d86	0.0008248914
47	0x39d91d3c	0.00041411247
48	0x392d6112	0.00016534727
49	0x384322e0	4.6524103e-05
50	0x38ec9386	0.00011280835
51	0x3943c073	0.00018668342
52	0x35301c3f	6.560621e-07
53	0x3986aa17	0.00025685198
54	0x39f56fb3	0.00046813264
55	0x2d6184fd	1.2819299e-11
56	0x2f131c4e	1.3379628e-10
57	0x00000000	0.0
58	0x3891bff6	6.949894e-05
59	0x390152ca	0.0001233324
60	0x39484863	0.00019100452
61	0x399b8dc8	0.0002966954
62	0x37d5134e	2.5400568e-05
63	0x37abfbd7	2.050206e-05
64	0x38a00b8f	7.6315475e-05
65	0x00000000	0.0
66	0x336a99e9	5.462235e-08
67	0x25d76fa6	3.737221e-16
68	0x375d0b03	1.317519e-05
69	0x3939e91e	0.00017729818
70	0x2cda94b6	6.212443e-12
71	0x39123c8e	0.00013946203
72	0x3755b16c	1.2737099e-05
73	0x2d0bdbe4	7.950061e-12
74	0x3934127d	0.00017173025
75	0x378b4656	1.6602844e-05
76	0x3a0253a3	0.0004971569
77	0x398d8205	0.00026990488
78	0x37ea870f	2.7957865e-05
79	0x00000000	0.0
80	0x37f15a0d	2.8771372e-05
81	0x39c42c6b	0.00037417127
82	0x39328eee	0.00017028648
83	0x18aafbd8	4.4198267e-24
84	0x396a10c0	0.00022322219
85	0x393ee5fe	0.00018205491
86	0x386f1b74	5.7007608e-05
87	0x3802dd36	3.1200434e-05
88	0x37924d4c	1.744055e-05
89	0x29724e69	5.3802804e-14
90	0x380d2c5a	3.3658325e-05
91	0x37395ebe	1.1048918e-05
92	0x396e9bb3	0.00022755451
93	0x2e0bfa93	3.1827496e-11
94	0x39797bb7	0.00023792578
95	0x36814c25	3.853364e-06
96	0x37a89134	2.0094776e-05
97	0x1ba0448c	2.6514077e-22
98	0x392a0d9c	0.00016217533
99	0x3a046554	0.00050504995
100	0x38a4d130	7.8590936e-05
101	0x350b117d	5.1806984e-07
102	0x388c31a9	6.68497e-05
103	0x3872e5e1	5.7911388e-05
104	0x00000000	0.0
105	0x397ca1f6	0.00024092928
106	0x38e8d9ea	0.00011103212
107	0x3910a1ea	0.00013793228
108	0x3805016e	3.1711003e-05
109	0x2de4747c	2.5972328e-11
110	0x3883a65d	6.277554e-05
111	0x38b61a0a	8.6832864e-05
112	0x25cbac89	3.53318e-16
113	0x36191076	2.2808358e-06
114	0x39999e22	0.00029300252
115	0x374ef07a	1.2334547e-05
116	0x388ee9fe	6.814672e-05
117	0x389c43f2	7.4513155e-05
118	0x327dfcaa	1.4783987e-08
119	0x2f0cc758	1.2803747e-10
120	0x3a022c9f	0.00049657555
121	0x3ad3f82b	0.0016171982
122	0x3853656e	5.0400784e-05
123	0x00000000	0.0
124	0x3a113c84	0.00055403286
125	0x00000000	0.0
126	0x302cb6cd	6.283301e-10
127	0x3782a801	1.557544e-05
128	0x38400168	4.5777677e-05
129	0x2b5b9c3b	7.8021243e-13
130	0x00000000	0.0
131	0x00000000	0.0
132	0x3996dc21	0.00028774238
133	0x2fba5b73	3.3898181e-10
134	0x3922d322	0.00015528177
135	0x3a895d29	0.0010480034
136	0x395690dc	0.00020462595
137	0x26158b99	5.188395e-16
138	0x3050477b	7.577154e-10
139	0x39ebd8ec	0.00044984312
140	0x39bff128	0.00036610034
141	0x382414c6	3.9119994e-05
142	0x37f45a14	2.9129013e-05
143	0x39964ac8	0.00028665946
144	0x00000000	0.0
145	0x397161ff	0.00023020057
146	0x39341a66	0.00017175972
147	0x39370e6b	0.00017457611
148	0x39e25c85	0.00043175012
149	0x2c7c2f3a	3.583757e-12
150	0x3a29cf76	0.00064777525
151	0x39267ff0	0.00015878654
152	0x39b2aac6	0.00034078042
153	0x15b0e23c	7.144277e-26
154	0x39038dfc	0.00012546027
155	0x00000000	0.0
156	0x28163c01	8.339684e-15
157	0x23ace29b	1.8744249e-17
158	0x399fa714	0.00030451326
159	0x15caed49	8.196152e-26
160	0x37524a34	1.2534252e-05
161	0x39d5c5e6	0.00040773972
162	0x38dce887	0.00010533729
163	0x2f083cbc	1.2390705e-10
164	0x385614ce	5.104095e-05
165	0x3a15197d	0.0005687697
166	0x377ebee0	1.5184021e-05
167	0x37c930c3	2.3983774e-05
168	0x38905f64	6.884223e-05
169	0x3859ac3a	5.189723e-05
170	0x24486f70	4.3462478e-17
171	0x3a3e99b3	0.0007270828
172	0x39dfe82b	0.00042706853
173	0x391ab4fd	0.00014754008
174	0x32744fff	1.4220858e-08
175	0x34fd4853	4.7177545e-07
176	0x391886c2	0.00014546051
177	0x3abab30d	0.0014244035
178	0x39d6777e	0.0004090629
179	0x35e13f34	1.6782201e-06
180	0x39908b9e	0.00027569843
181	0x3946facd	0.00018976182
182	0x39902c58	0.0002749886
183	0x00000000	0.0
184	0x38dec750	0.0001062291
185	0x391d9acf	0.00015030357
186	0x2e855279	6.06279e-11
187	0x39ebcdd4	0.00044976047
188	0x3ab71485	0.0013967907
189	0x39cd9c8f	0.00039217292
190	0x3956a871	0.0002047138
191	0x297e2ff2	5.6440916e-14
192	0x38cb7263	9.7011005e-05
193	0x380a6317	3.299405e-05
194	0x39a8eb0e	0.00032218586
195	0x3832df88	4.2646687e-05
196	0x3904d66d	0.00012668381
197	0x39cd0bb5	0.0003910937
198	0x39853ac0	0.0002541151
199	0x390b8e8e	0.00013309179
200	0x38de1d66	0.00010591261
201	0x39a77c2f	0.00031945246
202	0x391b0cc9	0.00014786715
203	0x3965d794	0.00021919451
204	0x3917a217	0.00014460865
205	0x00000000	0.0
206	0x388ce64e	6.718618e-05
207	0x30ac688d	1.2544362e-09
208	0x00000000	0.0
209	0x2c804bae	3.646381e-12
210	0x39874b2d	0.00025805217
211	0x388c8a49	6.701478e-05
212	0x390ceb97	0.00013439204
213	0x3916b229	0.00014371485
214	0x38ac2bc4	8.209751e-05
215	0x376640f8	1.3724195e-05
216	0x380f3d9b	3.415123e-05
217	0x25d168b1	3.6326662e-16
218	0x388d0769	6.724784e-05
219	0x00000000	0.0
220	0x36e6e26a	6.880892e-06
221	0x1fccea5c	8.6785076e-20
222	0x3915d21e	0.00014288022
223	0x397689f9	0.00023511787
224	0x3987e7bd	0.00025921865
225	0x18e77e24	5.983947e-24
226	0x3910baee	0.00013802547
227	0x38551379	5.0801293e-05
228	0x3a67d9d7	0.00088444113
229	0x3926015e	0.00015831503
230	0x394e0f15	0.0001965131
231	0x380e71a3	3.396127e-05
232	0x00000000	0.0
233	0x3904e339	0.00012673148
234	0x00000000	0.0
235	0x3a132fea	0.0005614745
236	0x1601285b	1.0433271e-25
237	0x397b74d9	0.00023980754
238	0x00000000	0.0
239	0x3879dc6e	5.9571517e-05
240	0x3805fe48	3.194649e-05
241	0x39a40ab0	0.0003128848
242	0x39ab468c	0.00032668223
243	0x00000000	0.0
244	0x2e00e99a	2.931131e-11
245	0x39332bdb	0.00017087108
246	0x2c9d1440	4.4644566e-12
247	0x3876c265	5.8832014e-05
248	0x3956d42e	0.00020487673
249	0x2e3abf9e	4.2461694e-11
250	0x39956e28	0.00028501567
251	0x39170087	0.00014400679
252	0x381e7af1	3.7784634e-05
253	0x380ef180	3.4080353e-05
254	0x374d9cc7	1.2255455e-05
255	0x35884a19	1.0154355e-06

exp_avg f4 [26, 256]
0	0x00000004	6e-45
1	0x00000000	0.0
2	0x80000004	-6e-45
3	0x00000004	6e-45
4	0x00000004	6e-45
5	0x80000004	-6e-45
6	0x80000004	-6e-45
7	0x00000000	0.0
8	0x00000004	6e-45
9	0x00000000	0.0
10	0x00000004	6e-45
11	0x00000004	6e-45
12	0x00000004	6e-45
13	0x00000004	6e-45
14	0x00000000	0.0
15	0x00000004	6e-45
16	0x00000000	0.0
17	0x00000000	0.0
18	0x00000004	6e-45
19	0x00000004	6e-45
20	0x00000004	6e-45
21	0x00000004	6e-45
22	0x00000000	0.0
23	0x00000000	0.0
24	0x00000000	0.0
25	0x00000000	0.0
26	0x00000004	6e-45
27	0x00000004	6e-45
28	0x00000004	6e-45
29	0x80000004	-6e-45
30	0x80000004	-6e-45
31	0x00000004	6e-45
32	0x00000000	0.0
33	0x00000004	6e-45
34	0x00000004	6e-45
35	0x00000000	0.0
36	0x00000004	6e-45
37	0x00000000	0.0
38	0x00000000	0.0
39	0x00000004	6e-45
40	0x00000000	0.0
41	0x00000004	6e-45
42	0x00000004	6e-45
43	0x00000004	6e-45
44	0x00000004	6e-45
45	0x00000000	0.0
46	0x00000004	6e-45
47	0x00000004	6e-45
48	0x00000004	6e-45
49	0x00000004	6e-45
50	0x00000004	6e-45
51	0x00000004	6e-45
52	0x00000004	6e-45
53	0x00000000	0.0
54	0x80000004	-6e-45
55	0x00000000	0.0
56	0x00000000	0.0
57	0x00000000	0.0
58	0x00000004	6e-45
59	0x00000004	6e-45
60	0x00000004	6e-45
61	0x00000004	6e-45
62	0x00000004	6e-45
63	0x00000004	6e-45
64	0x00000004	6e-45
65	0x00000000	0.0
66	0x00000004	6e-45
67	0x00000000	0.0
68	0x00000004	6e-45
69	0x00000004	6e-45
70	0x00000000	0.0
71	0x80000004	-6e-45
72	0x00000004	6e-45
73	0x00000000	0.0
74	0x00000004	6e-45
75	0x00000004	6e-45
76	0x00000000	0.0
77	0x00000004	6e-45
78	0x80000004	-6e-45
79	0x00000000	0.0
80	0x00000004	6e-45
81	0x00000000	0.0
82	0x00000004	6e-45
83	0x00000000	0.0
84	0x00000004	6e-45
85	0x00000004	6e-45
86	0x00000004	6e-45
87	0x00000004	6e-45
88	0x00000004	6e-45
89	0x00000004	6e-45
90	0x00000004	6e-45
91	0x00000004	6e-45
92	0x00000004	6e-45
93	0x00000000	0.0
94	0x00000004	6e-45
95	0x00000004	6e-45
96	0x00000004	6e-45
97	0x00000000	0.0
98	0x00000004	6e-45
99	0x00000000	0.0
100	0x00000004	6e-45
101	0x80000004	-6e-45
102	0x00000004	6e-45
103	0x00000004	6e-45
104	0x00000000	0.0
105	0x80000004	-6e-45
106	0x00000000	0.0
107	0x00000004	6e-45
108	0x80000004	-6e-45
109	0x00000004	6e-45
110	0x00000000	0.0
111	0x00000004	6e-45
112	0x00000004	6e-45
113	0x00000004	6e-45
114	0x00000004	6e-45
115	0x00000000	0.0
116	0x80000004	-6e-45
117	0x00000004	6e-45
118	0x00000004	6e-45
119	0x00000004	6e-45
120	0x00000000	0.0
121	0x00000000	0.0
122	0x80000004	-6e-45
123	0x00000000	0.0
124	0x00000004	6e-45
125	0x00000000	0.0
126	0x00000004	6e-45
127	0x80000004	-6e-45
128	0x00000004	6e-45
129	0x00000004	6e-45
130	0x00000000	0.0
131	0x00000000	0.0
132	0x00000004	6e-45
133	0x80000004	-6e-45
134	0x00000004	6e-45
135	0x00000004	6e-45
136	0x00000004	6e-45
137	0x00000000	0.0
138	0x80000004	-6e-45
139	0x00000004	6e-45
140	0x00000004	6e-45
141	0x00000004	6e-45
142	0x00000000	0.0
143	0x00000004	6e-45
144	0x00000000	0.0
145	0x00000004	6e-45
146	0x00000004	6e-45
147	0x00000004	6e-45
148	0x00000004	6e-45
149	0x00000004	6e-45
150	0x00000004	6e-45
151	0x00000004	6e-45
152	0x00000004	6e-45
153	0x00000000	0.0
154	0x00000004	6e-45
155	0x00000000	0.0
156	0x00000000	0.0
157	0x00000000	0.0
158	0x00000004	6e-45
159	0x00000000	0.0
160	0x80000004	-6e-45
161	0x00000004	6e-45
162	0x00000004	6e-45
163	0x00000004	6e-45
164	0x00000004	6e-45
165	0x00000004	6e-45
166	0x00000004	6e-45
167	0x00000004	6e-45
168	0x00000004	6e-45
169	0x00000004	6e-45
170	0x00000000	0.0
171	0x00000004	6e-45
172	0x00000004	6e-45
173	0x00000000	0.0
174	0x00000004	6e-45
175	0x00000004	6e-45
176	0x00000004	6e-45
177	0x00000004	6e-45
178	0x00000000	0.0
179	0x80000004	-6e-45
180	0x00000004	6e-45
181	0x80000004	-6e-45
182	0x00000004	6e-45
183	0x00000000	0.0
184	0x00000004	6e-45
185	0x00000004	6e-45
186	0x00000004	6e-45
187	0x00000004	6e-45
188	0x00000004	6e-45
189	0x00000004	6e-45
190	0x00000004	6e-45
191	0x00000000	0.0
192	0x00000004	6e-45
193	0x00000004	6e-45
194	0x00000004	6e-45
195	0x00000004	6e-45
196	0x00000004	6e-45
197	0x00000004	6e-45
198	0x00000004	6e-45
199	0x00000004	6e-45
200	0x00000004	6e-45
201	0x00000004	6e-45
202	0x00000004	6e-45
203	0x00000004	6e-45
204	0x00000004	6e-45
205	0x00000000	0.0
206	0x80000004	-6e-45
207	0x80000004	-6e-45
208	0x00000000	0.0
209	0x00000000	0.0
210	0x00000000	0.0
211	0x00000004	6e-45
212	0x00000004	6e-45
213	0x00000004	6e-45
214	0x00000004	6e-45
215	0x00000004	6e-45
216	0x00000004	6e-45
217	0x00000004	6e-45
218	0x00000004	6e-45
219	0x00000000	0.0
220	0x80000004	-6e-45
221	0x00000000	0.0
222	0x00000004	6e-45
223	0x00000004	6e-45
224	0x00000004	6e-45
225	0x00000000	0.0
226	0x80000004	-6e-45
227	0x00000004	6e-45
228	0x00000000	0.0
229	0x80000004	-6e-45
230	0x00000004	6e-45
231	0x00000004	6e-45
232	0x00000000	0.0
233	0x80000004	-6e-45
234	0x00000000	0.0
235	0x00000004	6e-45
236	0x00000000	0.0
237	0x00000004	6e-45
238	0x00000000	0.0
239	0x00000004	6e-45
240	0x00000004	6e-45
241	0x00000004	6e-45
242	0x80000004	-6e-45
243	0x00000000	0.0
244	0x00000004	6e-45
245	0x00000004	6e-45
246	0x00000000	0.0
247	0x00000004	6e-45
248	0x00000004	6e-45
249	0x00000004	6e-45
250	0x00000004	6e-45
251	0x00000004	6e-45
252	0x00000004	6e-45
253	0x00000004	6e-45
254	0x00000000	0.0
255	0x00000000	0.0
