saved_weights/linear/linear_filter_fc1_204_26_0.5/saved_weights_linear_0.0001_epoch-1_top1-1.000.pth.tar (torch_old, 440024 bytes, 18 tensors)

exp_avg f4 [64, 204]
000000 ee 7a 98 ba 08 e2 ac 39 0b 13 b9 ba 34 fe a0 b9
       -0.0011633316 0.00032974803 -0.0014120055 -0.00030706974
000010 b2 21 d7 3a 2e ad 02 3a da 96 d7 3a 34 fe a0 b9
       0.001641324 0.0004984912 0.0016448156 -0.00030706974
000020 73 3e 81 ba b7 3a aa 3a 9f 6f b6 3a 34 fe a0 b9
       -0.000986053 0.0012987469 0.0013918764 -0.00030706974
000030 d4 07 e0 3a bc 09 76 3a 94 c0 d1 3a 34 fe a0 b9
       0.0017092177 0.0009385606 0.0016002827 -0.00030706974
000040 29 de 12 3a 99 51 2d 3b af 8b 4b ba 34 fe a0 b9
       0.00056025625 0.002644634 -0.000776465 -0.00030706974
000050 00 00 00 00 00 00 00 00 00 00 00 00 00 00 00 00
       0.0 0.0 0.0 0.0
000060 00 00 00 00 00 00 00 00 00 00 00 00 00 00 00 00
       0.0 0.0 0.0 0.0
000070 00 00 00 00 00 00 00 00 00 00 00 00 00 00 00 00
       0.0 0.0 0.0 0.0
000080 00 00 00 00 00 00 00 00 00 00 00 00 00 00 00 00
       0.0 0.0 0.0 0.0
000090 00 00 00 00 00 00 00 00 00 00 00 00 00 00 00 00
       0.0 0.0 0.0 0.0
0000a0 00 00 00 00 00 00 00 00 00 00 00 00 00 00 00 00
       0.0 0.0 0.0 0.0
0000b0 00 00 00 00 00 00 00 00 00 00 00 00 00 00 00 00
       0.0 0.0 0.0 0.0
0000c0 00 00 00 00 00 00 00 00 00 00 00 00 00 00 00 00
       0.0 0.0 0.0 0.0
0000d0 00 00 00 00 00 00 00 00 00 00 00 00 00 00 00 00
       0.0 0.0 0.0 0.0
0000e0 00 00 00 00 00 00 00 00 00 00 00 00 00 00 00 00
       0.0 0.0 0.0 0.0
0000f0 00 00 00 00 00 00 00 00 00 00 00 00 00 00 00 00
       0.0 0.0 0.0 0.0
000100 00 00 00 00 00 00 00 00 00 00 00 00 00 00 00 00
       0.0 0.0 0.0 0.0
000110 00 00 00 00 00 00 00 00 00 00 00 00 00 00 00 00
       0.0 0.0 0.0 0.0
000120 00 00 00 00 00 00 00 00 00 00 00 00 00 00 00 00
       0.0 0.0 0.0 0.0
000130 00 00 00 00 00 00 00 00 00 00 00 00 00 00 00 00
       0.0 0.0 0.0 0.0
000140 00 00 00 00 00 00 00 00 00 00 00 00 00 00 00 00
       0.0 0.0 0.0 0.0
000150 00 00 00 00 00 00 00 00 00 00 00 00 00 00 00 00
       0.0 0.0 0.0 0.0
000160 00 00 00 00 00 00 00 00 00 00 00 00 00 00 00 00
       0.0 0.0 0.0 0.0
000170 00 00 00 00 00 00 00 00 00 00 00 00 00 00 00 00
       0.0 0.0 0.0 0.0
000180 00 00 00 00 00 00 00 00 00 00 00 00 00 00 00 00
       0.0 0.0 0.0 0.0
000190 00 00 00 00 00 00 00 00 00 00 00 00 00 00 00 00
       0.0 0.0 0.0 0.0
0001a0 00 00 00 00 00 00 00 00 00 00 00 00 00 00 00 00
       0.0 0.0 0.0 0.0
0001b0 00 00 00 00 00 00 00 00 00 00 00 00 00 00 00 00
       0.0 0.0 0.0 0.0
0001c0 00 00 00 00 00 00 00 00 00 00 00 00 00 00 00 00
       0.0 0.0 0.0 0.0
0001d0 00 00 00 00 00 00 00 00 00 00 00 00 00 00 00 00
       0.0 0.0 0.0 0.0
0001e0 00 00 00 00 00 00 00 00 00 00 00 00 00 00 00 00
       0.0 0.0 0.0 0.0
0001f0 00 00 00 00 00 00 00 00 00 00 00 00 00 00 00 00
       0.0 0.0 0.0 0.0
000200 00 00 00 00 00 00 00 00 00 00 00 00 00 00 00 00
       0.0 0.0 0.0 0.0
000210 00 00 00 00 00 00 00 00 00 00 00 00 00 00 00 00
       0.0 0.0 0.0 0.0
000220 00 00 00 00 00 00 00 00 00 00 00 00 00 00 00 00
       0.0 0.0 0.0 0.0
000230 00 00 00 00 00 00 00 00 00 00 00 00 00 00 00 00
       0.0 0.0 0.0 0.0
000240 00 00 00 00 00 00 00 00 00 00 00 00 00 00 00 00
       0.0 0.0 0.0 0.0
000250 00 00 00 00 00 00 00 00 00 00 00 00 00 00 00 00
       0.0 0.0 0.0 0.0
000260 00 00 00 00 00 00 00 00 00 00 00 00 00 00 00 00
       0.0 0.0 0.0 0.0
000270 00 00 00 00 00 00 00 00 00 00 00 00 00 00 00 00
       0.0 0.0 0.0 0.0
000280 00 00 00 00 00 00 00 00 00 00 00 00 00 00 00 00
       0.0 0.0 0.0 0.0
000290 00 00 00 00 00 00 00 00 00 00 00 00 00 00 00 00
       0.0 0.0 0.0 0.0
0002a0 00 00 00 00 00 00 00 00 00 00 00 00 00 00 00 00
       0.0 0.0 0.0 0.0
0002b0 00 00 00 00 00 00 00 00 00 00 00 00 00 00 00 00
       0.0 0.0 0.0 0.0
0002c0 00 00 00 00 00 00 00 00 00 00 00 00 00 00 00 00
       0.0 0.0 0.0 0.0
0002d0 00 00 00 00 00 00 00 00 00 00 00 00 00 00 00 00
       0.0 0.0 0.0 0.0
0002e0 00 00 00 00 00 00 00 00 00 00 00 00 00 00 00 00
       0.0 0.0 0.0 0.0
0002f0 00 00 00 00 00 00 00 00 00 00 00 00 00 00 00 00
       0.0 0.0 0.0 0.0
000300 00 00 00 00 00 00 00 00 00 00 00 00 00 00 00 00
       0.0 0.0 0.0 0.0
000310 00 00 00 00 00 00 00 00 00 00 00 00 00 00 00 00
       0.0 0.0 0.0 0.0
000320 07 c8 d6 39 54 02 a0 b8 5a 7d 7c ba c6 3d 49 3b
       0.00040966293 -7.629828e-05 -0.0009631716 0.0030706986
000330 ee 77 1a b9 09 7e ea 39 b3 64 50 ba 9a 0f 8a b8
       -0.00014731262 0.00044725862 -0.00079495757 -6.583259e-05
000340 6b 74 5f 3a b2 b6 35 39 8b 29 d6 39 9a 0f 8a b8
       0.00085241225 0.00017329564 0.00040848213 -6.583259e-05
000350 e9 72 5e b9 d5 6e d7 3a df 59 8a 37 9a 0f 8a b8
       -0.00021214377 0.0016436229 1.6492731e-05 -6.583259e-05
000360 1c 13 5a 3a 0f 6b 6c 3a 0c b9 3b 3a 9a 0f 8a b8
       0.00083188876 0.00090186385 0.0007161058 -6.583259e-05
000370 41 a3 53 39 88 1e f7 3a 04 b3 5b ba 9a 0f 8a b8
       0.00020183345 0.0018853704 -0.00083808624 -6.583259e-05
000380 00 00 00 00 00 00 00 00 00 00 00 00 00 00 00 00
       0.0 0.0 0.0 0.0
000390 00 00 00 00 00 00 00 00 00 00 00 00 00 00 00 00
       0.0 0.0 0.0 0.0
0003a0 00 00 00 00 00 00 00 00 00 00 00 00 00 00 00 00
       0.0 0.0 0.0 0.0
0003b0 00 00 00 00 00 00 00 00 00 00 00 00 00 00 00 00
       0.0 0.0 0.0 0.0
0003c0 00 00 00 00 00 00 00 00 00 00 00 00 00 00 00 00
       0.0 0.0 0.0 0.0
0003d0 00 00 00 00 00 00 00 00 00 00 00 00 00 00 00 00
       0.0 0.0 0.0 0.0
0003e0 00 00 00 00 00 00 00 00 00 00 00 00 00 00 00 00
       0.0 0.0 0.0 0.0
0003f0 00 00 00 00 00 00 00 00 00 00 00 00 00 00 00 00
       0.0 0.0 0.0 0.0

exp_avg_sq f4 [64, 204]
000000 68 7c d0 37 90 36 5e 37 66 e7 32 38 1d b3 32 36
       2.4853463e-05 1.3244935e-05 4.2654014e-05 2.6628325e-06
000010 e9 e4 7e 38 03 79 be 36 93 49 89 38 1d b3 32 36
       6.077151e-05 5.676529e-06 6.546373e-05 2.6628325e-06
000020 c4 00 d3 37 ce 31 8c 38 3a 49 31 38 1d b3 32 36
       2.5153517e-05 6.684997e-05 4.2268286e-05 2.6628325e-06
000030 ba ae 84 38 d3 d2 fa 37 a4 94 77 38 1d b3 32 36
       6.326796e-05 2.9900495e-05 5.902782e-05 2.6628325e-06
000040 bd b3 36 37 db 96 24 39 76 21 9d 37 1d b3 32 36
       1.0889894e-05 0.00015696457 1.873144e-05 2.6628325e-06
000050 00 00 00 00 00 00 00 00 00 00 00 00 00 00 00 00
       0.0 0.0 0.0 0.0
000060 00 00 00 00 00 00 00 00 00 00 00 00 00 00 00 00
       0.0 0.0 0.0 0.0
000070 00 00 00 00 00 00 00 00 00 00 00 00 00 00 00 00
       0.0 0.0 0.0 0.0
000080 00 00 00 00 00 00 00 00 00 00 00 00 00 00 00 00
       0.0 0.0 0.0 0.0
000090 00 00 00 00 00 00 00 00 00 00 00 00 00 00 00 00
       0.0 0.0 0.0 0.0
0000a0 00 00 00 00 00 00 00 00 00 00 00 00 00 00 00 00
       0.0 0.0 0.0 0.0
0000b0 00 00 00 00 00 00 00 00 00 00 00 00 00 00 00 00
       0.0 0.0 0.0 0.0
0000c0 00 00 00 00 00 00 00 00 00 00 00 00 00 00 00 00
       0.0 0.0 0.0 0.0
0000d0 00 00 00 00 00 00 00 00 00 00 00 00 00 00 00 00
       0.0 0.0 0.0 0.0
0000e0 00 00 00 00 00 00 00 00 00 00 00 00 00 00 00 00
       0.0 0.0 0.0 0.0
0000f0 00 00 00 00 00 00 00 00 00 00 00 00 00 00 00 00
       0.0 0.0 0.0 0.0
000100 00 00 00 00 00 00 00 00 00 00 00 00 00 00 00 00
       0.0 0.0 0.0 0.0
000110 00 00 00 00 00 00 00 00 00 00 00 00 00 00 00 00
       0.0 0.0 0.0 0.0
000120 00 00 00 00 00 00 00 00 00 00 00 00 00 00 00 00
       0.0 0.0 0.0 0.0
000130 00 00 00 00 00 00 00 00 00 00 00 00 00 00 00 00
       0.0 0.0 0.0 0.0
000140 00 00 00 00 00 00 00 00 00 00 00 00 00 00 00 00
       0.0 0.0 0.0 0.0
000150 00 00 00 00 00 00 00 00 00 00 00 00 00 00 00 00
       0.0 0.0 0.0 0.0
000160 00 00 00 00 00 00 00 00 00 00 00 00 00 00 00 00
       0.0 0.0 0.0 0.0
000170 00 00 00 00 00 00 00 00 00 00 00 00 00 00 00 00
       0.0 0.0 0.0 0.0
000180 00 00 00 00 00 00 00 00 00 00 00 00 00 00 00 00
       0.0 0.0 0.0 0.0
000190 00 00 00 00 00 00 00 00 00 00 00 00 00 00 00 00
       0.0 0.0 0.0 0.0
0001a0 00 00 00 00 00 00 00 00 00 00 00 00 00 00 00 00
       0.0 0.0 0.0 0.0
0001b0 00 00 00 00 00 00 00 00 00 00 00 00 00 00 00 00
       0.0 0.0 0.0 0.0
0001c0 00 00 00 00 00 00 00 00 00 00 00 00 00 00 00 00
       0.0 0.0 0.0 0.0
0001d0 00 00 00 00 00 00 00 00 00 00 00 00 00 00 00 00
       0.0 0.0 0.0 0.0
0001e0 00 00 00 00 00 00 00 00 00 00 00 00 00 00 00 00
       0.0 0.0 0.0 0.0
0001f0 00 00 00 00 00 00 00 00 00 00 00 00 00 00 00 00
       0.0 0.0 0.0 0.0
000200 00 00 00 00 00 00 00 00 00 00 00 00 00 00 00 00
       0.0 0.0 0.0 0.0
000210 00 00 00 00 00 00 00 00 00 00 00 00 00 00 00 00
       0.0 0.0 0.0 0.0
000220 00 00 00 00 00 00 00 00 00 00 00 00 00 00 00 00
       0.0 0.0 0.0 0.0
000230 00 00 00 00 00 00 00 00 00 00 00 00 00 00 00 00
       0.0 0.0 0.0 0.0
000240 00 00 00 00 00 00 00 00 00 00 00 00 00 00 00 00
       0.0 0.0 0.0 0.0
000250 00 00 00 00 00 00 00 00 00 00 00 00 00 00 00 00
       0.0 0.0 0.0 0.0
000260 00 00 00 00 00 00 00 00 00 00 00 00 00 00 00 00
       0.0 0.0 0.0 0.0
000270 00 00 00 00 00 00 00 00 00 00 00 00 00 00 00 00
       0.0 0.0 0.0 0.0
000280 00 00 00 00 00 00 00 00 00 00 00 00 00 00 00 00
       0.0 0.0 0.0 0.0
000290 00 00 00 00 00 00 00 00 00 00 00 00 00 00 00 00
       0.0 0.0 0.0 0.0
0002a0 00 00 00 00 00 00 00 00 00 00 00 00 00 00 00 00
       0.0 0.0 0.0 0.0
0002b0 00 00 00 00 00 00 00 00 00 00 00 00 00 00 00 00
       0.0 0.0 0.0 0.0
0002c0 00 00 00 00 00 00 00 00 00 00 00 00 00 00 00 00
       0.0 0.0 0.0 0.0
0002d0 00 00 00 00 00 00 00 00 00 00 00 00 00 00 00 00
       0.0 0.0 0.0 0.0
0002e0 00 00 00 00 00 00 00 00 00 00 00 00 00 00 00 00
       0.0 0.0 0.0 0.0
0002f0 00 00 00 00 00 00 00 00 00 00 00 00 00 00 00 00
       0.0 0.0 0.0 0.0
000300 00 00 00 00 00 00 00 00 00 00 00 00 00 00 00 00
       0.0 0.0 0.0 0.0
000310 00 00 00 00 00 00 00 00 00 00 00 00 00 00 00 00
       0.0 0.0 0.0 0.0
000320 39 dd 2b 37 1c aa 96 36 eb a2 a9 37 f2 9b 8b 39
       1.0243902e-05 4.4901517e-06 2.0222235e-05 0.00026628334
000330 cc f0 9a 37 44 40 cd 37 d7 52 99 37 71 89 c3 35
       1.847036e-05 2.446783e-05 1.8277597e-05 1.4568633e-06
000340 d8 a0 e8 37 7a 43 b9 37 9a b2 1c 38 71 89 c3 35
       2.7731454e-05 2.208514e-05 3.7359634e-05 1.4568633e-06
000350 9b 22 2d 37 28 2d 64 38 b1 08 bb 37 71 89 c3 35
       1.0319661e-05 5.440149e-05 2.2296184e-05 1.4568633e-06
000360 77 56 4c 38 02 e0 b8 37 7a d3 dc 37 71 89 c3 35
       4.8717917e-05 2.2038821e-05 2.632452e-05 1.4568633e-06
000370 77 73 ad 37 12 a2 b5 38 4f 91 c3 37 71 89 c3 35
       2.0676975e-05 8.6609405e-05 2.3313476e-05 1.4568633e-06
000380 00 00 00 00 00 00 00 00 00 00 00 00 00 00 00 00
       0.0 0.0 0.0 0.0
000390 00 00 00 00 00 00 00 00 00 00 00 00 00 00 00 00
       0.0 0.0 0.0 0.0
0003a0 00 00 00 00 00 00 00 00 00 00 00 00 00 00 00 00
       0.0 0.0 0.0 0.0
0003b0 00 00 00 00 00 00 00 00 00 00 00 00 00 00 00 00
       0.0 0.0 0.0 0.0
0003c0 00 00 00 00 00 00 00 00 00 00 00 00 00 00 00 00
       0.0 0.0 0.0 0.0
0003d0 00 00 00 00 00 00 00 00 00 00 00 00 00 00 00 00
       0.0 0.0 0.0 0.0
0003e0 00 00 00 00 00 00 00 00 00 00 00 00 00 00 00 00
       0.0 0.0 0.0 0.0
0003f0 00 00 00 00 00 00 00 00 00 00 00 00 00 00 00 00
       0.0 0.0 0.0 0.0

exp_avg f4 [256, 64]
000000 a6 d0 b6 b9 58 3b c8 b7 29 92 b4 b9 bc 77 b8 b9
       -0.000348692 -2.3869492e-05 -0.00034441173 -0.00035184424
000010 65 5c ae b9 fc d9 88 b9 45 3a e3 b9 84 1a 86 b5
       -0.00033256706 -0.00026102352 -0.00043340228 -9.991495e-07
000020 00 f2 3c b9 4a 65 4c b9 40 c9 5d b8 07 d3 1c 37
       -0.00018019229 -0.00019492689 -5.2877935e-05 9.347458e-06
000030 30 61 e6 b9 13 7a 52 35 16 b9 9b b9 28 1b 8a b9
       -0.0004394143 7.840874e-07 -0.00029701804 -0.00026341644
000040 43 7f 95 36 3e 14 88 b9 cf 5c c5 b9 3e 59 7c b9
       4.4553612e-06 -0.00025955023 -0.00037643916 -0.00024065838
000050 fa bf be b9 fc 13 af 36 84 47 b2 36 9a cf d3 b9
       -0.00036382658 5.217733e-06 5.313139e-06 -0.0004039973
000060 bf c5 b0 b6 51 9d a1 b8 9b 5a ad b6 72 37 aa b9
       -5.2682294e-06 -7.706381e-05 -5.1663496e-06 -0.00032466237
000070 9e 9b 9d b5 8a 2d e0 b6 71 f7 a6 b8 4c 27 ba b9
       -1.1742702e-06 -6.6810217e-06 -7.9615864e-05 -0.00035505963
000080 e9 ed 95 b9 21 d4 dc b9 28 0b 54 b9 82 6e 69 37
       -0.00028596752 -0.00042119718 -0.00020222052 1.3913612e-05
000090 5b 68 15 ba c8 3d fe b9 1b 14 c0 b9 7c a0 b6 36
       -0.0005699449 -0.00048492686 -0.00036636073 5.4427055e-06
0000a0 43 37 2a b8 38 74 34 b6 00 ff a2 b9 73 4b 90 b9
       -4.0582625e-05 -2.6889738e-06 -0.00031089038 -0.00027522034
0000b0 bc e1 d0 b9 b9 ce b8 33 81 a0 2b b9 27 1e 0f ba
       -0.00039841037 8.60577e-08 -0.00016367623 -0.000545951
0000c0 40 af 6a b5 7a c8 14 ba 46 0c a6 b9 b0 41 64 b9
       -8.7426815e-07 -0.0005675625 -0.00031671132 -0.00021768245
0000d0 1f 02 c6 b9 15 ab 60 b9 6e 3c a3 b8 06 35 17 b9
       -0.00037767083 -0.00021426038 -7.7837016e-05 -0.00014420235
0000e0 1f 55 0a ba 58 00 63 b9 63 1a 16 b9 e9 0c 02 ba
       -0.0005276966 -0.00021648535 -0.00014314945 -0.000496103
0000f0 9c b0 0d b9 5a a8 75 36 38 90 9b b9 54 e1 bc b9
       -0.000135126 3.6605838e-06 -0.00029671355 -0.00036026037
000100 00 00 00 00 00 00 00 00 00 00 00 00 00 00 00 00
       0.0 0.0 0.0 0.0
000110 00 00 00 00 00 00 00 00 00 00 00 00 00 00 00 00
       0.0 0.0 0.0 0.0
000120 00 00 00 00 00 00 00 00 00 00 00 00 00 00 00 00
       0.0 0.0 0.0 0.0
000130 00 00 00 00 00 00 00 00 00 00 00 00 00 00 00 00
       0.0 0.0 0.0 0.0
000140 00 00 00 00 00 00 00 00 00 00 00 00 00 00 00 00
       0.0 0.0 0.0 0.0
000150 00 00 00 00 00 00 00 00 00 00 00 00 00 00 00 00
       0.0 0.0 0.0 0.0
000160 00 00 00 00 00 00 00 00 00 00 00 00 00 00 00 00
       0.0 0.0 0.0 0.0
000170 00 00 00 00 00 00 00 00 00 00 00 00 00 00 00 00
       0.0 0.0 0.0 0.0
000180 00 00 00 00 00 00 00 00 00 00 00 00 00 00 00 00
       0.0 0.0 0.0 0.0
000190 00 00 00 00 00 00 00 00 00 00 00 00 00 00 00 00
       0.0 0.0 0.0 0.0
0001a0 00 00 00 00 00 00 00 00 00 00 00 00 00 00 00 00
       0.0 0.0 0.0 0.0
0001b0 00 00 00 00 00 00 00 00 00 00 00 00 00 00 00 00
       0.0 0.0 0.0 0.0
0001c0 00 00 00 00 00 00 00 00 00 00 00 00 00 00 00 00
       0.0 0.0 0.0 0.0
0001d0 00 00 00 00 00 00 00 00 00 00 00 00 00 00 00 00
       0.0 0.0 0.0 0.0
0001e0 00 00 00 00 00 00 00 00 00 00 00 00 00 00 00 00
       0.0 0.0 0.0 0.0
0001f0 00 00 00 00 00 00 00 00 00 00 00 00 00 00 00 00
       0.0 0.0 0.0 0.0
000200 a2 ff 2e ba b8 34 a1 b8 67 e2 28 ba d3 3f 42 ba
       -0.00066756655 -7.686898e-05 -0.0006442428 -0.0007410023
000210 6a 0d 35 ba 19 24 f8 b9 15 01 54 ba b9 6e c9 21
       -0.0006906601 -0.0004732914 -0.00080873194 1.3649598e-18
000220 56 e5 49 b9 09 f7 db b9 27 80 9d b7 8b cf e7 aa
       -0.00019254288 -0.0004195499 -1.8775534e-05 -4.1177855e-13
000230 cf 0a 8e ba 00 00 00 00 71 5c 14 ba 50 2c 0a ba
       -0.0010836961 0.0 -0.0005659527 -0.00052708853
000240 06 87 37 b8 66 d2 02 ba 01 c4 25 ba 01 21 0f ba
       -4.375635e-05 -0.0004990458 -0.00063234573 -0.0005459935
000250 72 7a 31 ba 00 00 00 00 f5 13 bc 96 cd 0d 54 ba
       -0.000677026 0.0 -3.0385633e-25 -0.00080892147
000260 00 00 00 00 e0 43 45 38 00 00 00 00 d4 28 06 ba
       0.0 4.7031674e-05 0.0 -0.0005117778
000270 50 36 47 33 7d 68 ce 15 3b 35 5f b8 aa b1 38 ba
       4.6382695e-08 8.336759e-26 -5.3216918e-05 -0.0007045517
000280 97 ae 04 ba f2 d2 43 ba 27 48 c9 b9 af 4f 25 b8
       -0.00050614163 -0.0007470093 -0.00038391465 -3.9413277e-05
000290 74 97 a2 ba 57 4e 81 ba 39 fa 32 ba 39 59 17 34
       -0.0012404756 -0.0009865266 -0.0006827447 1.409543e-07
0002a0 8b f1 36 38 dc 0f 7a 36 eb 27 2f ba 5c 59 00 ba
       4.3617136e-05 3.7262134e-06 -0.00066816685 -0.0004896128
0002b0 31 b2 3f ba 00 00 00 00 e3 30 bc b9 3c ee 87 ba
       -0.00073126244 0.0 -0.00035894578 -0.0010370682
0002c0 00 00 00 00 83 ed 96 ba 0b b4 19 ba 89 92 9a b9
       0.0 -0.0011514876 -0.00058633153 -0.00029482346
0002d0 e0 04 33 ba 25 b8 d2 b9 3f 4e 99 37 39 57 96 b9
       -0.00068290345 -0.0004019152 1.8275457e-05 -0.00028675215
0002e0 63 6f 77 ba 2a cf 99 b9 b6 43 b9 b9 1f 24 95 ba
       -0.00094389 -0.00029336783 -0.00035336398 -0.0011378563
0002f0 12 45 73 b9 00 00 00 00 a9 db 29 ba b8 ae 43 ba
       -0.00023200017 0.0 -0.00064795703 -0.0007464695
000300 6c d0 d0 39 9a ab dc b7 0f e7 d0 39 40 44 ea 39
       0.00039828138 -2.6305952e-05 0.00039845004 0.00044682808
000310 7b 53 dc 39 bc ea 94 39 3a 24 10 3a 68 5f af b6
       0.00042023868 0.0002840365 0.0005498562 -5.226513e-06
000320 b8 05 15 39 9c 79 70 39 96 22 ca b7 de 10 a9 b2
       0.00014211878 0.00022933487 -2.4096382e-05 -1.968186e-08
000330 fe 7f 14 3a bc c0 c7 b6 d3 13 b0 39 1a 6d 9b 39
       0.0005664824 -5.9530994e-06 0.00033584106 0.0002964519
000340 fb a6 84 b8 19 9f 8f 39 63 8c d5 39 76 21 98 39
       -6.325353e-05 0.00027393622 0.00040731122 0.0002901663
000350 5e 45 ff 39 3d 03 f8 35 3b cc e9 b0 07 36 16 3a
       0.00048689073 1.8478382e-06 -1.7011027e-09 0.00057300966
000360 96 21 cb 36 98 e0 6e 38 2b 47 3f b7 f4 bd ab 39
       6.0537814e-06 5.695279e-05 -1.1401057e-05 0.00032757188
000370 20 98 18 b7 45 4a 97 35 c2 bf 44 38 36 03 de 39
       -9.095325e-06 1.1271992e-06 4.690863e-05 0.00042345532
000380 6d 85 a1 39 52 53 f8 39 28 05 82 39 07 a2 77 b7
       0.00030807723 0.00047364325 0.00024799374 -1.4760072e-05
000390 07 df 3e 3a 65 66 15 3a 27 87 da 39 2d 96 84 b6
       0.00072811585 0.0005699157 0.00041680897 -3.9513893e-06
0003a0 42 69 4f 38 84 2b d1 b6 9f fd cd 39 ba 9f 9a 39
       4.9450675e-05 -6.2337513e-06 0.0003928961 0.00029492175
0003b0 ed 78 f1 39 37 b1 0d 36 ac df 38 39 43 f5 33 3a
       0.000460572 2.111379e-06 0.00017630932 0.0006864855
0003c0 79 bd 42 b7 75 40 3e 3a c8 4c e0 39 e8 da 76 39
       -1.1607416e-05 0.00072575297 0.00042781816 0.00023541937
0003d0 cc b6 de 39 81 29 6a 39 16 d7 bc 38 d7 0c 3a 39
       0.00042479334 0.0002233144 9.0046015e-05 0.00017743125
0003e0 ed c1 23 3a 8f 55 46 39 34 65 3a 39 e0 40 38 3a
       0.0006246854 0.00018914625 0.00017776043 0.000702871
0003f0 9c f8 bb 38 5f 27 0b b7 cc c0 b3 39 e7 2d e8 39
       8.963162e-05 -8.294212e-06 0.00034285185 0.00044284688

exp_avg_sq f4 [256, 64]
000000 47 1f a5 36 8f 73 2e 35 0b e2 ca 36 1e fa 9e 36
       4.9210244e-06 6.498821e-07 6.046384e-06 4.7378844e-06
000010 61 74 6b 36 6e 6f 70 36 ec 9f 88 36 a7 2c 90 2a
       3.508547e-06 3.5827647e-06 4.071733e-06 2.5610522e-13
000020 66 5e 2a 36 ff 03 33 36 c1 9b 85 34 69 21 6e 2d
       2.5386921e-06 2.6675405e-06 2.4886506e-07 1.3536152e-11
000030 fd c1 95 36 94 b5 4b 2a 8f 5d bd 36 ca 40 26 36
       4.4631292e-06 1.809302e-13 5.6435306e-06 2.477364e-06
000040 4e c4 df 34 cd 4b 4a 36 d9 32 ca 36 b8 ff 12 36
       4.1679817e-07 3.0144467e-06 6.0259886e-06 2.1904543e-06
000050 38 60 1c 37 7c 78 9e 2c c1 f6 a3 2c 57 22 53 37
       9.320727e-06 4.5040065e-12 4.660134e-12 1.2584575e-05
000060 1b 5a a1 2c 98 08 0b 35 bc 90 9b 2c f7 92 99 36
       4.585899e-12 5.179404e-07 4.4214337e-12 4.5768643e-06
000070 ae b3 44 2b aa 6e fc 2c 47 81 53 35 5a 82 9c 36
       6.9882544e-13 7.174557e-12 7.879175e-07 4.664337e-06
000080 b5 06 4a 36 70 71 b5 36 23 17 27 36 72 5c d5 30
       3.010425e-06 5.407426e-06 2.4898407e-06 1.5524064e-09
000090 e0 35 4d 37 e9 1b dc 36 25 da 91 36 86 11 fb 2e
       1.2231496e-05 6.55976e-06 4.346732e-06 1.1417271e-10
0000a0 07 37 03 35 f5 8f 5e 34 53 bb 22 36 96 b2 2e 36
       4.888138e-07 2.0727732e-07 2.4248918e-06 2.6031971e-06
0000b0 4c b2 c6 36 1e ab 94 28 1e be c9 35 05 67 43 37
       5.9216163e-06 1.6505511e-14 1.5030998e-06 1.1646892e-05
0000c0 b6 e7 84 2e 5a 72 39 37 a1 cb 86 37 26 d1 88 37
       6.043825e-11 1.1053484e-05 1.6068867e-05 1.6309856e-05
0000d0 6d 4f c6 36 d2 53 34 36 fa bf 49 37 bf 85 b5 34
       5.910106e-06 2.687088e-06 1.2025232e-05 3.381119e-07
0000e0 02 00 38 37 89 bd 52 36 82 73 c4 35 1d 7a df 36
       1.09672565e-05 3.1402762e-06 1.4636755e-06 6.6601337e-06
0000f0 85 f5 cb 35 54 14 25 2c 2b 69 09 36 91 27 b8 36
       1.5196134e-06 2.3459195e-12 2.0475807e-06 5.4882335e-06
000100 00 00 00 00 00 00 00 00 00 00 00 00 00 00 00 00
       0.0 0.0 0.0 0.0
000110 00 00 00 00 00 00 00 00 00 00 00 00 00 00 00 00
       0.0 0.0 0.0 0.0
000120 00 00 00 00 00 00 00 00 00 00 00 00 00 00 00 00
       0.0 0.0 0.0 0.0
000130 00 00 00 00 00 00 00 00 00 00 00 00 00 00 00 00
       0.0 0.0 0.0 0.0
000140 00 00 00 00 00 00 00 00 00 00 00 00 00 00 00 00
       0.0 0.0 0.0 0.0
000150 00 00 00 00 00 00 00 00 00 00 00 00 00 00 00 00
       0.0 0.0 0.0 0.0
000160 00 00 00 00 00 00 00 00 00 00 00 00 00 00 00 00
       0.0 0.0 0.0 0.0
000170 00 00 00 00 00 00 00 00 00 00 00 00 00 00 00 00
       0.0 0.0 0.0 0.0
000180 00 00 00 00 00 00 00 00 00 00 00 00 00 00 00 00
       0.0 0.0 0.0 0.0
000190 00 00 00 00 00 00 00 00 00 00 00 00 00 00 00 00
       0.0 0.0 0.0 0.0
0001a0 00 00 00 00 00 00 00 00 00 00 00 00 00 00 00 00
       0.0 0.0 0.0 0.0
0001b0 00 00 00 00 00 00 00 00 00 00 00 00 00 00 00 00
       0.0 0.0 0.0 0.0
0001c0 00 00 00 00 00 00 00 00 00 00 00 00 00 00 00 00
       0.0 0.0 0.0 0.0
0001d0 00 00 00 00 00 00 00 00 00 00 00 00 00 00 00 00
       0.0 0.0 0.0 0.0
0001e0 00 00 00 00 00 00 00 00 00 00 00 00 00 00 00 00
       0.0 0.0 0.0 0.0
0001f0 00 00 00 00 00 00 00 00 00 00 00 00 00 00 00 00
       0.0 0.0 0.0 0.0
000200 8d cb 0d 38 25 b2 c0 36 ee aa b7 37 99 1e df 37
       3.380659e-05 5.7427847e-06 2.1894895e-05 2.659792e-05
000210 05 fe c8 37 c7 a7 8d 37 99 e5 bf 37 b7 01 17 2b
       2.3960145e-05 1.6886637e-05 2.2875889e-05 5.3648356e-13
000220 aa 01 2b 37 0e b2 8f 37 e3 cd 9b 35 07 d5 cb 28
       1.0192782e-05 1.7129842e-05 1.1608321e-06 2.2629913e-14
000230 e6 4e e3 37 00 00 00 00 0e 71 64 37 36 10 5e 37
       2.7097249e-05 0.0 1.3616182e-05 1.32360055e-05
000240 36 77 38 36 a6 a7 b3 37 3c ca 06 38 9f 1c 84 37
       2.7487526e-06 2.141653e-05 3.2136435e-05 1.5748954e-05
000250 a3 33 aa 37 00 00 00 00 1f f1 2c 24 3a 71 c2 37
       2.0289624e-05 0.0 3.7500792e-17 2.3179327e-05
000260 00 00 00 00 32 9a b3 34 00 00 00 00 af b9 d9 37
       0.0 3.345354e-07 0.0 2.5954881e-05
000270 38 51 93 28 9c 3b 88 25 c4 8e 8c 36 73 00 d2 37
       1.6355501e-14 2.3632632e-16 4.1889452e-06 2.503416e-05
000280 b7 98 5a 37 16 ed f1 37 48 e4 2c 37 94 97 a9 31
       1.3029369e-05 2.883984e-05 1.030515e-05 4.93578e-09
000290 36 6b 71 38 8f 34 36 38 4c 95 cf 37 e4 c9 da 2d
       5.7558726e-05 4.344113e-05 2.4745845e-05 2.4873388e-11
0002a0 f4 d5 50 35 47 b9 0e 36 4a a4 50 37 11 4b 3a 37
       7.779738e-07 2.1267495e-06 1.2436018e-05 1.1103942e-05
0002b0 45 65 00 38 00 00 00 00 08 98 09 37 06 d8 6c 38
       3.0611893e-05 0.0 8.201234e-06 5.6467972e-05
0002c0 00 00 00 00 f2 09 36 38 70 34 bc 37 09 8a ae 37
       0.0 4.3401444e-05 2.2435765e-05 2.0806694e-05
0002d0 30 98 c8 37 87 b7 95 37 af 6a 1a 37 ca 63 b3 35
       2.3912726e-05 1.7847646e-05 9.2039545e-06 1.3365582e-06
0002e0 f7 f4 5d 38 b1 64 8b 37 49 2b b8 36 e9 ec dd 37
       5.2918647e-05 1.661698e-05 5.4886664e-06 2.6455573e-05
0002f0 05 2e 63 37 00 00 00 00 d6 cf 47 37 ad 19 15 38
       1.3540969e-05 0.0 1.1909715e-05 3.554828e-05
000300 84 14 c0 36 ae 6c a7 34 d9 b2 b7 36 ff 3f dd 36
       5.7244342e-06 3.118525e-07 5.4746456e-06 6.5937634e-06
000310 ab 97 a6 36 01 04 88 36 5a fd e8 36 cc 2e 9f 2c
       4.964842e-06 4.053582e-06 6.943633e-06 4.5242473e-12
000320 15 08 d6 35 ba e2 2c 36 c7 47 b4 33 db d0 03 28
       1.5946595e-06 2.576197e-06 8.3949594e-08 7.317249e-15
000330 2a 9d 1d 37 16 fc ca 2c 0c 31 8c 36 2b 50 5c 36
       9.394522e-06 5.7691725e-12 4.178035e-06 3.2829219e-06
000340 b1 6e f3 34 3e 5e 54 36 71 d7 c2 36 a6 61 4d 36
       4.5342816e-07 3.1645318e-06 5.806731e-06 3.060422e-06
000350 93 ff cc 36 c9 56 45 2b f7 df fe 26 4d 77 08 37
       6.1094265e-06 7.01089e-13 1.7685496e-15 8.134009e-06
000360 ad 81 d1 2c fc e8 75 34 d2 e9 af 2d b3 9a 7e 36
       5.954534e-12 2.2902162e-07 1.9999034e-11 3.7938996e-06
000370 1e cb 99 2d e6 7f b0 2a 94 56 10 35 21 d2 b0 36
       1.7484288e-11 3.1352628e-13 5.377017e-07 5.269671e-06
000380 91 38 61 36 37 9c d8 36 de 57 f6 35 4b 6e a8 2f
       3.3560539e-06 6.4554874e-06 1.8354001e-06 3.063739e-10
000390 a8 13 74 37 19 61 2d 37 18 f6 b3 36 73 ca 68 2f
       1.454811e-05 1.0334211e-05 5.363265e-06 2.1172201e-10
0003a0 16 b6 ff 33 48 31 9d 33 1c c0 8d 36 1e 54 63 36
       1.1907484e-07 7.3198464e-08 4.224492e-06 3.3874599e-06
0003b0 54 6d e6 36 ce d1 77 2b d6 a4 b8 35 5c 1f 4b 37
       6.8672616e-06 8.804319e-13 1.3757042e-06 1.2107044e-05
0003c0 3d 80 bb 2d 15 fe 5e 37 4d 30 de 36 14 77 95 36
       2.1316388e-11 1.3291389e-05 6.6217385e-06 4.4544086e-06
0003d0 b1 d7 b5 36 9d d8 2b 36 e1 1e 3d 36 0c ea 8d 35
       5.41933e-06 2.5607071e-06 2.8181169e-06 1.0573435e-06
0003e0 6b a9 3b 37 96 36 11 36 10 f6 aa 35 6b a3 3e 37
       1.1185514e-05 2.1638457e-06 1.2737601e-06 1.1362931e-05
0003f0 1d 0c 5c 35 78 c5 40 2d c5 1d 79 36 93 c6 e8 36
       8.1974014e-07 1.0957783e-11 3.712122e-06 6.937256e-06

exp_avg f4 [64]
000000 c6 3d 49 3b 7a 93 2c 3a b7 01 71 3b bd d3 c6 3a
       0.0030706986 0.0006583255 0.0036774704 0.0015169304
000010 4a c4 d6 3a 2b cc a3 b9 17 9d c6 ba c8 d8 11 25
       0.0016385403 -0.000312419 -0.0015153018 1.2650194e-16
000020 a9 a9 12 3a 0d 1c 21 3a d3 b5 8e ba ce 65 5b ac
       0.00055947393 0.00061458425 -0.0010887928 -3.1178285e-12
000030 7d 2c d5 b8 00 00 00 00 41 2c 78 3b c8 e1 49 3b
       -0.00010164918 0.0 0.0037868174 0.0030804742
000040 4c 6e 6d bb 3b 19 f0 ba b3 a7 d4 3b 39 95 f1 3a
       -0.0036229072 -0.0018318066 0.006489718 0.0018431313
000050 18 82 dc ba 00 00 00 00 11 a0 4f 18 0f 4c 0a bb
       -0.0016823439 0.0 2.6834936e-24 -0.0021102463
000060 00 00 00 00 eb b5 17 3b 00 00 00 00 86 51 34 b9
       0.0 0.0023149203 0.0 -0.00017196508
000070 6e 59 3d 37 1a a6 a4 b4 4a d4 d1 ba 3a cf dd b9
       1.12861e-05 -3.0668235e-07 -0.0016008702 -0.000423068
000080 ca 95 97 3b 7a 41 f0 3b a8 d1 44 bb 16 9b 1f b9
       0.0046260105 0.007332024 -0.0030032191 -0.00015221196
000090 0f e4 e2 39 d3 61 6c 3b 69 87 3e bb f0 be 35 b7
       0.00043275996 0.003606905 -0.002907241 -1.0832897e-05
0000a0 ea ec b1 3a c7 2a 79 b8 be fb 5b ba 39 09 d7 b9
       0.0013574634 -5.9406066e-05 -0.00083916995 -0.00041014867
0000b0 d3 be 9f ba 00 00 00 00 54 7d 19 3b 2a bf 6d 3b
       -0.0012187607 0.0 0.0023420649 0.0036277273
0000c0 5d a4 fe b8 10 d7 b8 3b a8 be 84 b7 2f 5a 32 bb
       -0.00012142279 0.005640872 -1.5824407e-05 -0.0027214398
0000d0 2e b3 3b 3b ac c2 27 3a f4 78 5e 3b 32 c5 65 3b
       0.0028640735 0.0006399553 0.0033946605 0.0035060165
0000e0 7c be 91 3b 40 70 12 3b 30 08 8b ba be fd 25 ba
       0.0044477563 0.0022344738 -0.0010607298 -0.0006332061
0000f0 fb d3 5a b9 35 8e af b6 6e af 53 b9 60 60 82 3b
       -0.00020869069 -5.2319615e-06 -0.0002018788 0.003978774

exp_avg_sq f4 [64]
000000 f4 9b 8b 39 5b c3 18 39 3a cb 9e 39 71 80 8f 39
       0.0002662834 0.00014568625 0.00030287524 0.00027370782
000010 6f 41 99 39 9c 2c b4 39 b5 ef e8 39 36 ec d9 30
       0.00029231186 0.00034365512 0.00044429084 1.5855963e-09
000020 97 c9 12 3a dd 37 9b 38 f0 b8 65 38 43 ee 80 2d
       0.0005599497 7.401381e-05 5.477009e-05 1.4657725e-11
000030 58 7f 7c 39 00 00 00 00 3e f3 c5 3a fb 69 af 3a
       0.00024080032 0.0 0.0015102399 0.0013383025
000040 ea 16 99 39 26 4d 39 39 d6 95 51 3b cc 78 bc 39
       0.00029199506 0.00017671715 0.0031980178 0.00035948155
000050 d3 95 85 39 00 00 00 00 06 c2 52 27 24 9c 5e 3a
       0.00025479365 0.0 2.9248535e-15 0.00084918947
000060 00 00 00 00 a4 ca f1 39 00 00 00 00 be 32 fa 39
       0.0 0.0004611808 0.0 0.00047721522
000070 f5 4f 7e 31 94 f3 21 2c 75 9e a0 39 f2 67 9d 39
       3.7007315e-09 2.301469e-12 0.00030635638 0.0003002282
000080 be 77 c7 3a ba a4 44 3b 7a c1 00 3a 2d 7f 01 35
       0.0015218181 0.0030005411 0.0004911643 4.824131e-07
000090 d8 6e 10 39 52 51 db 3a 6d 91 b8 39 de d5 77 32
       0.00013774203 0.0016732609 0.00035203565 1.442592e-08
0000a0 83 ba b5 3a 0e d2 dd 37 d6 4c 07 3a c4 51 32 39
       0.0013864789 2.6443067e-05 0.0005161291 0.00017005863
0000b0 fd 54 ae 39 00 00 00 00 61 9a 77 39 1b fc dd 3a
       0.00033251187 0.0 0.00023613266 0.0016936095
0000c0 3e ce 22 33 7c c5 bf 3a 9d ea a6 38 40 89 86 3b
       3.790614e-08 0.0014630998 7.959197e-05 0.004105717
0000d0 2b 30 91 3a 6c c3 9c 38 35 2d 85 39 12 8d 46 3a
       0.0011076977 7.47506e-05 0.0002540142 0.00075741217
0000e0 e7 4d 1a 3b fe fc 00 3a af 7e 13 39 2f c5 20 3a
       0.0023544969 0.0004920511 0.00014066206 0.0006132898
0000f0 b2 ba d2 39 9d 7d a2 2d 96 8c 16 39 91 ed 72 3a
       0.0004019342 1.8473051e-11 0.00014357487 0.00092669675

exp_avg f4 [256]
000000 bc d7 03 bb 00 00 00 00 19 d1 7c bb cf b4 1a 3b
       -0.0020117601 0.0 -0.003857678 0.0023606305
000010 47 54 b9 39 51 a0 c1 b5 f0 3d 50 3a 00 00 00 00
       0.0003534874 -1.4426279e-06 0.00079438 0.0
000020 03 ed 61 3b 42 ee e0 b6 b7 b9 14 3b 8b fc 73 38
       0.0034473545 -6.703457e-06 0.0022693702 5.8170914e-05
000030 64 32 92 39 47 1e 5d bb 59 62 cf 38 3e cf 84 3b
       0.00027884834 -0.003373997 9.888848e-05 0.0040530255
000040 00 00 00 00 00 00 00 00 ea b2 87 bb dd 87 97 3a
       0.0 0.0 -0.0041412013 0.0011560876
000050 bd d7 22 3b 2a 69 27 bb 00 00 00 00 00 00 00 00
       0.0024847828 -0.002554486 0.0 0.0
000060 44 35 b0 1c 26 4c c3 b4 be a9 eb 3a eb e9 55 b9
       1.1660472e-21 -3.6376986e-07 0.0017979664 -0.00020400404
000070 00 00 00 00 4b 15 6f 3b 3d 20 ce b9 25 d3 c9 b9
       0.0 0.0036481197 -0.000393154 -0.00038495022
000080 00 00 00 00 03 bb 81 ba 3b d6 47 3a 00 00 00 00
       0.0 -0.0009897653 0.00076231704 0.0
000090 f0 60 87 37 ba 3b ac ba 00 00 00 00 73 b7 c2 ba
       1.6138394e-05 -0.0013140358 0.0 -0.0014855698
0000a0 00 00 00 00 61 eb 70 3b ea ae 3c 37 d8 e5 8c 39
       0.0 0.003676139 1.1246399e-05 0.00026874128
0000b0 f6 27 41 39 00 00 00 00 95 b7 3d ba f2 a8 92 b7
       0.00018420801 0.0 -0.00072371337 -1.7483228e-05
0000c0 8b 9e 6f ba 3b a0 e4 b9 6b a4 1b ba a9 99 88 3b
       -0.0009140751 -0.0004360693 -0.0005937281 0.0041687083
0000d0 11 66 dc 3a 5e bc 82 36 78 f0 00 39 00 00 00 00
       0.0016815086 3.8962307e-06 0.00012296613 0.0
0000e0 00 00 00 00 00 00 00 00 1e 6c a0 ba 46 5f e6 39
       0.0 0.0 -0.0012239253 0.00043940003
0000f0 80 a3 2f 39 b7 57 80 bb 9c 47 98 ba b5 6d 22 3b
       0.00016750209 -0.0039167064 -0.0011618021 0.0024784629
000100 43 93 c7 b8 00 00 00 00 36 76 85 3a 00 00 00 00
       -9.516489e-05 0.0 0.0010182324 0.0
000110 ac b5 8c b9 6e e4 da 39 3e f2 09 b7 b6 17 b1 3b
       -0.00026838237 0.00041750394 -8.222238e-06 0.005404438
000120 09 dd 1c ba 00 00 00 00 b5 0f f4 39 bb 21 ae ba
       -0.00059838645 0.0 0.0004655101 -0.0013285199
000130 60 1f dd b9 f5 ff 52 3b b1 8b ab 3a 00 00 00 00
       -0.0004217578 0.003219602 0.0013087896 0.0
000140 cc 89 48 3b dc c9 82 39 50 c2 6a ba 08 10 32 b4
       0.0030599711 0.0002494593 -0.00089553464 -1.6583374e-07
000150 4a 87 9e 3a e7 74 10 3b 9e 72 5b 3a a3 4a 95 39
       0.0012094763 0.0022042335 0.00083712663 0.00028475103
000160 23 7c b6 b9 e0 7a a0 b9 4e 93 8b b9 8f f3 64 ba
       -0.00034806234 -0.00030609127 -0.00026621897 -0.0008733803
000170 f5 45 9f ba 00 00 00 00 8d c3 2c 39 a4 44 76 3b
       -0.0012151586 0.0 0.00016476047 0.0037577534
000180 88 91 d2 3a 00 30 f2 34 12 d5 03 3b 00 00 00 00
       0.00160651 4.5110937e-07 0.0020116013 0.0
000190 d7 44 8d b9 51 69 f2 3a da e1 f4 3a 03 b0 f4 ba
       -0.00026944905 0.0018494522 0.0018683032 -0.0018668178
0001a0 00 00 00 00 9c fa 6e 3b 00 00 00 00 d7 27 64 3a
       0.0 0.0036465293 0.0 0.00087034464
0001b0 cc 59 18 3b 6d 19 ed b8 ca 5f e6 35 5b 1b 3a 3b
       0.0023246882 -0.000113057766 1.7164214e-06 0.0028397653
0001c0 a8 57 f0 38 20 97 5a 3a b5 31 40 ba fe 85 5e 37
       0.00011460419 0.00083385594 -0.00073316257 1.3263429e-05
0001d0 7b c7 86 3b 5d 9a 35 3a 8f ec 7b 3a fc 79 40 3b
       0.0041131354 0.0006927604 0.000961014 0.0029369583
0001e0 6a 7e 82 bb 00 00 00 00 57 5b ae bb 00 00 00 00
       -0.003982355 0.0 -0.005320947 0.0
0001f0 be 61 15 ba 00 00 00 00 6a 87 0d 3b 25 59 2f 3b
       -0.00056984636 0.0 0.0021595606 0.0026756015
000200 4b 3b 70 3b 18 fd 4a 3b 00 00 00 00 00 00 00 00
       0.0036656435 0.003097361 0.0 0.0
000210 7b a6 04 3b 9a e5 0b 37 23 f2 ff 39 e3 ad 31 1c
       0.0020240832 8.338504e-06 0.00048817796 5.878913e-22
000220 c8 f2 02 3b 00 00 00 00 60 e6 08 1c 5c 2c 3d 3a
       0.0019981135 0.0 4.529638e-22 0.0007216388
000230 1c 42 a8 b9 ed 5f 23 3b 00 00 00 00 91 e3 72 3b
       -0.00032092712 0.0024929002 0.0 0.003706191
000240 00 00 00 00 d1 7c 54 3b e3 81 aa ba 45 0f aa ba
       0.0 0.003242303 -0.001300868 -0.0012974521
000250 ea b3 48 3b e9 d9 b3 3a 11 34 87 3b b0 43 de 3a
       0.0030624815 0.0013721558 0.00412608 0.0016957428
000260 85 a3 79 3b b2 ec 09 b6 f5 3d 49 3b 00 00 00 00
       0.003809185 -2.0552366e-06 0.0030707095 0.0
000270 c4 28 ca 16 00 00 00 00 04 aa 1e b9 00 00 00 00
       3.2660587e-25 0.0 -0.0001513139 0.0
000280 0e 71 45 bb fa 01 c1 3a 6f cc 4e 3b 07 ad bb 38
       -0.00301272 0.001472532 0.0031554957 8.949084e-05
000290 62 e1 47 39 4b c1 af 3a 98 13 9f 3a c3 df aa 3a
       0.0001906208 0.0013409046 0.0012136577 0.0013036657
0002a0 d5 78 e4 3a 4c 56 23 ba 00 00 00 00 10 f6 1b bb
       0.001743103 -0.0006230816 0.0 -0.0023797788
0002b0 26 37 47 3b 53 aa 13 b7 18 0b 41 ba e3 e3 4f 3b
       0.0030397861 -8.8015395e-06 -0.0007364019 0.0031721524
0002c0 49 fd 3c b8 90 1f 50 39 ff 18 e8 ba aa b7 76 ba
       -4.5058583e-05 0.00019848184 -0.0017707645 -0.00094115234
0002d0 87 9a a8 3a 62 ca b7 ba c4 72 37 3b 00 00 00 00
       0.0012863436 -0.0014022107 0.002799199 0.0
0002e0 90 5e 6c 3b 88 64 5f 3b 41 b2 bf 3a a5 68 27 3b
       0.0036067106 0.003408702 0.0014625267 0.002554455
0002f0 49 96 73 ba a4 92 31 3a 35 2b cf 3a 00 00 00 00
       -0.00092921086 0.00067738653 0.0015805723 0.0
000300 0a ad 84 ba d3 58 6a 3b fe fb 0a 3b d9 a1 aa 39
       -0.001012237 0.003575851 0.0021207328 0.00032545513
000310 22 4e ea b9 ea 49 31 3a 1c 51 6f 3b 1b b0 0d ba
       -0.00044690171 0.0006763028 0.003651685 -0.0005404965
000320 af e4 5f b6 b3 f7 9d 3a 30 13 d0 b8 ee 0f 42 3b
       -3.33627e-06 0.001205197 -9.921787e-05 0.0029611546
000330 39 e9 7e 39 00 00 00 00 05 47 9a 3b e7 32 3a 3a
       0.0002431021 0.0 0.004708173 0.0007102922
000340 00 00 00 00 00 00 00 00 e2 42 94 ba 56 90 11 3b
       0.0 0.0 -0.0011311437 0.0022211275
000350 5e ba d3 3a c5 e7 24 b9 3f 46 cc b9 a6 92 1c 3b
       0.0016153564 -0.000157266 -0.0003896225 0.002389112
000360 33 1c c2 3a be 31 0a 3b e8 82 bb 38 00 00 00 00
       0.0014809429 0.0021086778 8.941238e-05 0.0
000370 92 ca 18 39 48 d2 e3 ad 27 9f 86 3a 0b ec b6 3a
       0.00014571313 -2.5900296e-11 0.001027082 0.0013955844
000380 81 2d d4 ba 00 00 00 00 d8 ef 95 bb 2c cd 74 3b
       -0.0016187878 0.0 -0.0045757107 0.0037353737
000390 4f 6a f2 3b 0f a6 a7 3a 2b ce 45 3b f1 c1 a6 3a
       0.007397927 0.0012790578 0.00301827 0.0012722594
0003a0 00 00 00 00 9f ef 4b bb 00 00 00 00 13 f4 54 3b
       0.0 -0.0031118167 0.0 0.0032494112
0003b0 00 00 00 00 18 8c 9f 3a 00 00 00 00 ea 16 a7 3a
       0.0 0.0012172488 0.0 0.0012747918
0003c0 31 2c 44 bb ce 08 54 ba 13 9a e5 39 00 00 00 00
       -0.0029933567 -0.000808847 0.00043793078 0.0
0003d0 51 d3 68 b9 b8 01 af 3a 6c 07 99 35 b2 b6 7a b9
       -0.00022203966 0.0013351953 1.1401548e-06 -0.00023909917
0003e0 1f 87 b7 ba 95 32 2e b6 97 ee 1f 3b c7 7f d8 3a
       -0.0014002061 -2.5957463e-06 0.0024403685 0.0016517573
0003f0 73 b1 ce 3a 32 6f 60 3b 00 00 00 00 00 00 00 00
       0.0015769437 0.0034245965 0.0 0.0

exp_avg_sq f4 [256]
000000 17 78 17 39 00 00 00 00 58 cd 43 3a 39 57 2f 39
       0.00014445219 0.0 0.0007469258 0.00016721794
000010 22 e5 14 39 ff 83 1d 31 bf 95 35 39 00 00 00 00
       0.00014199739 2.2921538e-09 0.0001731729 0.0
000020 2c 0d 9b 39 2e 70 05 33 90 2d 24 39 e0 55 08 39
       0.00029573718 3.1068502e-08 0.00015657232 0.00013001962
000030 ec 10 0c 39 25 3f 50 3a 53 ff f2 34 fc 0b 13 3a
       0.00013357744 0.00079439796 4.5261785e-07 0.0005609391
000040 00 00 00 00 00 00 00 00 05 11 8c 3a ee 69 3a 39
       0.0 0.0 0.0010686225 0.00017777804
000050 99 cf 21 3a 60 37 97 39 00 00 00 00 00 00 00 00
       0.0006172597 0.00028842222 0.0 0.0
000060 bc 38 8d 2b 39 8c e5 29 9a 43 bf 39 a3 b5 75 39
       1.00344e-12 1.01939677e-13 0.00036480726 0.00023432686
000070 00 00 00 00 51 4b 0a 3b 07 f4 88 3a 75 bd b0 38
       0.0 0.002110202 0.0010448702 8.427623e-05
000080 00 00 00 00 6f 29 60 39 68 40 c6 39 00 00 00 00
       0.0 0.0002137774 0.0003781349 0.0
000090 e9 ab 71 39 f0 8d 0e 3a 00 00 00 00 c1 88 58 38
       0.00023047593 0.00054380205 0.0 5.1625775e-05
0000a0 00 00 00 00 2e 6b 12 3a d8 64 1a 34 83 bd 75 39
       0.0 0.0005585429 1.4379054e-07 0.0002343562
0000b0 b1 5a 35 39 00 00 00 00 9d d9 f0 39 a9 1d 18 32
       0.0001729529 0.0 0.00045938502 8.854308e-09
0000c0 6d 8c 76 39 32 ed 0b 39 eb 8b 04 39 20 47 00 3a
       0.00023512701 0.00013344435 0.00012640624 0.0004893411
0000d0 b0 78 95 39 3c de 13 35 26 95 24 3a 00 00 00 00
       0.00028509414 5.508516e-07 0.00062783284 0.0
0000e0 00 00 00 00 00 00 00 00 0e 9a 51 39 30 f2 1e 39
       0.0 0.0 0.00019989183 0.00015158276
0000f0 7a 6c 8c 39 65 29 30 3a f7 c7 87 39 6a 94 61 39
       0.00026783702 0.00067200355 0.00025898192 0.0002151296
000100 51 d9 2d 39 00 00 00 00 33 2f 54 3a 00 00 00 00
       0.00016579522 0.0 0.00080941914 0.0
000110 64 43 61 39 cf 12 85 3a e3 dc 83 36 e6 38 5c 3a
       0.00021482777 0.00101527 3.929819e-06 0.00084008125
000120 4c 45 86 39 00 00 00 00 04 c7 e9 38 0f 28 8c 38
       0.00025610102 0.0 0.00011147375 6.683182e-05
000130 e4 b7 29 39 31 2c 0c 3a ce 01 17 39 00 00 00 00
       0.000161856 0.0005347161 0.00014401154 0.0
000140 13 57 8c 39 f9 28 6f 3a 11 96 26 38 dd 4f a9 2f
       0.00026767756 0.0009123232 3.9717244e-05 3.0797667e-10
000150 32 c5 98 39 f7 7f e1 39 b0 ee 93 39 7c 7e b9 39
       0.0002913862 0.00043010685 0.0002821586 0.00035380188
000160 97 ab 37 39 b0 b5 df 38 6a 36 bf 37 cf 29 0c 39
       0.00017516162 0.000106673106 2.2794313e-05 0.00013367015
000170 06 bd 98 39 00 00 00 00 b0 bf 85 39 e6 5b 5a 3a
       0.00029132533 0.0 0.00025510555 0.0008329734
000180 91 a0 05 39 a6 fb fd 2a 47 97 aa 39 00 00 00 00
       0.00012743684 4.5116444e-13 0.00032537637 0.0
000190 38 34 01 39 ec ec 41 39 f2 1b 6d 39 9a 2d a7 39
       0.00012321852 0.00018494175 0.00022612492 0.00031886698
0001a0 00 00 00 00 a2 38 67 3a 00 00 00 00 99 74 9b 39
       0.0 0.00088203896 0.0 0.00029650776
0001b0 71 35 d1 39 74 90 b5 35 1a 0e 87 2f 33 b3 c7 39
       0.00039903403 1.3527592e-06 2.4566377e-10 0.00038089752
0001c0 dc 48 3f 33 54 7e d0 38 e6 a6 76 39 fd 0e d7 33
       4.4536918e-08 9.941743e-05 0.00023522563 1.0014444e-07
0001d0 e2 8b 3b 3a 85 ae 40 39 43 22 52 39 4d 28 9b 39
       0.0007154328 0.0001837556 0.00020039924 0.0002959393
0001e0 59 e1 65 3a 00 00 00 00 ee 05 5a 3a 00 00 00 00
       0.0008769236 0.0 0.00083169236 0.0
0001f0 ee 11 e4 38 00 00 00 00 e5 e8 58 39 67 39 17 3a
       0.00010875227 0.0 0.00020686125 0.00057687465
000200 39 74 b8 39 07 fd 04 3a 00 00 00 00 00 00 00 00
       0.00035181807 0.00050731044 0.0 0.0
000210 b0 40 ff 39 28 a0 0e 33 44 2a 98 38 8b 4e f1 29
       0.00048685586 3.3207613e-08 7.2557974e-05 1.0716175e-13
000220 09 94 87 39 00 00 00 00 d1 7a ad 2a e1 1d b4 39
       0.000258595 0.0 3.0816194e-13 0.00034354537
000230 6a 5f 59 39 a3 7b 04 3a 00 00 00 00 0e 0d 1b 3a
       0.00020730277 0.00050538237 0.0 0.0005914726
000240 00 00 00 00 16 8d 25 3a b2 f0 d5 38 47 f0 61 39
       0.0 0.0006315274 0.000102014645 0.00021547182
000250 cc b4 ab 39 00 31 3c 39 f2 ba d8 39 4b 9e 2b 39
       0.00032750366 0.00017947331 0.00041338016 0.000163668
000260 af 2e fd 39 eb 2b af 2b 0f e0 fa 39 00 00 00 00
       0.00048290702 1.2446688e-12 0.00047850652 0.0
000270 a9 27 e7 24 00 00 00 00 0f 3b a5 39 00 00 00 00
       1.0024747e-16 0.0 0.00031515255 0.0
000280 c4 c6 1f 39 70 06 87 39 9f ec c9 39 28 8f 33 39
       0.00015237468 0.00025754003 0.00038514004 0.000171241
000290 d9 3b 39 39 60 76 4c 39 dd 3d 01 39 91 e3 ad 39
       0.0001766527 0.00019499054 0.00012325445 0.00033166682
0002a0 52 50 87 39 fa 57 2e 39 00 00 00 00 2c 68 9d 3a
       0.0002580905 0.00016626707 0.0 0.0012009195
0002b0 f0 c8 f9 39 e8 06 6a 32 3d 4b 8f 38 9b 9e f6 39
       0.0004764269 1.3622163e-08 6.8327856e-05 0.00047038947
0002c0 a8 81 9d 39 54 b9 1a 39 81 9c 8a 3a 74 b8 25 39
       0.00030041975 0.00014755625 0.0010575206 0.0001580434
0002d0 9a d9 81 39 81 0e 20 3a b0 43 b1 39 00 00 00 00
       0.00024766923 0.0006105677 0.00033810502 0.0
0002e0 c2 55 f2 39 3a 82 06 3a 7a fd 5c 39 82 1b d5 39
       0.00046221731 0.00051310996 0.00021075262 0.0004064702
0002f0 ec 52 4f 39 71 92 fe 38 f8 f1 a3 39 00 00 00 00
       0.00019771949 0.00012138941 0.00031270063 0.0
000300 1a 0e 53 39 0d d4 13 3a 37 a4 98 39 c1 d5 ef 37
       0.00020127781 0.0005639203 0.0002911405 2.8590557e-05
000310 4f 47 87 39 62 58 69 39 98 a4 67 3a 0e c0 dc 39
       0.00025802336 0.00022253537 0.0008836477 0.00042104762
000320 d5 59 ba 39 1e 01 17 39 2c ff 36 37 b7 57 e3 39
       0.00035543615 0.00014400898 1.0907457e-05 0.00043362167
000330 c7 35 b0 39 00 00 00 00 e1 b9 88 3a 6e b4 fe 39
       0.00033609403 0.0 0.0010431373 0.00048581086
000340 00 00 00 00 00 00 00 00 36 74 63 3a dd e3 5d 39
       0.0 0.0 0.00086766796 0.00021161088
000350 61 56 1f 3a 71 47 58 39 34 c0 75 39 11 2d c8 39
       0.000607824 0.00020625979 0.00023436622 0.0003818055
000360 16 04 94 39 1d c1 7f 39 f3 fb 8e 39 00 00 00 00
       0.00028231804 0.00024390635 0.00027272067 0.0
000370 93 e2 bf 39 b0 c5 19 2c 4e 02 70 38 57 5e bf 39
       0.0003659917 2.1852346e-12 5.7222605e-05 0.00036500648
000380 94 32 8f 39 00 00 00 00 40 11 71 3a 45 c0 d6 39
       0.0002731277 0.0 0.0009195991 0.00040960513
000390 fc 34 21 3b 59 ce 64 39 e4 2c dc 39 33 ea 86 39
       0.0024598232 0.00021820645 0.00041995116 0.00025732964
0003a0 00 00 00 00 7d 70 83 39 00 00 00 00 7b 44 b0 39
       0.0 0.00025070077 0.0 0.00033620358
0003b0 00 00 00 00 11 ef 44 39 00 00 00 00 99 3a 20 39
       0.0 0.00018781076 0.0 0.00015280618
0003c0 a1 41 af 39 de 8b 9e 37 ad aa 9c 36 00 00 00 00
       0.00033427498 1.8900198e-05 4.6690316e-06 0.0
0003d0 da 91 a5 38 20 ee cf 39 f4 ca 23 33 fd b6 1a 37
       7.89498e-05 0.00039659534 3.813598e-08 9.221721e-06
0003e0 19 2a 34 39 2d 5f 32 31 74 72 9b 39 fe f7 97 39
       0.0001718182 2.595651e-09 0.00029649178 0.00028985733
0003f0 48 30 63 39 25 c8 0f 3a 00 00 00 00 00 00 00 00
       0.00021666393 0.0005484841 0.0 0.0

exp_avg f4 [26, 256]
000000 0c 5c 9e 36 00 00 00 00 11 f5 52 37 13 31 8e 38
       4.7194826e-06 0.0 1.2574034e-05 6.7802284e-05
000010 65 2f 9a 39 00 00 00 00 32 7b 40 38 00 00 00 00
       0.0002940848 0.0 4.58911e-05 0.0
000020 fc 23 2c 39 00 00 00 00 e5 41 49 39 aa a3 1c 39
       0.00016416603 0.0 0.00019193401 0.00014938289
000030 1d 9f aa 38 3d fa 0e 39 00 00 00 00 ad c9 20 39
       8.135869e-05 0.00013635396 0.0 0.00015333919
000040 00 00 00 00 00 00 00 00 1d 6a aa 38 d5 76 15 35
       0.0 0.0 8.125997e-05 5.567975e-07
000050 76 fa 40 39 45 72 1a 39 00 00 00 00 00 00 00 00
       0.00018403851 0.00014729153 0.0 0.0
000060 00 00 00 00 00 00 00 00 41 10 fd 37 8a 65 74 38
       0.0 0.0 3.0167519e-05 5.82687e-05
000070 00 00 00 00 c2 02 de 38 98 a8 90 36 f1 55 19 39
       0.0 0.000105862986 4.3111613e-06 0.00014623233
000080 00 00 00 00 e1 69 11 39 37 92 d1 38 00 00 00 00
       0.0 0.0001386772 9.993131e-05 0.0
000090 b3 a3 be 38 00 00 00 00 00 00 00 00 c6 26 8a 36
       9.090397e-05 0.0 0.0 4.1172343e-06
0000a0 00 00 00 00 cb 42 8d 39 a3 35 96 35 82 a9 40 39
       0.0 0.0002694338 1.1191481e-06 0.00018373693
0000b0 36 a3 6e 38 00 00 00 00 ef 2f 77 39 00 00 00 00
       5.6895624e-05 0.0 0.00023573612 0.0
0000c0 6e eb 4f 39 ff a9 57 39 5e cc 86 38 92 ab e6 38
       0.00019828763 0.00020567326 6.427684e-05 0.00010999212
0000d0 ae e3 17 39 00 00 00 00 ab cf 2a 39 00 00 00 00
       0.000144853 0.0 0.00016289826 0.0
0000e0 00 00 00 00 00 00 00 00 e4 f5 8a 39 90 35 27 39
       0.0 0.0 0.00026504614 0.00015946315
0000f0 cb fa 40 39 01 ab 03 39 66 90 3e 38 c0 d1 c7 38
       0.00018403975 0.00012556837 4.543401e-05 9.5281284e-05
000100 b0 53 28 39 00 00 00 00 34 d5 29 39 00 00 00 00
       0.00016052905 0.0 0.0001619652 0.0
000110 74 ec 99 39 e4 83 42 39 00 00 00 00 55 41 38 37
       0.00029358605 0.00018550415 0.0 1.0982466e-05
000120 f2 c2 0a 39 00 00 00 00 6b 6c 96 39 02 2f 16 39
       0.00013233328 0.0 0.00028691007 0.00014322627
000130 00 00 00 00 1f 56 f0 39 1c 44 79 38 00 00 00 00
       0.0 0.00045840532 5.9429658e-05 0.0
000140 00 37 23 39 00 00 00 00 26 cf 8c 38 00 00 00 00
       0.0001556538 0.0 6.7143046e-05 0.0
000150 00 fc 09 39 6a fa 72 39 70 19 ca 39 5a 11 5e 39
       0.00013159215 0.00023172205 0.00038547395 0.00021178034
000160 31 8d 9c 39 24 6e 79 38 b1 fc 1f 38 74 14 6d 39
       0.00029859834 5.9468803e-05 3.814389e-05 0.000226097
000170 90 7f 00 37 00 00 00 00 39 0e b4 38 32 09 1d 39
       7.659095e-06 0.0 8.585718e-05 0.00014976112
000180 bd 09 8c 39 00 00 00 00 a1 70 1b 39 00 00 00 00
       0.00026710136 0.0 0.0001482391 0.0
000190 bc 2b 01 39 b2 74 83 38 d3 00 6e 39 61 15 22 38
       0.00012318691 6.268303e-05 0.00022697756 3.864372e-05
0001a0 00 00 00 00 f3 f5 8c 38 00 00 00 00 58 b2 45 39
       0.0 6.721532e-05 0.0 0.00018853822
0001b0 54 c1 48 39 3a 36 1c 38 00 00 00 00 41 ea 9d 39
       0.00019145507 3.72438e-05 0.0 0.00030119906
0001c0 98 00 50 37 b3 ee 50 38 83 8e 5a 39 00 00 00 00
       1.2397904e-05 4.981337e-05 0.0002084319 0.0
0001d0 c0 c4 f5 37 ed 62 0c 39 ee 90 27 38 e8 e2 c0 38
       2.9297895e-05 0.00013388293 3.995088e-05 9.197538e-05
0001e0 00 00 00 00 00 00 00 00 b0 2c 49 37 00 00 00 00
       0.0 0.0 1.1990938e-05 0.0
0001f0 4a 92 47 39 00 00 00 00 a3 93 91 39 0f 4c 77 38
       0.00019032616 0.0 0.00027766553 5.8960224e-05
000200 4b 94 14 39 75 ae 83 39 00 00 00 00 00 00 00 00
       0.00014169623 0.00025116248 0.0 0.0
000210 9b bf 8a 39 32 68 7c 34 58 54 34 39 3e 96 8e 9b
       0.00026464168 2.3507235e-07 0.00017197558 -2.358902e-22
000220 ef 1b 69 39 00 00 00 00 00 00 00 00 57 cb a4 39
       0.00022231018 0.0 0.0 0.00031432018
000230 b0 69 ac 39 05 0b 0c 39 00 00 00 00 5a 80 53 39
       0.0003288514 0.00013355546 0.0 0.00020170343
000240 00 00 00 00 77 d7 3f 39 1d a2 6c 39 c2 03 3f 39
       0.0 0.00018295446 0.00022567106 0.0001821658
000250 04 c4 0d 39 af 48 a2 38 cd 2d b1 38 33 38 b1 38
       0.0001351983 7.7383e-05 8.448549e-05 8.4504856e-05
000260 4b d7 f9 39 00 00 00 00 02 0f 6e 39 00 00 00 00
       0.00047653387 0.0 0.0002270304 0.0
000270 00 00 00 00 00 00 00 00 b5 8b 55 39 00 00 00 00
       0.0 0.0 0.00020365308 0.0
000280 a2 d9 06 39 72 16 ac 39 4a 7b 5e 39 7b 0a e8 38
       0.0001286031 0.0003282312 0.00021217499 0.00011064574
000290 8a 02 3b 39 6c 39 a4 38 85 16 36 38 62 6a 19 39
       0.00017834656 7.830825e-05 4.3413154e-05 0.00014630848
0002a0 6e b3 2d 39 5e 25 c0 38 00 00 00 00 12 12 36 38
       0.00016565408 9.1622336e-05 0.0 4.340901e-05
0002b0 70 b2 91 39 00 00 00 00 8b 3a 94 38 fa 26 61 39
       0.00027789501 0.0 7.0680944e-05 0.00021472192
0002c0 70 66 0a 33 61 95 1b 39 00 00 00 00 9e 44 da 35
       3.2223795e-08 0.000148376 0.0 1.6262236e-06
0002d0 7d a3 0f 39 43 3e ca 36 03 5a 98 39 00 00 00 00
       0.00013698447 6.0273173e-06 0.00029058763 0.0
0002e0 23 98 24 39 e3 cc 44 39 f2 c7 ba 38 44 c4 1b 39
       0.00015696934 0.00018768343 8.906414e-05 0.00014855067
0002f0 9e 1a 1d 38 4b a4 a4 39 b7 53 df 38 00 00 00 00
       3.7456506e-05 0.00031402925 0.00010649062 0.0
000300 9a e2 b3 39 9a 97 78 39 46 33 55 39 8e 73 da 35
       0.00034310372 0.00023707599 0.00020332364 1.6275897e-06
000310 97 b9 58 39 4a 1e a0 38 bc f7 81 39 df 08 7b 39
       0.00020668503 7.635036e-05 0.00024789374 0.0002394053
000320 39 df 5a 35 36 a4 53 39 47 8a d9 35 a9 23 08 39
       8.153616e-07 0.00020183701 1.6208004e-06 0.00012983255
000330 cb 97 df 39 00 00 00 00 d1 8d 59 38 46 cb 44 37
       0.0004264697 0.0 5.186891e-05 1.1729839e-05
000340 00 00 00 00 00 00 00 00 00 00 00 00 ee d2 36 39
       0.0 0.0 0.0 0.0001743545
000350 14 ea 99 38 f2 4b 81 39 44 1b 26 39 b8 ed 40 39
       7.339209e-05 0.0002466138 0.00015841151 0.00018399104
000360 0e 38 31 39 11 90 5d 38 e7 2d 84 39 00 00 00 00
       0.00016900917 5.282468e-05 0.00025211202 0.0
000370 50 0d 6e 38 00 00 00 00 da c1 0c 39 13 74 37 39
       5.675602e-05 0.0 0.00013423656 0.00017495481
000380 55 26 b0 38 00 00 00 00 e2 79 32 38 4b 5b d2 38
       8.399474e-05 0.0 4.255202e-05 0.00010030585
000390 00 00 00 00 28 c1 0d 36 29 17 6d 39 b9 eb 8c 39
       0.0 2.112307e-06 0.00022610709 0.00026878508
0003a0 00 00 00 00 e2 d8 39 39 00 00 00 00 71 d0 03 39
       0.0 0.0001772377 0.0 0.00012570784
0003b0 00 00 00 00 7f 9c 9d 39 00 00 00 00 bf 90 44 39
       0.0 0.00030061972 0.0 0.00018745939
0003c0 fa ed 71 39 ac 84 81 39 7a 13 22 37 00 00 00 00
       0.00023072204 0.00024703646 9.660487e-06 0.0
0003d0 37 4c 51 38 d2 8f 79 39 00 00 00 00 17 d4 52 39
       4.9900464e-05 0.00023800068 0.0 0.0002010617
0003e0 3d 7a 8d 38 0a 7c 75 a0 06 0d 61 39 ca f4 43 39
       6.7461726e-05 -2.0793348e-19 0.00021462524 0.0001868784
0003f0 3b ed 1d 39 54 d6 ec 37 00 00 00 00 00 00 00 00
       0.00015061062 2.8233197e-05 0.0 0.0
