saved_weights/linear/linear_filter_fc1_204_26_0.5/saved_weights_linear_0.1_epoch-1_top1-1.000.pth.tar (torch_old, 440028 bytes, 18 tensors)

exp_avg f4 [64, 204]
000000 8b ec d5 37 ec 5e c3 37 14 d1 e2 37 7f 97 8d 36
       2.5501728e-05 2.3290013e-05 2.7038659e-05 4.219764e-06
000010 d9 b4 22 37 07 86 23 37 23 dd 7c b7 7f 97 8d 36
       9.698059e-06 9.746763e-06 -1.5071858e-05 4.219764e-06
000020 a4 3e be 37 3e b9 32 b7 5b 20 75 37 7f 97 8d 36
       2.2678934e-05 -1.0652757e-05 1.4610671e-05 4.219764e-06
000030 5c 4e 81 b5 e0 2e cc 37 d1 ba eb 37 7f 97 8d 36
       -9.634055e-07 2.4340523e-05 2.8101176e-05 4.219764e-06
000040 1d 5d 9c 36 04 08 13 b6 82 24 0c 37 7f 97 8d 36
       4.660002e-06 -2.1909373e-06 8.35315e-06 4.219764e-06
000050 00 00 00 00 00 00 00 00 00 00 00 00 00 00 00 00
       0.0 0.0 0.0 0.0
000060 00 00 00 00 00 00 00 00 00 00 00 00 00 00 00 00
       0.0 0.0 0.0 0.0
000070 00 00 00 00 00 00 00 00 00 00 00 00 00 00 00 00
       0.0 0.0 0.0 0.0
000080 00 00 00 00 00 00 00 00 00 00 00 00 00 00 00 00
       0.0 0.0 0.0 0.0
000090 00 00 00 00 00 00 00 00 00 00 00 00 00 00 00 00
       0.0 0.0 0.0 0.0
0000a0 00 00 00 00 00 00 00 00 00 00 00 00 00 00 00 00
       0.0 0.0 0.0 0.0
0000b0 00 00 00 00 00 00 00 00 00 00 00 00 00 00 00 00
       0.0 0.0 0.0 0.0
0000c0 00 00 00 00 00 00 00 00 00 00 00 00 00 00 00 00
       0.0 0.0 0.0 0.0
0000d0 00 00 00 00 00 00 00 00 00 00 00 00 00 00 00 00
       0.0 0.0 0.0 0.0
0000e0 00 00 00 00 00 00 00 00 00 00 00 00 00 00 00 00
       0.0 0.0 0.0 0.0
0000f0 00 00 00 00 00 00 00 00 00 00 00 00 00 00 00 00
       0.0 0.0 0.0 0.0
000100 00 00 00 00 00 00 00 00 00 00 00 00 00 00 00 00
       0.0 0.0 0.0 0.0
000110 00 00 00 00 00 00 00 00 00 00 00 00 00 00 00 00
       0.0 0.0 0.0 0.0
000120 00 00 00 00 00 00 00 00 00 00 00 00 00 00 00 00
       0.0 0.0 0.0 0.0
000130 00 00 00 00 00 00 00 00 00 00 00 00 00 00 00 00
       0.0 0.0 0.0 0.0
000140 00 00 00 00 00 00 00 00 00 00 00 00 00 00 00 00
       0.0 0.0 0.0 0.0
000150 00 00 00 00 00 00 00 00 00 00 00 00 00 00 00 00
       0.0 0.0 0.0 0.0
000160 00 00 00 00 00 00 00 00 00 00 00 00 00 00 00 00
       0.0 0.0 0.0 0.0
000170 00 00 00 00 00 00 00 00 00 00 00 00 00 00 00 00
       0.0 0.0 0.0 0.0
000180 00 00 00 00 00 00 00 00 00 00 00 00 00 00 00 00
       0.0 0.0 0.0 0.0
000190 00 00 00 00 00 00 00 00 00 00 00 00 00 00 00 00
       0.0 0.0 0.0 0.0
0001a0 00 00 00 00 00 00 00 00 00 00 00 00 00 00 00 00
       0.0 0.0 0.0 0.0
0001b0 00 00 00 00 00 00 00 00 00 00 00 00 00 00 00 00
       0.0 0.0 0.0 0.0
0001c0 00 00 00 00 00 00 00 00 00 00 00 00 00 00 00 00
       0.0 0.0 0.0 0.0
0001d0 00 00 00 00 00 00 00 00 00 00 00 00 00 00 00 00
       0.0 0.0 0.0 0.0
0001e0 00 00 00 00 00 00 00 00 00 00 00 00 00 00 00 00
       0.0 0.0 0.0 0.0
0001f0 00 00 00 00 00 00 00 00 00 00 00 00 00 00 00 00
       0.0 0.0 0.0 0.0
000200 00 00 00 00 00 00 00 00 00 00 00 00 00 00 00 00
       0.0 0.0 0.0 0.0
000210 00 00 00 00 00 00 00 00 00 00 00 00 00 00 00 00
       0.0 0.0 0.0 0.0
000220 00 00 00 00 00 00 00 00 00 00 00 00 00 00 00 00
       0.0 0.0 0.0 0.0
000230 00 00 00 00 00 00 00 00 00 00 00 00 00 00 00 00
       0.0 0.0 0.0 0.0
000240 00 00 00 00 00 00 00 00 00 00 00 00 00 00 00 00
       0.0 0.0 0.0 0.0
000250 00 00 00 00 00 00 00 00 00 00 00 00 00 00 00 00
       0.0 0.0 0.0 0.0
000260 00 00 00 00 00 00 00 00 00 00 00 00 00 00 00 00
       0.0 0.0 0.0 0.0
000270 00 00 00 00 00 00 00 00 00 00 00 00 00 00 00 00
       0.0 0.0 0.0 0.0
000280 00 00 00 00 00 00 00 00 00 00 00 00 00 00 00 00
       0.0 0.0 0.0 0.0
000290 00 00 00 00 00 00 00 00 00 00 00 00 00 00 00 00
       0.0 0.0 0.0 0.0
0002a0 00 00 00 00 00 00 00 00 00 00 00 00 00 00 00 00
       0.0 0.0 0.0 0.0
0002b0 00 00 00 00 00 00 00 00 00 00 00 00 00 00 00 00
       0.0 0.0 0.0 0.0
0002c0 00 00 00 00 00 00 00 00 00 00 00 00 00 00 00 00
       0.0 0.0 0.0 0.0
0002d0 00 00 00 00 00 00 00 00 00 00 00 00 00 00 00 00
       0.0 0.0 0.0 0.0
0002e0 00 00 00 00 00 00 00 00 00 00 00 00 00 00 00 00
       0.0 0.0 0.0 0.0
0002f0 00 00 00 00 00 00 00 00 00 00 00 00 00 00 00 00
       0.0 0.0 0.0 0.0
000300 00 00 00 00 00 00 00 00 00 00 00 00 00 00 00 00
       0.0 0.0 0.0 0.0
000310 00 00 00 00 00 00 00 00 00 00 00 00 00 00 00 00
       0.0 0.0 0.0 0.0
000320 82 3f b2 37 63 93 52 36 ee f0 9e 35 5e fd 30 b8
       2.1248827e-05 3.137823e-06 1.1842037e-06 -4.2197637e-05
000330 11 18 6b 38 1b 2d 34 38 88 02 c0 37 f6 3f 27 34
       5.605078e-05 4.2957352e-05 2.2889362e-05 1.5576356e-07
000340 06 80 88 37 b4 99 bd 37 76 8d ae b7 f6 3f 27 34
       1.6272079e-05 2.260213e-05 -2.080829e-05 1.5576356e-07
000350 b6 a6 a6 37 e2 08 94 37 a7 01 ae 37 f6 3f 27 34
       1.9866373e-05 1.7647111e-05 2.0743186e-05 1.5576356e-07
000360 46 5e 9c 37 b5 a8 c4 37 32 ef 1e 38 f6 3f 27 34
       1.8640549e-05 2.3443581e-05 3.7892903e-05 1.5576356e-07
000370 bd ee 0c 37 a4 5a e0 36 2a b5 97 36 f6 3f 27 34
       8.400236e-06 6.686272e-06 4.521241e-06 1.5576356e-07
000380 00 00 00 00 00 00 00 00 00 00 00 00 00 00 00 00
       0.0 0.0 0.0 0.0
000390 00 00 00 00 00 00 00 00 00 00 00 00 00 00 00 00
       0.0 0.0 0.0 0.0
0003a0 00 00 00 00 00 00 00 00 00 00 00 00 00 00 00 00
       0.0 0.0 0.0 0.0
0003b0 00 00 00 00 00 00 00 00 00 00 00 00 00 00 00 00
       0.0 0.0 0.0 0.0
0003c0 00 00 00 00 00 00 00 00 00 00 00 00 00 00 00 00
       0.0 0.0 0.0 0.0
0003d0 00 00 00 00 00 00 00 00 00 00 00 00 00 00 00 00
       0.0 0.0 0.0 0.0
0003e0 00 00 00 00 00 00 00 00 00 00 00 00 00 00 00 00
       0.0 0.0 0.0 0.0
0003f0 00 00 00 00 00 00 00 00 00 00 00 00 00 00 00 00
       0.0 0.0 0.0 0.0

exp_avg_sq f4 [64, 204]
000000 0f 79 17 37 c0 31 8a 37 90 04 a9 37 5f bb b3 34
       9.0284875e-06 1.6474049e-05 2.0148495e-05 3.347768e-07
000010 ea ab 78 37 81 05 4e 37 0f f7 95 36 5f bb b3 34
       1.4821979e-05 1.2279838e-05 4.4693074e-06 3.347768e-07
000020 31 03 90 37 6f d1 5d 36 c6 55 9b 36 5f bb b3 34
       1.7167624e-05 3.3053473e-06 4.6293453e-06 3.347768e-07
000030 7e d5 60 36 32 fa 1b 37 a6 bd 06 37 5f bb b3 34
       3.350287e-06 9.296973e-06 8.031178e-06 3.347768e-07
000040 3c e6 86 36 c1 ac c7 36 9c 11 66 37 5f bb b3 34
       4.020314e-06 5.9507734e-06 1.3713168e-05 3.347768e-07
000050 00 00 00 00 00 00 00 00 00 00 00 00 00 00 00 00
       0.0 0.0 0.0 0.0
000060 00 00 00 00 00 00 00 00 00 00 00 00 00 00 00 00
       0.0 0.0 0.0 0.0
000070 00 00 00 00 00 00 00 00 00 00 00 00 00 00 00 00
       0.0 0.0 0.0 0.0
000080 00 00 00 00 00 00 00 00 00 00 00 00 00 00 00 00
       0.0 0.0 0.0 0.0
000090 00 00 00 00 00 00 00 00 00 00 00 00 00 00 00 00
       0.0 0.0 0.0 0.0
0000a0 00 00 00 00 00 00 00 00 00 00 00 00 00 00 00 00
       0.0 0.0 0.0 0.0
0000b0 00 00 00 00 00 00 00 00 00 00 00 00 00 00 00 00
       0.0 0.0 0.0 0.0
0000c0 00 00 00 00 00 00 00 00 00 00 00 00 00 00 00 00
       0.0 0.0 0.0 0.0
0000d0 00 00 00 00 00 00 00 00 00 00 00 00 00 00 00 00
       0.0 0.0 0.0 0.0
0000e0 00 00 00 00 00 00 00 00 00 00 00 00 00 00 00 00
       0.0 0.0 0.0 0.0
0000f0 00 00 00 00 00 00 00 00 00 00 00 00 00 00 00 00
       0.0 0.0 0.0 0.0
000100 00 00 00 00 00 00 00 00 00 00 00 00 00 00 00 00
       0.0 0.0 0.0 0.0
000110 00 00 00 00 00 00 00 00 00 00 00 00 00 00 00 00
       0.0 0.0 0.0 0.0
000120 00 00 00 00 00 00 00 00 00 00 00 00 00 00 00 00
       0.0 0.0 0.0 0.0
000130 00 00 00 00 00 00 00 00 00 00 00 00 00 00 00 00
       0.0 0.0 0.0 0.0
000140 00 00 00 00 00 00 00 00 00 00 00 00 00 00 00 00
       0.0 0.0 0.0 0.0
000150 00 00 00 00 00 00 00 00 00 00 00 00 00 00 00 00
       0.0 0.0 0.0 0.0
000160 00 00 00 00 00 00 00 00 00 00 00 00 00 00 00 00
       0.0 0.0 0.0 0.0
000170 00 00 00 00 00 00 00 00 00 00 00 00 00 00 00 00
       0.0 0.0 0.0 0.0
000180 00 00 00 00 00 00 00 00 00 00 00 00 00 00 00 00
       0.0 0.0 0.0 0.0
000190 00 00 00 00 00 00 00 00 00 00 00 00 00 00 00 00
       0.0 0.0 0.0 0.0
0001a0 00 00 00 00 00 00 00 00 00 00 00 00 00 00 00 00
       0.0 0.0 0.0 0.0
0001b0 00 00 00 00 00 00 00 00 00 00 00 00 00 00 00 00
       0.0 0.0 0.0 0.0
0001c0 00 00 00 00 00 00 00 00 00 00 00 00 00 00 00 00
       0.0 0.0 0.0 0.0
0001d0 00 00 00 00 00 00 00 00 00 00 00 00 00 00 00 00
       0.0 0.0 0.0 0.0
0001e0 00 00 00 00 00 00 00 00 00 00 00 00 00 00 00 00
       0.0 0.0 0.0 0.0
0001f0 00 00 00 00 00 00 00 00 00 00 00 00 00 00 00 00
       0.0 0.0 0.0 0.0
000200 00 00 00 00 00 00 00 00 00 00 00 00 00 00 00 00
       0.0 0.0 0.0 0.0
000210 00 00 00 00 00 00 00 00 00 00 00 00 00 00 00 00
       0.0 0.0 0.0 0.0
000220 00 00 00 00 00 00 00 00 00 00 00 00 00 00 00 00
       0.0 0.0 0.0 0.0
000230 00 00 00 00 00 00 00 00 00 00 00 00 00 00 00 00
       0.0 0.0 0.0 0.0
000240 00 00 00 00 00 00 00 00 00 00 00 00 00 00 00 00
       0.0 0.0 0.0 0.0
000250 00 00 00 00 00 00 00 00 00 00 00 00 00 00 00 00
       0.0 0.0 0.0 0.0
000260 00 00 00 00 00 00 00 00 00 00 00 00 00 00 00 00
       0.0 0.0 0.0 0.0
000270 00 00 00 00 00 00 00 00 00 00 00 00 00 00 00 00
       0.0 0.0 0.0 0.0
000280 00 00 00 00 00 00 00 00 00 00 00 00 00 00 00 00
       0.0 0.0 0.0 0.0
000290 00 00 00 00 00 00 00 00 00 00 00 00 00 00 00 00
       0.0 0.0 0.0 0.0
0002a0 00 00 00 00 00 00 00 00 00 00 00 00 00 00 00 00
       0.0 0.0 0.0 0.0
0002b0 00 00 00 00 00 00 00 00 00 00 00 00 00 00 00 00
       0.0 0.0 0.0 0.0
0002c0 00 00 00 00 00 00 00 00 00 00 00 00 00 00 00 00
       0.0 0.0 0.0 0.0
0002d0 00 00 00 00 00 00 00 00 00 00 00 00 00 00 00 00
       0.0 0.0 0.0 0.0
0002e0 00 00 00 00 00 00 00 00 00 00 00 00 00 00 00 00
       0.0 0.0 0.0 0.0
0002f0 00 00 00 00 00 00 00 00 00 00 00 00 00 00 00 00
       0.0 0.0 0.0 0.0
000300 00 00 00 00 00 00 00 00 00 00 00 00 00 00 00 00
       0.0 0.0 0.0 0.0
000310 00 00 00 00 00 00 00 00 00 00 00 00 00 00 00 00
       0.0 0.0 0.0 0.0
000320 dd 2a 33 37 65 d6 66 36 dd 40 7a 37 75 6a 0c 38
       1.0679211e-05 3.4397465e-06 1.4916263e-05 3.3477747e-05
000330 46 0f 04 36 61 82 62 36 9f e9 83 36 ac 42 dd 33
       1.9678423e-06 3.3752515e-06 3.9313013e-06 1.0303242e-07
000340 6e 59 8e 36 0f 2c b7 36 71 a8 12 36 ac 42 dd 33
       4.2423408e-06 5.458954e-06 2.1853741e-06 1.0303242e-07
000350 8a bd 98 36 24 19 4e 36 3a 09 34 35 ac 42 dd 33
       4.5520183e-06 3.0711026e-06 6.706865e-07 1.0303242e-07
000360 44 e6 d1 35 9d 3c 83 36 0f 3c 38 36 ac 42 dd 33
       1.563873e-06 3.9111605e-06 2.7453095e-06 1.0303242e-07
000370 86 9d b1 35 6e 4e a4 35 9c e3 21 36 ac 42 dd 33
       1.3233373e-06 1.2241778e-06 2.4123356e-06 1.0303242e-07
000380 00 00 00 00 00 00 00 00 00 00 00 00 00 00 00 00
       0.0 0.0 0.0 0.0
000390 00 00 00 00 00 00 00 00 00 00 00 00 00 00 00 00
       0.0 0.0 0.0 0.0
0003a0 00 00 00 00 00 00 00 00 00 00 00 00 00 00 00 00
       0.0 0.0 0.0 0.0
0003b0 00 00 00 00 00 00 00 00 00 00 00 00 00 00 00 00
       0.0 0.0 0.0 0.0
0003c0 00 00 00 00 00 00 00 00 00 00 00 00 00 00 00 00
       0.0 0.0 0.0 0.0
0003d0 00 00 00 00 00 00 00 00 00 00 00 00 00 00 00 00
       0.0 0.0 0.0 0.0
0003e0 00 00 00 00 00 00 00 00 00 00 00 00 00 00 00 00
       0.0 0.0 0.0 0.0
0003f0 00 00 00 00 00 00 00 00 00 00 00 00 00 00 00 00
       0.0 0.0 0.0 0.0

exp_avg f4 [256, 64]
000000 58 60 58 b3 ce 90 98 b2 24 d4 54 33 f0 ca 73 33
       -5.0379043e-08 -1.7760978e-08 4.9553037e-08 5.6762417e-08
000010 41 48 81 b3 56 b8 7e 33 cb 37 7f b3 c7 f6 1a 32
       -6.0201735e-08 5.9306636e-08 -5.9422558e-08 9.0200905e-09
000020 f8 16 b4 b2 14 15 93 b1 d5 39 17 33 ab a6 c7 b2
       -2.0965203e-08 -4.2806594e-09 3.5210025e-08 -2.324244e-08
000030 ea 3c 11 b1 be 86 12 b3 28 d9 c6 32 d4 0d 8e 33
       -2.1134903e-09 -3.411582e-08 2.3148985e-08 6.6149056e-08
000040 84 fd 54 b2 ce 0b 88 b3 53 6e 45 b2 6d 12 84 33
       -1.2397667e-08 -6.335141e-08 -1.1491994e-08 6.1500806e-08
000050 56 a5 d5 17 f6 d2 13 b2 4a 08 ad b2 78 e0 67 b2
       1.3806539e-24 -8.604493e-09 -2.014362e-08 -1.3497008e-08
000060 35 89 1e 32 f1 8e 8d 33 a1 c5 a8 32 6e 9a 30 b3
       9.228008e-09 6.591825e-08 1.9647645e-08 -4.1118646e-08
000070 f6 cc 76 31 bf f2 bc 31 50 50 87 b2 30 e0 f0 b2
       3.5914218e-09 5.499117e-09 -1.575259e-08 -2.8041626e-08
000080 f0 d2 4e b3 6a 96 1c b3 2f 9c bf 32 97 eb e6 32
       -4.815496e-08 -3.645838e-08 2.230635e-08 2.6882658e-08
000090 75 36 1b 33 be fe 16 33 aa 3d 71 b2 1c b5 1e b3
       3.6138278e-08 3.5156283e-08 -1.4042067e-08 -3.695196e-08
0000a0 32 f3 63 33 9e c1 f1 b2 66 cf 75 33 86 0f 63 b3
       5.307374e-08 -2.814414e-08 5.7232135e-08 -5.2866675e-08
0000b0 6e da 6e 33 0e a7 28 32 70 98 7f 33 0f 26 2d b3
       5.5612354e-08 9.816871e-09 5.9510455e-08 -4.0314315e-08
0000c0 3a 84 c6 32 75 5d ec 32 79 03 df b2 22 6e 5e b3
       2.3110363e-08 2.7516515e-08 -2.5962196e-08 -5.1788568e-08
0000d0 59 55 d1 32 3d 02 7a b3 58 7c 3a 33 a5 97 9f 32
       2.4369614e-08 -5.8209697e-08 4.341959e-08 1.8578996e-08
0000e0 25 c5 15 b3 03 71 17 b3 c9 3a 45 b2 60 b2 f2 32
       -3.4871068e-08 -3.526021e-08 -1.1480275e-08 2.8253623e-08
0000f0 56 22 2d b2 ca 64 fa b2 d2 50 a4 b2 14 d8 c7 32
       -1.0077732e-08 -2.9149664e-08 -1.9128866e-08 2.326491e-08
000100 18 e2 07 33 2b da 7d b2 6c 7c 4e b2 26 4d 4a 32
       3.1637768e-08 -1.4776144e-08 -1.2019068e-08 1.1775489e-08
000110 97 06 32 af 0a e5 a5 32 50 cd 05 b3 e4 eb c2 b1
       -1.6191347e-10 1.9312683e-08 -3.1153206e-08 -5.6729608e-09
000120 c1 71 08 b2 ed 41 17 33 b9 5e 7c 32 f1 39 63 32
       -7.9421065e-09 3.5217386e-08 1.4689868e-08 1.3226313e-08
000130 b2 76 95 af ee 48 26 31 24 e9 d2 32 01 1b 48 b2
       -2.718728e-10 2.4197635e-09 2.4553238e-08 -1.1647672e-08
000140 5c 25 60 b2 27 c0 21 33 1a 6b 52 32 85 9b c9 32
       -1.3047011e-08 3.7660495e-08 1.2247961e-08 2.3470202e-08
000150 23 fe 75 b2 53 19 fd b0 7e 14 a4 b2 cf dc ab 31
       -1.4318661e-08 -1.841537e-09 -1.9101432e-08 5.001858e-09
000160 a2 08 13 32 d3 d5 14 b3 54 ef ae 32 ec 8a ec ae
       8.558489e-09 -3.4653407e-08 2.03651e-08 -1.0756715e-10
000170 7f 2a af af 7a a6 08 b3 46 d8 45 b2 2c c0 f4 32
       -3.186251e-10 -3.1816377e-08 -1.1516084e-08 2.8492728e-08
000180 21 b8 8f b2 cf bc 3c b2 e6 db 03 b2 88 fb d6 b2
       -1.6731123e-08 -1.098597e-08 -7.675203e-09 -2.5027262e-08
000190 b8 1c 6e b2 7f 18 0b 33 da 7e 14 b3 db 18 f5 30
       -1.3859953e-08 3.238574e-08 -3.4574306e-08 1.783316e-09
0001a0 3f 56 d5 32 c0 fb b4 32 e4 2f c1 b2 a1 9f b2 32
       2.4835684e-08 2.106924e-08 -2.2489935e-08 2.0794518e-08
0001b0 9e f0 84 32 6f 73 d7 b2 1a 61 98 b1 7c 1e a4 32
       1.5476243e-08 -2.5081787e-08 -4.4348214e-09 1.9105975e-08
0001c0 4e 43 05 b3 6f f7 70 2e e4 a0 70 b2 e8 71 01 33
       -3.102769e-08 5.4789447e-11 -1.4006421e-08 3.013875e-08
0001d0 6c 3d 76 b2 f4 da 0e b3 9d e6 0b 33 95 f7 9f b1
       -1.433305e-08 -3.3261088e-08 3.25732e-08 -4.655656e-09
0001e0 52 b6 8f 32 8a d8 88 32 b9 bd 8d 31 3f 16 8d b3
       1.67303e-08 1.5930954e-08 4.125209e-09 -6.569871e-08
0001f0 8c 4f f4 31 ff 02 7d b2 b6 4e 13 b3 f7 4c 3d 32
       7.110378e-09 -1.4727219e-08 -3.4297692e-08 1.1018748e-08
000200 23 dd 1a 37 bb a5 2d 36 c8 02 92 36 13 49 38 37
       9.230603e-06 2.5875477e-06 4.351463e-06 1.0984269e-05
000210 2c 80 94 36 5a 5f b3 b4 4f 19 f5 36 26 1e 97 35
       4.425665e-06 -3.3410726e-07 7.3045153e-06 1.1259151e-06
000220 73 ff 48 36 f1 50 a3 36 21 96 fc 36 b6 bd f4 33
       2.9951013e-06 4.8672014e-06 7.5276625e-06 1.13966436e-07
000230 25 82 f5 37 1d 49 4d 35 c5 02 b3 36 dc 67 a0 36
       2.926688e-05 7.6474845e-07 5.334938e-06 4.7804624e-06
000240 16 af 98 37 42 07 fa 36 df e3 23 37 38 25 95 36
       1.8201343e-05 7.4514255e-06 9.7686125e-06 4.444879e-06
000250 85 64 80 37 04 00 00 80 6c 21 8b 03 0f ed 73 37
       1.5305597e-05 -6e-45 8.177359e-37 1.4539123e-05
000260 04 00 00 00 88 22 f1 32 81 4a 46 34 5a 7e e2 36
       6e-45 2.8071796e-08 1.8467291e-07 6.750034e-06
000270 3b 45 05 b6 77 53 8a 35 c8 f9 71 36 01 e1 98 37
       -1.9858842e-06 1.0306093e-06 3.605719e-06 1.8224588e-05
000280 5d 67 ff 36 73 ca 59 37 2b c7 55 b6 42 be 0c b6
       7.6116253e-06 1.2981344e-05 -3.1855404e-06 -2.097237e-06
000290 d6 77 bc 37 a5 4e b3 37 86 f0 76 37 a2 06 12 b6
       2.246715e-05 2.1375085e-05 1.4718744e-05 -2.1759556e-06
0002a0 a1 be 77 b7 a9 90 95 34 c9 7c da 37 2a c9 7d 36
       -1.47667315e-05 2.7858667e-07 2.6045733e-05 3.781703e-06
0002b0 eb 3f 4b 37 04 00 00 00 6d 26 e0 b5 7f 81 5e 37
       1.2114625e-05 6e-45 -1.6700484e-06 1.3262382e-05
0002c0 b0 96 e4 b2 2f 8f 8a 37 77 99 f0 36 b3 d8 f6 35
       -2.6611218e-08 1.6517557e-05 7.170423e-06 1.8391496e-06
0002d0 b7 c2 48 36 70 91 0a 36 4f 33 88 b6 66 58 20 36
       2.9915661e-06 2.0648258e-06 -4.059089e-06 2.3893313e-06
0002e0 a8 fb 3f 37 ea b5 9d b5 0e 9f 19 b6 20 74 c8 37
       1.144308e-05 -1.1750355e-06 -2.2891359e-06 2.3895933e-05
0002f0 63 92 01 37 e4 70 20 34 ed 59 9a 37 78 60 79 37
       7.7230825e-06 1.494223e-07 1.8400106e-05 1.4864017e-05
000300 27 72 5d 33 73 eb c8 b7 04 27 1e b8 77 35 b9 b8
       5.1559393e-08 -2.3951497e-05 -3.770647e-05 -8.831446e-05
000310 5a 77 76 b6 1b 14 86 b9 a7 47 c1 b9 de ef 45 35
       -3.6726328e-06 -0.0002557345 -0.00036865214 7.373727e-07
000320 f1 0c 05 b5 2e 81 93 b6 ce 89 19 b8 98 36 3e b2
       -4.9565193e-07 -4.39598e-06 -3.6606383e-05 -1.1071869e-08
000330 69 17 e9 b9 d0 56 5c b5 19 09 12 b9 46 67 94 b8
       -0.00044458665 -8.2082715e-07 -0.00013927034 -7.076426e-05
000340 24 0d f1 36 1a 50 1d b8 f7 77 30 b9 d0 1a b0 b5
       7.1838895e-06 -3.7506317e-05 -0.00016829358 -1.3120825e-06
000350 55 57 dc b8 15 3f af 32 b8 9d 37 31 df d2 14 b9
       -0.00010506684 2.0401368e-08 2.6719658e-09 -0.00014192935
000360 de e3 7b b2 40 d7 2d b9 9a 82 b2 b5 df 30 e5 b7
       -1.4661934e-08 -0.00016578753 -1.3300044e-06 -2.7321685e-05
000370 3d 9b d3 36 fe 6d db b4 2d 0a d0 b8 46 3b fc b7
       6.306362e-06 -4.087196e-07 -9.920108e-05 -3.0068342e-05
000380 6f 7b 2e b9 fc 33 81 b9 82 e5 46 b8 a0 47 3d b7
       -0.00016639916 -0.0002464353 -4.7420624e-05 -1.1281954e-05
000390 e9 9b 84 b8 2c c5 1f b9 e9 45 66 b8 77 b0 a6 36
       -6.323291e-05 -0.00015236874 -5.4901382e-05 4.9677287e-06
0003a0 7f bc a7 b8 ae f4 bb 33 ec c7 86 b9 de 70 48 b9
       -7.998291e-05 8.752373e-08 -0.00025707425 -0.00019115533
0003b0 56 ce 81 b9 90 b8 03 33 d6 a9 77 b7 b3 f0 37 b9
       -0.0002475853 3.0668673e-08 -1.476189e-05 -0.00017541907
0003c0 d5 fc 0d 34 1a ff 7a b9 45 7c 4f b9 e0 57 b3 b8
       1.3223628e-07 -0.0002393689 -0.00019787352 -8.551753e-05
0003d0 31 69 26 b9 30 bc a1 b7 36 da 54 b9 46 3e d2 b9
       -0.0001587018 -1.9280327e-05 -0.00020299185 -0.0004010072
0003e0 19 0e b3 b9 0a e3 16 37 f9 01 63 b7 71 e0 67 b9
       -0.00034152044 8.993558e-06 -1.3530714e-05 -0.00022113488
0003f0 88 5d 89 37 2b fd 03 35 8c be 6f b9 64 eb 0b b9
       1.6375227e-05 4.916971e-07 -0.000228638 -0.00013343763

exp_avg_sq f4 [256, 64]
000000 a4 4c 5e 2c eb 7d f6 2b 80 48 22 2c 6a ec 2b 2c
       3.1590642e-12 1.7514301e-12 2.306183e-12 2.4431798e-12
000010 27 2b 64 2c fb f0 59 2c 66 16 f9 2b 78 d3 2b 2c
       3.2424703e-12 3.0971326e-12 1.7698731e-12 2.441795e-12
000020 9a 1e 5b 2c 16 5b 31 2c 84 e1 05 2c fe 54 4d 2c
       3.113876e-12 2.5203776e-12 1.9025623e-12 2.9179432e-12
000030 28 40 c1 2b 17 39 60 2c 01 e0 fa 2b be e6 58 2c
       1.3731282e-12 3.1864006e-12 1.7825742e-12 3.0823534e-12
000040 07 ee 46 2c 40 cd 58 2c a2 cd d4 2b 9e 1e 65 2c
       2.8269624e-12 3.0809383e-12 1.5120581e-12 3.2559853e-12
000050 28 33 9e 2a 5a 57 06 2c 4d 42 d8 2b 36 bb 06 2c
       2.8101935e-13 1.9091035e-12 1.5366125e-12 1.9146468e-12
000060 cc 4a 17 2c c5 de 62 2c 4c 12 4a 2c ec 02 36 2c
       2.1499911e-12 3.2240194e-12 2.8716083e-12 2.5865378e-12
000070 8f 7a 47 2c 93 4a 04 2c 8c 25 10 2c 60 96 21 2c
       2.8347635e-12 1.8799725e-12 2.0484473e-12 2.296295e-12
000080 bd 4a 26 2c 6c 0f 2d 2c 75 73 27 2c 6a 83 61 2c
       2.3631507e-12 2.459334e-12 2.3796219e-12 3.2047373e-12
000090 de 4a 0c 2c 29 71 0c 2c 7c 67 d2 2b a3 76 45 2c
       1.9936756e-12 1.9958013e-12 1.495012e-12 2.806124e-12
0000a0 f7 91 4a 2c 8d a4 44 2c 16 0c 57 2c 78 8b 60 2c
       2.8786953e-12 2.794462e-12 3.0560047e-12 3.1909735e-12
0000b0 08 a1 2e 2c 51 dc 1d 2c ad 15 58 2c c1 b3 56 2c
       2.4816278e-12 2.2433342e-12 3.0707479e-12 3.0511013e-12
0000c0 33 99 8e 2b 2b 41 34 2c 1e 46 2c 2c 6d 98 0c 2c
       1.0132228e-12 2.5615714e-12 2.4481593e-12 1.997981e-12
0000d0 a5 25 43 2c 9a e8 62 2c 73 88 18 2c 61 c3 03 2c
       2.7732064e-12 3.2245651e-12 2.1676244e-12 1.8724677e-12
0000e0 51 64 13 2c 46 59 5d 2c fe 73 d6 2b cd d0 43 2c
       2.0945643e-12 3.1455546e-12 1.5237809e-12 2.7827074e-12
0000f0 6f 81 53 2c b7 eb 64 2c 61 d2 d5 2b b0 92 e2 2b
       3.0056754e-12 3.2531597e-12 1.5192952e-12 1.609898e-12
000100 2b 89 56 2c e3 d2 cd 2b d1 46 58 2c da 30 63 2c
       3.0487373e-12 1.4624659e-12 3.0734757e-12 3.2285758e-12
000110 07 46 5b 2c 51 68 ea 2b 8b 21 56 2c 6c a6 0e 2c
       3.1160645e-12 1.6655654e-12 3.042985e-12 2.0271796e-12
000120 5b 5a d4 2b 83 57 5c 2c 56 a0 f0 2b f5 c1 1b 2c
       1.5088585e-12 3.131246e-12 1.7097528e-12 2.2134493e-12
000130 de 7a 2d 2c 16 4f 5c 2c 5e b9 09 2c ca cd fa 2b
       2.4652984e-12 3.1307782e-12 1.957177e-12 1.7820686e-12
000140 f2 96 cd 2b 6f c0 42 2c f7 02 61 2c bf 32 4b 2c
       1.4608022e-12 2.767588e-12 3.197607e-12 2.8876205e-12
000150 19 58 41 2c d2 3c 14 2c 44 93 63 2c 24 9a 4a 2c
       2.7475854e-12 2.1065827e-12 3.234039e-12 2.8791492e-12
000160 04 78 1d 2c bc 30 5f 2c 18 db ca 2b 93 b0 cc 2b
       2.2377664e-12 3.171726e-12 1.4413774e-12 1.4544081e-12
000170 2a 2d d4 2b b2 67 63 2c 07 b8 44 2c a5 aa 4c 2c
       1.5076042e-12 3.2316203e-12 2.795543e-12 2.908487e-12
000180 a4 35 09 2c a2 e2 cb 2b f8 3b 46 2c 63 c1 42 2c
       1.9498647e-12 1.4486921e-12 2.8170782e-12 2.767641e-12
000190 01 f2 2b 2c 98 ee 3d 2c 5d 9b 65 2c ca 81 cd 2b
       2.44349e-12 2.6990962e-12 3.2629101e-12 1.460215e-12
0001a0 21 d7 11 2c f7 52 01 2c 40 91 4a 2c 0f 9f 07 2c
       2.072516e-12 1.8378057e-12 2.8786556e-12 1.927295e-12
0001b0 08 b7 f3 2b 60 80 52 2c 82 88 dd 2b b0 95 43 2c
       1.731699e-12 2.9914057e-12 1.5740883e-12 2.779426e-12
0001c0 6b 88 56 2c 8e f3 d3 2b ae 08 32 2c 52 8f 4c 2c
       3.0486956e-12 1.5060052e-12 2.530014e-12 2.9069702e-12
0001d0 a6 bc 1d 2c 5e 1b 58 2c 19 de 61 2c 2a 9c e0 2b
       2.2415763e-12 3.0710638e-12 3.2097712e-12 1.5959502e-12
0001e0 5a d6 dd 2b 69 2d 22 2c 59 ce fe 2b df ac 6a 2c
       1.5762489e-12 2.3046792e-12 1.8105058e-12 3.3349363e-12
0001f0 28 30 ec 2b 6b 3c dc 2b 03 9d 64 2c 57 5c 03 2c
       1.6782175e-12 1.564871e-12 3.2487908e-12 1.8667479e-12
000200 3b 01 f6 35 78 01 c6 36 53 2d b4 35 90 69 7a 36
       1.8328786e-06 5.901031e-06 1.3424236e-06 3.7314348e-06
000210 f7 15 2d 36 01 76 18 37 c5 c0 03 31 13 11 34 30
       2.5791794e-06 9.087381e-06 1.9172586e-09 6.550788e-10
000220 28 57 cb 34 eb ba af 35 be eb cd 36 cd 14 75 31
       3.787511e-07 1.3092916e-06 6.13692e-06 3.5664016e-09
000230 b1 cf 91 32 67 d7 84 2f 0f 56 14 37 ad f1 f2 36
       1.6974669e-08 2.4163713e-10 8.8415245e-06 7.240297e-06
000240 47 57 87 33 86 6f a1 37 d0 e9 68 37 7c de 85 34
       6.302303e-08 1.9244628e-05 1.3882716e-05 2.493506e-07
000250 23 22 2f 33 1f 58 8c 24 65 85 54 24 6e 52 98 32
       4.077641e-08 6.0864605e-17 4.6083162e-17 1.7732614e-08
000260 0f 4f bd 19 02 52 89 35 b3 40 a5 2a e1 ce c4 36
       1.9574073e-23 1.0231163e-06 2.9354782e-13 5.865339e-06
000270 42 83 83 35 d9 fb 93 2e 33 5d 82 30 0c 0f 38 36
       9.798462e-07 6.729523e-11 9.485234e-10 2.7426895e-06
000280 11 c4 a1 35 b3 d0 ae 35 d9 68 98 37 40 8e 66 36
       1.2052498e-06 1.302475e-06 1.8168636e-05 3.4355471e-06
000290 80 a9 24 35 82 57 95 35 9a a3 be 36 7b 7f 5f 35
       6.1341416e-07 1.1126833e-06 5.681487e-06 8.325948e-07
0002a0 85 b8 95 38 ca 3d b1 2e 6f 2e 24 33 ab 64 82 30
       7.139243e-05 8.060004e-11 3.8226457e-08 9.487356e-10
0002b0 43 3c 02 37 5d f8 59 19 62 91 89 36 e3 f6 01 38
       7.762635e-06 1.1268794e-23 4.099843e-06 3.0985928e-05
0002c0 0b df c3 2e 2d e2 97 35 a1 14 fd 37 7d 46 11 39
       8.907194e-11 1.1316203e-06 3.0169556e-05 0.00013854537
0002d0 54 42 02 37 21 08 c7 36 6e c5 43 38 45 a1 fc 2f
       7.764047e-06 5.9316085e-06 4.6675494e-05 4.5953122e-10
0002e0 5a 95 22 37 bf ae 9c 35 d3 bd 86 36 58 91 bb 32
       9.690726e-06 1.1673764e-06 4.0156096e-06 2.183576e-08
0002f0 07 da 6b 38 3c e9 d3 2b d7 67 72 32 87 64 65 35
       5.623142e-05 1.5057187e-12 1.4109864e-08 8.5455434e-07
000300 be 26 f2 34 fb ae a8 35 06 34 a4 35 3a 1d 02 36
       4.51042e-07 1.2567901e-06 1.2234093e-06 1.9388522e-06
000310 f8 fc 11 35 14 65 15 37 21 91 b4 37 8e f2 75 2f
       5.438483e-07 8.904626e-06 2.1525253e-05 2.2368793e-10
000320 a7 df 90 34 c4 88 f7 34 db 4b ad 35 cf ba 83 2f
       2.698482e-07 4.6106845e-07 1.2911581e-06 2.3961497e-10
000330 6e 24 b7 37 50 65 bf 33 30 df 93 36 81 80 04 36
       2.1832264e-05 8.912559e-08 4.406924e-06 1.9744332e-06
000340 61 7c 25 35 21 5e 92 36 f2 aa 9c 36 db 8e a7 33
       6.1648285e-07 4.362097e-06 4.669063e-06 7.802529e-08
000350 8d 0e df 36 9e fa 46 2c 93 c2 af 29 ce e5 46 37
       6.647612e-06 2.8276613e-12 7.8053144e-14 1.1855225e-05
000360 17 d1 1b 2c 90 53 05 37 7a 2a 76 33 0c cc d7 35
       2.2142893e-12 7.946874e-06 5.731497e-08 1.6078134e-06
000370 8e 48 5a 34 5b cc ec 2d ae 8d 88 36 63 d0 d9 35
       2.0329227e-07 2.6920846e-11 4.0696095e-06 1.6228408e-06
000380 2b 2b ab 36 04 6c f4 36 85 19 85 36 e7 9c 44 35
       5.1012225e-06 7.2843413e-06 3.9666797e-06 7.324401e-07
000390 78 f4 9e 36 18 84 31 36 9a 45 14 36 06 e0 36 34
       4.737227e-06 2.6451944e-06 2.2094232e-06 1.703157e-07
0003a0 a0 05 8a 37 11 b8 60 31 ae 08 db 36 02 62 4f 36
       1.6453501e-05 3.270092e-09 6.527719e-06 3.0902452e-06
0003b0 0f bc 43 37 d4 09 e8 2b 86 46 7c 35 f0 81 0c 37
       1.16666915e-05 1.6487319e-12 9.397994e-07 8.374904e-06
0003c0 46 97 20 35 85 5c 20 37 f4 4d 82 37 71 98 21 38
       5.9824777e-07 9.558285e-06 1.5533507e-05 3.8527363e-05
0003d0 e8 85 83 36 2d 8c ad 35 7d f8 93 37 b7 e2 44 38
       3.919693e-06 1.2930301e-06 1.7639477e-05 4.6941186e-05
0003e0 8b 15 77 37 2c ac 99 34 e0 08 77 35 6d 22 02 38
       1.4727363e-05 2.8623742e-07 9.2027585e-07 3.1026477e-05
0003f0 2b 1d 4c 37 57 fb e1 32 e8 c4 65 36 bc 06 05 36
       1.2166139e-05 2.6307744e-08 3.4238274e-06 1.9822464e-06

exp_avg f4 [64]
000000 5e fd 30 b8 fd 0f d1 b5 53 1c ef 37 bd 7b 36 b8
       -4.2197637e-05 -1.5576367e-06 2.850421e-05 -4.350742e-05
000010 91 00 f0 b6 51 8c 04 b9 95 77 df b8 40 f2 af b7
       -7.1526233e-06 -0.00012640773 -0.000106557425 -2.0974432e-05
000020 4c 6b 20 b7 ac c1 ab 37 1a 25 32 b8 6b 43 30 33
       -9.561725e-06 2.0474974e-05 -4.247306e-05 4.103951e-08
000030 8b 85 3a 37 48 41 5b 37 95 26 90 38 d0 82 c6 b8
       1.1117557e-05 1.3068617e-05 6.8736415e-05 -9.4657415e-05
000040 2e 34 e4 38 14 51 c3 b8 ac bf dd 36 09 99 66 37
       0.000108816064 -9.3134266e-05 6.608627e-06 1.37447e-05
000050 2f 9c aa 37 04 00 00 00 52 2a 74 b1 93 3b 1a 39
       2.0338308e-05 6e-45 -3.553073e-09 0.00014708778
000060 36 0e 04 80 cf 47 6c b9 1e 80 bf b5 55 f5 2e b8
       -3.7244e-40 -0.00022533465 -1.4267896e-06 -4.1713316e-05
000070 27 7c 3a b7 85 08 79 36 42 71 da 37 a6 a5 c2 38
       -1.111537e-05 3.710885e-06 2.6040365e-05 9.281495e-05
000080 d0 f1 99 37 41 70 c5 b8 41 53 8a b8 73 a0 13 36
       1.8351624e-05 -9.414601e-05 -6.59586e-05 2.19981e-06
000090 82 b1 57 38 ba 14 d9 37 58 cf 0f 38 b9 80 5e b6
       5.142531e-05 2.5878067e-05 3.428696e-05 -3.3155504e-06
0000a0 e9 ff 93 b9 3b e9 8e b6 7b 40 6c 39 dd b7 c0 b7
       -0.00028228693 -4.2590814e-06 0.00022530735 -2.2973802e-05
0000b0 1e 65 bf b8 04 00 00 80 32 fb 01 b9 b7 fb 0e 38
       -9.126424e-05 -6e-45 -0.00012395976 3.4089866e-05
0000c0 b4 58 c7 37 41 49 1b 39 71 f0 00 b7 e1 46 a0 b9
       2.3763954e-05 0.00014809241 -7.685377e-06 -0.00030570387
0000d0 33 ae 7d 38 fc 42 a2 b6 0f c3 c4 b9 8f 43 65 b9
       6.0482136e-05 -4.8357742e-06 -0.00037529363 -0.0002186431
0000e0 0c a5 91 38 76 74 99 b7 de 93 00 37 6c c6 04 38
       6.944881e-05 -1.8293253e-05 7.6638225e-06 3.1656047e-05
0000f0 1a d5 80 b8 c7 56 3e 37 e2 f5 7f 38 67 43 0b b8
       -6.143209e-05 1.1345087e-05 6.1025734e-05 -3.3202956e-05

exp_avg_sq f4 [64]
000000 75 6a 0c 38 21 dc 2c 37 e9 92 63 38 01 4f 80 37
       3.3477747e-05 1.0303252e-05 5.425784e-05 1.5295578e-05
000010 a3 07 6b 38 18 1f 74 38 05 25 06 39 8f 14 e4 33
       5.603548e-05 5.820309e-05 0.00012793027 1.0620817e-07
000020 4d 7a 35 38 30 ef 47 38 04 24 10 39 d2 4f 11 32
       4.3267664e-05 4.7668058e-05 0.00013746327 8.45826e-09
000030 e4 58 bf 38 56 5e 2c 36 cf 40 ed 37 c4 13 19 38
       9.124147e-05 2.5684908e-06 2.828278e-05 3.649645e-05
000040 67 d4 26 39 54 9d e2 37 d2 1b 01 39 9b 39 22 36
       0.0001591012 2.7014561e-05 0.00012312763 2.4173412e-06
000050 33 1e 46 38 c5 90 29 2a 68 77 ef 2a 13 98 c1 38
       4.7235004e-05 1.5060442e-13 4.2537783e-13 9.231283e-05
000060 19 b7 a5 29 e7 74 8b 39 2f d2 bc 36 d0 99 45 38
       7.3592343e-14 0.00026599245 5.627305e-06 4.711171e-05
000070 6c b6 42 37 8e 92 ab 31 d5 25 10 39 a0 29 7c 39
       1.16057745e-05 4.9934163e-09 0.00013747004 0.000240481
000080 7f 7d 83 38 7c 0c 4f 39 7c 65 55 38 47 b3 cc 38
       6.269942e-05 0.00019745709 5.0877672e-05 9.760871e-05
000090 6c b8 d7 39 aa 59 a5 38 27 f9 bb 38 37 31 db 37
       0.000411454 7.884514e-05 8.963263e-05 2.6129752e-05
0000a0 9b b0 e5 37 3d 2d 79 37 2b 38 c6 39 25 45 00 38
       2.7381166e-05 1.4852089e-05 0.0003780735 3.0581974e-05
0000b0 e3 1c 2f 39 1e 01 52 2b 13 a9 20 37 19 f7 17 38
       0.00016700062 7.460854e-13 9.576109e-06 3.6231333e-05
0000c0 ed af 61 37 cb 2c 85 38 ea d7 a5 38 39 64 e6 39
       1.3452006e-05 6.3502775e-05 7.90803e-05 0.0004394369
0000d0 d8 97 a7 38 37 c6 d0 38 07 f7 72 39 7b 02 be 39
       7.991464e-05 9.955133e-05 0.00023170943 0.00036241472
0000e0 26 e9 c8 38 b0 96 8f 38 a3 e6 fe 36 bc 97 ba 39
       9.5801704e-05 6.846839e-05 7.5966395e-06 0.00035589735
0000f0 48 4f f9 38 80 83 d6 36 2d 27 11 39 9a 88 16 38
       0.000118880125 6.3930056e-06 0.00013842872 3.5890007e-05

exp_avg f4 [256]
000000 04 00 00 80 00 00 00 00 b3 ea c1 38 cb 9c e3 b6
       -6e-45 0.0 9.246673e-05 -6.7833803e-06
000010 34 a0 2c 39 04 00 00 00 04 00 00 80 04 00 00 00
       0.00016462879 6e-45 -6e-45 6e-45
000020 d2 a5 ce 36 04 00 00 80 34 0e f1 38 a1 6e 12 39
       6.1585824e-06 -6e-45 0.00011494421 0.00013964857
000030 b6 57 84 38 4f b9 9c 38 8f 3e 28 b8 88 4a ac 37
       6.310588e-05 7.473176e-05 -4.0112584e-05 2.0538704e-05
000040 04 00 00 80 04 00 00 00 90 bf f3 36 fe f4 04 39
       -6e-45 6e-45 7.264265e-06 0.00012679768
000050 e4 e2 08 37 05 53 61 38 00 00 00 00 00 00 00 00
       8.159059e-06 5.37215e-05 0.0 0.0
000060 c5 06 ca 37 08 e6 88 b8 a8 52 78 b7 85 e6 cb 38
       2.4083429e-05 -6.527832e-05 -1.4801197e-05 9.722732e-05
000070 2e b0 12 b8 22 ec 19 39 26 59 44 38 1b 30 6f b9
       -3.4973193e-05 0.00014679183 4.6813067e-05 -0.00022810737
000080 00 00 00 00 6b 9d 5b 38 04 00 00 80 04 00 00 80
       0.0 5.2360276e-05 -6e-45 -6e-45
000090 c8 77 4d 38 7d 8e 99 b7 04 00 00 00 34 af 60 39
       4.8987364e-05 -1.8305373e-05 6e-45 0.00021427573
0000a0 00 00 00 00 3a bf e0 38 50 18 6d 39 6d 63 ab 38
       0.0 0.00010716771 0.00022611138 8.172435e-05
0000b0 04 00 00 00 00 00 00 00 1c dd 95 38 8b 89 3a 37
       6e-45 0.0 7.1460585e-05 1.1118488e-05
0000c0 c1 62 00 39 dc 30 1d 39 4a c6 75 38 44 b0 d4 37
       0.0001224382 0.00014990888 5.8597223e-05 2.535445e-05
0000d0 fd 3f f1 b5 b1 4e dc b7 5e 04 00 37 04 00 00 00
       -1.7974522e-06 -2.6262687e-05 7.630411e-06 6e-45
0000e0 04 00 00 00 00 00 00 00 1e d3 37 37 9f ff 23 39
       6e-45 0.0 1.09568045e-05 0.00015640118
0000f0 6d 63 b8 37 00 51 ac 38 f9 ca c0 38 61 b3 8c 38
       2.1980808e-05 8.2166865e-05 9.19308e-05 6.709132e-05
000100 83 dd 99 38 00 00 00 00 83 3f d4 34 04 00 00 80
       7.336868e-05 0.0 3.9534288e-07 -6e-45
000110 7b 2b c7 37 7b bc 83 39 eb 65 9d b3 4c 78 b7 37
       2.3742896e-05 0.00025126696 -7.329421e-08 2.1871318e-05
000120 3c b5 22 b8 04 00 00 00 f2 24 19 39 08 78 20 b7
       -3.8792597e-05 6e-45 0.0001460498 -9.56469e-06
000130 ef 08 82 b9 8d 72 d7 38 0f d6 23 b8 00 00 00 00
       -0.00024802188 0.00010273336 -3.9061586e-05 0.0
000140 b5 01 06 38 51 db c6 38 9d 14 bc 38 04 00 00 80
       3.194968e-05 9.4822266e-05 8.968378e-05 -6e-45
000150 b0 de 64 38 01 64 89 38 fa fd 02 b9 fe 15 96 38
       5.456683e-05 6.551296e-05 -0.0001249238 7.156654e-05
000160 73 74 09 38 04 00 00 80 44 c1 ad b8 25 9f ac b0
       3.2771797e-05 -6e-45 -8.2852814e-05 -1.2559879e-09
000170 8a d8 d0 b8 04 00 00 80 e7 09 0b b8 54 1b a3 37
       -9.9585464e-05 -6e-45 -3.3149405e-05 1.944384e-05
000180 62 e2 e4 b7 04 00 00 00 b1 98 c4 38 b1 d3 82 38
       -2.7285136e-05 6e-45 9.374449e-05 6.238314e-05
000190 49 ed 01 39 64 e9 48 b6 7b 3c 8c 38 c9 80 cb 38
       0.00012390794 -2.9938174e-06 6.6869856e-05 9.7037824e-05
0001a0 00 00 00 00 84 d7 04 39 04 ad 01 b7 14 67 94 b8
       0.0 0.00012668787 -7.7292825e-06 -7.07639e-05
0001b0 79 a7 85 b8 04 00 00 00 ce fc 04 b8 95 b0 19 39
       -6.3731284e-05 6e-45 -3.1706695e-05 0.00014656999
0001c0 04 00 00 00 a0 64 1d b3 46 a3 ef 38 08 8e 48 b8
       6e-45 -3.664593e-08 0.0001142682 -4.7815993e-05
0001d0 ac fa 2b b8 4a f6 0e 39 04 00 00 00 04 00 00 80
       -4.1003033e-05 0.00013633925 6e-45 -6e-45
0001e0 e6 38 7b b9 5a 75 f9 b8 fa 00 b0 38 00 00 00 00
       -0.00023958422 -0.00011895104 8.392516e-05 0.0
0001f0 4f fb ad 37 00 00 00 00 04 00 00 00 6c a4 75 b8
       2.0740232e-05 0.0 6e-45 -5.856568e-05
000200 e3 84 da 37 04 00 00 00 00 00 00 00 00 00 00 00
       2.6049505e-05 6e-45 0.0 0.0
000210 47 73 1a 37 04 00 00 80 ac 04 5e 38 78 62 d0 b8
       9.205955e-06 -6e-45 5.2933276e-05 -9.936554e-05
000220 21 77 02 38 04 00 00 80 04 00 00 00 de 3d 57 38
       3.1105363e-05 -6e-45 6e-45 5.1317613e-05
000230 18 af 95 38 67 3b 24 39 65 93 f4 b8 e6 76 37 39
       7.1374874e-05 0.00015662388 -0.00011662281 0.00017496533
000240 00 00 00 00 76 35 28 39 cf bb 40 38 21 b4 1c b8
       0.0 0.00016041644 4.5951278e-05 -3.7361056e-05
000250 b4 7c be b6 04 00 00 00 f6 00 82 38 37 dd 7f 38
       -5.6769586e-06 6e-45 6.199062e-05 6.100276e-05
000260 19 88 f1 38 04 00 00 80 d2 88 be 37 00 00 00 00
       0.00011517126 -6e-45 2.2713477e-05 0.0
000270 04 00 00 00 04 00 00 00 13 68 39 38 04 00 00 80
       6e-45 6e-45 4.4204364e-05 -6e-45
000280 7c 87 9b b8 7e 33 b5 36 92 2f 9d 38 04 00 00 00
       -7.416212e-05 5.400215e-06 7.495204e-05 6e-45
000290 78 90 3d b8 b1 fc 0d 39 69 69 29 38 2d d1 f2 38
       -4.519566e-05 0.00013540943 4.039091e-05 0.00011578421
0002a0 57 4b c2 38 92 e4 12 b9 04 00 00 80 54 c6 9e 38
       9.264674e-05 -0.00014008794 -6e-45 7.5709686e-05
0002b0 b0 5c 00 39 e1 8e 18 39 04 00 00 00 04 00 00 80
       0.0001224156 0.00014549076 6e-45 -6e-45
0002c0 0f d7 a5 38 e2 6d 5d b6 9a c7 88 b8 04 00 00 80
       7.907871e-05 -3.2995526e-06 -6.522164e-05 -6e-45
0002d0 1c 9e 86 38 47 a7 50 39 2f 60 c9 38 00 00 00 00
       6.419068e-05 0.00019898741 9.6023425e-05 0.0
0002e0 7b f2 04 39 66 f1 fc 34 04 00 00 80 29 e8 3a 38
       0.00012678832 4.7114298e-07 -6e-45 4.456207e-05
0002f0 6f 41 bb 38 dd 02 ca 38 39 6b 08 38 04 00 00 80
       8.929043e-05 9.632644e-05 3.2524786e-05 -6e-45
000300 07 68 9b b8 41 fd a8 38 7b c7 2e 38 eb 24 a3 b8
       -7.4103526e-05 8.0580365e-05 4.1670613e-05 -7.779322e-05
000310 f1 f1 e0 38 71 bf e7 38 32 c9 2c 38 28 c1 8c b8
       0.000107262174 0.00011050597 4.1195373e-05 -6.7116984e-05
000320 bc ca 51 b7 77 ae 61 38 05 11 23 37 9f c7 9e 38
       -1.25045735e-05 5.3806663e-05 9.71952e-06 7.5712094e-05
000330 2e de f9 38 00 00 00 00 bf c4 4c b8 04 00 00 80
       0.000119146294 0.0 -4.8820624e-05 -6e-45
000340 00 00 00 00 04 00 00 00 de 11 b9 37 01 d4 b3 38
       0.0 6e-45 2.2062039e-05 8.574874e-05
000350 6a 18 94 b8 d8 aa 5f 38 a0 92 0c 39 be 1d bb 37
       -7.0617374e-05 5.3326454e-05 0.00013406062 2.2305987e-05
000360 c8 90 1b 38 04 00 00 80 21 6e aa 38 00 00 00 00
       3.7089718e-05 -6e-45 8.126745e-05 0.0
000370 48 1b 03 39 04 00 00 00 b3 09 06 38 2b a9 c5 36
       0.00012503297 6e-45 3.1957123e-05 5.8907513e-06
000380 43 a3 01 39 04 00 00 00 a1 39 e0 b7 90 1d c1 38
       0.00012363218 6e-45 -2.6729716e-05 9.2084636e-05
000390 71 4b 65 b8 2d 85 24 39 9b 9e c7 37 3e b0 35 b9
       -5.4668115e-05 0.0001568987 2.3796505e-05 -0.0001732716
0003a0 00 00 00 00 4a d4 1a b9 00 00 00 00 58 d1 d1 38
       0.0 -0.00014765668 0.0 0.0001000489
0003b0 04 00 00 00 92 92 11 38 00 00 00 00 06 7c 24 39
       6e-45 3.47072e-05 0.0 0.00015686461
0003c0 6b aa eb 38 ab 45 b2 b7 53 d4 84 b8 00 00 00 00
       0.00011237416 -2.1251695e-05 -6.333799e-05 0.0
0003d0 04 00 00 80 40 9a b9 37 04 00 00 00 65 cc fe b8
       -6e-45 2.2125547e-05 6e-45 -0.00012149735
0003e0 88 f0 62 39 04 00 00 00 aa 15 da 38 28 cc 84 38
       0.00021642644 6e-45 0.00010399085 6.3322776e-05
0003f0 2a c3 e3 37 f3 3d 0c 39 2f e0 a9 36 04 00 00 80
       2.7151389e-05 0.00013374518 5.062691e-06 -6e-45

exp_avg_sq f4 [256]
000000 f4 36 34 28 00 00 00 00 db c4 8c 39 33 a5 5f 39
       1.0003923e-14 0.0 0.0002684955 0.00021328479
000010 b6 98 98 38 6b dd a9 2a 23 41 63 2b 7b 3e c3 10
       7.2763694e-05 3.017407e-13 8.0736996e-13 7.7010205e-29
000020 fd 61 f1 38 ea af cd 1b d4 a0 cb 38 0a d0 96 38
       0.00011510027 3.4028087e-22 9.709751e-05 7.191308e-05
000030 8c 3c 23 39 7b 0f c7 38 26 c2 af 37 28 87 8d 39
       0.00015567447 9.491943e-05 2.0952033e-05 0.00026994315
000040 1e e9 e4 2b b9 c9 fe 18 ee fa b2 38 6f d6 f1 39
       1.6265077e-12 6.586115e-24 8.534441e-05 0.00046126868
000050 0c 74 f2 38 03 4d 4e 39 00 00 00 00 00 00 00 00
       0.00011561075 0.0001967438 0.0 0.0
000060 12 72 71 38 6c d1 d2 3a 91 d8 78 3a 80 05 04 38
       5.7565114e-05 0.0016084141 0.000949272 3.1476375e-05
000070 e7 cd 02 3a 10 9f 00 39 d7 45 99 38 28 d7 41 38
       0.0004989788 0.00012266287 7.308617e-05 4.6215166e-05
000080 00 00 00 00 cd 13 f3 38 d6 07 9c 29 29 96 eb 31
       0.0 0.00011590831 6.929151e-14 6.8564714e-09
000090 ba 02 aa 38 6a 08 ca 37 25 93 38 31 dc b8 76 39
       8.1067396e-05 2.4084195e-05 2.6859166e-09 0.00023529254
0000a0 00 00 00 00 ec b9 38 39 69 57 83 39 9d 72 9f 39
       0.0 0.00017616869 0.00025051393 0.00030412237
0000b0 c2 a9 0c 30 00 00 00 00 15 a8 43 3a a6 71 c4 39
       5.1172944e-10 0.0 0.0007463706 0.00037468708
0000c0 8e e1 1c 39 59 94 30 38 03 11 d6 38 a0 1e 31 39
       0.00014961345 4.209983e-05 0.00010207484 0.00016891444
0000d0 b6 59 1f 35 ec af 73 39 c2 12 de 39 6f 0c 4c 2d
       5.936266e-07 0.00023239822 0.00042357115 1.1598818e-11
0000e0 cd 1a 05 2f 00 00 00 00 87 e4 83 38 07 0b ea 38
       1.2105801e-10 0.0 6.289133e-05 0.000111600435
0000f0 49 38 35 39 72 bf 8c 39 82 d6 c0 37 fa a1 9b 37
       0.00017282473 0.0002684552 2.2988072e-05 1.8552866e-05
000100 c8 d0 90 38 00 00 00 00 7d 81 56 33 d6 ec c2 25
       6.9053436e-05 0.0 4.9943527e-08 3.3814122e-16
000110 64 18 48 37 22 3a 28 39 6d 65 d6 2c f9 52 04 39
       1.1926608e-05 0.00016043385 6.0935063e-12 0.0001261941
000120 ca 5f 41 37 3f 16 fd 2c b9 ef 22 39 fe 0f 7c 37
       1.1525999e-05 7.1931623e-12 0.00015538828 1.5024094e-05
000130 e8 db eb 39 32 0a 80 39 63 52 d4 37 00 00 00 00
       0.00044986536 0.0002442166 2.5310734e-05 0.0
000140 a2 6a da 37 4d 80 b1 39 61 90 21 39 77 b4 9a 18
       2.603728e-05 0.00033855662 0.00015407942 3.999029e-24
000150 8d ca 53 39 2e bb 2c 39 3b 66 58 38 ac df ec 37
       0.00020197984 0.00016472928 5.1593623e-05 2.8237548e-05
000160 6a 6e 84 37 b7 3c 5b 29 d5 82 ff 37 c4 b8 27 37
       1.5787042e-05 4.868043e-14 3.0459292e-05 9.996995e-06
000170 85 e8 57 39 c6 4d fd 2d 03 bc 61 39 18 06 6a 36
       0.00020590618 2.8797308e-11 0.00021527712 3.4872264e-06
000180 2d 8b 98 37 59 02 91 1b 80 de 19 39 14 98 ef 39
       1.818462e-05 2.3989755e-22 0.00014674105 0.0004569894
000190 1d 23 95 38 0d 4b fc 34 bf b7 7d 38 21 cb 5b 38
       7.111414e-05 4.6993264e-07 6.0491027e-05 5.2402847e-05
0001a0 00 00 00 00 a4 95 64 39 b5 ae d2 38 72 dd 02 39
       0.0 0.0002179952 0.00010046122 0.00012480261
0001b0 f9 c1 f0 37 60 b4 ce 2d bf 3c 6e 38 1b c8 a4 38
       2.8700555e-05 2.3499591e-11 5.6800196e-05 7.857402e-05
0001c0 6c 48 b8 25 a0 89 0a 36 34 ff 8a 39 41 47 3b 37
       3.1967987e-16 2.064371e-06 0.00026511552 1.1162659e-05
0001d0 5a 54 81 38 d9 66 8d 38 47 ce 65 32 55 c0 fe 2e
       6.166911e-05 6.742561e-05 1.3376456e-08 1.1584748e-10
0001e0 30 92 eb 39 76 ca bf 3a 14 55 3f 38 00 00 00 00
       0.0004493161 0.0014632482 4.5617184e-05 0.0
0001f0 1f 69 03 3a 00 00 00 00 41 45 1c 30 33 86 6c 37
       0.00050129177 0.0 5.6850885e-10 1.4097942e-05
000200 12 bf 2d 38 ae b3 46 2b 00 00 00 00 00 00 00 00
       4.1424362e-05 7.0593086e-13 0.0 0.0
000210 06 80 88 39 63 9d a8 2f ae 53 13 39 48 93 78 3a
       0.00026035326 3.0670852e-10 0.00014050186 0.0009482396
000220 42 24 42 39 bc 4e 07 26 19 73 3c 30 a6 65 d5 39
       0.00018514789 4.694424e-16 6.8557565e-10 0.0004070226
000230 03 ac ad 39 2b 7e 14 38 ca 2c dd 37 4e fd 87 39
       0.0003312529 3.5403453e-05 2.636611e-05 0.00025937933
000240 00 00 00 00 e4 69 5a 39 cd f5 22 39 5a a1 25 39
       0.0 0.00020829547 0.00015541092 0.00015795734
000250 f0 cf cc 39 c6 2c 64 2c 19 a5 19 3a e5 a7 16 39
       0.00039064838 3.2425603e-12 0.0005861088 0.0001436766
000260 72 a9 a1 39 10 0b a0 15 3c 14 ee 38 00 00 00 00
       0.0003083456 6.464094e-26 0.00011352493 0.0
000270 59 ee 07 28 e7 6c 9c 23 7a 75 90 39 60 9b b7 15
       7.545689e-15 1.6959676e-17 0.00027553347 7.415825e-26
000280 e7 74 3e 37 30 6c c1 39 48 e3 c7 38 7a 88 f6 2e
       1.1352101e-05 0.00036892435 9.531394e-05 1.1211028e-10
000290 56 b5 41 38 43 e8 06 3a bd 93 66 37 8b 14 b6 37
       4.6183668e-05 0.0005146304 1.3743466e-05 2.1705657e-05
0002a0 a5 a4 82 38 2a f9 44 38 3c 5a 35 24 66 74 2c 3a
       6.2295505e-05 4.6962094e-05 3.932455e-17 0.0006578624
0002b0 4a 98 ca 39 1f fe 0b 39 64 0d 5d 32 15 2b e5 34
       0.00038641907 0.0001335074 1.2866938e-08 4.268592e-07
0002c0 58 02 0a 39 dd ec a8 3a 87 0f c2 39 47 cd cb 35
       0.00013161579 0.0012887974 0.00037014132 1.5184422e-06
0002d0 68 c9 82 39 03 0c 34 39 4e 73 82 39 00 00 00 00
       0.00024945592 0.00017170612 0.0002488144 0.0
0002e0 ec 94 c9 38 8c 9a 0e 39 0b 42 71 2e cb 5b d5 39
       9.612166e-05 0.00013599748 5.4855714e-11 0.00040694917
0002f0 b4 a6 a5 3a 11 0a ba 39 e4 39 42 39 a7 fc 65 29
       0.0012638182 0.00035484185 0.00018522848 5.1067356e-14
000300 62 18 b8 38 d1 7a fa 37 5e d7 98 39 48 da 21 38
       8.778345e-05 2.9859513e-05 0.0002915216 3.858868e-05
000310 2b 66 f0 38 36 87 b9 39 df 1a 71 39 cd 8e fc 38
       0.00011463122 0.0003538669 0.00022993561 0.00012042895
000320 da fa c8 38 be 8a 97 39 09 4b 0c 39 61 f7 4f 39
       9.583468e-05 0.00028904335 0.00013379393 0.00019833214
000330 ee 34 09 39 00 00 00 00 bc 07 7f 38 6f fe 9b 30
       0.00013085056 0.0 6.080394e-05 1.1350049e-09
000340 00 00 00 00 7e 29 68 2c 86 d4 74 39 29 58 7e 38
       0.0 3.2992216e-12 0.00023348824 6.0640425e-05
000350 79 07 ff 38 17 5b 08 39 c1 ca 9b 38 d8 6c 50 37
       0.000121607394 0.00013003904 7.428742e-05 1.2423108e-05
000360 2d 9e 01 38 cb 78 bd 25 cb 3a 7f 38 00 00 00 00
       3.090331e-05 3.2868126e-16 6.0851493e-05 0.0
000370 ae 6c d1 36 fe 67 b9 1f 8f 8f 07 39 8f 12 5f 39
       6.2413374e-06 7.852259e-20 0.00012928083 0.00021273851
000380 3c f0 75 39 fc 73 d1 18 d7 f4 02 39 c7 cf 40 38
       0.00023454515 5.414235e-24 0.00012488976 4.5969875e-05
000390 97 c7 51 3a 47 35 16 39 b1 72 3a 39 f0 ea 00 38
       0.00080024585 0.00014324962 0.00017781068 3.073638e-05
0003a0 00 00 00 00 35 80 f0 38 00 00 00 00 2e 2d 05 3a
       0.0 0.00011467972 0.0 0.00050802797
0003b0 cf b8 e9 15 af 85 63 39 00 00 00 00 27 1a 62 38
       9.439953e-26 0.00021698208 0.0 5.3906955e-05
0003c0 4c 89 f2 37 f7 6c 94 39 d4 f8 9a 39 00 00 00 00
       2.8912582e-05 0.00028309945 0.0002955856 0.0
0003d0 40 47 e9 2d 7a 1e 22 39 c7 1f 8e 2c 05 47 5f 38
       2.6520675e-11 0.00015460877 4.0394107e-12 5.3233485e-05
0003e0 1a 63 42 39 02 f8 28 2e e1 34 87 39 5b a1 08 39
       0.000185382 3.8419053e-11 0.00025788604 0.0001303008
0003f0 df 6a 0f 38 4b 62 01 38 ba 0d 3a 37 a7 a0 76 35
       3.419339e-05 3.084754e-05 1.108966e-05 9.187592e-07

exp_avg f4 [26, 256]
000000 04 00 00 00 00 00 00 00 04 00 00 80 04 00 00 00
       6e-45 0.0 -6e-45 6e-45
000010 04 00 00 00 04 00 00 80 04 00 00 80 00 00 00 00
       6e-45 -6e-45 -6e-45 0.0
000020 04 00 00 00 00 00 00 00 04 00 00 00 04 00 00 00
       6e-45 0.0 6e-45 6e-45
000030 04 00 00 00 04 00 00 00 00 00 00 00 04 00 00 00
       6e-45 6e-45 0.0 6e-45
000040 00 00 00 00 00 00 00 00 04 00 00 00 04 00 00 00
       0.0 0.0 6e-45 6e-45
000050 04 00 00 00 04 00 00 00 00 00 00 00 00 00 00 00
       6e-45 6e-45 0.0 0.0
000060 00 00 00 00 00 00 00 00 04 00 00 00 04 00 00 00
       0.0 0.0 6e-45 6e-45
000070 04 00 00 00 04 00 00 80 04 00 00 80 04 00 00 00
       6e-45 -6e-45 -6e-45 6e-45
000080 00 00 00 00 04 00 00 00 04 00 00 00 00 00 00 00
       0.0 6e-45 6e-45 0.0
000090 04 00 00 00 00 00 00 00 00 00 00 00 04 00 00 00
       6e-45 0.0 0.0 6e-45
0000a0 00 00 00 00 04 00 00 00 04 00 00 00 04 00 00 00
       0.0 6e-45 6e-45 6e-45
0000b0 04 00 00 00 00 00 00 00 04 00 00 00 04 00 00 00
       6e-45 0.0 6e-45 6e-45
0000c0 04 00 00 00 04 00 00 00 04 00 00 00 04 00 00 00
       6e-45 6e-45 6e-45 6e-45
0000d0 04 00 00 00 00 00 00 00 04 00 00 80 00 00 00 00
       6e-45 0.0 -6e-45 0.0
0000e0 00 00 00 00 00 00 00 00 04 00 00 00 04 00 00 00
       0.0 0.0 6e-45 6e-45
0000f0 04 00 00 00 04 00 00 00 04 00 00 00 04 00 00 00
       6e-45 6e-45 6e-45 6e-45
000100 04 00 00 00 00 00 00 00 04 00 00 00 00 00 00 00
       6e-45 0.0 6e-45 0.0
000110 04 00 00 00 04 00 00 00 00 00 00 00 04 00 00 80
       6e-45 6e-45 0.0 -6e-45
000120 04 00 00 00 00 00 00 00 04 00 00 00 04 00 00 00
       6e-45 0.0 6e-45 6e-45
000130 00 00 00 00 04 00 00 00 04 00 00 80 00 00 00 00
       0.0 6e-45 -6e-45 0.0
000140 04 00 00 00 00 00 00 00 04 00 00 00 00 00 00 00
       6e-45 0.0 6e-45 0.0
000150 04 00 00 00 04 00 00 00 04 00 00 00 04 00 00 00
       6e-45 6e-45 6e-45 6e-45
000160 04 00 00 00 04 00 00 00 04 00 00 00 04 00 00 00
       6e-45 6e-45 6e-45 6e-45
000170 04 00 00 00 00 00 00 00 04 00 00 00 04 00 00 00
       6e-45 0.0 6e-45 6e-45
000180 04 00 00 00 00 00 00 00 04 00 00 00 00 00 00 00
       6e-45 0.0 6e-45 0.0
000190 04 00 00 00 04 00 00 80 04 00 00 00 04 00 00 00
       6e-45 -6e-45 6e-45 6e-45
0001a0 00 00 00 00 04 00 00 80 00 00 00 00 04 00 00 00
       0.0 -6e-45 0.0 6e-45
0001b0 04 00 00 80 04 00 00 00 00 00 00 00 04 00 00 00
       -6e-45 6e-45 0.0 6e-45
0001c0 04 00 00 00 04 00 00 00 04 00 00 00 00 00 00 00
       6e-45 6e-45 6e-45 0.0
0001d0 04 00 00 80 04 00 00 00 04 00 00 00 04 00 00 00
       -6e-45 6e-45 6e-45 6e-45
0001e0 00 00 00 00 00 00 00 00 04 00 00 80 00 00 00 00
       0.0 0.0 -6e-45 0.0
0001f0 04 00 00 00 00 00 00 00 04 00 00 00 04 00 00 80
       6e-45 0.0 6e-45 -6e-45
000200 04 00 00 00 04 00 00 00 00 00 00 00 00 00 00 00
       6e-45 6e-45 0.0 0.0
000210 04 00 00 00 04 00 00 80 04 00 00 00 04 00 00 00
       6e-45 -6e-45 6e-45 6e-45
000220 04 00 00 00 00 00 00 00 04 00 00 80 04 00 00 00
       6e-45 0.0 -6e-45 6e-45
000230 04 00 00 00 04 00 00 00 00 00 00 00 04 00 00 00
       6e-45 6e-45 0.0 6e-45
000240 00 00 00 00 04 00 00 00 04 00 00 00 04 00 00 00
       0.0 6e-45 6e-45 6e-45
000250 04 00 00 00 04 00 00 00 04 00 00 00 04 00 00 00
       6e-45 6e-45 6e-45 6e-45
000260 04 00 00 00 00 00 00 00 04 00 00 00 00 00 00 00
       6e-45 0.0 6e-45 0.0
000270 00 00 00 00 00 00 00 00 04 00 00 00 00 00 00 00
       0.0 0.0 6e-45 0.0
000280 04 00 00 80 04 00 00 00 04 00 00 00 04 00 00 00
       -6e-45 6e-45 6e-45 6e-45
000290 04 00 00 00 04 00 00 00 04 00 00 00 04 00 00 00
       6e-45 6e-45 6e-45 6e-45
0002a0 04 00 00 00 04 00 00 00 00 00 00 00 04 00 00 00
       6e-45 6e-45 0.0 6e-45
0002b0 04 00 00 00 00 00 00 00 04 00 00 00 04 00 00 00
       6e-45 0.0 6e-45 6e-45
0002c0 04 00 00 00 04 00 00 00 00 00 00 00 04 00 00 80
       6e-45 6e-45 0.0 -6e-45
0002d0 04 00 00 00 04 00 00 80 04 00 00 00 00 00 00 00
       6e-45 -6e-45 6e-45 0.0
0002e0 04 00 00 00 04 00 00 00 04 00 00 00 04 00 00 00
       6e-45 6e-45 6e-45 6e-45
0002f0 04 00 00 00 04 00 00 00 04 00 00 00 00 00 00 00
       6e-45 6e-45 6e-45 0.0
000300 04 00 00 00 04 00 00 00 04 00 00 00 04 00 00 00
       6e-45 6e-45 6e-45 6e-45
000310 04 00 00 00 04 00 00 00 04 00 00 00 04 00 00 00
       6e-45 6e-45 6e-45 6e-45
000320 04 00 00 00 04 00 00 00 04 00 00 00 04 00 00 00
       6e-45 6e-45 6e-45 6e-45
000330 04 00 00 00 00 00 00 00 04 00 00 80 04 00 00 80
       6e-45 0.0 -6e-45 -6e-45
000340 00 00 00 00 00 00 00 00 00 00 00 00 04 00 00 00
       0.0 0.0 0.0 6e-45
000350 04 00 00 00 04 00 00 00 04 00 00 00 04 00 00 00
       6e-45 6e-45 6e-45 6e-45
000360 04 00 00 00 04 00 00 00 04 00 00 00 00 00 00 00
       6e-45 6e-45 6e-45 0.0
000370 04 00 00 80 00 00 00 00 04 00 00 00 04 00 00 00
       -6e-45 0.0 6e-45 6e-45
000380 04 00 00 00 00 00 00 00 04 00 00 80 04 00 00 00
       6e-45 0.0 -6e-45 6e-45
000390 00 00 00 00 04 00 00 80 04 00 00 00 04 00 00 00
       0.0 -6e-45 6e-45 6e-45
0003a0 00 00 00 00 04 00 00 80 00 00 00 00 04 00 00 00
       0.0 -6e-45 0.0 6e-45
0003b0 00 00 00 00 04 00 00 00 00 00 00 00 04 00 00 00
       0.0 6e-45 0.0 6e-45
0003c0 04 00 00 00 04 00 00 00 04 00 00 80 00 00 00 00
       6e-45 6e-45 -6e-45 0.0
0003d0 04 00 00 00 04 00 00 00 00 00 00 00 04 00 00 00
       6e-45 6e-45 0.0 6e-45
0003e0 04 00 00 00 04 00 00 00 04 00 00 00 04 00 00 00
       6e-45 6e-45 6e-45 6e-45
0003f0 04 00 00 00 04 00 00 00 00 00 00 00 00 00 00 00
       6e-45 6e-45 0.0 0.0
