saved_weights/linear/linear_filter_fc1_204_26_0.5/saved_weights_linear_0.001.pth.tar (torch_old, 440004 bytes, 18 tensors)

exp_avg f4 [64, 204]
00000000: 19e3 6536 5e39 6935 4247 7b37 beff 2f36
00000010: b70d 82b6 1ed1 09b7 65c9 a835 beff 2f36
00000020: afbf 2836 64de 65b5 836d aab6 beff 2f36
00000030: 54fd 0d37 e715 2b35 e29e 9836 beff 2f36
00000040: 29aa a0b5 517a 89b7 5aa2 6bb5 beff 2f36
00000050: 0000 0000 0000 0000 0000 0000 0000 0000
00000060: 0000 0000 0000 0000 0000 0000 0000 0000
00000070: 0000 0000 0000 0000 0000 0000 0000 0000
00000080: 0000 0000 0000 0000 0000 0000 0000 0000
00000090: 0000 0000 0000 0000 0000 0000 0000 0000
000000a0: 0000 0000 0000 0000 0000 0000 0000 0000
000000b0: 0000 0000 0000 0000 0000 0000 0000 0000
000000c0: 0000 0000 0000 0000 0000 0000 0000 0000
000000d0: 0000 0000 0000 0000 0000 0000 0000 0000
000000e0: 0000 0000 0000 0000 0000 0000 0000 0000
000000f0: 0000 0000 0000 0000 0000 0000 0000 0000
00000100: 0000 0000 0000 0000 0000 0000 0000 0000
00000110: 0000 0000 0000 0000 0000 0000 0000 0000
00000120: 0000 0000 0000 0000 0000 0000 0000 0000
00000130: 0000 0000 0000 0000 0000 0000 0000 0000
00000140: 0000 0000 0000 0000 0000 0000 0000 0000
00000150: 0000 0000 0000 0000 0000 0000 0000 0000
00000160: 0000 0000 0000 0000 0000 0000 0000 0000
00000170: 0000 0000 0000 0000 0000 0000 0000 0000
00000180: 0000 0000 0000 0000 0000 0000 0000 0000
00000190: 0000 0000 0000 0000 0000 0000 0000 0000
000001a0: 0000 0000 0000 0000 0000 0000 0000 0000
000001b0: 0000 0000 0000 0000 0000 0000 0000 0000
000001c0: 0000 0000 0000 0000 0000 0000 0000 0000
000001d0: 0000 0000 0000 0000 0000 0000 0000 0000
000001e0: 0000 0000 0000 0000 0000 0000 0000 0000
000001f0: 0000 0000 0000 0000 0000 0000 0000 0000
00000200: 0000 0000 0000 0000 0000 0000 0000 0000
00000210: 0000 0000 0000 0000 0000 0000 0000 0000
00000220: 0000 0000 0000 0000 0000 0000 0000 0000
00000230: 0000 0000 0000 0000 0000 0000 0000 0000
00000240: 0000 0000 0000 0000 0000 0000 0000 0000
00000250: 0000 0000 0000 0000 0000 0000 0000 0000
00000260: 0000 0000 0000 0000 0000 0000 0000 0000
00000270: 0000 0000 0000 0000 0000 0000 0000 0000
00000280: 0000 0000 0000 0000 0000 0000 0000 0000
00000290: 0000 0000 0000 0000 0000 0000 0000 0000
000002a0: 0000 0000 0000 0000 0000 0000 0000 0000
000002b0: 0000 0000 0000 0000 0000 0000 0000 0000
000002c0: 0000 0000 0000 0000 0000 0000 0000 0000
000002d0: 0000 0000 0000 0000 0000 0000 0000 0000
000002e0: 0000 0000 0000 0000 0000 0000 0000 0000
000002f0: 0000 0000 0000 0000 0000 0000 0000 0000
00000300: 0000 0000 0000 0000 0000 0000 0000 0000
00000310: 0000 0000 0000 0000 0000 0000 0000 0000
00000320: ec62 f136 e482 3737 3d60 8236 aaff dbb7
00000330: b2d3 ffb7 daf0 0a36 70fc bb36 0edd 7d37
00000340: be29 e8b6 555b 8db7 1bfb 32b7 0edd 7d37
00000350: 1b44 7bb7 3fcb cb36 7c68 89b7 0edd 7d37
00000360: f8ba adb7 b8c3 7135 a065 68b6 0edd 7d37
00000370: 7fe8 4fb8 1289 1334 d152 9ab7 0edd 7d37
00000380: 0000 0000 0000 0000 0000 0000 0000 0000
00000390: 0000 0000 0000 0000 0000 0000 0000 0000
000003a0: 0000 0000 0000 0000 0000 0000 0000 0000
000003b0: 0000 0000 0000 0000 0000 0000 0000 0000
000003c0: 0000 0000 0000 0000 0000 0000 0000 0000
000003d0: 0000 0000 0000 0000 0000 0000 0000 0000
000003e0: 0000 0000 0000 0000 0000 0000 0000 0000
000003f0: 0000 0000 0000 0000 0000 0000 0000 0000
3.4255847e-06 8.6882744e-07 1.4977357e-05 2.6225894e-06 -3.8758985e-06 -8.214525e-06 1.2575589e-06 2.6225894e-06
2.5145525e-06 -8.563277e-07 -5.0791436e-06 2.6225894e-06 8.4632375e-06 6.3734336e-07 4.5484494e-06 2.6225894e-06
-1.1970452e-06 -1.638863e-05 -8.7780575e-07 2.6225894e-06 0.0 0.0 0.0 0.0
0.0 0.0 0.0 0.0 0.0 0.0 0.0 0.0
0.0 0.0 0.0 0.0 0.0 0.0 0.0 0.0
0.0 0.0 0.0 0.0 0.0 0.0 0.0 0.0
0.0 0.0 0.0 0.0 0.0 0.0 0.0 0.0
0.0 0.0 0.0 0.0 0.0 0.0 0.0 0.0
0.0 0.0 0.0 0.0 0.0 0.0 0.0 0.0
0.0 0.0 0.0 0.0 0.0 0.0 0.0 0.0
0.0 0.0 0.0 0.0 0.0 0.0 0.0 0.0
0.0 0.0 0.0 0.0 0.0 0.0 0.0 0.0
0.0 0.0 0.0 0.0 0.0 0.0 0.0 0.0
0.0 0.0 0.0 0.0 0.0 0.0 0.0 0.0
0.0 0.0 0.0 0.0 0.0 0.0 0.0 0.0
0.0 0.0 0.0 0.0 0.0 0.0 0.0 0.0
0.0 0.0 0.0 0.0 0.0 0.0 0.0 0.0
0.0 0.0 0.0 0.0 0.0 0.0 0.0 0.0
0.0 0.0 0.0 0.0 0.0 0.0 0.0 0.0
0.0 0.0 0.0 0.0 0.0 0.0 0.0 0.0
0.0 0.0 0.0 0.0 0.0 0.0 0.0 0.0
0.0 0.0 0.0 0.0 0.0 0.0 0.0 0.0
0.0 0.0 0.0 0.0 0.0 0.0 0.0 0.0
0.0 0.0 0.0 0.0 0.0 0.0 0.0 0.0
0.0 0.0 0.0 0.0 0.0 0.0 0.0 0.0
7.1938757e-06 1.0938125e-05 3.8855055e-06 -2.6225887e-05 -3.0496947e-05 2.0703797e-06 5.602422e-06 1.5131443e-05
-6.918998e-06 -1.685104e-05 -1.0668092e-05 1.5131443e-05 -1.4976623e-05 6.0735324e-06 -1.6380327e-05 1.5131443e-05
-2.0710271e-05 9.0064304e-07 -3.4629848e-06 1.5131443e-05 -4.9569175e-05 1.3740308e-07 -1.8396795e-05 1.5131443e-05
0.0 0.0 0.0 0.0 0.0 0.0 0.0 0.0
0.0 0.0 0.0 0.0 0.0 0.0 0.0 0.0
0.0 0.0 0.0 0.0 0.0 0.0 0.0 0.0
0.0 0.0 0.0 0.0 0.0 0.0 0.0 0.0

exp_avg_sq f4 [64, 204]
00000000: 19ca 8235 f49e 0e34 c84e 8634 8387 1033
00000010: 5799 0235 1aae 3835 a399 9335 8387 1033
00000020: 364c 1535 f29a 5535 cae8 3035 8387 1033
00000030: 93a3 b234 71b9 cd35 a2e4 3135 8387 1033
00000040: 7937 8d35 3c60 9234 2d75 9634 8387 1033
00000050: 0000 0000 0000 0000 0000 0000 0000 0000
00000060: 0000 0000 0000 0000 0000 0000 0000 0000
00000070: 0000 0000 0000 0000 0000 0000 0000 0000
00000080: 0000 0000 0000 0000 0000 0000 0000 0000
00000090: 0000 0000 0000 0000 0000 0000 0000 0000
000000a0: 0000 0000 0000 0000 0000 0000 0000 0000
000000b0: 0000 0000 0000 0000 0000 0000 0000 0000
000000c0: 0000 0000 0000 0000 0000 0000 0000 0000
000000d0: 0000 0000 0000 0000 0000 0000 0000 0000
000000e0: 0000 0000 0000 0000 0000 0000 0000 0000
000000f0: 0000 0000 0000 0000 0000 0000 0000 0000
00000100: 0000 0000 0000 0000 0000 0000 0000 0000
00000110: 0000 0000 0000 0000 0000 0000 0000 0000
00000120: 0000 0000 0000 0000 0000 0000 0000 0000
00000130: 0000 0000 0000 0000 0000 0000 0000 0000
00000140: 0000 0000 0000 0000 0000 0000 0000 0000
00000150: 0000 0000 0000 0000 0000 0000 0000 0000
00000160: 0000 0000 0000 0000 0000 0000 0000 0000
00000170: 0000 0000 0000 0000 0000 0000 0000 0000
00000180: 0000 0000 0000 0000 0000 0000 0000 0000
00000190: 0000 0000 0000 0000 0000 0000 0000 0000
000001a0: 0000 0000 0000 0000 0000 0000 0000 0000
000001b0: 0000 0000 0000 0000 0000 0000 0000 0000
000001c0: 0000 0000 0000 0000 0000 0000 0000 0000
000001d0: 0000 0000 0000 0000 0000 0000 0000 0000
000001e0: 0000 0000 0000 0000 0000 0000 0000 0000
000001f0: 0000 0000 0000 0000 0000 0000 0000 0000
00000200: 0000 0000 0000 0000 0000 0000 0000 0000
00000210: 0000 0000 0000 0000 0000 0000 0000 0000
00000220: 0000 0000 0000 0000 0000 0000 0000 0000
00000230: 0000 0000 0000 0000 0000 0000 0000 0000
00000240: 0000 0000 0000 0000 0000 0000 0000 0000
00000250: 0000 0000 0000 0000 0000 0000 0000 0000
00000260: 0000 0000 0000 0000 0000 0000 0000 0000
00000270: 0000 0000 0000 0000 0000 0000 0000 0000
00000280: 0000 0000 0000 0000 0000 0000 0000 0000
00000290: 0000 0000 0000 0000 0000 0000 0000 0000
000002a0: 0000 0000 0000 0000 0000 0000 0000 0000
000002b0: 0000 0000 0000 0000 0000 0000 0000 0000
000002c0: 0000 0000 0000 0000 0000 0000 0000 0000
000002d0: 0000 0000 0000 0000 0000 0000 0000 0000
000002e0: 0000 0000 0000 0000 0000 0000 0000 0000
000002f0: 0000 0000 0000 0000 0000 0000 0000 0000
00000300: 0000 0000 0000 0000 0000 0000 0000 0000
00000310: 0000 0000 0000 0000 0000 0000 0000 0000
00000320: fa4d b835 5ddc c834 0a76 5035 fed3 6136
00000330: 11a4 c436 87dc 7735 c79d 7236 2160 9234
00000340: f680 9336 40dc 0d37 55e1 de36 2160 9234
00000350: 4a15 0d37 2982 9f35 6bc8 d836 2160 9234
00000360: 6790 2736 6be9 9d37 d543 0b37 2160 9234
00000370: 2d95 7a37 ef7f 1933 1950 7636 2160 9234
00000380: 0000 0000 0000 0000 0000 0000 0000 0000
00000390: 0000 0000 0000 0000 0000 0000 0000 0000
000003a0: 0000 0000 0000 0000 0000 0000 0000 0000
000003b0: 0000 0000 0000 0000 0000 0000 0000 0000
000003c0: 0000 0000 0000 0000 0000 0000 0000 0000
000003d0: 0000 0000 0000 0000 0000 0000 0000 0000
000003e0: 0000 0000 0000 0000 0000 0000 0000 0000
000003f0: 0000 0000 0000 0000 0000 0000 0000 0000
9.744573e-07 1.3282607e-07 2.5016766e-07 3.365086e-08 4.865191e-07 6.879869e-07 1.0997068e-06 3.365086e-08
5.5617727e-07 7.957416e-07 6.590386e-07 3.365086e-08 3.32741e-07 1.5327661e-06 6.627034e-07 3.365086e-08
1.0521463e-06 2.726464e-07 2.8024934e-07 3.365086e-08 0.0 0.0 0.0 0.0
0.0 0.0 0.0 0.0 0.0 0.0 0.0 0.0
0.0 0.0 0.0 0.0 0.0 0.0 0.0 0.0
0.0 0.0 0.0 0.0 0.0 0.0 0.0 0.0
0.0 0.0 0.0 0.0 0.0 0.0 0.0 0.0
0.0 0.0 0.0 0.0 0.0 0.0 0.0 0.0
0.0 0.0 0.0 0.0 0.0 0.0 0.0 0.0
0.0 0.0 0.0 0.0 0.0 0.0 0.0 0.0
0.0 0.0 0.0 0.0 0.0 0.0 0.0 0.0
0.0 0.0 0.0 0.0 0.0 0.0 0.0 0.0
0.0 0.0 0.0 0.0 0.0 0.0 0.0 0.0
0.0 0.0 0.0 0.0 0.0 0.0 0.0 0.0
0.0 0.0 0.0 0.0 0.0 0.0 0.0 0.0
0.0 0.0 0.0 0.0 0.0 0.0 0.0 0.0
0.0 0.0 0.0 0.0 0.0 0.0 0.0 0.0
0.0 0.0 0.0 0.0 0.0 0.0 0.0 0.0
0.0 0.0 0.0 0.0 0.0 0.0 0.0 0.0
0.0 0.0 0.0 0.0 0.0 0.0 0.0 0.0
0.0 0.0 0.0 0.0 0.0 0.0 0.0 0.0
0.0 0.0 0.0 0.0 0.0 0.0 0.0 0.0
0.0 0.0 0.0 0.0 0.0 0.0 0.0 0.0
0.0 0.0 0.0 0.0 0.0 0.0 0.0 0.0
0.0 0.0 0.0 0.0 0.0 0.0 0.0 0.0
1.3731762e-06 3.7413238e-07 7.765781e-07 3.3651008e-06 5.860355e-06 9.233558e-07 3.6152649e-06 2.7264562e-07
4.3959544e-06 8.455536e-06 6.6423477e-06 2.7264562e-07 8.409212e-06 1.1884305e-06 6.4606334e-06 2.7264562e-07
2.4968992e-06 1.8824552e-05 8.300839e-06 2.7264562e-07 1.4935894e-05 3.5739443e-08 3.670348e-06 2.7264562e-07
0.0 0.0 0.0 0.0 0.0 0.0 0.0 0.0
0.0 0.0 0.0 0.0 0.0 0.0 0.0 0.0
0.0 0.0 0.0 0.0 0.0 0.0 0.0 0.0
0.0 0.0 0.0 0.0 0.0 0.0 0.0 0.0

exp_avg f4 [256, 64]
00000000: 4265 cc29 4760 651b 5a9f fc26 205a 102a
00000010: af47 61a3 1fe2 89a8 f9c9 5b32 0300 0080
00000020: c274 13a1 7412 0317 4760 6524 0400 0000
00000030: 970f c7b1 0400 0080 6fc8 39ad 66b4 05ad
00000040: 8918 70b1 8ad4 0bac 9dbe 3223 4b42 d9a3
00000050: 0ed7 a395 0200 0000 0400 0080 a59b 449a
00000060: 0300 0000 30eb 2e28 0400 0080 af47 e1a1
00000070: 2106 0180 0400 0080 4760 6512 a59b 4421
00000080: b954 eb31 dd4f 75ac 212f dda3 7412 0316
00000090: 3009 f62b 6b72 9bb0 0b7d 9429 7412 8395
000000a0: 41ab 5f2c 0200 0080 8a62 18a6 a59b 4421
000000b0: 08e6 05aa 0400 0080 b36f 1827 e3b8 ed2e
000000c0: 0200 0080 ca63 b230 2199 a8a3 5128 36af
000000d0: 0523 852b 5a39 34a1 9e9d 2cad 055a 7aae
000000e0: 568c 8c32 93c2 f59c 7412 039e d90a 0732
000000f0: c7ca a1a4 0100 0000 8c55 41af 0ed7 a31f
00000100: 0300 0000 0300 0080 0200 0080 0300 0000
00000110: 0300 0080 0100 0080 0200 0000 0100 0080
00000120: 0100 0080 0100 0000 0100 0080 0300 0000
00000130: 0300 0000 0100 0080 0300 0000 0400 0080
00000140: 0300 0000 0300 0080 0000 0080 0100 0080
00000150: 0400 0000 0200 0000 0100 0000 0400 0080
00000160: 0200 0080 0100 0000 0000 0080 0200 0080
00000170: 0200 0080 0100 0000 0400 0000 0300 0080
00000180: 0100 0080 0100 0080 0200 0080 0300 0080
00000190: 0100 0000 0300 0000 0100 0000 0100 0080
000001a0: 0300 0080 0400 0000 0000 0000 0200 0080
000001b0: 0400 0080 0100 0000 0400 0000 0300 0080
000001c0: 0200 0000 0100 0080 0400 0000 0400 0080
000001d0: 0400 0080 0400 0080 0400 0080 0300 0000
000001e0: 0100 0000 0100 0000 0100 0080 0300 0080
000001f0: 0400 0000 0400 0080 0200 0080 0100 0080
00000200: 9490 b7b7 4045 63b7 d832 77b7 f8de eeb7
00000210: 12d5 a2b7 31a5 acb7 a121 53b6 3cd9 fc34
00000220: f877 4ab7 b796 1cb7 457c 5cb7 499b 1934
00000230: 280d bab7 3eca 27b5 f4bd 99b7 7752 ebb7
00000240: 6455 42b7 8706 23b8 0840 3bb8 ebd3 4cb7
00000250: e250 cbb6 0400 0000 0400 0000 b662 a2b6
00000260: 0400 0000 0a53 5c34 0bb4 c62e e6b9 05b8
00000270: 4ec6 1eb4 fbe6 3fab 4ba3 fdb5 7575 04b8
00000280: a703 b9b7 e4b4 2ab8 8f7a 56b7 132f a2b5
00000290: 4f65 e7b7 d85e 39b8 f29d e5b7 c18e 90b3
000002a0: 7dca 6db7 d920 0ab6 2423 6eb7 f5da 33b7
000002b0: 6991 2bb8 0400 0000 c2b3 2fb7 0cf4 34b8
000002c0: f996 5b30 2a51 1fb8 b37d 8bb7 6276 0cb8
000002d0: e1d5 10b8 ee45 8bb7 3628 42b7 22d2 c1b4
000002e0: e995 3eb8 8888 17b7 689b bab6 284f 02b7
000002f0: 4fc4 19b8 ea8d c429 8c1d 8bb7 8fdd eab7
00000300: 76c0 ba37 e3bd 5cb8 b6bb 6db6 80aa 9e37
00000310: dfba 49b5 5246 13b8 a098 51b7 a2f4 9634
00000320: bb34 11b6 e337 e636 81d4 a9b7 2c08 a0b0
00000330: 6694 8238 6807 4eb5 0cd0 74b7 7e9b 1d37
00000340: b222 1bb8 77b0 57b8 1c70 6438 5c55 1737
00000350: 6e86 25b7 0200 0080 f5bb 4429 4473 5937
00000360: 0200 0000 6c1f fab6 88fb 6eae 1206 22b8
00000370: 0acb a9b3 101f f22e 8039 fdb6 dc2b e237
00000380: 0a55 a936 b8f2 2cb8 01bc 3237 1cfc 11b6
00000390: 950b cab8 f165 eab7 6388 f6b5 7c83 84b6
000003a0: 5270 d537 342e 45b6 6111 0d38 8914 44b7
000003b0: 8d51 14b9 0400 0080 7ca6 12b7 d958 6638
000003c0: c9f3 0db5 178d 0738 e692 2bb7 9c60 9136
000003d0: 978c f9b7 6f27 efb6 470f 64b8 ff9f 86b7
000003e0: 5bab d8b8 6849 bbb6 1e51 ddb5 569e 1db8
000003f0: 41dc 7a38 b5cd 5c34 ede7 f2b5 06ed 4337
9.076985e-14 1.8973545e-22 1.7529205e-15 1.2821038e-13 -1.2212454e-17 -1.530812e-14 1.2793401e-08 -4e-45
-4.9960065e-19 4.2351674e-25 4.973801e-17 6e-45 -5.7934346e-09 -6e-45 -1.0560538e-11 -7.600231e-12
-3.4938543e-09 -1.987107e-12 9.689763e-18 -2.3555263e-17 -6.617447e-26 3e-45 -6e-45 -4.065758e-23
4e-45 9.7099385e-15 -6e-45 -1.5265568e-18 -9.4034e-41 -6e-45 7.237833e-28 6.6613377e-19
6.849032e-09 -3.4860927e-12 -2.3980828e-17 1.0587919e-25 1.7481901e-12 -1.1310254e-09 6.594212e-14 -5.293959e-26
3.178527e-12 -3e-45 -5.286914e-16 6.6613377e-19 -1.1892581e-13 -6e-45 2.115479e-15 1.0810355e-10
-3e-45 1.2979566e-09 -1.8279449e-17 -1.6567127e-10 9.459938e-13 -6.1062276e-19 -9.812066e-12 -5.6923372e-11
1.6361962e-08 -1.6263036e-21 -6.938898e-21 7.860501e-09 -7.016614e-17 1e-45 -1.758364e-10 6.9388963e-20
4e-45 -4e-45 -3e-45 4e-45 -4e-45 -1e-45 3e-45 -1e-45
-1e-45 1e-45 -1e-45 4e-45 4e-45 -1e-45 4e-45 -6e-45
4e-45 -4e-45 -0.0 -1e-45 6e-45 3e-45 1e-45 -6e-45
-3e-45 1e-45 -0.0 -3e-45 -3e-45 1e-45 6e-45 -4e-45
-1e-45 -1e-45 -3e-45 -4e-45 1e-45 4e-45 1e-45 -1e-45
-4e-45 6e-45 0.0 -3e-45 -6e-45 1e-45 6e-45 -4e-45
3e-45 -1e-45 6e-45 -6e-45 -6e-45 -6e-45 -6e-45 4e-45
1e-45 1e-45 -1e-45 -4e-45 6e-45 -6e-45 -3e-45 -1e-45
-2.1882624e-05 -1.3546378e-05 -1.4734185e-05 -2.8475639e-05 -1.9411124e-05 -2.0580921e-05 -3.1461025e-06 4.7096717e-07
-1.2068071e-05 -9.333416e-06 -1.3141956e-05 1.4305728e-07 -2.2179054e-05 -6.250665e-07 -1.8327475e-05 -2.8052584e-05
-1.1583183e-05 -3.8868307e-05 -4.4643908e-05 -1.22086885e-05 -6.0592874e-06 6e-45 6e-45 -4.8394677e-06
6e-45 2.0519306e-07 9.0359796e-11 -3.1882802e-05 -1.478704e-07 -6.817738e-13 -1.8897493e-06 -3.1580643e-05
-2.205542e-05 -4.0699626e-05 -1.2783929e-05 -1.2083641e-06 -2.7584521e-05 -4.4195767e-05 -2.7372476e-05 -6.731489e-08
-1.4173446e-05 -2.0582722e-06 -1.4194087e-05 -1.0720211e-05 -4.0905e-05 6e-45 -1.0472666e-05 -4.314263e-05
7.988628e-10 -3.7984144e-05 -1.6628625e-05 -3.3488854e-05 -3.4531466e-05 -1.6602655e-05 -1.1572663e-05 -3.6101943e-07
-4.5439145e-05 -9.03209e-06 -5.5613236e-06 -7.767034e-06 -3.666087e-05 8.728767e-14 -1.658385e-05 -2.7998145e-05
2.226255e-05 -5.2628933e-05 -3.5425014e-06 1.8914463e-05 -7.515027e-07 -3.5113022e-05 -1.24929065e-05 2.811767e-07
-2.1637377e-06 6.86104e-06 -2.0245325e-05 -1.1643855e-09 6.2265244e-05 -7.675176e-07 -1.4591973e-05 9.394133e-06
-3.6987192e-05 -5.142434e-05 5.4463846e-05 9.020176e-06 -9.866066e-06 -3e-45 4.368377e-14 1.2961045e-05
3e-45 -7.4542386e-06 -5.433834e-11 -3.8629463e-05 -7.906608e-08 1.1010404e-10 -7.5466814e-06 2.6961723e-05
5.0464923e-06 -4.1234045e-05 1.06534e-05 -2.175343e-06 -9.634268e-05 -2.7942444e-05 -1.8368122e-06 -3.9492134e-06
2.5443882e-05 -2.9382181e-06 3.3633205e-05 -1.1687292e-05 -0.0001414476 -6e-45 -8.741041e-06 5.491902e-05
-5.288135e-07 3.231791e-05 -1.0226597e-05 4.3325836e-06 -2.974858e-05 -7.1273457e-06 -5.4373664e-05 -1.6048549e-05
-0.000103316 -5.58158e-06 -1.6489391e-06 -3.757918e-05 5.9809772e-05 2.0563932e-07 -1.8097904e-06 1.1678092e-05

exp_avg_sq f4 [256, 64]
00000000: e5b1 932d c2a0 702c 1707 4d2d e229 9c2d
00000010: 9da8 0b2d 1757 932d d83b ad2e b0a0 0427
00000020: 0800 c82c 069d 032c a572 0f2d 4750 fa25
00000030: fd7e ac2e 66f3 ac1a 61e7 de2d 21c3 d22d
00000040: 9a44 7c2e 1197 ba2d b536 4a2d af9c 222d
00000050: 74f7 e62b 79c0 6b24 8470 6824 e984 482c
00000060: 5af8 7024 2ac5 652d d73c 8924 df9c 182d
00000070: 0cbe 0f2a a904 2625 b784 a12b 5784 e32c
00000080: d324 952e 8b35 032e 8c07 162d 7ddd da2b
00000090: 2c2a b92d 3148 502e 69ee 9a2d 9e11 f62b
000000a0: 4386 c32d eac7 2727 89e8 772d 3fd4 ed2c
000000b0: 5c22 b12d f492 d318 83a4 692d 4290 0f2e
000000c0: d252 9628 c808 4e2e 949b 3b2d e5da 192e
000000d0: 788c ba2d 2d82 ce2c 5a82 d82d 178f 052e
000000e0: 442b 192f 4c21 812c f30e 8c2c 032f 982e
000000f0: b7e1 2f2d b04a f824 13db 212e 8012 b42c
00000100: 7214 ed1d df1c 0622 5f98 d623 16a3 1222
00000110: 4332 281d 3f87 2822 1b68 e121 dc11 8320
00000120: 1a33 ed24 e66b 1021 a31b 0f25 929f 9821
00000130: 8534 ed21 76bc db21 d70c 161e 9a44 3f2a
00000140: 51f7 ce22 ae85 8521 8754 bf24 6b68 201f
00000150: 7bea 5f22 5b54 2220 cfeb a622 36c7 331f
00000160: 1fc1 3523 1c56 ef23 81c7 2724 9623 b524
00000170: 1ab1 2422 bb01 2e22 30aa 0a22 d4f9 7f1f
00000180: 11e1 2822 23a0 0d22 2d12 5d21 f032 5a20
00000190: c54b fd21 419c 0b24 bee7 f021 2316 9522
000001a0: c8da fa21 aa4e a721 8184 4b22 ce0d 1f23
000001b0: dce0 3222 c2a3 c123 eb5a ee22 5755 7d21
000001c0: 5bad 0f23 37ef cf21 0865 ec1d 0243 fc21
000001d0: 3548 fb21 0fb0 d421 7dff f321 b3b4 8528
000001e0: 1ee9 0922 58a3 ba1e 3a41 2920 2604 0c1f
000001f0: 87a4 2e22 0334 9e21 3597 5421 aa18 6e1e
00000200: 731c 3333 92e4 8c33 e55f 1c33 482f 1233
00000210: 4da6 1933 f112 c133 6746 2431 5942 0031
00000220: f06f 1833 ee1f 1632 a049 8533 8cc2 862f
00000230: c76c a933 4dc2 122f bf4c 0d33 97cb 3933
00000240: 1cd6 ef33 af64 3234 fcf1 3734 ee22 0132
00000250: 082d da32 a037 1c21 3cce cc20 0fd4 ea32
00000260: 8040 9621 0c58 9d31 807c 2b28 87e7 f733
00000270: 19e6 cc31 2acb 4828 e62f 9430 dae6 b433
00000280: 0e4f 9132 a984 a233 19e5 4034 4202 a533
00000290: c050 9533 77d9 a033 5f93 e433 d523 4e34
000002a0: 6d58 3635 77a5 db30 31c5 9433 b2cf 5531
000002b0: f966 ec33 1a00 2d21 3978 5833 445e 7d34
000002c0: c70e 0033 4536 b933 89c2 c234 1a00 a735
000002d0: e3d1 1734 3383 c032 04ea 4435 72f1 0d2e
000002e0: 989a 1f34 136d e132 308d 1033 9b9c 4b33
000002f0: a9f9 e034 79cb a027 43b4 1133 00a6 ec32
00000300: 8b21 8335 eac2 5535 031e 3635 c52e 8a35
00000310: 730a 8733 3654 a635 a397 9a36 8143 6a2f
00000320: 7502 2f34 e59c 7e32 e455 3034 378b bc2e
00000330: 875e 0137 4264 112f a8c0 e435 aa1d aa35
00000340: afee 4737 a18c a734 0713 7b35 24a8 8434
00000350: 42ee 3836 f4f5 ac20 595a 2125 1fde 9836
00000360: 1eb5 9324 08fc 0435 e988 fc26 f161 7135
00000370: 9cc9 2330 d2ff 6e27 64c2 8235 b6db 2335
00000380: 0315 1736 9442 3936 2ed8 6b33 540f 4632
00000390: 82dd a535 35f3 2b36 28ad 8134 de14 0633
000003a0: f4cd 1a34 b810 8232 4aa0 2136 00c7 d835
000003b0: c44a 2c36 e89d 1b20 f43b 2735 2914 6d35
000003c0: 1807 4132 0ba7 8e36 eb69 5735 a612 9534
000003d0: 5351 e835 4e77 8635 ee97 2136 7df4 0437
000003e0: 07ff 8136 b807 4233 cf10 5733 cce8 2b37
000003f0: f39b 6c35 ee52 d52d b7dd 1936 957c c835
1.6790966e-11 3.419529e-12 1.1654475e-11 1.7753746e-11 7.938675e-12 1.675064e-11 7.8777596e-11 1.8405789e-15
5.6843454e-12 1.8703385e-12 8.154065e-12 4.3422485e-16 7.844212e-11 7.1530764e-23 2.534123e-11 2.396089e-11
5.7359097e-11 2.1212839e-11 1.1494518e-11 9.243425e-12 1.6411165e-12 5.1120533e-17 5.0402285e-17 2.849549e-12
5.2252066e-17 1.3060922e-11 5.9517346e-17 8.675032e-12 1.2766887e-13 1.4399784e-16 1.1476574e-12 6.4664207e-12
6.782277e-11 2.9833507e-11 8.528189e-12 1.5551307e-12 2.1050793e-11 4.7357843e-11 1.7613648e-11 1.7484241e-12
2.2228558e-11 2.328428e-15 1.4091958e-11 6.759509e-12 2.0137829e-11 5.4690606e-24 1.32810455e-11 3.2642562e-11
1.6689263e-14 4.6846776e-11 1.0664265e-11 3.498259e-11 2.1208132e-11 5.8693246e-12 2.4614245e-11 3.0367788e-11
1.393064e-10 3.670097e-12 3.980699e-12 6.920511e-11 9.997717e-12 1.0767938e-16 3.680174e-11 5.1179616e-12
6.2754518e-21 1.817567e-18 2.3266458e-17 1.9873027e-18 2.22606e-21 2.2839844e-18 1.527415e-18 2.2204082e-19
1.02868935e-16 4.89319e-19 1.2412637e-16 1.0342159e-18 1.6073646e-18 1.4889902e-18 7.943589e-21 1.6988009e-13
5.609827e-18 9.047815e-19 8.297624e-17 3.396769e-20 3.0346268e-18 1.3749845e-19 4.5244062e-18 3.8069508e-20
9.852925e-18 2.59489e-17 3.638134e-17 7.855652e-17 2.2319901e-18 2.3582313e-18 1.8792584e-18 5.4205003e-20
2.2887395e-18 1.9193839e-18 7.490177e-19 1.8482172e-19 1.7164003e-18 3.0273173e-17 1.6324374e-18 4.040997e-18
1.699857e-18 1.1337182e-18 2.7581777e-18 8.6223305e-18 2.4242538e-18 2.0994456e-17 6.4606292e-18 8.583268e-19
7.788755e-18 1.4090185e-18 6.2573144e-21 1.7093921e-18 1.7027535e-18 1.4412281e-18 1.6533948e-18 1.4844332e-14
1.8690373e-18 1.9761073e-20 1.4336438e-19 2.9649585e-20 2.3668497e-18 1.0720264e-18 7.2028515e-19 1.26047155e-20
4.170256e-08 6.560835e-08 3.6408796e-08 3.4036276e-08 3.5774338e-08 8.990708e-08 2.390516e-09 1.8664166e-09
3.5492064e-08 8.738409e-09 6.2066874e-08 2.4512692e-10 7.889462e-08 1.3347652e-10 3.289892e-08 4.3258833e-08
1.1168251e-07 1.661417e-07 1.7131237e-07 7.51673e-09 2.5399018e-08 5.2928475e-19 3.469542e-19 2.7337618e-08
1.0181468e-18 4.579311e-09 9.5194035e-15 1.15439484e-07 5.9633405e-09 1.11462844e-14 1.0782031e-09 8.423895e-08
1.6916172e-08 7.5678436e-08 1.7964739e-07 7.683822e-08 6.9530415e-08 7.490137e-08 1.0643884e-07 1.919828e-07
6.792896e-07 1.5981375e-09 6.927656e-08 3.111364e-09 1.1008337e-07 5.8614814e-19 5.040076e-08 2.3596755e-07
2.9815762e-08 8.6246054e-08 3.627686e-07 1.2442499e-06 1.4139327e-07 2.2411404e-08 7.335623e-07 3.2274135e-11
1.486427e-07 2.6243049e-08 3.3656022e-08 4.7407053e-08 4.1904903e-07 4.4629526e-15 3.392439e-08 2.7549504e-08
9.770023e-07 7.963232e-07 6.7843956e-07 1.0295413e-06 6.288328e-08 1.2392472e-06 4.6072105e-06 2.1306158e-10
1.6299039e-07 1.482042e-08 1.6422524e-07 8.57398e-11 7.711008e-06 1.3223292e-10 1.7043394e-06 1.267462e-06
1.1916897e-05 3.1208495e-07 9.3532475e-07 2.4709254e-07 2.755682e-06 2.9300692e-19 1.3995135e-16 4.5558113e-06
6.405791e-17 4.9540586e-07 1.7523122e-15 8.992202e-07 5.958556e-10 3.3167815e-15 9.74233e-07 6.1041953e-07
2.2512984e-06 2.7605902e-06 5.4911816e-08 1.1528602e-08 1.2357925e-06 2.562255e-06 2.415411e-07 3.1218285e-08
1.4417293e-07 1.5141595e-08 2.408417e-06 1.6151171e-06 2.5673517e-06 1.3181257e-19 6.229959e-07 8.8318717e-07
1.12356915e-08 4.251376e-06 8.024787e-07 2.776698e-07 1.7309015e-06 1.00185e-06 2.4079304e-06 7.9247375e-06
3.8741887e-06 4.5176165e-08 5.0073876e-08 1.02465965e-05 8.8143787e-07 2.4252125e-11 2.2927832e-06 1.4937419e-06

exp_avg f4 [64]
00000000: abff dbb7 29aa 1eb9 ec4d 8f37 48d4 a4b7
00000010: 86b8 cf37 5b04 48b7 06df 5ab8 9337 b3b5
00000020: 688b bdb8 40bf cfb6 817a ebb8 38e4 10b7
00000030: cbb9 d8b7 8dd5 be36 78b5 7038 c7e5 25b8
00000040: 4988 38b9 5ff0 a0b8 6075 e137 7c20 a3b8
00000050: 4ea7 4fb8 0400 0000 b977 f6a1 43da 26b8
00000060: 0400 0000 4f1a d1b7 7d1b 0ab1 da15 2bb6
00000070: ed00 09b7 c228 a8ae 7ff0 8a38 a0d4 19b9
00000080: 21ba 5e38 c320 bfb7 47a4 4c38 428e f1b7
00000090: ef33 66b8 6e47 91b8 8dfd 64b8 7fba cfb6
000000a0: 8a16 2e38 1f14 52b8 2f06 c6b8 cbc6 91b7
000000b0: f227 9238 0400 0000 c207 b3b8 a2db 98b7
000000c0: 4cc6 1bb7 392c 9a38 a128 a8b6 a188 7938
000000d0: 7b08 4937 a91b e8b8 7ce8 0238 def6 15b8
000000e0: b609 8b38 2b06 53b8 2428 93b7 42b5 10b9
000000f0: 1a13 57b9 7ffa b435 374b 59b8 9982 76b7
-2.6225889e-05 -0.00015131444 1.7083214e-05 -1.9649175e-05 2.4762248e-05 -1.1921943e-05 -5.2182957e-05 -1.3352713e-06
-9.038189e-05 -6.191345e-06 -0.00011228491 -8.636205e-06 -2.5835723e-05 5.687302e-06 5.7389465e-05 -3.9553062e-05
-0.00017598378 -7.674167e-05 2.6876747e-05 -7.7784964e-05 -4.950846e-05 6e-45 -1.6701299e-18 -3.9780756e-05
6e-45 -2.4926992e-05 -2.0097268e-09 -2.5493705e-06 -8.166052e-06 -7.6469955e-11 6.625149e-05 -0.00014670426
5.310227e-05 -2.278423e-05 4.8790385e-05 -2.8795683e-05 -5.488464e-05 -6.9274436e-05 -5.4595574e-05 -6.1907917e-06
4.1505824e-05 -5.008664e-05 -9.4425275e-05 -1.7377917e-05 6.969263e-05 6e-45 -8.53683e-05 -1.8222087e-05
-9.2848895e-06 7.351529e-05 -5.01152e-06 5.949347e-05 1.1982508e-05 -0.00011067774 3.1210933e-05 -3.575428e-05
6.629845e-05 -5.0312065e-05 -1.7542457e-05 -0.00013800434 -0.00020511114 1.3483949e-06 -5.180688e-05 -1.469315e-05

exp_avg_sq f4 [64]
00000000: fed3 6136 21b6 e437 586e a836 b025 3438
00000010: ad66 0737 635c 7438 f2ec 8338 d3ef 1934
00000020: 05b6 1538 fe72 3537 c4dd e137 a050 8e33
00000030: 8759 bb38 dbec 1c34 ebd3 8838 f15e 7138
00000040: 587c e938 edd5 f937 8922 2539 fb55 b836
00000050: 490f 2139 f53c 9a22 ab61 6e27 a1e5 9e37
00000060: db21 1a21 ce1f 9d38 aec5 662b fa0d 6038
00000070: 1075 3835 ecc6 6d2c 8cfd 4c38 74ac d238
00000080: 4c73 9437 1f78 3239 e665 0937 3a44 8235
00000090: b829 c938 5741 b338 7ce2 1738 2358 2634
000000a0: c026 3436 e8ef 1837 98d8 1c39 86fa 2738
000000b0: 49b8 0939 8537 7a26 8c79 e536 b53c 0c39
000000c0: 7586 0534 63dd 8738 eb67 1438 b168 8936
000000d0: 6c2d 3039 d41f b037 c284 4838 c78b e439
000000e0: 11cc 7c39 41e3 0737 f4b0 0c36 8877 8e39
000000f0: 70e7 8838 d2ff 3231 21c2 c937 9d68 2c38
3.3651008e-06 2.7264528e-05 5.019636e-06 4.2950443e-05 8.070533e-06 5.8260175e-05 6.290701e-05 1.4336483e-07
3.5693887e-05 1.0815214e-05 2.6925358e-05 6.627056e-08 8.9335306e-05 1.46148e-07 6.524458e-05 5.75473e-05
0.000111334666 2.978273e-05 0.00015748492 5.4936368e-06 0.0001535985 4.1806324e-18 3.308208e-15 1.8941997e-05
5.2222037e-19 7.4922675e-05 8.198675e-13 5.341878e-05 6.871569e-07 3.379015e-12 4.8873524e-05 0.00010045702
1.7696664e-05 0.00017020151 8.189561e-06 9.705611e-07 9.5921976e-05 8.5475556e-05 3.6212135e-05 1.5492019e-07
2.6844646e-06 9.1157635e-06 0.00014958007 4.004922e-05 0.0001313399 8.6811417e-16 6.8388817e-06 0.00013374056
1.2435505e-07 6.478538e-05 3.538273e-05 4.095106e-06 0.00016801589 2.0995656e-05 4.7807356e-05 0.0004359169
0.00024108613 8.099539e-06 2.0964626e-06 0.00027173408 6.528094e-05 2.6047826e-09 2.4051466e-05 4.1105424e-05

exp_avg f4 [256]
00000000: 0400 0080 0000 0000 398d 62b9 c63a ad37
00000010: 65f1 dbb4 0400 0000 0400 0080 0400 0000
00000020: 2c5c 7f38 0400 0080 e9c4 2738 6e42 a438
00000030: 27d5 24b8 ee08 9fb8 b6e6 e0b7 5449 9038
00000040: e16e 9cb4 0400 0000 e60c 1138 7ee9 c138
00000050: cc93 5436 eef5 ebb7 0000 0000 0000 0000
00000060: dad7 8eb7 ea3f e1b6 055c 1cb8 d530 1837
00000070: bb62 8836 60cf b7b8 ffcb b737 54af a5b7
00000080: 0000 0000 94d5 8a38 0400 0080 a994 09b8
00000090: 4bbc ff36 ab9a c8b8 0f22 81b6 55e7 aa38
000000a0: 0000 0000 f000 7c38 22d7 0836 217d 3fb8
000000b0: b334 cc37 0000 0000 18ae c0b7 dbd8 a7b7
000000c0: ca0d 6b38 7741 3937 3c4e 6e38 c024 0737
000000d0: bd82 bf37 f1f8 6cb6 7cb3 d1b8 3e30 96b7
000000e0: 65db 04b7 0000 0000 c114 4137 df80 8038
000000f0: 6e99 8fb7 7362 ceb6 3d3b 4c38 dcf5 7237
00000100: e0ab a737 0000 0000 b7a8 1c37 0400 0080
00000110: d1fb 9a38 e991 fb38 0400 0000 e712 0039
00000120: c726 3d37 974f e034 ba7b 1538 8874 0ab2
00000130: ff06 93b9 2164 5038 a371 81b8 0000 0000
00000140: 7c81 8838 a0d9 2b39 7323 7337 0400 0080
00000150: 58d9 02b8 5149 07b7 4306 5ab7 9923 0e38
00000160: 0b59 2738 0400 0080 f111 df37 6ff4 41b7
00000170: 7970 30b8 0400 0080 523c 7db8 3280 71b8
00000180: 04aa cf37 0400 0000 1631 8038 9a78 0539
00000190: e88d 0e38 2132 3d37 13b1 4938 fb6d 9936
000001a0: 0000 0000 6969 9038 fcc3 93b7 fcef fcb6
000001b0: f1c7 0438 9772 bf36 7f3d 6a37 7c62 3638
000001c0: 0400 0000 74d6 e5b5 b927 5538 5a6f 41b7
000001d0: 9396 eb38 d66f 2f38 5cf0 7d38 0174 b695
000001e0: 2da0 bdb8 1850 fe38 b670 9cb9 0000 0000
000001f0: 7293 a536 0000 0000 b8da a7b5 30d7 3238
00000200: e901 0a38 0400 0000 0000 0000 0000 0000
00000210: c17b f936 b5e3 91b2 a9e9 7c35 769d 5637
00000220: 92ae 2e38 0400 0080 f57e a6b7 dafb 9537
00000230: 1695 f737 c5f0 1937 bd50 63b8 9f3e 2738
00000240: 0000 0000 84c4 4338 f56e 83b5 94ac ceb5
00000250: 578f 48b7 0400 0000 52c2 cbb7 b5f0 b3b7
00000260: 899f 5e38 0400 0080 b386 be38 0000 0000
00000270: 0400 0000 0400 0000 c823 93b6 0400 0080
00000280: 88e7 c6b8 eb98 2ab7 3345 9c38 16c3 e6b7
00000290: d4ba 4db7 3c40 6e37 6a4d 7138 1301 e536
000002a0: 187b 2038 29c4 79b8 0400 0080 27e9 1238
000002b0: 1e53 de37 7350 7a38 1063 5bb8 8ad4 1f37
000002c0: af81 6237 a10f 5cb8 0999 0138 0a93 b1b3
000002d0: a43e 2838 6d68 a737 e75b cc37 0000 0000
000002e0: e67f bf36 f818 ca37 aed4 e0b2 31f8 4438
000002f0: c241 6d37 9112 adb7 d712 15b7 0400 0080
00000300: 84d7 91b8 8a15 8238 7657 9b38 84e5 8437
00000310: 4e98 9438 2a43 0836 56a7 2eb7 221f 9ab7
00000320: c510 1fb8 f133 01b7 fac6 80b8 0435 7538
00000330: ae0d 9137 0000 0000 d2cd ae38 d440 6236
00000340: 0000 0000 0400 0000 22d0 d2b8 758e 7338
00000350: 4f29 8fb7 d806 9a38 5238 7738 6bea 3338
00000360: 57b7 0438 0400 0080 c9e0 8438 0000 0000
00000370: 5ce6 65b9 0400 0000 d90d 1638 39d7 e0b6
00000380: faa9 4f37 0400 0000 a718 c7b8 fc3d 6138
00000390: 4099 7035 1707 8738 cebd 5a38 9721 b0b8
000003a0: 0000 0000 e072 a337 0000 0000 869e d837
000003b0: 0400 0000 ffde 8838 0000 0000 6470 08b5
000003c0: bb09 7138 2350 ea37 38fe a7b8 0000 0000
000003d0: cffe ba32 f545 b137 0400 0000 e96f b7b7
000003e0: cbb0 ac37 f372 0cb6 7d4e df36 a93e 3938
000003f0: bf58 1b38 a8eb 0439 e5f0 12b6 1fb9 9d38
-6e-45 0.0 -0.00021605649 2.0650576e-05 -4.0967566e-07 6e-45 -6e-45 6e-45
6.088258e-05 -6e-45 3.999929e-05 7.832503e-05 -3.929916e-05 -7.583374e-05 -2.6810314e-05 6.8801135e-05
-2.913794e-07 6e-45 3.4582707e-05 9.2464485e-05 3.167649e-06 -2.8128703e-05 0.0 0.0
-1.7028233e-05 -6.712963e-06 -3.7279e-05 9.071276e-06 4.0646096e-06 -8.7647466e-05 2.1910293e-05 -1.9751176e-05
0.0 6.620135e-05 -6e-45 -3.2801796e-05 7.6215124e-06 -9.565552e-05 -3.8484645e-06 8.149321e-05
0.0 6.0082355e-05 2.0390803e-06 -4.5654484e-05 2.4343235e-05 0.0 -2.2969252e-05 -2.0008933e-05
5.6041208e-05 1.10421015e-05 5.6816483e-05 8.055184e-06 2.2829854e-05 -3.5311643e-06 -9.999328e-05 -1.7903858e-05
-7.918895e-06 0.0 1.1508529e-05 6.12752e-05 -1.7118375e-05 -6.1507394e-06 4.869256e-05 1.4481568e-05
1.9987987e-05 0.0 9.337607e-06 -6e-45 7.390197e-05 0.000119957906 6e-45 0.00012214073
1.1274306e-05 4.178116e-07 3.5639598e-05 -8.059153e-09 -0.00028043237 4.9684317e-05 -6.172366e-05 0.0
6.509104e-05 0.00016388902 1.4492182e-05 -6e-45 -3.1196832e-05 -8.063697e-06 -1.29952705e-05 3.388859e-05
3.989883e-05 -6e-45 2.6592026e-05 -1.1560608e-05 -4.206642e-05 -6e-45 -6.037608e-05 -5.757827e-05
2.4755493e-05 6e-45 6.1126586e-05 0.00012728796 3.39876e-05 1.1276949e-05 4.8087048e-05 4.5725587e-06
0.0 6.886089e-05 -1.7615028e-05 -7.538123e-06 3.1657462e-05 5.7055836e-06 1.3961805e-05 4.3483902e-05
6e-45 -1.7124244e-06 5.0820152e-05 -1.15296225e-05 0.0001123372 4.1827407e-05 6.0543753e-05 -7.3692236e-26
-9.042057e-05 0.000121265824 -0.00029838615 0.0 4.934548e-06 0.0 -1.2506125e-06 4.2638916e-05
3.2903543e-05 6e-45 0.0 0.0 7.435185e-06 -1.698377e-08 9.4217336e-07 1.2792056e-05
4.1647414e-05 -6e-45 -1.9847861e-05 1.7879462e-05 2.9514118e-05 9.175569e-06 -5.419621e-05 3.9874223e-05
0.0 4.6674642e-05 -9.792553e-07 -1.5398423e-06 -1.1954303e-05 6e-45 -2.4289973e-05 -2.145055e-05
5.3077503e-05 -6e-45 9.084996e-05 0.0 6e-45 6e-45 -4.385107e-06 -6e-45
-9.484502e-05 -1.0168394e-05 7.451549e-05 -2.750898e-05 -1.22624515e-05 1.4200861e-05 5.7530975e-05 6.824857e-06
3.8261613e-05 -5.9548915e-05 -6e-45 3.5026253e-05 2.6503167e-05 5.967957e-05 -5.2305928e-05 9.526624e-06
1.3500844e-05 -5.2466643e-05 3.089852e-05 -8.268951e-08 4.011266e-05 1.9956578e-05 2.436149e-05 0.0
5.707133e-06 2.4091903e-05 -2.6173748e-08 4.6961188e-05 1.4141611e-05 -2.0631853e-05 -8.885479e-06 -6e-45
-6.954282e-05 6.202895e-05 7.407267e-05 1.5842503e-05 7.085559e-05 2.0304674e-06 -1.0410169e-05 -1.8372728e-05
-3.7924172e-05 -7.701093e-06 -6.140578e-05 5.8461927e-05 1.7291717e-05 0.0 8.3353036e-05 3.371436e-06
0.0 6e-45 -0.00010052348 5.8068388e-05 -1.7066164e-05 7.344567e-05 5.894184e-05 4.2895244e-05
3.1642e-05 -6e-45 6.33612e-05 0.0 -0.00021924957 6e-45 3.5775684e-05 -6.7007754e-06
1.2377737e-05 6e-45 -9.493651e-05 5.3701908e-05 8.9629975e-07 6.438622e-05 5.215202e-05 -8.3985906e-05
0.0 1.9484607e-05 0.0 2.5823025e-05 6e-45 6.5265216e-05 0.0 -5.08275e-07
5.746794e-05 2.793229e-05 -8.0105325e-05 0.0 2.1769123e-08 2.113262e-05 6e-45 -2.1867412e-05
2.0586323e-05 -2.0928535e-06 6.655055e-06 4.4165794e-05 3.703753e-05 0.0001267629 -2.1895914e-06 7.520825e-05

exp_avg_sq f4 [256]
00000000: af08 0f30 0000 0000 6c2f 3e36 1121 7638
00000010: 74cc 3438 f2d1 8632 7a5e 3433 89f6 9a18
00000020: 6766 9438 4a40 a323 b43a 8e38 36e2 3a38
00000030: fccf 4139 2f28 3239 4669 7137 308e a638
00000040: 19af b533 d238 ca20 e9e2 4c39 ae2b 9839
00000050: 5e01 2239 9a64 1039 0000 0000 0000 0000
00000060: 6afa 2b39 7b25 003a ffdc c739 7fd2 c337
00000070: a05d cf39 2613 0239 790b 3c38 3460 0537
00000080: 0000 0000 1689 9538 25ae 7731 30aa b739
00000090: eb04 4138 542a 8b38 f612 1239 8f35 cd38
000000a0: 0000 0000 3b22 7c38 630c b037 99e9 ac38
000000b0: cd32 df37 0000 0000 c7f5 b838 82cf 9634
000000c0: 30ef a538 2bac d338 7dfd 2f38 ce2e 3f39
000000d0: 938c 7238 0073 1a36 7291 dd38 e1ef 8a34
000000e0: 5341 d336 0000 0000 9775 bd38 ac60 6238
000000f0: c483 8538 3fa4 8638 5c17 d037 1760 0538
00000100: df5a 5c38 0000 0000 e115 4738 aab5 9a2d
00000110: 3505 5838 5c5d 2239 c8de 2529 f595 b638
00000120: ffd8 4e39 aedd c834 6e64 2038 2fa1 8638
00000130: 2f85 0a39 5425 bf38 9107 5f39 0000 0000
00000140: 315e 6938 4147 7e39 e701 ae38 1693 7520
00000150: 9f1b b238 56e3 8a38 f8d6 5639 ee0c 0039
00000160: d8e9 f137 6d01 2e31 f611 2d36 2a33 9d38
00000170: a4bd 6f37 620b c935 4654 d238 9adb 3338
00000180: 5cf1 cf37 152f 6623 242c 5237 0242 9039
00000190: 627a 3f39 ff5c 5d37 416b 9637 bc57 f038
000001a0: 0000 0000 8a5d ca39 d187 6a33 e54d 7d38
000001b0: 6c2f 5939 e90b a435 d980 113a d1da 5e38
000001c0: 6d43 922d be0e 9e35 b5dd f038 228f 5f32
000001d0: 1ee5 d039 b877 3038 6045 8137 7731 ca36
000001e0: 7564 2f39 bafa 5c39 4703 5b37 0000 0000
000001f0: 75ea 0b39 0000 0000 740f f837 539a fb37
00000200: 52e7 2038 2db5 1d33 0000 0000 0000 0000
00000210: 2be9 9938 ddd3 8537 93f3 4d38 a6b9 7739
00000220: d75a 0738 00c9 d62d 8e02 6b35 13f9 f938
00000230: b5fa a138 8239 f137 a8f4 f435 cb8d fd38
00000240: 0000 0000 f4b6 6439 cf52 9d38 fbb1 a838
00000250: aa40 9138 7a19 3534 9c6e 1639 2ff8 3238
00000260: eaf1 bf38 d10c 7e1d 5601 8238 0000 0000
00000270: 18c6 d72f 5a4e 782b a82d 0439 f1b9 911d
00000280: 8fd6 c438 d4dd 8838 e34e f937 84e0 9636
00000290: b7d6 3637 b3fb 4939 ca53 5638 b4d2 1f38
000002a0: f899 7a37 9641 a238 ffef 0f2c cac3 6d39
000002b0: f812 de38 b3f5 1939 22aa 9137 303a ea37
000002c0: 8799 1f35 617a 4c38 91fb 1636 8e03 6537
000002d0: 9922 6838 2249 f538 6a49 aa38 0000 0000
000002e0: 51ed 3138 752e e738 9c7b 3f36 0e6f ed38
000002f0: a3ff f939 4162 ba38 9963 bd38 af89 3631
00000300: 0cec 3f38 e793 5e38 2c70 a538 d99d 8a38
00000310: 74e7 3938 8e78 cd38 8dac ad39 0b0c 8e37
00000320: 00e3 9b36 f2bf fa38 e262 8637 038c 9e38
00000330: aa85 e638 0000 0000 107d 5838 f8a3 0038
00000340: 0000 0000 e943 3834 4b8b a338 9ce4 3238
00000350: 6233 6438 d2db ac38 9325 0b39 ae1a b037
00000360: 0d32 3838 bd61 962d 2ff9 c138 0000 0000
00000370: 31e8 3939 a227 9327 f65f 7738 cb8d 9438
00000380: c2d3 6238 a93d a620 1dc3 8439 79f7 c437
00000390: 0d24 d937 193c ba38 a3c3 0939 001f 3d38
000003a0: 0000 0000 f7d4 0b39 0000 0000 3802 3e39
000003b0: a880 b91d 0679 b938 0000 0000 1854 b438
000003c0: 3978 7638 88b8 5438 36d4 a337 0000 0000
000003d0: 1526 b935 b28f be38 b89a 6134 3920 ac35
000003e0: 03b7 8d38 a71b 0636 c6cb d938 c59b 1b38
000003f0: eb5c af37 ae8a 2837 1d63 142f 2590 2038
5.2035437e-10 0.0 2.833981e-06 5.8681766e-05 4.3105756e-05 1.5695125e-08 4.1995442e-08 4.0057004e-24
7.076264e-05 1.7699723e-17 6.782022e-05 4.455653e-05 0.00018483395 0.00016990372 1.438923e-05 7.941981e-05
8.4603194e-08 3.4257732e-19 0.00019539487 0.00029024243 0.00015450033 0.00013770387 0.0 0.0
0.00016401117 0.00048883975 0.00038120893 2.3343831e-05 0.00039551873 0.000124049 4.4833378e-05 7.949817e-06
0.0 7.130408e-05 3.604222e-09 0.0003503128 4.6019366e-05 6.635921e-05 0.00013930709 9.785138e-05
0.0 6.011336e-05 2.0986603e-05 8.24511e-05 2.6607328e-05 0.0 8.819583e-05 2.809066e-07
7.912365e-05 0.00010093333 4.195933e-05 0.00018232616 5.7828216e-05 2.3014727e-06 0.000105651925 2.5879038e-07
6.2958948e-06 0.0 9.034125e-05 5.397263e-05 6.3664775e-05 6.420211e-05 2.480641e-05 3.179916e-05
5.2536718e-05 0.0 4.7465674e-05 1.7588448e-11 5.1503263e-05 0.00015484303 3.6830592e-14 8.706368e-05
0.00019726528 3.7414196e-07 3.8240505e-05 6.419641e-05 0.0001321032 9.1145426e-05 0.00021269756 0.0
5.563925e-05 0.00024249872 8.297321e-05 2.0800974e-19 8.492846e-05 6.6226974e-05 0.00020488712 0.00012211848
2.883833e-05 2.5321143e-09 2.5789464e-06 7.4958734e-05 1.4289664e-05 1.497898e-06 0.000100292775 4.2881446e-05
2.4788715e-05 1.2478295e-17 1.2527253e-05 0.00027515 0.0001826077 1.3194279e-05 1.7931337e-05 0.000114604336
0.0 0.00038598134 5.4605895e-08 6.0392445e-05 0.00020712399 1.2222418e-06 0.0005550511 5.3132713e-05
1.6628221e-11 1.1776208e-06 0.00011485388 1.3012853e-08 0.00039843557 4.2073167e-05 1.5410304e-05 6.0258276e-06
0.00016726724 0.00021074238 1.305418e-05 0.0 0.00013343415 0.0 2.95711e-05 2.9993394e-05
3.8362406e-05 3.671919e-08 0.0 0.0 7.3390394e-05 1.5953492e-05 4.9102655e-05 0.00023624915
3.227111e-05 2.4418245e-11 8.754804e-07 0.00011919639 7.723776e-05 2.8756218e-05 1.8250621e-06 0.00012090391
0.0 0.0002181193 7.501768e-05 8.044016e-05 6.9261834e-05 1.6866207e-07 0.0001434632 4.2669646e-05
9.15265e-05 3.3623246e-21 6.199132e-05 0.0 3.9249026e-10 8.8216034e-13 0.00012605509 3.857344e-21
9.385973e-05 6.526304e-05 2.9719848e-05 4.4964854e-06 1.08980375e-05 0.00019262619 5.109961e-05 3.8104787e-05
1.493701e-05 7.736978e-05 2.0454747e-12 0.00022675018 0.00010589318 0.00014682747 1.7364571e-05 2.792207e-05
5.945553e-07 4.8751364e-05 2.2498173e-06 1.3650291e-05 5.5345332e-05 0.000116961324 8.119906e-05 0.0
4.2421107e-05 0.00011023592 2.8533168e-06 0.00011321726 0.00047683445 8.887472e-05 9.030774e-05 2.656275e-09
4.5757784e-05 5.306667e-05 7.888707e-05 6.609754e-05 4.4322995e-05 9.797617e-05 0.00033125692 1.6933327e-05
4.6457862e-06 0.000119566816 1.602009e-05 7.560106e-05 0.000109921515 0.0 5.1614887e-05 3.0670286e-05
0.0 1.7161041e-07 7.798391e-05 4.2651416e-05 5.440729e-05 8.242544e-05 0.0001327007 2.0993259e-05
4.3915632e-05 1.709643e-11 9.249371e-05 0.0 0.00017729473 4.0843666e-15 5.897876e-05 7.083601e-05
5.4079814e-05 2.8162297e-19 0.00025322373 2.348026e-05 2.5885203e-05 8.880365e-05 0.00013138218 4.5089982e-05
0.0 0.00013335409 0.0 0.00018120639 4.910212e-21 8.84403e-05 0.0 8.5987325e-05
5.8762937e-05 5.0716597e-05 1.9529933e-05 0.0 1.3794657e-06 9.086671e-05 2.1011044e-07 1.2824377e-06
6.7574925e-05 1.9983652e-06 0.00010385322 3.709995e-05 2.0904894e-05 1.0045869e-05 1.3495734e-10 3.8281218e-05

exp_avg f4 [26, 256]
00000000: 0400 0000 0000 0000 0400 0080 0400 0000
00000010: 0400 0000 0400 0080 0400 0080 0000 0000
00000020: 0400 0000 0000 0000 0400 0000 0400 0000
00000030: 0400 0000 0400 0000 0000 0000 0400 0000
00000040: 0000 0000 0000 0000 0400 0000 0400 0000
00000050: 0400 0000 0400 0000 0000 0000 0000 0000
00000060: 0000 0000 0000 0000 0400 0000 0400 0000
00000070: 0400 0000 0400 0080 0400 0080 0400 0000
00000080: 0000 0000 0400 0000 0400 0000 0000 0000
00000090: 0400 0000 0000 0000 0000 0000 0400 0000
000000a0: 0000 0000 0400 0000 0400 0000 0400 0000
000000b0: 0400 0000 0000 0000 0400 0000 0400 0000
000000c0: 0400 0000 0400 0000 0400 0000 0400 0000
000000d0: 0400 0000 0000 0000 0400 0080 0000 0000
000000e0: 0000 0000 0000 0000 0400 0000 0400 0000
000000f0: 0400 0000 0400 0000 0400 0000 0400 0000
00000100: 0400 0000 0000 0000 0400 0000 0000 0000
00000110: 0400 0000 0400 0000 0000 0000 0400 0080
00000120: 0400 0000 0000 0000 0400 0000 0400 0000
00000130: 0000 0000 0400 0000 0400 0080 0000 0000
00000140: 0400 0000 0000 0000 0400 0000 0000 0000
00000150: 0400 0000 0400 0000 0400 0000 0400 0000
00000160: 0400 0000 0400 0000 0400 0000 0400 0000
00000170: 0400 0000 0000 0000 0400 0000 0400 0000
00000180: 0400 0000 0000 0000 0400 0000 0000 0000
00000190: 0400 0000 0400 0080 0400 0000 0400 0000
000001a0: 0000 0000 0400 0080 0000 0000 0400 0000
000001b0: 0400 0080 0400 0000 0000 0000 0400 0000
000001c0: 0400 0000 0400 0000 0400 0000 0000 0000
000001d0: 0400 0080 0400 0000 0400 0000 0400 0000
000001e0: 0000 0000 0000 0000 0400 0080 0000 0000
000001f0: 0400 0000 0000 0000 0400 0000 0400 0080
00000200: 0400 0000 0400 0000 0000 0000 0000 0000
00000210: 0400 0000 0400 0080 0400 0000 0400 0000
00000220: 0400 0000 0000 0000 0400 0080 0400 0000
00000230: 0400 0000 0400 0000 0000 0000 0400 0000
00000240: 0000 0000 0400 0000 0400 0000 0400 0000
00000250: 0400 0000 0400 0000 0400 0000 0400 0000
00000260: 0400 0000 0000 0000 0400 0000 0000 0000
00000270: 0000 0000 0000 0000 0400 0000 0000 0000
00000280: 0400 0080 0400 0000 0400 0000 0400 0000
00000290: 0400 0000 0400 0000 0400 0000 0400 0000
000002a0: 0400 0000 0400 0000 0000 0000 0400 0000
000002b0: 0400 0000 0000 0000 0400 0000 0400 0000
000002c0: 0400 0000 0400 0000 0000 0000 0400 0080
000002d0: 0400 0000 0400 0080 0400 0000 0000 0000
000002e0: 0400 0000 0400 0000 0400 0000 0400 0000
000002f0: 0400 0000 0400 0000 0400 0000 0000 0000
00000300: 0400 0000 0400 0000 0400 0000 0400 0000
00000310: 0400 0000 0400 0000 0400 0000 0400 0000
00000320: 0400 0000 0400 0000 0400 0000 0400 0000
00000330: 0400 0000 0000 0000 0400 0080 0400 0080
00000340: 0000 0000 0000 0000 0000 0000 0400 0000
00000350: 0400 0000 0400 0000 0400 0000 0400 0000
00000360: 0400 0000 0400 0000 0400 0000 0000 0000
00000370: 0400 0080 0000 0000 0400 0000 0400 0000
00000380: 0400 0000 0000 0000 0400 0080 0400 0000
00000390: 0000 0000 0400 0080 0400 0000 0400 0000
000003a0: 0000 0000 0400 0080 0000 0000 0400 0000
000003b0: 0000 0000 0400 0000 0000 0000 0400 0000
000003c0: 0400 0000 0400 0000 0400 0080 0000 0000
000003d0: 0400 0000 0400 0000 0000 0000 0400 0000
000003e0: 0400 0000 0400 0000 0400 0000 0400 0000
000003f0: 0400 0000 0400 0000 0000 0000 0000 0000
6e-45 0.0 -6e-45 6e-45 6e-45 -6e-45 -6e-45 0.0
6e-45 0.0 6e-45 6e-45 6e-45 6e-45 0.0 6e-45
0.0 0.0 6e-45 6e-45 6e-45 6e-45 0.0 0.0
0.0 0.0 6e-45 6e-45 6e-45 -6e-45 -6e-45 6e-45
0.0 6e-45 6e-45 0.0 6e-45 0.0 0.0 6e-45
0.0 6e-45 6e-45 6e-45 6e-45 0.0 6e-45 6e-45
6e-45 6e-45 6e-45 6e-45 6e-45 0.0 -6e-45 0.0
0.0 0.0 6e-45 6e-45 6e-45 6e-45 6e-45 6e-45
6e-45 0.0 6e-45 0.0 6e-45 6e-45 0.0 -6e-45
6e-45 0.0 6e-45 6e-45 0.0 6e-45 -6e-45 0.0
6e-45 0.0 6e-45 0.0 6e-45 6e-45 6e-45 6e-45
6e-45 6e-45 6e-45 6e-45 6e-45 0.0 6e-45 6e-45
6e-45 0.0 6e-45 0.0 6e-45 -6e-45 6e-45 6e-45
0.0 -6e-45 0.0 6e-45 -6e-45 6e-45 0.0 6e-45
6e-45 6e-45 6e-45 0.0 -6e-45 6e-45 6e-45 6e-45
0.0 0.0 -6e-45 0.0 6e-45 0.0 6e-45 -6e-45
6e-45 6e-45 0.0 0.0 6e-45 -6e-45 6e-45 6e-45
6e-45 0.0 -6e-45 6e-45 6e-45 6e-45 0.0 6e-45
0.0 6e-45 6e-45 6e-45 6e-45 6e-45 6e-45 6e-45
6e-45 0.0 6e-45 0.0 0.0 0.0 6e-45 0.0
-6e-45 6e-45 6e-45 6e-45 6e-45 6e-45 6e-45 6e-45
6e-45 6e-45 0.0 6e-45 6e-45 0.0 6e-45 6e-45
6e-45 6e-45 0.0 -6e-45 6e-45 -6e-45 6e-45 0.0
6e-45 6e-45 6e-45 6e-45 6e-45 6e-45 6e-45 0.0
6e-45 6e-45 6e-45 6e-45 6e-45 6e-45 6e-45 6e-45
6e-45 6e-45 6e-45 6e-45 6e-45 0.0 -6e-45 -6e-45
0.0 0.0 0.0 6e-45 6e-45 6e-45 6e-45 6e-45
6e-45 6e-45 6e-45 0.0 -6e-45 0.0 6e-45 6e-45
6e-45 0.0 -6e-45 6e-45 0.0 -6e-45 6e-45 6e-45
0.0 -6e-45 0.0 6e-45 0.0 6e-45 0.0 6e-45
6e-45 6e-45 -6e-45 0.0 6e-45 6e-45 0.0 6e-45
6e-45 6e-45 6e-45 6e-45 6e-45 6e-45 0.0 0.0

exp_avg_sq f4 [26, 256]
00000000: f977 c526 0000 0000 6d87 9c23 b0b9 c927
00000010: 7296 b32a c354 081c 0acd ba22 0000 0000
00000020: bf75 2429 0000 0000 ee26 452a 7aa6 262a
00000030: 3e59 2e29 b242 2e29 0000 0000 feb0 9829
00000040: 0000 0000 0000 0000 0256 c527 6e0f da26
00000050: e306 362a 64c2 7529 0000 0000 0000 0000
00000060: 0000 0000 0000 0000 306e 8c27 aa0a 9928
00000070: 67aa 2e1a 1482 a222 5d1d d81e 99f1 5c2b
00000080: 0000 0000 7d64 bf28 5c84 0a28 0000 0000
00000090: bacb 3a29 0000 0000 0000 0000 fe57 451d
000000a0: 0000 0000 3a41 652a 2555 231e 20a1 8e2a
000000b0: e621 dc25 0000 0000 ea86 422b 5faf c01e
000000c0: 2b3c 0f2a 1f65 5f2a bccc a727 eb3e d428
000000d0: 0cff 3429 0000 0000 1eca 8824 0000 0000
000000e0: 0000 0000 0000 0000 dc14 c02a 3a81 2829
000000f0: 6b78 0f2a bdf3 7d29 d18b 6327 77e0 5d28
00000100: 07a6 3c29 0000 0000 032f bd29 0000 0000
00000110: a0a6 a52a 8b25 212a 0000 0000 5e45 a522
00000120: 06a8 1429 0000 0000 0639 ca2a 06f9 c629
00000130: 0000 0000 2dcf 4c2b 0d90 3025 0000 0000
00000140: e978 6729 0000 0000 413a 1426 0000 0000
00000150: 52da 4e29 1385 772a 3b37 4d2b b728 f129
00000160: ad7d db2a 0127 ce27 f75e e729 30ba 232a
00000170: b053 c427 0000 0000 32df fb29 18ef de29
00000180: 2dbf 4c2a 0000 0000 d3c6 5c29 0000 0000
00000190: 1c93 0e2a 5995 6c23 6a4a 942a a4aa 8229
000001a0: 0000 0000 0b0d f922 0000 0000 fdf1 722b
000001b0: 155e 0125 8ef8 1c2a 0000 0000 9258 db2a
000001c0: 3e06 2028 425d 7c25 7d45 5b2a 0000 0000
000001d0: b9c3 9823 5a91 9529 d16b 8b27 dd6c de27
000001e0: 0000 0000 0000 0000 af5f 7622 0000 0000
000001f0: b2a5 132a 0000 0000 8a47 922a 157c 9c24
00000200: df56 be28 b30c 822a 0000 0000 0000 0000
00000210: 64d1 ad2a 7286 501f 857b 9b29 4705 4b1a
00000220: ac6e ce2a 0000 0000 5db1 1c1a aba3 012b
00000230: 7505 0f2b 1703 9524 0000 0000 e022 d829
00000240: 0000 0000 f0bf b125 ac91 822a 56ba b02a
00000250: cdb3 4c29 2ed4 cb29 bbd5 7128 a7f7 0729
00000260: 772b 802b 0000 0000 305e 5829 0000 0000
00000270: 0000 0000 0000 0000 a6c0 fa29 0000 0000
00000280: 0676 2e25 8830 b22a 4db0 042a 6f9e ad29
00000290: f281 102a 8223 fd26 6763 8c25 4abf cb29
000002a0: d363 e529 145b e926 0000 0000 4476 c527
000002b0: ff20 3d2a 0000 0000 a1b7 fc29 6730 922a
000002c0: 4c1b ca22 7192 1d2a 0000 0000 0928 a51f
000002d0: d00a 1328 b4ba ce1e 8727 972a 0000 0000
000002e0: 13d0 2e2a c5ea 172a dc77 5728 bd2a 2229
000002f0: 1d09 3929 6f5e b62a 019c 5e27 0000 0000
00000300: 0026 332b 72e2 402a 54ac 8b29 7a2b b727
00000310: 377f 4229 d5a9 1429 25de 292a 9fb0 302b
00000320: 1ad7 de26 b7cf 342a 14f9 0827 1ae3 b328
00000330: c093 762b 0000 0000 5e4b 6824 f535 e820
00000340: 0000 0000 0000 0000 0000 0000 1075 d629
00000350: 7c8f b028 b82b 0f2a 0764 8e2a b8d4 d329
00000360: 7d72 722a 6454 0728 ab71 732a 0000 0000
00000370: 7dab 0b25 0000 0000 180e 4529 b549 7c29
00000380: 9e7f 6927 0000 0000 5135 a320 03ee 3529
00000390: 0000 0000 7772 321f 5215 3a2a bf23 482b
000003a0: 0000 0000 0f2a 9725 0000 0000 ee25 2b29
000003b0: 0000 0000 7c48 ea2a 0000 0000 c9d9 8829
000003c0: 52ca 7a2a 0c8b 792a 5894 0b24 0000 0000
000003d0: 8938 0429 5d07 a82a 0000 0000 66fe 412b
000003e0: 2b25 db28 6f3b 4a1d ec5f 1a2a 966d 052a
000003f0: 99c4 9129 3eac e326 0000 0000 0000 0000
1.370214e-15 0.0 1.6970909e-17 5.599003e-15 3.190118e-13 4.5108177e-22 5.0632495e-18 0.0
3.6517444e-14 0.0 1.7510621e-13 1.480152e-13 3.8713167e-14 3.869361e-14 0.0 6.780859e-14
0.0 0.0 5.4771734e-15 1.5130971e-15 1.6167237e-13 5.4569535e-14 0.0 0.0
0.0 0.0 3.897727e-15 1.6991037e-14 3.6120007e-23 4.4047914e-18 2.2882034e-20 7.8494985e-13
0.0 2.124884e-14 7.68924e-15 0.0 4.1477e-14 0.0 0.0 2.6118224e-21
0.0 2.0361916e-13 8.646756e-21 2.533607e-13 3.8186887e-16 0.0 6.9109876e-13 2.0401323e-20
1.2721826e-13 1.9841462e-13 4.6573785e-15 2.3564014e-14 4.0189247e-14 0.0 5.9323e-17 0.0
0.0 0.0 3.4120525e-13 3.741558e-14 1.274273e-13 5.6388694e-14 3.1578373e-15 1.23166375e-14
4.188839e-14 0.0 8.401441e-14 0.0 2.9425507e-13 1.4312698e-13 0.0 4.4796785e-18
3.300834e-14 0.0 3.5921976e-13 8.836165e-14 0.0 7.2762873e-13 1.5314373e-16 0.0
5.1397177e-14 0.0 5.1426764e-16 0.0 4.593055e-14 2.1984176e-13 7.290728e-13 1.0709613e-13
3.898942e-13 5.7218774e-15 1.02749345e-13 1.4541905e-13 5.4491662e-15 0.0 1.11853574e-13 9.9002566e-14
1.8185167e-13 0.0 4.9022266e-14 0.0 1.2663172e-13 1.2825211e-17 2.6341716e-13 5.802761e-14
0.0 6.7505395e-18 0.0 8.6311497e-13 1.1220843e-16 1.3941818e-13 0.0 3.8963673e-13
8.883138e-15 2.1889113e-16 1.9475216e-13 0.0 1.6562765e-17 6.642144e-14 3.8697145e-15 6.1735408e-15
0.0 0.0 3.3389871e-18 0.0 1.311371e-13 0.0 2.598445e-13 6.786442e-17
2.1131912e-14 2.310145e-13 0.0 0.0 3.0876267e-13 4.4156924e-20 6.90481e-14 4.198368e-23
3.6669745e-13 0.0 3.2403317e-23 4.605714e-13 5.081138e-13 6.4623684e-17 0.0 9.598377e-14
0.0 3.0834667e-16 2.319372e-13 3.1393177e-13 4.5453052e-14 9.051818e-14 1.3424533e-14 3.0190826e-14
9.107011e-13 0.0 4.804333e-14 0.0 0.0 0.0 1.11356494e-13 0.0
1.5132082e-16 3.1652827e-13 1.1785122e-13 7.710227e-14 1.2834853e-13 1.7565026e-15 2.4353486e-16 9.048194e-14
1.01869596e-13 1.619231e-15 0.0 5.4806708e-15 1.679802e-13 0.0 1.12229026e-13 2.5968396e-13
5.478111e-18 1.3995208e-13 0.0 6.994645e-20 8.162484e-15 2.1888317e-20 2.6850416e-13 0.0
1.5526495e-13 1.3492946e-13 1.1960888e-14 3.6008296e-14 4.1086156e-14 3.239522e-13 3.0893259e-15 0.0
6.364631e-13 1.713159e-13 6.202734e-14 5.083984e-15 4.3186995e-14 3.3009907e-14 1.5087287e-13 6.277287e-13
1.5462648e-15 1.6059277e-13 1.9008817e-15 1.9971482e-14 8.76018e-13 0.0 5.037082e-17 3.9338035e-19
0.0 0.0 0.0 9.523816e-14 1.9602152e-14 1.271612e-13 2.5293675e-13 9.407183e-14
2.1533639e-13 7.512305e-15 2.1622172e-13 0.0 1.211443e-16 0.0 4.375501e-14 5.601917e-14
3.2404427e-15 0.0 2.7648556e-19 4.0396516e-14 0.0 3.778765e-20 1.6527516e-13 7.110388e-13
0.0 2.6222824e-16 0.0 3.8002526e-14 0.0 4.1617046e-13 0.0 6.077393e-14
2.2274654e-13 2.2163884e-13 3.0266472e-17 0.0 2.9358924e-14 2.9847904e-13 0.0 6.8920423e-13
2.4330003e-14 2.6765204e-21 1.3711227e-13 1.1850793e-13 6.473398e-14 1.5797976e-15 0.0 0.0

exp_avg f4 [26]
00000000: 0400 0000 0400 0000 0400 0000 5bdf 5ab9
00000010: 4c17 bbb6 7ecb 48b9 0400 0080 0400 0080
00000020: 0400 0000 0400 0080 0400 0000 0400 0080
00000030: 0400 0000 336c eb39 0400 0000 0400 0000
00000040: 468a d1b8 0400 0000 7aea 84b8 ce01 f6b7
00000050: ee54 84b1 3760 1038 93f1 1eb9 7a19 94b3
00000060: cc04 203a 0400 0000
6e-45 6e-45 6e-45 -0.00020873306 -5.5757464e-06 -0.00019149293 -6e-45 -6e-45
6e-45 -6e-45 6e-45 -6e-45 6e-45 0.00044903308 6e-45 6e-45
-9.991652e-05 6e-45 -6.337925e-05 -2.9326326e-05 -3.851361e-09 3.4421882e-05 -0.00015158048 -6.896421e-08
0.00061042304 6e-45
