saved_weights/linear/linear_filter_fc1_204_26_0.5/saved_weights_linear_0.0001.pth.tar (torch_old, 440024 bytes, 18 tensors)

exp_avg f4 [64, 204]
9.165819e-06 -2.1767943e-05 2.3829725e-05 6.5529393e-06 -2.3316788e-05 -5.3390454e-06 2.4795992e-05 6.5529393e-06
-7.382887e-06 -1.701258e-05 1.39458325e-05 6.5529393e-06 7.826827e-06 -1.4664547e-05 1.5995824e-05 6.5529393e-06
-2.3376471e-05 -2.1766948e-05 2.4665493e-05 6.5529393e-06 0.0 0.0 0.0 0.0
0.0 0.0 0.0 0.0 0.0 0.0 0.0 0.0
0.0 0.0 0.0 0.0 0.0 0.0 0.0 0.0
0.0 0.0 0.0 0.0 0.0 0.0 0.0 0.0
0.0 0.0 0.0 0.0 0.0 0.0 0.0 0.0
0.0 0.0 0.0 0.0 0.0 0.0 0.0 0.0
0.0 0.0 0.0 0.0 0.0 0.0 0.0 0.0
0.0 0.0 0.0 0.0 0.0 0.0 0.0 0.0
0.0 0.0 0.0 0.0 0.0 0.0 0.0 0.0
0.0 0.0 0.0 0.0 0.0 0.0 0.0 0.0
0.0 0.0 0.0 0.0 0.0 0.0 0.0 0.0
0.0 0.0 0.0 0.0 0.0 0.0 0.0 0.0
0.0 0.0 0.0 0.0 0.0 0.0 0.0 0.0
0.0 0.0 0.0 0.0 0.0 0.0 0.0 0.0
0.0 0.0 0.0 0.0 0.0 0.0 0.0 0.0
0.0 0.0 0.0 0.0 0.0 0.0 0.0 0.0
0.0 0.0 0.0 0.0 0.0 0.0 0.0 0.0
0.0 0.0 0.0 0.0 0.0 0.0 0.0 0.0
0.0 0.0 0.0 0.0 0.0 0.0 0.0 0.0
0.0 0.0 0.0 0.0 0.0 0.0 0.0 0.0
0.0 0.0 0.0 0.0 0.0 0.0 0.0 0.0
0.0 0.0 0.0 0.0 0.0 0.0 0.0 0.0
0.0 0.0 0.0 0.0 0.0 0.0 0.0 0.0
1.6868248e-06 -9.563303e-06 1.6021033e-05 -6.552939e-05 6.442282e-06 5.1221023e-06 4.2283857e-05 7.71126e-06
-2.1948958e-05 -4.396264e-06 2.2539138e-05 7.71126e-06 -5.7771854e-06 -3.468167e-06 3.018692e-05 7.71126e-06
-9.053512e-06 1.7831771e-05 1.7811442e-05 7.71126e-06 -2.231295e-05 2.975289e-06 3.7935573e-05 7.71126e-06
0.0 0.0 0.0 0.0 0.0 0.0 0.0 0.0
0.0 0.0 0.0 0.0 0.0 0.0 0.0 0.0
0.0 0.0 0.0 0.0 0.0 0.0 0.0 0.0
0.0 0.0 0.0 0.0 0.0 0.0 0.0 0.0
00000000: e5c6 1937 4d9a b6b7 f2e5 c737 52e1 db36
00000010: 6c98 c3b7 0d26 b3b6 fd00 d037 52e1 db36
00000020: 84ba f7b6 3db6 8eb7 e5f8 6937 52e1 db36
00000030: f74f 0337 c007 76b7 c52e 8637 52e1 db36
00000040: 9718 c4b7 2a98 b6b7 bee8 ce37 52e1 db36
00000050: 0000 0000 0000 0000 0000 0000 0000 0000
00000060: 0000 0000 0000 0000 0000 0000 0000 0000
00000070: 0000 0000 0000 0000 0000 0000 0000 0000
00000080: 0000 0000 0000 0000 0000 0000 0000 0000
00000090: 0000 0000 0000 0000 0000 0000 0000 0000
000000a0: 0000 0000 0000 0000 0000 0000 0000 0000
000000b0: 0000 0000 0000 0000 0000 0000 0000 0000
000000c0: 0000 0000 0000 0000 0000 0000 0000 0000
000000d0: 0000 0000 0000 0000 0000 0000 0000 0000
000000e0: 0000 0000 0000 0000 0000 0000 0000 0000
000000f0: 0000 0000 0000 0000 0000 0000 0000 0000
00000100: 0000 0000 0000 0000 0000 0000 0000 0000
00000110: 0000 0000 0000 0000 0000 0000 0000 0000
00000120: 0000 0000 0000 0000 0000 0000 0000 0000
00000130: 0000 0000 0000 0000 0000 0000 0000 0000
00000140: 0000 0000 0000 0000 0000 0000 0000 0000
00000150: 0000 0000 0000 0000 0000 0000 0000 0000
00000160: 0000 0000 0000 0000 0000 0000 0000 0000
00000170: 0000 0000 0000 0000 0000 0000 0000 0000
00000180: 0000 0000 0000 0000 0000 0000 0000 0000
00000190: 0000 0000 0000 0000 0000 0000 0000 0000
000001a0: 0000 0000 0000 0000 0000 0000 0000 0000
000001b0: 0000 0000 0000 0000 0000 0000 0000 0000
000001c0: 0000 0000 0000 0000 0000 0000 0000 0000
000001d0: 0000 0000 0000 0000 0000 0000 0000 0000
000001e0: 0000 0000 0000 0000 0000 0000 0000 0000
000001f0: 0000 0000 0000 0000 0000 0000 0000 0000
00000200: 0000 0000 0000 0000 0000 0000 0000 0000
00000210: 0000 0000 0000 0000 0000 0000 0000 0000
00000220: 0000 0000 0000 0000 0000 0000 0000 0000
00000230: 0000 0000 0000 0000 0000 0000 0000 0000
00000240: 0000 0000 0000 0000 0000 0000 0000 0000
00000250: 0000 0000 0000 0000 0000 0000 0000 0000
00000260: 0000 0000 0000 0000 0000 0000 0000 0000
00000270: 0000 0000 0000 0000 0000 0000 0000 0000
00000280: 0000 0000 0000 0000 0000 0000 0000 0000
00000290: 0000 0000 0000 0000 0000 0000 0000 0000
000002a0: 0000 0000 0000 0000 0000 0000 0000 0000
000002b0: 0000 0000 0000 0000 0000 0000 0000 0000
000002c0: 0000 0000 0000 0000 0000 0000 0000 0000
000002d0: 0000 0000 0000 0000 0000 0000 0000 0000
000002e0: 0000 0000 0000 0000 0000 0000 0000 0000
000002f0: 0000 0000 0000 0000 0000 0000 0000 0000
00000300: 0000 0000 0000 0000 0000 0000 0000 0000
00000310: 0000 0000 0000 0000 0000 0000 0000 0000
00000320: dc66 e235 1372 20b7 e864 8637 d36c 89b8
00000330: c82a d836 86de ab36 f259 3138 9c5f 0137
00000340: 071f b8b7 9f83 93b6 6e12 bd37 9c5f 0137
00000350: a5d9 c1b6 a8be 68b6 eb39 fd37 9c5f 0137
00000360: 8ae4 17b7 7095 9537 c869 9537 9c5f 0137
00000370: b22c bbb7 13ab 4736 031d 1f38 9c5f 0137
00000380: 0000 0000 0000 0000 0000 0000 0000 0000
00000390: 0000 0000 0000 0000 0000 0000 0000 0000
000003a0: 0000 0000 0000 0000 0000 0000 0000 0000
000003b0: 0000 0000 0000 0000 0000 0000 0000 0000
000003c0: 0000 0000 0000 0000 0000 0000 0000 0000
000003d0: 0000 0000 0000 0000 0000 0000 0000 0000
000003e0: 0000 0000 0000 0000 0000 0000 0000 0000
000003f0: 0000 0000 0000 0000 0000 0000 0000 0000

exp_avg_sq f4 [64, 204]
3.2549108e-06 3.9716992e-06 6.8500776e-06 1.9231894e-07 4.0935656e-06 1.6375087e-06 5.1807347e-06 1.9231894e-07
2.432064e-06 6.623514e-06 4.748896e-06 1.9231894e-07 4.6374403e-06 6.5851227e-06 2.2620745e-06 1.9231894e-07
4.3421473e-06 2.7565486e-06 9.789727e-07 1.9231894e-07 0.0 0.0 0.0 0.0
0.0 0.0 0.0 0.0 0.0 0.0 0.0 0.0
0.0 0.0 0.0 0.0 0.0 0.0 0.0 0.0
0.0 0.0 0.0 0.0 0.0 0.0 0.0 0.0
0.0 0.0 0.0 0.0 0.0 0.0 0.0 0.0
0.0 0.0 0.0 0.0 0.0 0.0 0.0 0.0
0.0 0.0 0.0 0.0 0.0 0.0 0.0 0.0
0.0 0.0 0.0 0.0 0.0 0.0 0.0 0.0
0.0 0.0 0.0 0.0 0.0 0.0 0.0 0.0
0.0 0.0 0.0 0.0 0.0 0.0 0.0 0.0
0.0 0.0 0.0 0.0 0.0 0.0 0.0 0.0
0.0 0.0 0.0 0.0 0.0 0.0 0.0 0.0
0.0 0.0 0.0 0.0 0.0 0.0 0.0 0.0
0.0 0.0 0.0 0.0 0.0 0.0 0.0 0.0
0.0 0.0 0.0 0.0 0.0 0.0 0.0 0.0
0.0 0.0 0.0 0.0 0.0 0.0 0.0 0.0
0.0 0.0 0.0 0.0 0.0 0.0 0.0 0.0
0.0 0.0 0.0 0.0 0.0 0.0 0.0 0.0
0.0 0.0 0.0 0.0 0.0 0.0 0.0 0.0
0.0 0.0 0.0 0.0 0.0 0.0 0.0 0.0
0.0 0.0 0.0 0.0 0.0 0.0 0.0 0.0
0.0 0.0 0.0 0.0 0.0 0.0 0.0 0.0
0.0 0.0 0.0 0.0 0.0 0.0 0.0 0.0
9.12379e-06 5.8301025e-06 6.282742e-06 1.923194e-05 1.8507882e-06 2.9263404e-06 6.6282837e-06 1.4940214e-07
3.4232269e-06 6.6010506e-07 4.7502867e-06 1.4940214e-07 1.2439358e-06 3.935591e-06 6.5917047e-06 1.4940214e-07
5.720242e-06 2.367794e-06 6.21663e-07 1.4940214e-07 3.3915578e-06 1.02992e-06 8.4471407e-07 1.4940214e-07
0.0 0.0 0.0 0.0 0.0 0.0 0.0 0.0
0.0 0.0 0.0 0.0 0.0 0.0 0.0 0.0
0.0 0.0 0.0 0.0 0.0 0.0 0.0 0.0
0.0 0.0 0.0 0.0 0.0 0.0 0.0 0.0
00000000: f16e 5a36 a344 8536 b8d9 e536 3a80 4e34
00000010: 765b 8936 5fc8 db35 2cd6 ad36 3a80 4e34
00000020: 8b36 2336 8d3f de36 b558 9f36 3a80 4e34
00000030: 4f9b 9b36 c6f5 dc36 25ce 1736 3a80 4e34
00000040: c3b2 9136 25fd 3836 3f65 8335 3a80 4e34
00000050: 0000 0000 0000 0000 0000 0000 0000 0000
00000060: 0000 0000 0000 0000 0000 0000 0000 0000
00000070: 0000 0000 0000 0000 0000 0000 0000 0000
00000080: 0000 0000 0000 0000 0000 0000 0000 0000
00000090: 0000 0000 0000 0000 0000 0000 0000 0000
000000a0: 0000 0000 0000 0000 0000 0000 0000 0000
000000b0: 0000 0000 0000 0000 0000 0000 0000 0000
000000c0: 0000 0000 0000 0000 0000 0000 0000 0000
000000d0: 0000 0000 0000 0000 0000 0000 0000 0000
000000e0: 0000 0000 0000 0000 0000 0000 0000 0000
000000f0: 0000 0000 0000 0000 0000 0000 0000 0000
00000100: 0000 0000 0000 0000 0000 0000 0000 0000
00000110: 0000 0000 0000 0000 0000 0000 0000 0000
00000120: 0000 0000 0000 0000 0000 0000 0000 0000
00000130: 0000 0000 0000 0000 0000 0000 0000 0000
00000140: 0000 0000 0000 0000 0000 0000 0000 0000
00000150: 0000 0000 0000 0000 0000 0000 0000 0000
00000160: 0000 0000 0000 0000 0000 0000 0000 0000
00000170: 0000 0000 0000 0000 0000 0000 0000 0000
00000180: 0000 0000 0000 0000 0000 0000 0000 0000
00000190: 0000 0000 0000 0000 0000 0000 0000 0000
000001a0: 0000 0000 0000 0000 0000 0000 0000 0000
000001b0: 0000 0000 0000 0000 0000 0000 0000 0000
000001c0: 0000 0000 0000 0000 0000 0000 0000 0000
000001d0: 0000 0000 0000 0000 0000 0000 0000 0000
000001e0: 0000 0000 0000 0000 0000 0000 0000 0000
000001f0: 0000 0000 0000 0000 0000 0000 0000 0000
00000200: 0000 0000 0000 0000 0000 0000 0000 0000
00000210: 0000 0000 0000 0000 0000 0000 0000 0000
00000220: 0000 0000 0000 0000 0000 0000 0000 0000
00000230: 0000 0000 0000 0000 0000 0000 0000 0000
00000240: 0000 0000 0000 0000 0000 0000 0000 0000
00000250: 0000 0000 0000 0000 0000 0000 0000 0000
00000260: 0000 0000 0000 0000 0000 0000 0000 0000
00000270: 0000 0000 0000 0000 0000 0000 0000 0000
00000280: 0000 0000 0000 0000 0000 0000 0000 0000
00000290: 0000 0000 0000 0000 0000 0000 0000 0000
000002a0: 0000 0000 0000 0000 0000 0000 0000 0000
000002b0: 0000 0000 0000 0000 0000 0000 0000 0000
000002c0: 0000 0000 0000 0000 0000 0000 0000 0000
000002d0: 0000 0000 0000 0000 0000 0000 0000 0000
000002e0: 0000 0000 0000 0000 0000 0000 0000 0000
000002f0: 0000 0000 0000 0000 0000 0000 0000 0000
00000300: 0000 0000 0000 0000 0000 0000 0000 0000
00000310: 0000 0000 0000 0000 0000 0000 0000 0000
00000320: 6112 1937 33a0 c336 58d0 d236 4754 a137
00000330: 9968 f835 2562 4436 8668 de36 596b 2034
00000340: 97ba 6536 1332 3135 a764 9f36 596b 2034
00000350: 4ff5 a635 780e 8436 502e dd36 596b 2034
00000360: 81f0 bf36 64e6 1e36 5be0 2635 596b 2034
00000370: 859a 6336 c83b 8a35 4fc0 6235 596b 2034
00000380: 0000 0000 0000 0000 0000 0000 0000 0000
00000390: 0000 0000 0000 0000 0000 0000 0000 0000
000003a0: 0000 0000 0000 0000 0000 0000 0000 0000
000003b0: 0000 0000 0000 0000 0000 0000 0000 0000
000003c0: 0000 0000 0000 0000 0000 0000 0000 0000
000003d0: 0000 0000 0000 0000 0000 0000 0000 0000
000003e0: 0000 0000 0000 0000 0000 0000 0000 0000
000003f0: 0000 0000 0000 0000 0000 0000 0000 0000

exp_avg f4 [256, 64]
1.7870021e-05 6.318307e-06 -1.845369e-05 1.8610108e-05 1.3943908e-05 -3.512071e-06 2.026203e-05 -4.669581e-08
-1.1720748e-05 1.7378894e-05 -1.7745459e-05 -2.4678383e-07 -5.475837e-06 -6e-45 -1.268312e-05 -1.38243595e-05
-1.54792e-05 -1.6405887e-05 -6.769774e-06 1.3431437e-05 1.5604379e-06 6.1467285e-12 6.1467285e-12 3.7694497e-06
-6.1467285e-12 -2.4506282e-05 -1.2877583e-09 1.289395e-06 -2.2271493e-06 5.5007714e-08 -3.7730217e-06 8.726362e-06
1.6012278e-05 -6.610243e-07 1.270741e-05 -1.0940196e-05 2.0926112e-05 -1.2472167e-05 -2.0726438e-05 -2.2405218e-06
8.546547e-06 3.0845007e-07 2.4124136e-06 -3.5085745e-06 -1.3186424e-06 -6e-45 6.238099e-06 1.5630616e-05
-1.4913123e-06 2.2080734e-05 3.127895e-06 -7.0727365e-06 4.787169e-06 -6.3345346e-06 -1.5513448e-05 -1.31986035e-05
1.873751e-05 -8.123775e-06 1.28930915e-05 1.8356766e-05 1.6633096e-05 1.1796449e-08 -7.0668384e-06 -6.3191874e-06
-2.407422e-39 5.2510293e-16 4.8742943e-09 -1.5323993e-15 6e-45 -6.080405e-15 3.8414503e-17 -1.9852318e-27
-4.8726827e-07 -3.2526067e-23 -7.053721e-07 5.1070296e-19 8.456007e-17 1.9007358e-17 6e-45 -2.7880134e-05
-1.0421853e-11 -8.881788e-20 2.9856344e-07 -3.85186e-37 3.09892e-14 5.686869e-29 -1.6417972e-12 -3.081488e-36
-2.0898464e-10 8.4333625e-09 3.148511e-08 2.619191e-07 4.940168e-15 -7.997176e-15 8.044745e-16 -1.1e-44
-6.1929323e-15 1.03359e-15 -2.7755569e-21 -4.9630796e-28 -2.3034447e-16 1.6239307e-08 1.06741616e-16 4.5595423e-13
-1.9973802e-16 2.0428119e-18 2.3198042e-14 -1.2573223e-10 -9.993098e-15 -2.62818e-09 -2.7376842e-11 -1.1657347e-19
-7.841683e-11 -1.9184654e-17 -7.222228e-39 -2.1637563e-16 2.0429348e-16 1.8829619e-17 -1.265771e-16 7.722773e-07
-7.5191644e-16 9.629657e-39 -2.067951e-29 5.77779e-38 8.243772e-15 1.0658142e-18 1.2490008e-20 -1.4444463e-38
-2.5878539e-05 -1.5490798e-05 -9.465514e-06 -1.804746e-05 -1.6214803e-05 -2.0322113e-05 -8.111283e-06 -1.6103949e-06
-7.435462e-06 -5.5660907e-06 -9.2731325e-06 2.396547e-06 -2.352688e-05 -6e-45 -1.4025728e-05 -2.4687344e-05
-2.1049407e-05 -2.309857e-05 -2.645094e-05 -1.0562995e-05 4.763561e-06 6e-45 -6e-45 3.7400139e-06
6e-45 -6.167046e-06 -6e-45 -2.463897e-05 1.1967853e-07 7.279537e-12 -1.2764635e-06 -1.3530242e-05
-2.3259307e-05 -3.6021975e-05 -8.655226e-06 -6.024245e-06 -1.301729e-05 -2.8399998e-05 -1.6373348e-05 -3.7943845e-08
-1.2648179e-05 -7.414701e-08 -3.6161564e-06 -1.078747e-05 -3.04871e-05 6e-45 -2.0416152e-05 -3.0077084e-05
-3.1622018e-09 -2.215919e-05 5.4697566e-06 7.939908e-06 -2.7940861e-05 -2.2914794e-05 4.721461e-06 1.0446745e-06
-3.2449625e-05 -1.0767629e-05 -1.0658193e-05 -2.8957745e-06 -2.4836992e-05 -4.850951e-15 -1.948355e-05 -1.94424e-05
1.1939519e-05 -2.661016e-05 -1.6604472e-05 9.2918535e-06 8.326175e-06 -1.8277777e-05 -4.449926e-06 1.0237497e-07
-5.448076e-06 9.637632e-06 -2.270984e-05 -8.49378e-07 1.0121946e-05 -1.5023368e-11 -3.9910756e-06 1.3963755e-05
-7.0633433e-07 -1.1874275e-05 7.8266385e-06 -1.4323352e-05 1.1040816e-05 1.9259295e-38 3e-45 -8.872029e-06
1.5036947e-11 -6.086499e-06 2.3283065e-13 -7.54524e-06 -9.972624e-07 -2.4273092e-10 -3.7195247e-07 1.1108444e-05
-1.1789239e-05 -7.4634263e-06 -4.4032995e-06 -7.25051e-06 -1.8982224e-05 -5.4723128e-06 -7.6396344e-07 -5.546398e-06
1.4885837e-05 -2.1859785e-06 1.6427812e-05 -1.731625e-05 -2.3924153e-05 5.8207647e-15 5.724535e-06 6.098162e-06
-4.9853695e-09 5.012133e-06 -9.8162045e-06 -1.4380038e-07 -4.703739e-06 -2.1215878e-06 -8.343509e-06 -2.169676e-06
-1.3144174e-05 -1.879538e-05 -1.7266308e-05 -2.0433372e-05 8.1900225e-06 -5.306691e-07 2.4722354e-07 1.8382027e-05
00000000: 94e7 9537 d801 d436 ffcc 9ab7 e71c 9c37
00000010: a1f0 6937 ecb0 6bb6 61f8 a937 968e 48b3
00000020: 3ba4 44b7 e4c8 9137 15dc 94b7 b67d 84b4
00000030: 15bd b7b6 0400 0080 96c9 54b7 2cef 67b7
00000040: 54d9 81b7 609f 89b7 ea27 e3b6 9557 6137
00000050: 3d70 d135 cf44 d82c cf44 d82c a7f6 7c36
00000060: cf44 d8ac d792 cdb7 f8fc b0b0 460f ad35
00000070: 2276 15b6 9f41 6c33 0534 7db6 7067 1237
00000080: 1b52 8637 3e71 31b5 e931 5537 c98b 37b7
00000090: 7c8a af37 8d3f 51b7 b0dd adb7 df5b 16b6
000000a0: 2463 0f37 0e99 a534 f3e4 2136 da74 6bb6
000000b0: 35fc b0b5 0400 0080 dd50 d136 7e1e 8337
000000c0: 1a29 c8b5 043a b937 d4e8 5136 5852 edb6
000000d0: 78a1 a036 3d8d d4b6 e022 82b7 926f 5db7
000000e0: 7f2e 9d37 594b 08b7 684f 5837 dbfc 9937
000000f0: 4d87 8b37 55a9 4a32 ae1f edb6 6809 d4b6
00000100: ea36 1a80 c259 1726 bf7a a731 8ed7 dca6
00000110: 0400 0000 d611 dba7 d727 3124 4949 1d93
00000120: d2cc 02b5 5249 1d9a cd58 3db5 a0bb 1621
00000130: 74fb c224 db4f af23 0400 0000 22e0 e9b7
00000140: da57 37ad 1db7 d19f 3f4a a034 6f12 0383
00000150: 1d90 0b29 e42d 9010 fa0f e7ab 6f12 8384
00000160: f2c7 65af 52e2 1032 3f3a 0733 e39d 8c34
00000170: 02fd b127 7710 10a8 bedf 6726 0800 0080
00000180: b81f dfa7 bef4 9426 14b7 519d 4949 1d92
00000190: d8c8 84a5 9d7e 8b32 2121 f624 f756 002b
000001a0: 4248 66a5 a0bb 1622 0bf3 d028 7a3e 0aaf
000001b0: 0805 34a8 6e9b 34b1 2bcf f0ad 2ba0 09a0
000001c0: c070 acae 7cf2 b0a3 a2a4 4e80 d076 79a5
000001d0: cb88 6b25 2eac ad23 f7ee 11a5 7e4e 4f35
000001e0: a4b9 58a6 91db 6800 14b7 d18f 5249 9d01
000001f0: b081 1428 5249 9d21 f9ed 6b1e 4949 9d80
00000200: bd15 d9b7 3cf2 81b7 13ce 1eb7 a064 97b7
00000210: 0605 88b7 6879 aab7 b215 08b7 bf24 d8b5
00000220: 227e f9b6 5bc4 bab6 cd93 1bb7 5dd4 2036
00000230: 975b c5b7 0400 0080 0b50 6bb7 ab17 cfb7
00000240: 4293 b0b7 cdc3 c1b7 f6e2 ddb7 b837 31b7
00000250: add6 9f36 0400 0000 0400 0080 f3fc 7a36
00000260: 0400 0000 86ee ceb6 0400 0080 c9af ceb7
00000270: fc80 0034 1f10 002d f452 abb5 f2ff 62b7
00000280: fb1c c3b7 4d16 17b8 ea35 11b7 df23 cab6
00000290: d664 5ab7 883c eeb7 7f59 89b7 b3f7 22b3
000002a0: 8433 54b7 c03a 9fb3 18ad 72b6 d5fb 34b7
000002b0: 8cbe ffb7 0400 0000 5a43 abb7 0c4e fcb7
000002c0: 0b4e 59b1 80e2 b9b7 da88 b736 a535 0537
000002d0: 8b62 eab7 2539 c0b7 0b6d 9e36 be36 8c35
000002e0: 851a 08b8 9da6 34b7 97d0 32b7 0755 42b6
000002f0: 0959 d0b7 20c6 aea7 9b70 a3b7 3c18 a3b7
00000300: d84f 4837 e238 dfb7 d549 8bb7 35e4 1b37
00000310: a6b0 0b37 3a53 99b7 9350 95b6 3cd9 db33
00000320: 9ece b6b6 50b1 2137 0381 beb7 d000 64b5
00000330: 6dd1 2937 9e25 84ad 14eb 85b6 df45 6a37
00000340: ed9a 3db5 9f37 47b7 284f 0337 544e 70b7
00000350: f23b 3937 14b7 d100 0200 0000 13d9 14b7
00000360: 3244 842d a13a ccb6 6f12 832a 1e2d fdb6
00000370: add9 85b5 5771 85af c2b0 c7b4 675e 3a37
00000380: 65ca 45b7 586e fab6 0ec0 93b6 6849 f3b6
00000390: 043c 9fb7 cf9e b7b6 2b13 4db5 321b bab6
000003a0: 2fbe 7937 d3b2 12b6 75ce 8937 5d42 91b7
000003b0: bab0 c8b7 14b7 d127 6215 c036 d09e cc36
000003c0: c64b abb1 e52d a836 47b0 24b7 8c67 1ab4
000003d0: cfd4 9db6 9a60 0eb6 19fb 0bb7 c09a 11b6
000003e0: cc85 5cb7 c5aa 9db7 1dd7 90b7 5568 abb7
000003f0: e167 0937 4e73 0eb5 25ba 8434 1a33 9a37

exp_avg_sq f4 [256, 64]
9.8476896e-08 6.059644e-08 8.992405e-08 1.06999096e-07 1.1665342e-07 1.7020699e-07 3.2897458e-07 4.8128706e-12
1.2922574e-07 1.1771263e-08 5.285636e-08 2.0800979e-11 6.0396235e-07 4.2079277e-18 6.7829596e-08 1.1489528e-07
4.4304477e-07 1.7304168e-07 2.7691084e-07 2.7855856e-08 1.5280929e-08 1.1819377e-13 1.1840764e-13 3.9896214e-08
1.2124066e-13 3.1660747e-08 1.3768328e-13 1.4567905e-07 7.301093e-09 8.458351e-12 5.3284275e-08 5.6817235e-08
1.304384e-07 1.9514401e-07 2.0220585e-07 3.172875e-08 4.9103637e-08 2.7273455e-07 1.1300483e-07 9.821661e-08
1.0213462e-06 1.362184e-10 1.3962891e-07 7.373034e-08 2.7760717e-07 3.217266e-19 7.6083175e-08 5.265271e-07
9.578407e-10 1.4514526e-07 5.591268e-07 1.4597275e-06 2.5072748e-07 7.706451e-08 9.649966e-07 3.6102165e-07
3.3533377e-07 9.123075e-08 6.122414e-08 3.5236476e-07 3.8885466e-07 4.8262167e-12 2.2261487e-07 1.01272896e-07
3.6916393e-16 1.06921565e-13 1.311109e-12 1.1690651e-13 1.3095136e-16 1.3435937e-13 8.985265e-14 1.3061946e-14
5.6454164e-12 2.87851e-14 7.142278e-12 6.0839456e-14 9.4555975e-14 8.759251e-14 4.672941e-16 1.1363004e-09
3.300023e-13 5.3225473e-14 4.3372714e-12 1.9982043e-15 1.7851676e-13 8.0885844e-15 2.6615548e-13 2.2394967e-15
5.788692e-13 1.4445594e-12 1.9404602e-12 4.0724707e-12 1.3130088e-13 1.3872696e-13 1.10550566e-13 3.1886926e-15
1.3463902e-13 1.12910956e-13 4.4062142e-14 1.0872506e-14 1.0097011e-13 1.653462e-12 9.603055e-14 2.3771864e-13
9.999666e-14 6.669281e-14 1.6225472e-13 5.0694626e-13 1.4261052e-13 1.1950966e-12 3.800364e-13 5.0492478e-14
4.5806734e-13 8.288773e-14 3.6809778e-16 1.0055784e-13 1.0016757e-13 8.478309e-14 9.7263845e-14 6.0405896e-11
1.09949166e-13 1.1624763e-15 8.4336555e-15 1.7441904e-15 1.3923419e-13 6.3063954e-14 4.237196e-14 7.4149296e-16
9.902215e-06 9.040855e-06 5.0745666e-06 3.3826684e-06 9.4244115e-06 3.0534758e-07 1.0949965e-06 1.4071791e-11
4.634871e-06 4.202166e-06 9.984571e-06 6.189816e-08 1.0982757e-05 2.7657803e-14 2.0594953e-06 4.6771847e-06
4.2091193e-05 1.3072842e-05 9.602451e-06 3.7095929e-06 1.0486787e-05 3.1094064e-14 1.5548732e-16 7.798764e-06
5.9894194e-14 3.3252004e-08 8.9201644e-13 1.0536473e-05 2.6344585e-08 1.6449626e-10 1.6618914e-08 1.3915076e-05
2.3263474e-06 6.1765622e-06 4.843622e-06 4.011986e-07 2.3442557e-05 1.5495294e-05 1.3267585e-05 2.1386815e-07
2.5745517e-06 8.2229616e-07 7.965215e-06 1.2663344e-07 2.8705438e-06 3.448128e-14 5.4345824e-06 2.0604184e-05
4.4953204e-11 6.2003114e-06 3.894476e-05 8.848068e-05 5.8997093e-06 4.574476e-06 2.0063972e-06 4.072938e-09
4.9739433e-06 4.023843e-06 3.4221796e-06 1.7791265e-06 5.614068e-05 4.2220177e-13 7.684523e-06 8.9555715e-06
2.227578e-07 3.4107887e-07 4.1543697e-09 5.0521628e-08 9.044387e-08 5.9656746e-09 5.1842548e-08 1.2332724e-12
9.737502e-09 2.0950406e-08 1.1053327e-07 3.82786e-09 5.6799075e-07 1.5531898e-13 1.7993427e-08 1.7551088e-07
2.30357e-06 1.6527893e-07 1.4842033e-07 9.6845426e-08 1.8074733e-09 7.5552295e-17 3.364953e-20 1.515132e-09
1.5540309e-13 1.3959451e-09 3.73675e-14 1.4937075e-07 1.2827463e-10 5.2111245e-12 1.4490072e-10 2.1105802e-07
1.0026988e-07 2.1880034e-07 4.956729e-09 2.0634241e-08 1.876194e-07 5.4256446e-07 1.8389798e-07 1.7995867e-09
1.9412292e-08 3.7275353e-11 2.691273e-07 1.9309139e-09 4.1402448e-08 9.1632064e-17 1.3177448e-07 5.272239e-08
4.8373625e-14 1.2866002e-07 1.0942679e-08 2.7073822e-08 2.8058986e-08 1.8305379e-07 1.8804744e-08 1.9235133e-10
6.645644e-08 1.2594662e-08 1.29186235e-08 8.315755e-08 8.345966e-07 1.2722641e-11 3.9636947e-07 8.4964846e-08
00000000: 3f7a d333 3f21 8233 451c c133 60c7 e533
00000010: e582 fa33 24c2 3634 ec9d b034 7c56 a92c
00000020: 4dc1 0a34 903a 4a32 2f04 6333 a4f7 b62d
00000030: fa1f 2235 c13e 9b22 b7a9 9133 59bc f633
00000040: 9cdb ed34 56cd 3934 56aa 9434 ad47 ef32
00000050: 1e43 8332 0913 052a ae50 052a 5a5a 2b33
00000060: 3e81 082a 5cfb 0733 8104 1b2a f46b 1c34
00000070: 18dd fa31 07cd 142d aeda 6433 3607 7433
00000080: a20e 0c34 c788 5134 ec1d 5934 2146 0833
00000090: 05e6 5233 5a6c 9234 10ad f233 27eb d233
000000a0: 3015 8935 12c6 152f e7ec 1534 af55 9e33
000000b0: 0a0a 9534 f3e9 bd20 2b63 a333 ab56 0d35
000000c0: 06a5 8330 3ad9 1b34 e716 1635 dbeb c335
000000d0: b99b 8634 aa7e a533 0885 8135 70d2 c134
000000e0: ec07 b434 a3ea c333 547a 8333 a52c bd34
000000f0: c7c3 d034 b2ce a92c e907 6f34 5d7b d933
00000100: fbce d425 16c4 f029 ae85 b82b 02a0 032a
00000110: 05fa 1625 7446 172a 8754 ca29 984d 6b28
00000120: 64a1 c62c f6a2 0129 ec4b fb2c 8fff 8829
00000130: cfeb d429 a53d c529 38b0 0626 042c 9c30
00000140: 58c6 b92a cbb4 6f29 ab9a 982c 5dfc 0f27
00000150: f4fd 482a 03b6 1128 0cd5 952a 6c5f 2127
00000160: ecef 222b bd4d cb2b 398c 082c 8e49 8f2c
00000170: e7d4 132a 5331 1c2a 10f0 f829 ffc4 6527
00000180: 0e97 172a bc40 fe29 3170 4629 95dc 4328
00000190: 4e5d e329 3fb4 e82b d83d d829 ded2 852a
000001a0: 262c e129 ca2d 9629 bdae 362a 54b1 0e2b
000001b0: af90 202a e531 a82b 04f1 d52a dd65 6329
000001c0: 3bef 002b 86a5 ba29 a531 d425 a66f e229
000001d0: ac8e e129 20ea be29 ca04 db29 7fd5 842e
000001e0: 6195 f729 ce87 a726 5fed 1728 455d fb26
000001f0: 86c3 1c2a e501 8e29 8bd3 3e29 86b8 5526
00000200: b121 2637 2dae 1737 3246 aa36 cd01 6336
00000210: 8a1d 1e37 a7ee a334 cbf7 9235 b68d 772d
00000220: 3d85 9b36 5500 8d36 6883 2737 e0ec 8433
00000230: 9542 3837 8d1e f928 dc35 0a36 b6f0 9c36
00000240: 138b 3038 6e53 5b37 371a 2137 52f2 7836
00000250: 68f0 2f37 0409 0c29 c243 3325 70d7 0237
00000260: a7de 8629 f7d0 0e33 8f14 7b2b cfc5 3037
00000270: 5b4c e232 95dd 342f 61c1 8e32 cc74 6937
00000280: 581e 1c36 4440 cf36 6586 a236 5164 d734
00000290: 82a6 c437 e4fb 8137 d897 5e37 a1a3 6534
000002a0: 76c6 2c36 c3bb 5c35 57a2 0537 bcf8 0734
000002b0: 91a3 4036 364a 1b29 b55a b636 26d7 ac37
000002c0: cfb4 452e 450c d036 9e58 2338 b48e b938
000002d0: 1ef6 c536 737e 9936 a4a5 0636 f1f1 8b31
000002e0: d9e5 a636 8c04 8736 99a8 6536 52ca ee35
000002f0: 9978 6b38 b0ad ed2a c6ec 0037 e33f 1637
00000300: 332f 6f34 861d b734 39be 8e31 1efd 5833
00000310: 0b3a c233 a1fa cc31 7ca9 5e33 5291 ad2b
00000320: fd49 2732 6ef6 b332 4f5e ed33 3686 8331
00000330: 0778 1835 a6df 2e2a f78f 9a32 1074 3c34
00000340: 0897 1a36 8777 3134 785d 1f34 56f9 cf33
00000350: d06a f830 3436 ae24 c9e7 1e1f f83c d030
00000360: e4f7 2e2a 74db bf30 cb49 2829 b862 2034
00000370: 190a 0d2f a359 b72c ed51 1f2f 309f 6234
00000380: f353 d733 61ef 6a34 d94f aa31 2d3f b132
00000390: 6e74 4934 bfa4 1135 7e75 4534 5455 f730
000003a0: 15c0 a632 51f0 232e 937c 9034 ffb0 0431
000003b0: 79d2 3133 064a d324 e57d 0d34 e170 6233
000003c0: feda 5929 cc25 0a34 69fe 3b32 f78f e832
000003d0: 5d06 f132 718d 4434 1288 a132 167e 532f
000003e0: d0b6 8e33 e95f 5832 b5f0 5d32 5994 b233
000003f0: 0b09 6035 aed1 5f2d 9bcc d434 eb75 b633

exp_avg f4 [64]
-6.55294e-05 -7.71126e-05 -5.0627958e-05 -3.5269704e-06 -3.906031e-05 2.928405e-05 7.497627e-05 1.3970918e-05
-8.703699e-05 -5.1580573e-05 -6.978211e-05 -2.2613281e-07 2.4576982e-05 -6e-45 -9.7224656e-05 -9.7338874e-05
-4.9425762e-05 -9.5548145e-05 -0.00014851702 -6.391333e-05 -1.0421264e-05 6e-45 6e-45 3.4979337e-05
1.9151059e-10 7.476053e-05 8.083348e-15 -8.063027e-05 -8.661674e-08 -1.1457952e-09 -1.725735e-05 -8.688037e-05
-7.2772855e-05 -0.0001451546 1.2888913e-05 -1.5219903e-05 -4.2184998e-05 -0.00010762203 3.542552e-06 -5.355698e-06
-5.5940186e-06 2.6271532e-06 -1.1689311e-05 -5.29919e-06 3.5390647e-05 6e-45 9.42908e-07 -0.00011999845
3.4384702e-06 -9.204106e-05 -5.0494236e-05 2.5442972e-05 -0.00013984194 -0.00011576751 1.7981587e-05 0.000121247365
-0.00013594714 -6.2294275e-05 -5.1714735e-05 8.998635e-05 -0.0001020917 -5.9485778e-08 1.9493424e-05 -8.914503e-05
00000000: d46c 89b8 83b7 a1b8 5b59 54b8 e4b0 6cb6
00000010: b0d4 23b8 05a7 f537 943c 9d38 a364 6a37
00000020: a187 b6b8 3858 58b8 fc57 92b8 eace 72b4
00000030: ab2a ce37 0400 0080 17e5 cbb8 6922 ccb8
00000040: 824e 4fb8 0561 c8b8 3cbb 1bb9 3509 86b8
00000050: fdd6 2eb7 0400 0000 0400 0000 c7b6 1238
00000060: 7091 522f c1c8 9c38 dd9d 1128 0c18 a9b8
00000070: 0e02 bab3 167a 9db0 e0c3 90b7 8b33 b6b8
00000080: a19d 98b8 a434 18b9 763d 5837 fc58 7fb7
00000090: ccef 30b8 23b3 e1b8 94bc 6d36 18b5 b3b6
000000a0: 41b4 bbb6 264e 3036 351d 44b7 b2cf b1b6
000000b0: 6b70 1438 0400 0000 251c 7d35 ada7 fbb8
000000c0: 78c0 6636 2b06 c1b8 c6c9 53b8 5e6e d537
000000d0: 89a2 12b9 35c8 f2b8 2ad7 9637 2f46 fe38
000000e0: 088d 0eb9 fca3 82b8 46e8 58b8 0eb7 bc38
000000f0: 101a d6b8 4e7d 7fb3 cf85 a337 60f3 bab8

exp_avg_sq f4 [64]
1.9231938e-05 1.4940214e-05 5.8963968e-05 7.107961e-05 1.3965457e-05 2.2023649e-05 1.3669156e-05 1.7358265e-09
1.2048477e-05 2.3192233e-05 1.9933981e-05 4.7432723e-06 5.276461e-05 6.3688225e-18 0.00023604682 6.192134e-05
3.5065295e-05 2.9318668e-05 0.0004571878 9.163352e-05 1.7594317e-05 1.9503514e-15 1.0541804e-13 0.00029237627
3.0720516e-14 0.00013207398 1.7336318e-13 4.364464e-05 1.8493952e-06 1.4554143e-09 3.3701556e-06 7.342115e-05
0.00014342682 0.00045535166 2.5277075e-05 1.3379428e-05 3.8291597e-05 0.00020396161 6.283963e-05 1.8366026e-06
0.000299449 8.809727e-07 2.9422841e-05 6.794854e-06 7.130549e-05 5.725399e-16 1.7455355e-05 0.00021222461
7.434313e-08 0.00034312508 0.00037726664 8.343297e-05 0.00016701111 2.2227074e-05 6.494328e-05 1.9614798e-05
0.00019440851 0.00010183901 2.7153901e-05 0.00018979472 0.00014364466 2.7138394e-06 4.797244e-05 8.2679355e-05
00000000: 4654 a137 bba7 7a37 1450 7738 9310 9538
00000010: 2e4d 6a37 6dbf b837 9454 6537 f791 ee30
00000020: d123 4a37 f18c c237 e637 a737 6628 9f36
00000030: 924f 5d38 d4f7 ea22 5683 7739 c4db 8138
00000040: 1313 1338 5cf1 f537 b5b2 ef39 5f2b c038
00000050: 8297 9337 a289 0c27 5d61 ed29 144a 9939
00000060: 585a 0a29 577d 0a39 8930 432a 130f 3738
00000070: bc38 f835 d707 c830 d52a 6236 aef9 9938
00000080: d864 1639 44bc ee39 1b0a d437 3578 6037
00000090: 4a9b 2038 87de 5539 c5c8 8338 2f81 f635
000000a0: 5dff 9c39 fc7b 6c35 12d1 f637 5aff e336
000000b0: d889 9538 fd05 2526 176d 9237 9c88 5e39
000000c0: 91a6 9f33 78e5 b339 dfcb c539 bcf8 ae38
000000d0: b41f 2f39 4774 ba37 2832 8838 758a a437
000000e0: 23da 4b39 6792 d538 8fc8 e337 a203 4739
000000f0: 529f 1639 681f 3636 0436 4938 2464 ad38

exp_avg f4 [256]
-1.7362713e-06 0.0 -0.00013245254 -6.498045e-06 -1.1885964e-05 1.6742719e-05 1.2547303e-05 6e-45
-1.4316633e-05 -6e-45 -2.9280789e-05 -1.4068755e-06 -6.6868735e-05 3.8851966e-05 2.0216896e-06 -2.0575095e-05
-1.44615315e-05 6e-45 7.7581695e-05 -6.8681824e-05 -5.9065977e-05 -4.9462364e-05 0.0 0.0
-3.0619114e-05 -3.3874356e-05 2.6522167e-07 1.6179425e-05 -1.118165e-05 -0.00017646403 -3.650966e-05 -7.097176e-05
0.0 1.4824044e-06 -7.351393e-05 -0.00018181495 -6.9198424e-05 -3.761493e-05 -0.00012551977 -7.312147e-05
0.0 -4.9857397e-05 -6.211833e-06 -7.338494e-05 -0.00010767701 0.0 -0.000103124556 -4.6179207e-06
-5.191801e-05 -3.916359e-05 -4.845181e-05 -7.50898e-05 -2.6209482e-05 -2.9755343e-05 -3.549598e-05 -3.6617665e-05
4.7596855e-05 0.0 3.4022738e-05 -3.0533767e-05 -1.3789817e-05 7.5142566e-06 1.8300945e-05 -3.328739e-05
-2.8336053e-05 0.0 -7.516872e-05 1.5301532e-05 -2.1522039e-05 4.229082e-06 6e-45 7.2978464e-06
4.8703212e-05 1.22481815e-05 3.6177091e-06 -5.0244435e-05 2.1137173e-05 -3.3008462e-05 -7.292596e-05 0.0
-2.1578096e-05 1.42165e-05 -3.9346114e-06 -6e-45 -6.421587e-05 -2.0589643e-05 -2.8274953e-05 -0.00011126053
6.5012446e-06 -8.504637e-06 -3.150461e-05 -1.4158265e-05 -7.9911166e-05 4.8958545e-06 -4.0862924e-05 6.679026e-05
-1.0566996e-05 6e-45 -5.724875e-05 -1.8226337e-05 -2.2240709e-05 7.0721094e-06 4.3758637e-06 -1.9112736e-05
0.0 -6.031429e-05 1.34073425e-05 5.0423307e-05 -4.8677317e-05 -1.3659256e-05 1.3732604e-05 -3.9774466e-05
1.3626394e-05 4.2803895e-06 -6.0651902e-05 1.7778888e-06 2.678296e-05 -4.975871e-05 1.8818067e-05 -2.8510603e-05
4.6643352e-05 1.157654e-06 -6.896764e-05 0.0 -3.5091693e-05 0.0 -5.9102258e-05 1.1626087e-05
-6.926121e-05 -4.566053e-06 0.0 0.0 -3.036618e-05 1.7809134e-05 -5.9159753e-05 3.9585404e-05
-4.606503e-05 1.875326e-06 -5.6083412e-05 -4.878331e-05 -5.6613324e-05 -2.9204098e-06 4.947938e-06 -2.5839281e-05
0.0 -9.236559e-05 -4.8210866e-05 -4.4363973e-05 -4.2445514e-05 -2.1901482e-05 -8.5518426e-05 -4.7524918e-05
-5.396247e-05 -6e-45 1.6866898e-05 0.0 -1.7091108e-05 6e-45 -5.3359094e-05 -6e-45
2.386689e-05 1.1263602e-06 -2.4439774e-05 -3.039415e-05 -1.9275747e-05 -8.2916114e-05 6.655469e-06 -4.1529056e-06
-8.255255e-05 4.976051e-06 -6e-45 5.9205075e-05 -6.548318e-05 -3.811196e-08 -2.2297481e-05 -9.74507e-05
2.3725155e-05 -2.9601806e-05 -0.00011062932 -9.358828e-07 -4.7759304e-06 4.825574e-05 -2.3387533e-05 0.0
-3.3816632e-05 -7.375585e-05 -3.272003e-05 -2.5391711e-05 -0.00014008599 -7.862755e-05 -5.890144e-05 1.822931e-05
8.312454e-05 1.2126005e-05 -6.617488e-05 -4.4522358e-06 -2.0181249e-05 -2.7929582e-05 -0.0001322558 -2.4856803e-05
-8.274424e-05 -6.6332155e-05 -7.870001e-06 -6.5911016e-05 -4.9982194e-05 0.0 3.169251e-05 -9.826862e-06
0.0 3.495883e-05 5.2066476e-05 -6.025643e-05 -7.3017304e-06 -4.9382204e-05 2.0681207e-05 2.5342497e-05
-4.0917188e-05 -6e-45 -1.9210234e-05 0.0 -0.00010566563 1.920346e-09 -4.692274e-05 -4.5226512e-05
-6.3752355e-05 6e-45 3.7166443e-05 -5.565169e-06 -6.175082e-05 -4.282241e-05 -4.19748e-05 4.2414235e-06
0.0 8.6677595e-05 0.0 -7.173287e-05 6e-45 -5.6958248e-05 0.0 -2.005993e-05
7.5674296e-05 2.7877395e-06 -6.500325e-05 0.0 -7.958387e-06 -1.8520304e-05 -7.653698e-05 9.3274575e-06
-2.7531338e-05 -3.1132506e-05 -1.2487161e-05 -4.2414653e-05 3.0076437e-05 -3.5749134e-05 -2.6970448e-09 4.9759572e-05
00000000: d409 e9b5 0000 0000 f5e2 0ab9 c809 dab6
00000010: d469 47b7 b772 8c37 4282 5237 0400 0000
00000020: 7831 70b7 0400 0080 04a0 f5b7 e0d3 bcb5
00000030: e13b 8cb8 fbf4 2238 5dac 0736 ae98 acb7
00000040: ce9f 72b7 0400 0000 5bb3 a238 4609 90b8
00000050: 9cbd 77b8 cf75 4fb8 0000 0000 0000 0000
00000060: 066d 00b8 5014 0eb8 ca63 8e34 0db9 8737
00000070: d298 3bb7 3409 39b9 f321 19b8 acd6 94b8
00000080: 0000 0000 07f7 c635 7e2b 9ab8 94a5 3eb9
00000090: 9f1e 91b8 b9c4 1db8 f59d 03b9 ca58 99b8
000000a0: 0000 0000 f91d 51b8 3d6f d0b6 3de6 99b8
000000b0: a8d0 e1b8 0000 0000 9344 d8b8 a3f3 9ab6
000000c0: 8ac2 59b8 9643 24b8 bc38 4bb8 8879 9db8
000000d0: 6fdc dbb7 1d9b f9b7 85e1 14b8 eb95 19b8
000000e0: bca2 4738 0000 0000 a3b3 0e38 6211 00b8
000000f0: d05a 67b7 f922 fc36 fb84 9937 109e 0bb8
00000100: 36b3 edb7 0000 0000 e6a3 9db8 ca5b 8037
00000110: 3a8a b4b7 8ae7 8d36 0400 0000 06e0 f436
00000120: ad46 4c38 8a7d 4d37 c5c7 7236 8dbd 52b8
00000130: bc4f b137 9172 0ab8 d4ef 98b8 0000 0000
00000140: 9c02 b5b7 6783 6e37 0e06 84b6 0400 0080
00000150: a2ab 86b8 ecb7 acb7 0030 edb7 8b54 e9b8
00000160: 4425 da36 23af 0eb7 d123 04b8 4989 6db7
00000170: fb95 a7b8 1247 a436 3b64 2bb8 bf11 8c38
00000180: e748 31b7 0400 0000 611e 70b8 c3e4 98b7
00000190: 8f91 bab7 f54c ed36 62d4 9236 4a54 a0b7
000001a0: 0000 0000 faf9 7cb8 19f0 6037 9d7d 5338
000001b0: df2a 4cb8 0f2a 65b7 1665 6637 82d3 26b8
000001c0: eb9c 6437 44a0 8f36 7c64 7eb8 cb9f ee35
000001d0: f8ab e037 02b4 50b8 7edb 9d37 0e2a efb7
000001e0: eba2 4338 b060 9b35 b8a2 90b8 0000 0000
000001f0: 6b2f 13b8 0000 0000 91e4 77b8 aa0d 4337
00000200: 5440 91b8 1936 99b6 0000 0000 0000 0000
00000210: e0ba feb7 d364 9537 4d22 78b8 8108 2638
00000220: f335 41b8 b6b3 fb35 1b3b 6bb8 ae9c 4cb8
00000230: 1874 6db8 42fc 43b6 7706 a636 6fc1 d8b7
00000240: 0000 0000 66b4 c1b8 0636 4ab8 7413 3ab8
00000250: 8607 32b8 13b9 b7b7 5b58 b3b8 7e55 47b8
00000260: c355 62b8 0400 0080 637d 8d37 0000 0000
00000270: e05e 8fb7 0400 0000 e4cd 5fb8 0400 0080
00000280: c235 c837 712d 9735 0404 cdb7 f1f6 feb7
00000290: 5ab2 a1b7 40e3 adb8 0b52 df36 3059 8bb6
000002a0: 1020 adb8 f4f7 a636 0400 0080 f752 7838
000002b0: 0454 89b8 8bb0 23b3 7a0b bbb7 725e ccb8
000002c0: 6205 c737 6551 f8b7 aa01 e8b8 6039 7bb5
000002d0: ee40 a0b6 3566 4a38 5830 c4b7 0000 0000
000002e0: 55d6 0db8 5fad 9ab8 dd3c 09b8 4900 d5b7
000002f0: 0ce4 12b9 d8e4 a4b8 f10c 77b8 25eb 9837
00000300: 2653 ae38 cb70 4b37 5ec7 8ab8 6a64 95b6
00000310: e74a a9b7 524a eab7 25ae 0ab9 9483 d0b7
00000320: fa86 adb8 ce1b 8bb8 6609 04b7 b539 8ab8
00000330: f9a3 51b8 0000 0000 93ed 0438 0dde 24b7
00000340: 0000 0000 c2a0 1238 f461 5a38 d9bb 7cb8
00000350: 6301 f5b6 bd1f 4fb8 8e7c ad37 9996 d437
00000360: 7f9e 2bb8 0400 0080 aa25 a1b7 0000 0000
00000370: ce98 ddb8 16f7 0331 e9ce 44b8 99b1 3db8
00000380: c9b2 85b8 0400 0000 2ae3 1b38 70bc bab6
00000390: 3880 81b8 369c 33b8 190e 30b8 8d51 8e36
000003a0: 0000 0000 aec6 b538 0000 0000 4b6f 96b8
000003b0: 0400 0000 74e6 6eb8 0000 0000 5f46 a8b7
000003c0: 54b3 9e38 0015 3b36 5b52 88b8 0000 0000
000003d0: 0385 05b7 0d5c 9bb7 7a82 a0b8 207d 1c37
000003e0: 19f3 e6b7 4694 02b8 f37f 51b7 63e6 31b8
000003f0: a84c fc37 57f1 15b8 ea56 39b1 efb4 5038

exp_avg_sq f4 [256]
4.2445495e-06 0.0 0.00022088036 3.1695308e-06 7.4281576e-05 0.00011858779 4.1698277e-06 2.3564145e-19
0.00010281696 1.0412139e-12 5.002949e-05 1.5661904e-05 6.1373685e-05 0.00024071045 1.2501085e-08 8.8837325e-05
2.7063797e-05 2.015274e-14 0.00030777339 3.441672e-06 8.888776e-05 8.857359e-05 0.0 0.0
1.9770937e-06 5.009084e-05 1.6888486e-06 6.619357e-05 7.835006e-06 3.4897592e-05 3.5752077e-05 0.00020280517
0.0 7.879969e-05 1.4085758e-06 0.00014429941 2.1070358e-05 5.6841942e-05 3.707612e-05 8.332012e-05
0.0 4.26051e-05 2.5700583e-08 5.4528813e-05 5.6704215e-05 0.0 2.1049043e-05 1.6669483e-05
3.0067957e-05 3.8732585e-05 1.8768877e-05 4.0751565e-05 8.95386e-05 1.2042567e-05 1.7158944e-05 2.8637072e-05
1.8755884e-05 0.0 0.00015670851 3.341713e-05 5.1382878e-05 6.396952e-05 3.7143367e-05 4.81999e-05
5.1095194e-05 0.0 4.9833594e-05 5.3643333e-07 4.7870173e-05 0.00013802237 2.1666187e-09 0.00016657414
5.759984e-05 9.4279656e-08 6.809911e-05 2.4625051e-05 5.5263223e-05 5.1087674e-05 0.00021201464 0.0
4.9185182e-05 0.00028446512 2.7902428e-05 1.2236502e-14 8.7820816e-05 3.075293e-05 9.6751806e-05 2.5566324e-05
3.228682e-05 6.7607274e-05 0.00059510604 7.537897e-05 2.956832e-05 9.164114e-05 1.495585e-06 1.1587944e-05
7.728664e-05 7.340586e-13 1.3975826e-05 0.00016446842 1.8789891e-05 5.09431e-05 1.1362024e-05 8.675924e-06
0.0 0.0003361686 6.128912e-05 1.3779261e-05 0.00015505933 0.00016910801 1.0109118e-06 2.9964338e-05
9.1101225e-07 4.40468e-05 5.1083814e-05 8.692145e-07 0.00014093929 1.0102004e-05 9.429999e-06 6.7102555e-05
2.1345746e-05 0.00025541836 0.00038731867 0.0 3.946734e-05 0.0 8.8061315e-05 0.00014773263
0.00010913073 8.327872e-06 0.0 0.0 2.9296918e-05 4.7920013e-05 3.3103814e-05 0.00022067156
1.3005865e-05 1.2469887e-06 0.00021705512 2.8470713e-05 4.1765998e-05 1.8692264e-05 2.7792403e-06 9.510734e-05
0.0 0.00013888437 5.3240172e-05 3.0890096e-05 6.0862436e-05 1.993599e-05 7.906452e-05 2.8813683e-05
5.7321435e-05 1.9779413e-16 4.4778983e-05 0.0 2.0232924e-06 5.1894787e-08 0.0001457045 2.2691412e-16
0.00024685988 6.630805e-05 2.3770446e-05 3.6109177e-06 8.803859e-05 1.7160539e-05 3.064309e-05 6.094484e-06
0.00010630013 0.00015274421 1.2032866e-07 0.00014845446 4.058929e-05 8.605754e-08 2.7874135e-06 5.0671326e-05
7.372779e-05 0.00012372219 2.3583836e-05 1.5404648e-06 1.3554598e-05 7.307068e-06 7.59952e-05 0.0
1.9761128e-05 8.1135644e-05 5.98571e-06 4.6396028e-05 7.097447e-06 6.261517e-05 5.7065892e-05 2.2301414e-08
0.00083017873 7.9269776e-05 4.6081703e-05 8.3084036e-05 3.0729356e-05 4.3049946e-05 0.00022297233 3.330628e-05
1.8853028e-05 7.342429e-05 1.9429106e-06 4.2293927e-05 0.00013076139 0.0 0.00021161168 1.4972021e-05
0.0 6.796695e-08 7.7532626e-05 1.6104636e-05 1.1273787e-05 5.3336924e-05 0.000118803306 2.782108e-05
4.1803623e-06 1.0057258e-06 7.416964e-05 0.0 0.0001463778 2.402696e-10 8.2811515e-05 9.450445e-05
3.9298673e-05 1.6566931e-14 5.956946e-05 3.8078836e-06 1.5629204e-05 2.2344746e-05 5.0343573e-05 4.3861175e-05
0.0 6.586572e-05 0.0 9.456246e-05 2.8885147e-16 3.342803e-05 0.0 1.988846e-05
2.1562571e-05 1.075396e-05 3.058337e-05 0.0 6.7754163e-06 4.3801152e-05 0.00010006688 3.1015472e-05
5.6677877e-06 1.6814226e-06 9.950196e-05 1.109082e-05 6.312648e-05 5.6499663e-05 2.1494942e-14 0.000603184
00000000: 676c 8e36 0000 0000 1f9c 6739 20b4 5436
00000010: 9ec7 9b38 56b2 f838 8cea 8b36 2119 8b20
00000020: 6f9f d738 af89 922b c1d6 5138 af61 8337
00000030: bfb5 8038 3867 7c39 5ac4 5632 2d4e ba38
00000040: 1007 e337 0e85 b528 a55c a139 7af7 6636
00000050: 4169 ba38 96c0 b938 0000 0000 0000 0000
00000060: 36ae 0436 a118 5238 65ac e235 67d1 8a38
00000070: 1873 0337 015f 1238 80f4 1538 19a8 5439
00000080: 0000 0000 4341 a538 4c0e bd35 144f 1739
00000090: 40c0 b037 9269 6e38 2e82 1b38 26bc ae38
000000a0: 0000 0000 e1b2 3238 2ec4 dc32 deb5 6438
000000b0: b0d5 6d38 0000 0000 7a92 b037 71d5 8b37
000000c0: 723a fc37 cc74 2238 db71 9d37 a9ec 2a38
000000d0: abc6 bb38 6e0a 4a37 8df0 8f37 a539 f037
000000e0: f455 9d37 0000 0000 1f52 2439 5f29 0c38
000000f0: f283 5738 6027 8638 63ca 1b38 402a 4a38
00000100: 0c4f 5638 0000 0000 6a04 5138 6bff 0f35
00000110: 35c8 4838 19ba 1039 8fe3 1431 68aa 2e39
00000120: 5b97 7138 ca76 ca33 6ed0 8e38 e591 ce37
00000130: 6fca 6738 f946 5638 3f50 5e39 0000 0000
00000140: 304c 4e38 4324 9539 0210 ea37 e86e 5c28
00000150: 712c b838 b5fc 0038 3be7 ca38 4377 d637
00000160: b66b 0738 61c8 8d38 e400 1c3a c714 9e38
00000170: 7c09 f837 762f c038 e9bb c835 d769 4237
00000180: f314 a238 7f9e 4e2b b779 6a37 2875 2c39
00000190: fc9e 9d37 bdab 5538 869f 3e37 cf8e 1137
000001a0: 0000 0000 c93f b039 5988 8038 7a2d 6737
000001b0: 6c97 2239 9652 3139 aaae 8735 ed5b fb37
000001c0: 498c 7435 e4be 3838 d442 5638 f753 6935
000001d0: 1ac9 1339 c77b 2937 8a35 1e37 69b9 8c38
000001e0: a40f b337 ace9 8539 0811 cb39 0000 0000
000001f0: bc89 2538 0000 0000 8fad b838 ade8 1a39
00000200: 1ddd e438 f0b7 0b37 0000 0000 0000 0000
00000210: a7c2 f537 b9fd 4838 f3d8 0a38 1264 6739
00000220: c433 5a37 355e a735 4a99 6339 64d4 ee37
00000230: e62d 2f38 55cd 9c37 fc82 3a36 5d74 c738
00000240: 0000 0000 7da1 1139 334e 5f38 fd8f 0138
00000250: 8b46 7f38 363c a737 71cf a538 eab4 f137
00000260: 6c6c 7038 860a 6425 11d1 3b38 0000 0000
00000270: e6c7 0736 ece2 5e33 41c8 1839 9dce 8225
00000280: f96c 8139 dd0e 8b38 a566 c737 1853 7236
00000290: 5ca1 b838 faf3 8f37 c486 0038 387f cc36
000002a0: 73ed de38 f629 2039 b133 0134 71aa 1b39
000002b0: 6b3e 2a38 a2ce b833 660f 3b36 ec87 5438
000002c0: 4e9e 9a38 6cbb 0139 e7d5 c537 f8c1 ce35
000002d0: 8e68 6337 3c2f f536 9d5f 9f38 0000 0000
000002e0: b3c4 a537 5e27 aa38 dbd8 c836 5b99 4238
000002f0: 9b26 ee36 4350 8338 095a 6f38 5491 bf32
00000300: 5aa0 593a a33d a638 da47 4138 673d ae38
00000310: 65e3 0038 8790 3438 aecd 6939 59b2 0b38
00000320: 9226 9e37 5efb 9938 f362 0236 c264 3138
00000330: fe1c 0939 0000 0000 14e4 5d39 5730 7b37
00000340: 0000 0000 3af5 9133 0399 a238 7118 8737
00000350: 8c24 3d37 16b6 5f38 0a26 f938 5061 e937
00000360: 0a45 8c36 7afc 8635 868b 9b38 0000 0000
00000370: fe7c 1939 f116 842f 18ab ad38 b130 c638
00000380: a1d4 2438 be38 9528 38da 7938 f18a 7f36
00000390: 761b 8337 fa70 bb37 0028 5338 94f7 3738
000003a0: 0000 0000 6421 8a38 0000 0000 d64f c638
000003b0: f482 a625 1335 0c38 0000 0000 25d6 a637
000003c0: 45e1 b437 e86b 3437 a546 0038 0000 0000
000003d0: 6258 e336 21b7 3738 ffda d138 9c16 0238
000003e0: ed2d be36 3ead e135 b5ab d038 b612 3a37
000003f0: c562 8438 0dfa 6c38 f69b c128 fe1e 1e3a

exp_avg f4 [26, 256]
6e-45 0.0 -6e-45 6e-45 6e-45 -6e-45 -6e-45 0.0
6e-45 0.0 6e-45 6e-45 6e-45 6e-45 0.0 6e-45
0.0 0.0 6e-45 6e-45 6e-45 6e-45 0.0 0.0
0.0 0.0 6e-45 6e-45 6e-45 -6e-45 -6e-45 6e-45
0.0 6e-45 6e-45 0.0 6e-45 0.0 0.0 6e-45
0.0 6e-45 6e-45 6e-45 6e-45 0.0 6e-45 6e-45
6e-45 6e-45 6e-45 6e-45 6e-45 0.0 -6e-45 0.0
0.0 0.0 6e-45 6e-45 6e-45 6e-45 6e-45 6e-45
6e-45 0.0 6e-45 0.0 6e-45 6e-45 0.0 -6e-45
6e-45 0.0 6e-45 6e-45 0.0 6e-45 -6e-45 0.0
6e-45 0.0 6e-45 0.0 6e-45 6e-45 6e-45 6e-45
6e-45 6e-45 6e-45 6e-45 6e-45 0.0 6e-45 6e-45
6e-45 0.0 6e-45 0.0 6e-45 -6e-45 6e-45 6e-45
0.0 -6e-45 0.0 6e-45 -6e-45 6e-45 0.0 6e-45
6e-45 6e-45 6e-45 0.0 -6e-45 6e-45 6e-45 6e-45
0.0 0.0 -6e-45 0.0 6e-45 0.0 6e-45 -6e-45
6e-45 6e-45 0.0 0.0 6e-45 -6e-45 6e-45 6e-45
6e-45 0.0 -6e-45 6e-45 6e-45 6e-45 0.0 6e-45
0.0 6e-45 6e-45 6e-45 6e-45 6e-45 6e-45 6e-45
6e-45 0.0 6e-45 0.0 0.0 0.0 6e-45 0.0
-6e-45 6e-45 6e-45 6e-45 6e-45 6e-45 6e-45 6e-45
6e-45 6e-45 0.0 6e-45 6e-45 0.0 6e-45 6e-45
6e-45 6e-45 0.0 -6e-45 6e-45 -6e-45 6e-45 0.0
6e-45 6e-45 6e-45 6e-45 6e-45 6e-45 6e-45 0.0
6e-45 6e-45 6e-45 6e-45 6e-45 6e-45 6e-45 6e-45
6e-45 6e-45 6e-45 6e-45 6e-45 0.0 -6e-45 -6e-45
0.0 0.0 0.0 6e-45 6e-45 6e-45 6e-45 6e-45
6e-45 6e-45 6e-45 0.0 -6e-45 0.0 6e-45 6e-45
6e-45 0.0 -6e-45 6e-45 0.0 -6e-45 6e-45 6e-45
0.0 -6e-45 0.0 6e-45 0.0 6e-45 0.0 6e-45
6e-45 6e-45 -6e-45 0.0 6e-45 6e-45 0.0 6e-45
6e-45 6e-45 6e-45 6e-45 6e-45 6e-45 0.0 0.0
00000000: 0400 0000 0000 0000 0400 0080 0400 0000
00000010: 0400 0000 0400 0080 0400 0080 0000 0000
00000020: 0400 0000 0000 0000 0400 0000 0400 0000
00000030: 0400 0000 0400 0000 0000 0000 0400 0000
00000040: 0000 0000 0000 0000 0400 0000 0400 0000
00000050: 0400 0000 0400 0000 0000 0000 0000 0000
00000060: 0000 0000 0000 0000 0400 0000 0400 0000
00000070: 0400 0000 0400 0080 0400 0080 0400 0000
00000080: 0000 0000 0400 0000 0400 0000 0000 0000
00000090: 0400 0000 0000 0000 0000 0000 0400 0000
000000a0: 0000 0000 0400 0000 0400 0000 0400 0000
000000b0: 0400 0000 0000 0000 0400 0000 0400 0000
000000c0: 0400 0000 0400 0000 0400 0000 0400 0000
000000d0: 0400 0000 0000 0000 0400 0080 0000 0000
000000e0: 0000 0000 0000 0000 0400 0000 0400 0000
000000f0: 0400 0000 0400 0000 0400 0000 0400 0000
00000100: 0400 0000 0000 0000 0400 0000 0000 0000
00000110: 0400 0000 0400 0000 0000 0000 0400 0080
00000120: 0400 0000 0000 0000 0400 0000 0400 0000
00000130: 0000 0000 0400 0000 0400 0080 0000 0000
00000140: 0400 0000 0000 0000 0400 0000 0000 0000
00000150: 0400 0000 0400 0000 0400 0000 0400 0000
00000160: 0400 0000 0400 0000 0400 0000 0400 0000
00000170: 0400 0000 0000 0000 0400 0000 0400 0000
00000180: 0400 0000 0000 0000 0400 0000 0000 0000
00000190: 0400 0000 0400 0080 0400 0000 0400 0000
000001a0: 0000 0000 0400 0080 0000 0000 0400 0000
000001b0: 0400 0080 0400 0000 0000 0000 0400 0000
000001c0: 0400 0000 0400 0000 0400 0000 0000 0000
000001d0: 0400 0080 0400 0000 0400 0000 0400 0000
000001e0: 0000 0000 0000 0000 0400 0080 0000 0000
000001f0: 0400 0000 0000 0000 0400 0000 0400 0080
00000200: 0400 0000 0400 0000 0000 0000 0000 0000
00000210: 0400 0000 0400 0080 0400 0000 0400 0000
00000220: 0400 0000 0000 0000 0400 0080 0400 0000
00000230: 0400 0000 0400 0000 0000 0000 0400 0000
00000240: 0000 0000 0400 0000 0400 0000 0400 0000
00000250: 0400 0000 0400 0000 0400 0000 0400 0000
00000260: 0400 0000 0000 0000 0400 0000 0000 0000
00000270: 0000 0000 0000 0000 0400 0000 0000 0000
00000280: 0400 0080 0400 0000 0400 0000 0400 0000
00000290: 0400 0000 0400 0000 0400 0000 0400 0000
000002a0: 0400 0000 0400 0000 0000 0000 0400 0000
000002b0: 0400 0000 0000 0000 0400 0000 0400 0000
000002c0: 0400 0000 0400 0000 0000 0000 0400 0080
000002d0: 0400 0000 0400 0080 0400 0000 0000 0000
000002e0: 0400 0000 0400 0000 0400 0000 0400 0000
000002f0: 0400 0000 0400 0000 0400 0000 0000 0000
00000300: 0400 0000 0400 0000 0400 0000 0400 0000
00000310: 0400 0000 0400 0000 0400 0000 0400 0000
00000320: 0400 0000 0400 0000 0400 0000 0400 0000
00000330: 0400 0000 0000 0000 0400 0080 0400 0080
00000340: 0000 0000 0000 0000 0000 0000 0400 0000
00000350: 0400 0000 0400 0000 0400 0000 0400 0000
00000360: 0400 0000 0400 0000 0400 0000 0000 0000
00000370: 0400 0080 0000 0000 0400 0000 0400 0000
00000380: 0400 0000 0000 0000 0400 0080 0400 0000
00000390: 0000 0000 0400 0080 0400 0000 0400 0000
000003a0: 0000 0000 0400 0080 0000 0000 0400 0000
000003b0: 0000 0000 0400 0000 0000 0000 0400 0000
000003c0: 0400 0000 0400 0000 0400 0080 0000 0000
000003d0: 0400 0000 0400 0000 0000 0000 0400 0000
000003e0: 0400 0000 0400 0000 0400 0000 0400 0000
000003f0: 0400 0000 0400 0000 0000 0000 0000 0000

exp_avg_sq f4 [26, 256]
8.060538e-11 0.0 9.983464e-13 3.2937073e-10 1.8766373e-08 2.6535674e-17 2.9785435e-13 0.0
2.148195e-09 0.0 1.0300936e-08 8.707277e-09 2.277367e-09 2.2762143e-09 0.0 3.988971e-09
0.0 0.0 3.222041e-10 8.901038e-11 9.510625e-09 3.2101504e-09 0.0 0.0
0.0 0.0 2.2929009e-10 9.995268e-10 2.1248254e-18 2.5911895e-13 1.3460694e-15 4.617592e-08
0.0 1.2499959e-09 4.5233364e-10 0.0 2.4399487e-09 0.0 0.0 1.5364433e-16
0.0 1.1978207e-08 5.086609e-16 1.4904357e-08 2.2464152e-11 0.0 4.065497e-08 1.2001398e-15
7.48385e-09 1.1672114e-08 2.739777e-10 1.3861923e-09 2.3641953e-09 0.0 3.4897688e-12 0.0
0.0 0.0 2.007202e-08 2.201029e-09 7.496119e-09 3.317153e-09 1.8576504e-10 7.245464e-10
2.4641558e-09 0.0 4.9422955e-09 0.0 1.7310057e-08 8.41968e-09 0.0 2.6352485e-13
1.9417694e-09 0.0 2.1131786e-08 5.1980282e-09 0.0 4.2804032e-08 9.0089256e-12 0.0
3.023519e-09 0.0 3.025275e-11 0.0 2.7019496e-09 1.2932548e-08 4.2888843e-08 6.300146e-09
2.2936165e-08 3.36599e-10 6.0443837e-09 8.554517e-09 3.2055694e-10 0.0 6.5799877e-09 5.823979e-09
1.0697697e-08 0.0 2.8838147e-09 0.0 7.4493145e-09 7.5446295e-13 1.549599e-08 3.4135685e-09
0.0 3.971136e-13 0.0 5.0774187e-08 6.600857e-12 8.201535e-09 0.0 2.2921089e-08
5.225644e-10 1.2876614e-11 1.1456618e-08 0.0 9.74331e-13 3.9073593e-09 2.2764257e-10 3.6316816e-10
0.0 0.0 1.9642208e-13 0.0 7.714357e-09 0.0 1.5285792e-08 3.9922484e-12
1.243116e-09 1.3589831e-08 0.0 0.0 1.8163533e-08 2.5976038e-15 4.061886e-09 2.4697615e-18
2.1571552e-08 0.0 1.9061759e-18 2.7093854e-08 2.9890597e-08 3.801606e-12 0.0 5.6464127e-09
0.0 1.8138966e-11 1.3644078e-08 1.846756e-08 2.6738505e-09 5.3248943e-09 7.897195e-10 1.7760218e-09
5.357357e-08 0.0 2.8262346e-09 0.0 0.0 0.0 6.5507453e-09 0.0
8.901676e-12 1.8620318e-08 6.9327823e-09 4.535663e-09 7.550317e-09 1.0332896e-10 1.4326323e-11 5.322758e-09
5.9926557e-09 9.525405e-11 0.0 3.2241096e-10 9.881706e-09 0.0 6.602047e-09 1.5276326e-08
3.222596e-13 8.232937e-09 0.0 4.1147327e-15 4.801724e-10 1.2876149e-15 1.579521e-08 0.0
9.133713e-09 7.937492e-09 7.0361855e-10 2.1182456e-09 2.4169629e-09 1.9057056e-08 1.8173577e-10 0.0
3.744111e-08 1.0077938e-08 3.6488643e-09 2.9907357e-10 2.540545e-09 1.9418602e-09 8.875349e-09 3.692717e-08
9.096153e-11 9.447117e-09 1.1182271e-10 1.1748573e-09 5.1533288e-08 0.0 2.9631464e-12 2.314129e-14
0.0 0.0 0.0 5.602559e-09 1.153129e-09 7.480456e-09 1.4879443e-08 5.5339178e-09
1.2667527e-08 4.4192314e-10 1.2719626e-08 0.0 7.1265155e-12 0.0 2.573964e-09 3.2954297e-09
1.906243e-10 0.0 1.6264739e-14 2.3763926e-09 0.0 2.2229166e-15 9.7225925e-09 4.1827985e-08
0.0 1.5425976e-11 0.0 2.235566e-09 0.0 2.44819e-08 0.0 3.5751235e-09
1.310343e-08 1.3038231e-08 1.7804782e-12 0.0 1.7270889e-09 1.7558504e-08 0.0 4.0543505e-08
1.4312524e-09 1.5745038e-16 8.06585e-09 6.9714203e-09 3.8080876e-09 9.293416e-11 0.0 0.0
00000000: cb40 b12e 0000 0000 3881 8c2b cf12 b52f
00000010: b133 a132 97bf f423 56ad a72a 0000 0000
00000020: 729f 1331 0000 0000 fff7 3032 0297 1532
00000030: dd7f 1c31 966b 1c31 0000 0000 5c0f 8931
00000040: 0000 0000 0000 0000 3222 b12f 64bc c32e
00000050: 2c64 2332 9099 5c31 0000 0000 0000 0000
00000060: 0000 0000 0000 0000 6c1b 7c2f b95f 8930
00000070: d1c8 1c22 fade 912a 32fd c126 f652 4633
00000080: 0000 0000 52cc ab30 4dac f82f 0000 0000
00000090: 08ac 2731 0000 0000 0000 0000 cd23 3125
000000a0: 0000 0000 b6c8 4d32 8d9c 1226 0707 8032
000000b0: c698 c52d 0000 0000 9d9c 2e33 58f5 ac26
000000c0: 5292 0032 8086 4832 ef9e 962f 4e84 be30
000000d0: 5d77 2231 0000 0000 1692 752c 0000 0000
000000e0: 0000 0000 0000 0000 d76a ac32 e940 1731
000000f0: 48c8 0032 f9f3 6331 3640 4c2f 6c29 4730
00000100: e355 2931 0000 0000 e4d0 a931 0000 0000
00000110: 38b1 9432 25a6 1032 0000 0000 ef59 942a
00000120: f86f 0531 0000 0000 4a85 b532 579a b231
00000130: 0000 0000 88d7 3733 987c 1e2d 0000 0000
00000140: 4fc6 4f31 0000 0000 920d 052e 0000 0000
00000150: 33ad 3931 f32d 5e32 c834 3833 ac78 d831
00000160: 2905 c532 190c b92f f6ae cf31 2af7 1232
00000170: 613a b02f 0000 0000 2f16 e231 431c c831
00000180: f8c8 3732 0000 0000 9b2c 4631 0000 0000
00000190: ddf4 ff31 c95c 542b 0b1c 8532 2294 6a31
000001a0: 0000 0000 1a8e df2a 0000 0000 cf12 5a33
000001b0: 3c3f e82c bbe6 0c32 0000 0000 02e4 c432
000001c0: 33a4 0f30 1d87 622d bdd2 4432 0000 0000
000001d0: f91f 892b 7f41 8631 b04b 7a2f 60a7 c72f
000001e0: 0000 0000 0000 0000 cf26 5d2a 0000 0000
000001f0: 1a88 0432 0000 0000 d04d 8332 fa76 8c2c
00000200: 42da aa30 b578 6932 0000 0000 0000 0000
00000210: 0806 9c32 552d 3b27 ba90 8b31 7a3c 3622
00000220: 584c b932 0000 0000 a5a6 0c22 04bc e832
00000230: 0f61 0033 d3c1 852c 0000 0000 5f02 c231
00000240: 0000 0000 528d 9f2d 4a67 6a32 98a2 9e32
00000250: e0be 3731 44f6 b631 9213 5930 3618 f430
00000260: c318 6633 0000 0000 a537 4231 0000 0000
00000270: 0000 0000 0000 0000 f714 e131 0000 0000
00000280: 9699 1c2d 83f2 9f32 6635 ee31 1dd8 9b31
00000290: a5b6 0132 0939 e32e 0608 7c2d 79e3 b631
000002a0: f5e7 cd31 4377 d12e 0000 0000 4f3f b12f
000002b0: 34c4 2932 0000 0000 38d8 e231 ff38 8332
000002c0: 816a b52a d770 0d32 0000 0000 b63f 9427
000002d0: 21fd 0330 9b90 b926 09ae 8732 0000 0000
000002e0: 7fea 1c32 765d 0832 c168 4130 9290 1131
000002f0: a917 2631 e9b2 a332 12d2 472f 0000 0000
00000300: f0ce 2033 3d23 2d32 80bf 7a31 dd6a a42f
00000310: be95 2e31 9171 0531 337a 1832 da99 1e33
00000320: ca06 c82e dc4c 2232 97e6 f52e 9e78 a130
00000330: 7355 5d33 0000 0000 4d83 502c 2f70 d028
00000340: 0000 0000 0000 0000 0000 0000 a180 c031
00000350: 1f7c 9e30 6583 0032 7ba0 7f32 db24 be31
00000360: 5fa0 5932 27f3 f22f 8285 5a32 0000 0000
00000370: f2bd fa2c 0000 0000 a7e1 3031 d075 6231
00000380: f897 512f 0000 0000 ef7f 9228 f14d 2331
00000390: 0000 0000 932d 2027 6a08 2732 5ba6 3333
000003a0: 0000 0000 36b0 872d 0000 0000 7ea0 1931
000003b0: 0000 0000 444c d232 0000 0000 3dae 7531
000003c0: 7f1d 6132 bffe 5f32 7d94 fa2b 0000 0000
000003d0: 8a5e ed30 8fd3 9632 0000 0000 0e22 2e33
000003e0: b8b5 c430 2687 3525 fc91 0a32 4389 ef31
000003f0: 4bd8 8231 485d cc2e 0000 0000 0000 0000
