saved_weights/linear/linear_filter_fc1_204_26_0.5/saved_weights_linear_0.001_epoch-1_top1-1.000.pth.tar (torch_old, 440004 bytes, 18 tensors)

exp_avg f4 [64, 204]
00000000: 2cf3 0a37 da60 2fb7 4cb1 0138 d1f5 1fb5
00000010: f7d0 54b7 72ef 0eb7 fbfe af37 d1f5 1fb5
00000020: 2394 12b7 09be 22b7 d104 9537 d1f5 1fb5
00000030: e8f8 cd36 5e89 1537 5942 14b6 d1f5 1fb5
00000040: 4ab7 dab7 4e26 c3b7 eb0f 4936 d1f5 1fb5
00000050: 0000 0000 0000 0000 0000 0000 0000 0000
00000060: 0000 0000 0000 0000 0000 0000 0000 0000
00000070: 0000 0000 0000 0000 0000 0000 0000 0000
00000080: 0000 0000 0000 0000 0000 0000 0000 0000
00000090: 0000 0000 0000 0000 0000 0000 0000 0000
000000a0: 0000 0000 0000 0000 0000 0000 0000 0000
000000b0: 0000 0000 0000 0000 0000 0000 0000 0000
000000c0: 0000 0000 0000 0000 0000 0000 0000 0000
000000d0: 0000 0000 0000 0000 0000 0000 0000 0000
000000e0: 0000 0000 0000 0000 0000 0000 0000 0000
000000f0: 0000 0000 0000 0000 0000 0000 0000 0000
00000100: 0000 0000 0000 0000 0000 0000 0000 0000
00000110: 0000 0000 0000 0000 0000 0000 0000 0000
00000120: 0000 0000 0000 0000 0000 0000 0000 0000
00000130: 0000 0000 0000 0000 0000 0000 0000 0000
00000140: 0000 0000 0000 0000 0000 0000 0000 0000
00000150: 0000 0000 0000 0000 0000 0000 0000 0000
00000160: 0000 0000 0000 0000 0000 0000 0000 0000
00000170: 0000 0000 0000 0000 0000 0000 0000 0000
00000180: 0000 0000 0000 0000 0000 0000 0000 0000
00000190: 0000 0000 0000 0000 0000 0000 0000 0000
000001a0: 0000 0000 0000 0000 0000 0000 0000 0000
000001b0: 0000 0000 0000 0000 0000 0000 0000 0000
000001c0: 0000 0000 0000 0000 0000 0000 0000 0000
000001d0: 0000 0000 0000 0000 0000 0000 0000 0000
000001e0: 0000 0000 0000 0000 0000 0000 0000 0000
000001f0: 0000 0000 0000 0000 0000 0000 0000 0000
00000200: 0000 0000 0000 0000 0000 0000 0000 0000
00000210: 0000 0000 0000 0000 0000 0000 0000 0000
00000220: 0000 0000 0000 0000 0000 0000 0000 0000
00000230: 0000 0000 0000 0000 0000 0000 0000 0000
00000240: 0000 0000 0000 0000 0000 0000 0000 0000
00000250: 0000 0000 0000 0000 0000 0000 0000 0000
00000260: 0000 0000 0000 0000 0000 0000 0000 0000
00000270: 0000 0000 0000 0000 0000 0000 0000 0000
00000280: 0000 0000 0000 0000 0000 0000 0000 0000
00000290: 0000 0000 0000 0000 0000 0000 0000 0000
000002a0: 0000 0000 0000 0000 0000 0000 0000 0000
000002b0: 0000 0000 0000 0000 0000 0000 0000 0000
000002c0: 0000 0000 0000 0000 0000 0000 0000 0000
000002d0: 0000 0000 0000 0000 0000 0000 0000 0000
000002e0: 0000 0000 0000 0000 0000 0000 0000 0000
000002f0: 0000 0000 0000 0000 0000 0000 0000 0000
00000300: 0000 0000 0000 0000 0000 0000 0000 0000
00000310: 0000 0000 0000 0000 0000 0000 0000 0000
00000320: b578 f933 14ec 9a36 6ee9 ce37 41f3 c736
00000330: 0425 41b7 343a 6236 5b9a ee37 6c72 c236
00000340: be06 68b7 3fbe 5936 8a8b 9b36 6c72 c236
00000350: 4def 78b6 611f a9b7 c6a0 1738 6c72 c236
00000360: 0e9e fcb6 6f0f e935 5576 1a38 6c72 c236
00000370: 8346 41b7 d7e4 82b7 f914 1338 6c72 c236
00000380: 0000 0000 0000 0000 0000 0000 0000 0000
00000390: 0000 0000 0000 0000 0000 0000 0000 0000
000003a0: 0000 0000 0000 0000 0000 0000 0000 0000
000003b0: 0000 0000 0000 0000 0000 0000 0000 0000
000003c0: 0000 0000 0000 0000 0000 0000 0000 0000
000003d0: 0000 0000 0000 0000 0000 0000 0000 0000
000003e0: 0000 0000 0000 0000 0000 0000 0000 0000
000003f0: 0000 0000 0000 0000 0000 0000 0000 0000
8.282059e-06 -1.0453363e-05 3.0921117e-05 -5.9589826e-07 -1.2684838e-05 -8.51961e-06 2.098036e-05 -5.9589826e-07
-8.736769e-06 -9.7001985e-06 1.7764427e-05 -5.9589826e-07 6.1384526e-06 8.913075e-06 -2.2092338e-06 -5.9589826e-07
-2.6072976e-05 -2.3263648e-05 2.99606e-06 -5.9589826e-07 0.0 0.0 0.0 0.0
0.0 0.0 0.0 0.0 0.0 0.0 0.0 0.0
0.0 0.0 0.0 0.0 0.0 0.0 0.0 0.0
0.0 0.0 0.0 0.0 0.0 0.0 0.0 0.0
0.0 0.0 0.0 0.0 0.0 0.0 0.0 0.0
0.0 0.0 0.0 0.0 0.0 0.0 0.0 0.0
0.0 0.0 0.0 0.0 0.0 0.0 0.0 0.0
0.0 0.0 0.0 0.0 0.0 0.0 0.0 0.0
0.0 0.0 0.0 0.0 0.0 0.0 0.0 0.0
0.0 0.0 0.0 0.0 0.0 0.0 0.0 0.0
0.0 0.0 0.0 0.0 0.0 0.0 0.0 0.0
0.0 0.0 0.0 0.0 0.0 0.0 0.0 0.0
0.0 0.0 0.0 0.0 0.0 0.0 0.0 0.0
0.0 0.0 0.0 0.0 0.0 0.0 0.0 0.0
0.0 0.0 0.0 0.0 0.0 0.0 0.0 0.0
0.0 0.0 0.0 0.0 0.0 0.0 0.0 0.0
0.0 0.0 0.0 0.0 0.0 0.0 0.0 0.0
0.0 0.0 0.0 0.0 0.0 0.0 0.0 0.0
0.0 0.0 0.0 0.0 0.0 0.0 0.0 0.0
0.0 0.0 0.0 0.0 0.0 0.0 0.0 0.0
0.0 0.0 0.0 0.0 0.0 0.0 0.0 0.0
0.0 0.0 0.0 0.0 0.0 0.0 0.0 0.0
0.0 0.0 0.0 0.0 0.0 0.0 0.0 0.0
1.16169225e-07 4.6170408e-06 2.4665813e-05 5.9589806e-06 -1.1512315e-05 3.3710503e-06 2.8443688e-05 5.794971e-06
-1.3829847e-05 3.2446258e-06 4.6356045e-06 5.794971e-06 -3.7094171e-06 -2.0160982e-05 3.6150937e-05 5.794971e-06
-7.5285852e-06 1.7364345e-06 3.6826666e-05 5.794971e-06 -1.1520114e-05 -1.560377e-05 3.5067063e-05 5.794971e-06
0.0 0.0 0.0 0.0 0.0 0.0 0.0 0.0
0.0 0.0 0.0 0.0 0.0 0.0 0.0 0.0
0.0 0.0 0.0 0.0 0.0 0.0 0.0 0.0
0.0 0.0 0.0 0.0 0.0 0.0 0.0 0.0

exp_avg_sq f4 [64, 204]
00000000: 4da8 4536 ac2d 7136 e8f9 cf36 9cdd 3a34
00000010: da95 7836 f2e5 c635 184c 9d36 9cdd 3a34
00000020: 4bb0 1336 3518 c936 752f 9036 9cdd 3a34
00000030: 18cc 8c36 44ee c736 fa5e 0936 9cdd 3a34
00000040: a4d5 8336 7164 2736 0fd7 6d35 9cdd 3a34
00000050: 0000 0000 0000 0000 0000 0000 0000 0000
00000060: 0000 0000 0000 0000 0000 0000 0000 0000
00000070: 0000 0000 0000 0000 0000 0000 0000 0000
00000080: 0000 0000 0000 0000 0000 0000 0000 0000
00000090: 0000 0000 0000 0000 0000 0000 0000 0000
000000a0: 0000 0000 0000 0000 0000 0000 0000 0000
000000b0: 0000 0000 0000 0000 0000 0000 0000 0000
000000c0: 0000 0000 0000 0000 0000 0000 0000 0000
000000d0: 0000 0000 0000 0000 0000 0000 0000 0000
000000e0: 0000 0000 0000 0000 0000 0000 0000 0000
000000f0: 0000 0000 0000 0000 0000 0000 0000 0000
00000100: 0000 0000 0000 0000 0000 0000 0000 0000
00000110: 0000 0000 0000 0000 0000 0000 0000 0000
00000120: 0000 0000 0000 0000 0000 0000 0000 0000
00000130: 0000 0000 0000 0000 0000 0000 0000 0000
00000140: 0000 0000 0000 0000 0000 0000 0000 0000
00000150: 0000 0000 0000 0000 0000 0000 0000 0000
00000160: 0000 0000 0000 0000 0000 0000 0000 0000
00000170: 0000 0000 0000 0000 0000 0000 0000 0000
00000180: 0000 0000 0000 0000 0000 0000 0000 0000
00000190: 0000 0000 0000 0000 0000 0000 0000 0000
000001a0: 0000 0000 0000 0000 0000 0000 0000 0000
000001b0: 0000 0000 0000 0000 0000 0000 0000 0000
000001c0: 0000 0000 0000 0000 0000 0000 0000 0000
000001d0: 0000 0000 0000 0000 0000 0000 0000 0000
000001e0: 0000 0000 0000 0000 0000 0000 0000 0000
000001f0: 0000 0000 0000 0000 0000 0000 0000 0000
00000200: 0000 0000 0000 0000 0000 0000 0000 0000
00000210: 0000 0000 0000 0000 0000 0000 0000 0000
00000220: 0000 0000 0000 0000 0000 0000 0000 0000
00000230: 0000 0000 0000 0000 0000 0000 0000 0000
00000240: 0000 0000 0000 0000 0000 0000 0000 0000
00000250: 0000 0000 0000 0000 0000 0000 0000 0000
00000260: 0000 0000 0000 0000 0000 0000 0000 0000
00000270: 0000 0000 0000 0000 0000 0000 0000 0000
00000280: 0000 0000 0000 0000 0000 0000 0000 0000
00000290: 0000 0000 0000 0000 0000 0000 0000 0000
000002a0: 0000 0000 0000 0000 0000 0000 0000 0000
000002b0: 0000 0000 0000 0000 0000 0000 0000 0000
000002c0: 0000 0000 0000 0000 0000 0000 0000 0000
000002d0: 0000 0000 0000 0000 0000 0000 0000 0000
000002e0: 0000 0000 0000 0000 0000 0000 0000 0000
000002f0: 0000 0000 0000 0000 0000 0000 0000 0000
00000300: 0000 0000 0000 0000 0000 0000 0000 0000
00000310: 0000 0000 0000 0000 0000 0000 0000 0000
00000320: 8980 0a37 6202 b136 80c1 be36 38fd 9137
00000330: 85cd e035 fab5 3136 de3f c936 4230 1134
00000340: aee3 4f36 c665 2035 153b 9036 4230 1134
00000350: 421f 9735 13fd 6e36 e522 c836 4230 1134
00000360: 25ae ad36 f7ca 0f36 2216 1735 4230 1134
00000370: b7f7 4d36 8e4a 7a35 8655 4d35 4230 1134
00000380: 0000 0000 0000 0000 0000 0000 0000 0000
00000390: 0000 0000 0000 0000 0000 0000 0000 0000
000003a0: 0000 0000 0000 0000 0000 0000 0000 0000
000003b0: 0000 0000 0000 0000 0000 0000 0000 0000
000003c0: 0000 0000 0000 0000 0000 0000 0000 0000
000003d0: 0000 0000 0000 0000 0000 0000 0000 0000
000003e0: 0000 0000 0000 0000 0000 0000 0000 0000
000003f0: 0000 0000 0000 0000 0000 0000 0000 0000
2.9453251e-06 3.5938383e-06 6.1981737e-06 1.7403221e-07 3.7042105e-06 1.4819072e-06 4.687823e-06 1.7403221e-07
2.2007323e-06 5.993085e-06 4.297059e-06 1.7403221e-07 4.196085e-06 5.9584e-06 2.0469874e-06 1.7403221e-07
3.9289753e-06 2.4943404e-06 8.860233e-07 1.7403221e-07 0.0 0.0 0.0 0.0
0.0 0.0 0.0 0.0 0.0 0.0 0.0 0.0
0.0 0.0 0.0 0.0 0.0 0.0 0.0 0.0
0.0 0.0 0.0 0.0 0.0 0.0 0.0 0.0
0.0 0.0 0.0 0.0 0.0 0.0 0.0 0.0
0.0 0.0 0.0 0.0 0.0 0.0 0.0 0.0
0.0 0.0 0.0 0.0 0.0 0.0 0.0 0.0
0.0 0.0 0.0 0.0 0.0 0.0 0.0 0.0
0.0 0.0 0.0 0.0 0.0 0.0 0.0 0.0
0.0 0.0 0.0 0.0 0.0 0.0 0.0 0.0
0.0 0.0 0.0 0.0 0.0 0.0 0.0 0.0
0.0 0.0 0.0 0.0 0.0 0.0 0.0 0.0
0.0 0.0 0.0 0.0 0.0 0.0 0.0 0.0
0.0 0.0 0.0 0.0 0.0 0.0 0.0 0.0
0.0 0.0 0.0 0.0 0.0 0.0 0.0 0.0
0.0 0.0 0.0 0.0 0.0 0.0 0.0 0.0
0.0 0.0 0.0 0.0 0.0 0.0 0.0 0.0
0.0 0.0 0.0 0.0 0.0 0.0 0.0 0.0
0.0 0.0 0.0 0.0 0.0 0.0 0.0 0.0
0.0 0.0 0.0 0.0 0.0 0.0 0.0 0.0
0.0 0.0 0.0 0.0 0.0 0.0 0.0 0.0
0.0 0.0 0.0 0.0 0.0 0.0 0.0 0.0
0.0 0.0 0.0 0.0 0.0 0.0 0.0 0.0
8.255368e-06 5.2752885e-06 5.6849676e-06 1.7403261e-05 1.6749115e-06 2.648098e-06 5.997702e-06 1.3521733e-07
3.097793e-06 5.9752745e-07 4.2984125e-06 1.3521733e-07 1.1259474e-06 3.5612072e-06 5.9645267e-06 1.3521733e-07
5.176075e-06 2.1426802e-06 5.628409e-07 1.3521733e-07 3.069157e-06 9.324075e-07 7.6492904e-07 1.3521733e-07
0.0 0.0 0.0 0.0 0.0 0.0 0.0 0.0
0.0 0.0 0.0 0.0 0.0 0.0 0.0 0.0
0.0 0.0 0.0 0.0 0.0 0.0 0.0 0.0
0.0 0.0 0.0 0.0 0.0 0.0 0.0 0.0

exp_avg f4 [256, 64]
00000000: 8dbb 9b38 967a a937 0375 b9b8 d3e2 c138
00000010: 7842 5a38 8f31 87b6 88f7 e338 8000 02b5
00000020: 2f30 8eb8 87bb 9238 9078 d1b8 d732 2634
00000030: dde1 08b8 a527 0f80 fd8d 48b8 97c4 94b8
00000040: e65f adb8 975c b7b8 3ff5 32b8 6da6 7b38
00000050: ff0b 4236 14cb 2d33 b604 1933 0ef9 9937
00000060: 6246 4eb3 5a20 e2b8 9a48 c9b3 5527 7f36
00000070: 40b6 1fb7 4108 edb0 7aba cbb6 2d49 0238
00000080: 14db b238 7611 65b6 7784 7838 bdde 52b8
00000090: 7ce6 b938 9e84 83b8 cc9a f5b8 686d 31b7
000000a0: 8227 4938 1620 8e34 47a0 1336 359f 73b7
000000b0: b35f 82b6 0a00 0080 7aa8 0438 dbce 8538
000000c0: 25a3 91b6 553e d738 6aae 4836 183e 7db8
000000d0: 9d6b b137 0f6c 21b8 5974 89b8 0fb3 4ab8
000000e0: 4c5b da38 24a1 2ab8 3055 7838 4eaf ca38
000000f0: 3375 5138 e897 08b2 e643 18b8 db93 09b8
00000100: aa70 7d87 00d0 ae2a 56e5 85b2 67bb 45aa
00000110: 0400 0080 12e9 3e29 9c9f 222a 6502 2d1a
00000120: 9864 54b3 0944 55a1 9bb8 5bb2 da24 1928
00000130: acf4 742a ba89 fc29 0100 0000 60f3 be38
00000140: 067a 312c 63b6 4aa7 9c7d 9333 3af2 8889
00000150: 5255 372b 64dc 8117 189f 8cad 8e39 b58b
00000160: f056 bf30 e7d4 a2b2 b63c 7fb2 7b40 9233
00000170: e6dc b3a8 9590 7829 9bbf 982a 0100 0080
00000180: 97cd 4529 3aaf 852a e152 30a5 0643 b799
00000190: b881 aaaa 2e87 b0b2 254b 872a 5026 002d
000001a0: 421b a5aa 1cb3 4da8 8b53 aa2a 6afb 7430
000001b0: baa7 4a29 dbf6 4732 ac1d 012f 7211 db26
000001c0: 8d5a 1230 e754 7da9 2cc3 bd87 6a62 a8aa
000001d0: e821 a62a 81b7 ac29 186d 91aa b80d 5338
000001e0: 2031 9daa 6a51 3f87 74a2 d497 5ca0 8f09
000001f0: 8eef 77a9 166d 36a8 f36f 6224 dde2 0608
00000200: 3b8f 82b7 c20c 9cb5 cda8 07b7 8e07 6eb7
00000210: 75f6 e0b6 1491 6ab7 e6ba 15b7 aac2 dc35
00000220: bc45 a0b5 364a dcb5 a6cb 5eb5 c5c6 ce34
00000230: b852 d0b7 0400 0080 2cbc 97b7 1c01 a1b7
00000240: ac0e b4b6 8c84 57b7 6005 a6b7 e6d5 1cb7
00000250: 92e0 3033 0400 0000 0400 0080 363c 9936
00000260: 0400 0000 7ad6 0eb6 4947 672c 59a4 97b7
00000270: 6a0b 8035 ca9a 8b2e 238b 8535 2663 50b7
00000280: 2460 b8b7 750e e9b7 8f34 0934 995e 3336
00000290: 6514 58b7 cdbf fbb7 c6b2 3fb7 4435 e435
000002a0: 3420 dd36 e995 5734 8764 5ab7 65b1 2fb7
000002b0: 4539 b9b7 0400 0000 438d 26b7 74f3 8bb7
000002c0: 8a3f 0534 b7ee beb7 cc5b 7537 b13c d837
000002d0: 851d 8ab7 42d0 51b7 6880 1237 7248 1235
000002e0: 21f0 d5b7 3794 ecb6 e12c a9b6 0215 41b7
000002f0: 1730 13b6 279e b831 6aed beb7 dcb7 8cb7
00000300: d539 8038 b0e7 08b9 1ac9 82b8 ce84 4d38
00000310: c3d8 3238 b138 93b8 4522 a7b7 4bc3 33b4
00000320: 12b7 afb7 6143 3838 0058 e5b8 b4ea 5db6
00000330: f8e2 4c38 ca7d 00b4 d77a 41b7 4221 9b38
00000340: e767 0ab7 5083 57b8 e9cd 3c38 07a7 8fb8
00000350: cda8 2638 1ec1 0c09 0400 0000 109d fdb7
00000360: 8403 ff33 0b61 acb7 16ac 94b2 a9e1 02b8
00000370: b9d1 95b5 46a9 68ae 13cf 6ab4 05ca 6638
00000380: 6531 55b8 bfe2 f7b7 2e00 75b7 f58d 09b8
00000390: 07e9 bfb8 e18c b7b7 20ea f3b5 fc62 a9b7
000003a0: 7f9c 8f38 de2b 0c35 f6d4 9e38 224c 7db8
000003b0: 521c d7b8 ce8d 5e30 7ca8 f637 cbc8 2138
000003c0: 62a9 b2b2 b80f fb37 abf3 2ab8 bca7 5a36
000003d0: a5ec 71b7 a708 b7b6 c71c 1db8 5981 41b6
000003e0: bfa1 5bb8 5111 a7b8 ebe7 9ab8 0226 d8b8
000003f0: 389d 2a38 80bf 3534 9770 f135 9162 c438
7.42591e-05 2.0203453e-05 -8.8432826e-05 9.2452065e-05 5.2037154e-05 -4.029083e-06 0.0001087031 -4.84295e-07
-6.7800625e-05 6.996752e-05 -9.988353e-05 1.547845e-07 -3.263528e-05 -1.391754e-39 -4.7815953e-05 -7.093808e-05
-8.267145e-05 -8.743366e-05 -4.266691e-05 5.999806e-05 2.8915235e-06 4.04644e-08 3.5627373e-08 1.8354996e-05
-4.8027125e-08 -0.00010782546 -9.372998e-08 3.8020855e-06 -9.519572e-06 -1.7246365e-09 -6.07158e-06 3.1062566e-05
8.528508e-05 -3.4133823e-06 5.9251175e-05 -5.0275343e-05 8.8644185e-05 -6.271269e-05 -0.000117113435 -1.0575495e-05
4.795893e-05 2.6472907e-07 2.1998e-06 -1.4520997e-05 -3.8854428e-06 -1.4e-44 3.162816e-05 6.380464e-05
-4.3403293e-06 0.00010263609 2.9903845e-06 -6.037773e-05 2.1150156e-05 -3.848603e-05 -6.5543405e-05 -4.8327314e-05
0.000104120554 -4.0681232e-05 5.9207145e-05 9.664764e-05 4.9938633e-05 -7.950781e-09 -3.630286e-05 -3.2801046e-05
-1.9066714e-34 3.1052938e-13 -1.5587528e-08 -1.7562133e-13 -6e-45 4.239063e-14 1.4443866e-13 3.5777496e-23
-4.9451586e-08 -7.225725e-19 -1.2789452e-08 8.501197e-15 2.1756441e-13 1.121494e-13 1e-45 9.105238e-05
2.522095e-12 -2.8132003e-15 6.868069e-08 -3.2968598e-33 6.5133066e-13 8.392064e-25 -1.5986809e-11 -6.980526e-32
1.3921788e-09 -1.8956099e-08 -1.4856758e-08 6.810384e-08 -1.9968792e-14 5.5192467e-14 2.7133577e-13 -1e-45
4.3921108e-14 2.3747134e-13 -1.5293647e-16 -1.8948827e-23 -3.0288077e-13 -2.055057e-08 2.403296e-13 7.284465e-12
-2.9328802e-13 -1.1418624e-14 3.0256036e-13 8.9123964e-10 4.499849e-14 1.1639453e-08 1.1743023e-10 1.5200906e-15
5.324317e-10 -5.6250926e-14 -2.855227e-34 -2.9911083e-13 2.951105e-13 7.670167e-14 -2.5832873e-13 5.0319097e-05
-2.792289e-13 -1.4393168e-34 -1.3741188e-24 3.45768e-33 -5.5052798e-14 -1.0126684e-14 4.9100763e-17 4.0590835e-34
-1.5563905e-05 -1.1626619e-06 -8.085929e-06 -1.4187664e-05 -6.7044116e-06 -1.39812655e-05 -8.924608e-06 1.6447932e-06
-1.1941224e-06 -1.6412876e-06 -8.299779e-07 3.8515114e-07 -2.4834051e-05 -6e-45 -1.8088227e-05 -1.9193212e-05
-5.366126e-06 -1.284586e-05 -1.9791245e-05 -9.348127e-06 4.118244e-08 6e-45 -6e-45 4.566765e-06
6e-45 -2.128449e-06 3.2866646e-12 -1.8077133e-05 9.540065e-07 6.348484e-11 9.949766e-07 -1.2420851e-05
-2.1979278e-05 -2.7782497e-05 1.277824e-07 2.6728142e-06 -1.2879352e-05 -3.0010846e-05 -1.1426111e-05 1.7002826e-06
6.590062e-06 2.0077972e-07 -1.3017218e-05 -1.0472116e-05 -2.2080387e-05 6e-45 -9.927261e-06 -1.6683458e-05
1.2409706e-07 -2.2760925e-05 1.4624511e-05 2.5777468e-05 -1.6464628e-05 -1.250586e-05 8.732175e-06 5.449466e-07
-2.5503397e-05 -7.0506026e-06 -5.041817e-06 -1.1508588e-05 -2.19327e-06 5.3730846e-09 -2.276032e-05 -1.6774917e-05
6.114288e-05 -0.00013056281 -6.236341e-05 4.8999493e-05 4.2640382e-05 -7.020066e-05 -1.992391e-05 -1.6741721e-07
-2.0946874e-05 4.393177e-05 -0.00010935962 -3.3068181e-06 4.884877e-05 -1.1966691e-07 -1.1532297e-05 7.397171e-05
-8.249633e-06 -5.138229e-05 4.501446e-05 -6.8498826e-05 3.9734692e-05 1.694269e-33 6e-45 -3.0233088e-05
1.1875002e-07 -2.0549187e-05 -1.7307723e-08 -3.1204578e-05 -1.1162402e-06 -5.2901038e-11 -2.1868281e-07 5.502442e-05
-5.082916e-05 -2.9550281e-05 -1.460318e-05 -3.2795553e-05 -9.1509944e-05 -2.1880902e-05 -1.817305e-06 -2.0192463e-05
6.847921e-05 5.22179e-07 7.573694e-05 -6.0390805e-05 -0.00010257274 8.0964646e-10 2.9403942e-05 3.8572394e-05
-2.0798954e-08 2.9928851e-05 -4.0758092e-05 3.2582166e-06 -1.44198175e-05 -5.4548323e-06 -3.7458518e-05 -2.8834531e-06
-5.2364307e-05 -7.966406e-05 -7.38649e-05 -0.00010306762 4.067758e-05 1.6926606e-07 1.7988667e-06 9.364368e-05

exp_avg_sq f4 [256, 64]
00000000: 9b90 c033 cdab 6b33 407e b033 04c5 d133
00000010: 1745 e333 3065 2534 c667 a034 4155 002d
00000020: 860b fc33 cdca 3f32 73a7 5133 4a3d a72d
00000030: d1be 1235 fa76 8c22 c966 8433 355c e033
00000040: 7291 d734 59eb 2834 5da2 8634 78a0 db32
00000050: acad 6e32 4477 3f2c b0c6 3c2c 0591 1b33
00000060: 17b4 432c d8d8 ff32 00da 5e2c 7490 0d34
00000070: 774e e331 8bd5 062d e71a 4f33 bc4d 5d33
00000080: a912 ff33 82a7 3d34 15d2 4434 83c1 f832
00000090: c463 4233 dcba 8434 118b de33 84dc be33
000000a0: 8f20 7835 db8b 072f 36b2 0734 245f 8f33
000000b0: 8ae2 8634 31d5 ab20 8e11 9433 7502 0035
000000c0: f7ef 6e30 1f2b 0e34 9ed2 0735 1553 b135
000000d0: 56b1 7334 0b11 9633 1a7e 6a35 c982 af34
000000e0: 0283 a334 7ea2 b133 7472 6f33 41ad ab34
000000f0: d207 bd34 5db1 992c 4f73 5834 2e1d c533
00000100: 378c c025 e9d7 d929 5949 ae2b d62f ee29
00000110: 499a 0825 70df 082a 2911 b729 8fe6 5428
00000120: f7a4 c02c aa96 ea28 1b74 e82c 03e9 7729
00000130: 4da6 c029 5076 b229 efba f325 89e4 0831
00000140: 0517 a82a 73e2 5829 0e64 9b2c ff46 0227
00000150: 2fdb 352a 9bd6 0328 3991 872a 5002 1227
00000160: 629d 132b 6861 c22b 8743 082c 3c1d 932c
00000170: d1c1 052a 7852 0d2a bb3c e129 d8e4 4f27
00000180: 5b28 092a dd0b e629 aa8b 3329 da36 3128
00000190: c7b7 cd29 c7c5 e22b 6ea7 c329 652a 722a
000001a0: 08bc cb29 79e1 8729 3f4a 252a 802d 012b
000001b0: 4047 112a 6744 9d2b 5f95 c12a 86bf 4d29
000001c0: 1361 e92a 65e0 a829 d9fd bf25 bde0 cc29
000001d0: 2815 cc29 f9bc ac29 ab2a c629 f9b6 f82f
000001e0: 0e03 e029 9894 9726 7476 0928 c86e e326
000001f0: bad6 0d2a c47c 8029 8fa8 2c29 885f 4126
00000200: a551 1637 d03d 0937 af12 9a36 2768 4d36
00000210: ba10 0f37 1d69 9434 17fc 8435 2ed1 6e2d
00000220: e8b7 8c36 ef28 7f36 3c91 1737 f38a 7033
00000230: f3b8 2637 c966 e128 5226 fa35 0002 8e36
00000240: 6fbc 1f38 7873 4637 16c6 1137 1740 6136
00000250: 1c32 1f37 e867 fd28 8f32 2225 45c9 ec36
00000260: fa0e 7429 684c 0133 d12d 632b f0f2 1f37
00000270: 11c1 cc32 61a5 232f 2141 8132 4f3c 5337
00000280: 5b45 0d36 4c88 bb36 4a0e 9336 84e4 c234
00000290: cbee b137 113a 6b37 1b68 4937 84c7 4f34
000002a0: 3e55 1c36 02b8 4735 07d5 f136 9f3f f633
000002b0: 5052 2e36 5b81 0c29 7aff a436 2064 9c37
000002c0: 53f9 322e 4c42 bc36 33cc 1338 cde4 a738
000002d0: d620 b336 a7e2 8a36 38ab f335 9953 7d31
000002e0: 8d06 9736 ea55 7436 a8cc 4f36 cf1d d835
000002f0: 3b0e 5538 b4a0 d72a 744e e936 5af3 0737
00000300: 45c8 5834 b693 a634 bb45 9031 4249 4533
00000310: a818 b033 7d30 cc31 92a5 4933 83be 8f2c
00000320: 1d3b 1832 7e76 a432 1650 d933 eb16 6e31
00000330: b402 0a35 bd96 702c 2504 8c32 250e 2b34
00000340: 73df 0b36 e9de 2034 3063 1034 152f bd33
00000350: 4d1e f930 2da0 9d24 cec6 0f1f 19ce cb30
00000360: acec 6f2c 42dd b430 bf10 8a2a 9d3b 1134
00000370: d3df ff2e e3e4 a52c 544b 102f a658 4d34
00000380: f969 c333 4ead 5434 acf8 9a31 824e a132
00000390: de2d 3734 56cb 0335 ada9 3234 ee4e e630
000003a0: c7e4 9a32 1f1a 152e 7b05 8334 20b8 1531
000003b0: 2a92 2533 8fe8 4127 5c1b 0034 5174 4d33
000003c0: 7658 712a d329 fa33 b22b 2d32 9e71 d232
000003d0: 0d54 da32 93d8 3134 8c65 9332 fdcf 412f
000003e0: 34c5 8133 b84b 4f32 cc89 5232 54da a333
000003f0: e3be 4a35 87dc 512d 508a c034 0cdc a633
8.967e-08 5.4871453e-08 8.2186034e-08 9.768158e-08 1.05830786e-07 1.5403634e-07 2.9877828e-07 7.294888e-12
1.17367605e-07 1.1163775e-08 4.88139e-08 1.901292e-11 5.466691e-07 3.8073047e-18 6.1654255e-08 1.0447585e-07
4.0152696e-07 1.5731838e-07 2.507758e-07 2.5567928e-08 1.3892912e-08 2.7208938e-12 2.68267e-12 3.6220644e-08
2.7811137e-12 2.9784516e-08 3.1669112e-12 1.31842e-07 6.61549e-09 7.664434e-12 4.822041e-08 5.152627e-08
1.1877757e-07 1.7662936e-07 1.833035e-07 2.8958999e-08 4.525988e-08 2.4722874e-07 1.03629766e-07 8.887676e-08
9.243458e-07 1.2327865e-10 1.2637688e-07 6.6762624e-08 2.5124274e-07 2.9109605e-19 6.89498e-08 4.768729e-07
8.6924906e-10 1.3240468e-07 5.059791e-07 1.3211708e-06 2.2695653e-07 6.9880194e-08 8.7355295e-07 3.269145e-07
3.0456437e-07 8.271762e-08 5.575062e-08 3.197729e-07 3.5209683e-07 4.368213e-12 2.0158517e-07 9.178835e-08
3.3401704e-16 9.67419e-14 1.2383802e-12 1.05776214e-13 1.1848393e-16 1.2156747e-13 8.1298094e-14 1.18183585e-14
5.475283e-12 2.6044559e-14 6.606727e-12 5.5047123e-14 8.5553614e-14 7.925312e-14 4.2280452e-16 1.9920512e-09
2.9858768e-13 4.8158048e-14 4.4164733e-12 1.8079611e-15 1.6152074e-13 7.318496e-15 2.4081586e-13 2.0262824e-15
5.2443304e-13 1.3811565e-12 1.9364248e-12 4.181237e-12 1.1880017e-13 1.2551928e-13 1.0002542e-13 2.8851077e-15
1.2182045e-13 1.021611e-13 3.9867124e-14 9.837368e-15 9.135709e-14 1.611316e-12 8.688784e-14 2.1508626e-13
9.047629e-14 6.0343176e-14 1.4680703e-13 4.589315e-13 1.2903307e-13 1.1174506e-12 3.4387334e-13 4.5685264e-14
4.1456473e-13 7.499625e-14 3.3305232e-16 9.098406e-14 9.06309e-14 7.671116e-14 8.800368e-14 4.5240947e-10
9.948128e-14 1.0518006e-15 7.630713e-15 1.5781316e-15 1.2597814e-13 5.705985e-14 3.8337873e-14 6.7089795e-16
8.959706e-06 8.180228e-06 4.5917327e-06 3.0608005e-06 8.527359e-06 2.7643628e-07 9.908134e-07 1.3575181e-11
4.1937346e-06 3.8021788e-06 9.034116e-06 5.6005728e-08 9.937433e-06 2.5024594e-14 1.8637604e-06 4.2321626e-06
3.8084047e-05 1.1828604e-05 8.688794e-06 3.3564918e-06 9.4888055e-06 2.8133705e-14 1.406839e-16 7.056779e-06
5.4191874e-14 3.0104644e-08 8.0710184e-13 9.533702e-06 2.3836522e-08 1.4883518e-10 1.5047194e-08 1.2590622e-05
2.1051007e-06 5.5889013e-06 4.382605e-06 3.6301583e-07 2.121124e-05 1.4020611e-05 1.20047725e-05 1.935096e-07
2.329543e-06 7.4401044e-07 7.2071593e-06 1.146684e-07 2.5975933e-06 3.1198443e-14 4.9173223e-06 1.8643274e-05
4.069396e-11 5.6105546e-06 3.5237706e-05 8.005798e-05 5.3384383e-06 4.1391063e-06 1.8154742e-06 3.6863865e-09
4.5009133e-06 3.6408842e-06 3.096453e-06 1.610193e-06 5.079641e-05 3.8303182e-13 6.9530743e-06 8.103287e-06
2.0189425e-07 3.1027383e-07 4.198879e-09 4.5934264e-08 8.2001236e-08 5.942694e-09 4.6949545e-08 4.0854555e-12
8.861005e-09 1.9145997e-08 1.01194175e-07 3.4646586e-09 5.141294e-07 3.4189728e-12 1.630003e-08 1.5930762e-07
2.0842679e-06 1.4982255e-07 1.3447129e-07 8.8095625e-08 1.8125746e-09 6.8359245e-17 3.0445875e-20 1.482877e-09
3.4095322e-12 1.3159609e-09 2.4525344e-13 1.3525865e-07 1.16358166e-10 4.7149936e-12 1.3123486e-10 1.9124363e-07
9.0996714e-08 1.9807086e-07 4.5102606e-09 1.8778568e-08 1.705989e-07 4.9097196e-07 1.663927e-07 1.6757136e-09
1.8031995e-08 3.3901878e-11 2.440464e-07 2.1787017e-09 3.854999e-08 2.69102e-15 1.1930882e-07 4.783607e-08
2.1435791e-13 1.164914e-07 1.00798605e-08 2.4498885e-08 2.5416762e-08 1.6563199e-07 1.715923e-08 1.762714e-10
6.042902e-08 1.2066202e-08 1.225494e-08 7.6299926e-08 7.552864e-07 1.19292414e-11 3.5863422e-07 7.770004e-08

exp_avg f4 [64]
00000000: 3ff3 c736 050f 73b8 495f 47b8 2aaf 80b7
00000010: 1e88 8cb7 6f00 d537 c2ae 5638 54b0 84b7
00000020: 1a1b a3b8 8439 9fb6 e5d6 abb8 23b1 0db6
00000030: 6e3b ad38 0400 0080 3965 f5b7 bf2c ceb8
00000040: 0f53 bab6 a819 14b9 0c62 1ab9 9a80 fab7
00000050: cd08 2fb7 0400 0000 0400 0000 9dd7 f737
00000060: 3845 b727 aeb3 65b8 f8be 8fae 8966 82b8
00000070: 2c47 1a37 2878 0e31 102d 6b37 f58b 2eb8
00000080: fb8b 09b7 4789 68b8 6bbc 25b8 3efb 88b7
00000090: 5d97 0db8 2cc2 9e37 209e bfb7 111a 90b7
000000a0: 1147 b8b8 4542 0737 5c5f 7e37 43af 3238
000000b0: d8a2 8738 0400 0000 e826 2eb8 53ec 0bb9
000000c0: a851 f6b6 80c0 ccb7 8697 99b7 4dc4 89b8
000000d0: 660c b0b8 62fc c7b8 f429 bfb8 e8d9 0439
000000e0: 76ba 19b8 c58a 35b8 a4b6 85b8 50fa 7e38
000000f0: a2b5 59b9 2ae7 8c35 1e56 d238 793c 8ab8
5.9589797e-06 -5.7949703e-05 -4.753404e-05 -1.5340356e-05 -1.6752685e-05 2.539178e-05 5.1184332e-05 -1.5817735e-05
-7.777494e-05 -4.745265e-06 -8.1939426e-05 -2.1113744e-06 8.2603525e-05 -6e-45 -2.9253411e-05 -9.83118e-05
-5.5529013e-06 -0.00014123938 -0.0001472311 -2.9862207e-05 -1.0432862e-05 6e-45 6e-45 2.9545097e-05
5.086775e-15 -5.4765194e-05 -6.53681e-11 -6.217982e-05 9.195686e-06 2.073202e-09 1.4017583e-05 -4.1615178e-05
-8.198428e-06 -5.544096e-05 -3.9514543e-05 -1.6329457e-05 -3.3757988e-05 1.8925486e-05 -2.2842607e-05 -1.7178276e-05
-8.787041e-05 8.062057e-06 1.5161782e-05 4.2601732e-05 6.467634e-05 6e-45 -4.1521067e-05 -0.0001334411
-7.3408773e-06 -2.4408335e-05 -1.830958e-05 -6.569233e-05 -8.3946434e-05 -9.5360694e-05 -9.115404e-05 0.00012669677
-3.6651698e-05 -4.3283002e-05 -6.375954e-05 6.079144e-05 -0.00020762396 1.049809e-06 0.00010029621 -6.591617e-05

exp_avg_sq f4 [64]
00000000: 37fd 9137 63db 6237 a6c8 5f38 2fe2 8638
00000010: 7a12 5437 ea33 a737 3185 4f37 d606 dc30
00000020: 17ef 3637 7a0b b037 2856 9737 ba01 9036
00000030: 5241 4838 f898 d422 52fb 5f39 1d0a 6b38
00000040: 4034 0538 048f de37 47e4 d839 23e0 ad38
00000050: 9596 8537 9c50 fe26 b7c7 d629 a6b2 8a39
00000060: 885c fa28 bba1 fa38 cc90 352a 89a7 2538
00000070: 5597 e035 19fd b430 b3ac 4c36 5a54 8b38
00000080: 0a18 0839 ec05 d839 8fe8 bf37 b720 4b37
00000090: 6f53 1138 c186 4139 287f 6e38 6a13 df35
000000a0: 7e0e 8e39 ecfb 5535 885b df37 f16c ce36
000000b0: 484f 8738 e44f 1526 3485 8437 c25e 4939
000000c0: dc87 9033 fec7 a239 b8f7 b239 685f 9e38
000000d0: 7079 1e39 19bb a837 097f 7638 fdf3 9437
000000e0: ef79 3839 453e c138 bf1d ce37 6712 3439
000000f0: a54d 0839 9ac8 2436 380f 3638 42e8 9c38
1.740326e-05 1.352173e-05 5.335421e-05 6.431748e-05 1.2640487e-05 1.9932126e-05 1.23691725e-05 1.600905e-09
1.0903713e-05 2.098618e-05 1.8040722e-05 4.2917354e-06 4.774455e-05 5.7624677e-18 0.00021360561 5.6037785e-05
3.1758333e-05 2.653106e-05 0.0004136881 8.2910316e-05 1.5924956e-05 1.764664e-15 9.538154e-14 0.00026454515
2.7795705e-14 0.000119510536 1.6126266e-13 3.9495095e-05 1.6733344e-06 1.3168658e-09 3.0498893e-06 6.643748e-05
0.00012978926 0.00041203143 2.2877268e-05 1.210736e-05 3.4648398e-05 0.00018456114 5.6862045e-05 1.6620445e-06
0.00027095148 7.971528e-07 2.6626294e-05 6.151961e-06 6.452069e-05 5.180303e-16 1.5797654e-05 0.00019204154
6.730235e-08 0.00031048054 0.0003413537 7.551798e-05 0.00015113293 2.0114285e-05 5.876928e-05 1.775659e-05
0.00017593031 9.214556e-05 2.4570965e-05 0.00017172993 0.00012998896 2.455467e-06 4.3406355e-05 7.481921e-05

exp_avg f4 [256]
00000000: cd3e c0b7 0000 0000 3169 e3b8 3217 8236
00000010: bdea 9637 7bd5 e3b7 992d 4837 0400 0000
00000020: d9c0 abb6 0400 0080 4922 f8b6 528a 2f38
00000030: b26d 3f37 ba4a 8538 654c 02b7 01e9 9c37
00000040: a4ec 4838 0400 0000 d8b5 d238 f5a0 7f38
00000050: e6b0 06b7 2a21 9eb5 0000 0000 0000 0000
00000060: 3fcb cab8 4357 cdb6 cd61 64b6 7da6 4337
00000070: 71e3 04b9 c802 ce38 9bee 7eb8 45f0 56b8
00000080: 0000 0000 e4a9 75b8 13b8 9eb7 8862 84b9
00000090: f67d d8b8 5c09 b136 1b48 4cb9 115a 6937
000000a0: 0000 0000 6404 83b7 ea6f 44b7 16a1 80b8
000000b0: a95c 77b8 0000 0000 6ec5 01b9 8404 f8b7
000000c0: e17b bcb6 4e61 eb34 74c5 b9b7 155e 37b8
000000d0: 44aa 49b8 9e2d 1ab8 6c5d 28b8 f3b2 8cb8
000000e0: eca6 dbb6 0000 0000 74ba 4cb8 07da 3b38
000000f0: 2983 93b7 6b9a 06b8 b501 06b8 d018 98b7
00000100: ded2 a0b7 0000 0000 fd54 9ab8 a008 97b7
00000110: 9ca8 e1b5 995f 5c38 0400 0000 1150 e437
00000120: 4868 8d38 bd65 adb8 b8ac 97b7 6d10 d637
00000130: 33d2 e537 6ebd fdb7 871d 1639 0000 0000
00000140: 1814 5fb8 9a38 59b8 0c76 9835 0400 0080
00000150: ecdd 80b7 81d1 3db8 358c b336 d374 b9b6
00000160: 0ea7 3e38 9089 1337 a7fe 99b8 08bb 97b6
00000170: 41b2 6fb9 d3b9 70b7 769d 2bb8 5fda 08b7
00000180: 1957 08b8 0400 0000 d72f e036 c1dd 4839
00000190: e42f 1a37 3ac6 d0b7 3249 3a37 2ccd 99b7
000001a0: 0000 0000 1b7a c1b8 0cfe 46b7 aeb3 2437
000001b0: 2a49 2db8 fa83 8738 9e4c 14b8 13b5 04b7
000001c0: 2702 b436 f95a a1b7 c4d4 0eb8 f110 e035
000001d0: cb54 0a37 774a 2fb7 d42e 8638 bc8a aeb8
000001e0: 3473 52b8 7532 ac36 b1dc 9fb8 0000 0000
000001f0: 8dd6 80b8 0000 0000 034d 92b8 b8a6 c4b7
00000200: 6806 6fb8 c923 fe37 0000 0000 0000 0000
00000210: 3f6d 3237 3a66 7d36 fc6c 70b8 72da 6c37
00000220: bb41 4bb8 e2d3 deb5 adeb 7bb8 8141 04b8
00000230: 804c ceb7 b763 9a37 1f51 95b6 3600 cb37
00000240: 0000 0000 462c 35b8 703b 2db8 fd88 1fb7
00000250: d153 46b8 b8ba 5ab7 fb65 8c36 439e 64b8
00000260: 3fef f0b6 0400 0080 0ebb efb6 0000 0000
00000270: 6dc6 0e37 0400 0000 f28c a235 0400 0080
00000280: c5e9 18b7 2251 1cb8 b597 1738 735a aa37
00000290: 9222 45b8 3e88 62b8 f88b c3b7 04ec 6fb7
000002a0: be5b 4c38 a065 d2b8 0400 0080 18ce 8438
000002b0: 9c28 b737 7fdb c936 f030 d5b5 e20b a3b8
000002c0: ca45 7137 eb9a 8437 6bef d6b5 df4d ceb6
000002d0: e45e f837 6e00 d438 63fb 9236 0000 0000
000002e0: 8c9a 0cb8 108f 6f37 68aa d337 4a15 3cb7
000002f0: cee8 97b8 4075 90b8 83be 80b8 e49b a2b7
00000300: 0118 92b8 7d99 f7b7 6b9b e4b8 10f3 cd37
00000310: 1bef 28b7 5912 91b5 ce25 93b8 378e e8b8
00000320: 9672 73b8 849b 21b7 5ed7 a836 ae10 1d37
00000330: b1dd 2cb8 0000 0000 f2aa 09b8 18fb 2ab7
00000340: 0000 0000 dfb1 74b6 aea1 2a37 fad8 5cb8
00000350: 782a 9837 f359 b9b7 14bd e938 daf4 30b6
00000360: b0c8 73b8 0400 0080 6b32 1b37 0000 0000
00000370: 62af bbb8 06b7 6529 afff 02b8 0e9c 8cb8
00000380: 1da8 3fb8 0400 0000 1b5a 34b8 e5a9 3336
00000390: f381 81b7 f00f fcb7 28a4 62b7 ddc3 b337
000003a0: 0000 0000 a9d0 aa38 0000 0000 ae6d 82b8
000003b0: 0400 0000 cb83 fbb6 0000 0000 05b4 8037
000003c0: 0063 27b7 2047 1537 10f3 4937 0000 0000
000003d0: 5ab7 94b7 7bee ceb7 b7a7 38b8 1c85 0138
000003e0: ea8e 99b7 6d74 14b8 c178 7837 08c3 8ab7
000003f0: ca0c 13b8 4174 fab7 ff4f a1a9 9cbb 6d38
-2.2917427e-05 0.0 -0.00010843797 3.877002e-06 1.7990702e-05 -2.7159918e-05 1.19315455e-05 6e-45
-5.1186476e-06 -6e-45 -7.3949673e-06 4.1852072e-05 1.1410028e-05 6.355853e-05 -7.766391e-06 1.870515e-05
4.7904105e-05 6e-45 0.00010047451 6.094664e-05 -8.02821e-06 -1.1781569e-06 0.0 0.0
-9.669968e-05 -6.1196347e-06 -3.4031575e-06 1.1661669e-05 -0.0001267323 9.8233635e-05 -6.0780538e-05 -5.1245344e-05
0.0 -5.8570775e-05 -1.8920784e-05 -0.00025250413 -0.00010323145 5.2761006e-06 -0.00019481817 1.3908852e-05
0.0 -1.5618461e-05 -1.1708567e-05 -6.13352e-05 -5.8975686e-05 0.0 -0.00012375947 -2.9566007e-05
-5.617258e-06 4.384296e-07 -2.2145665e-05 -4.371822e-05 -4.8080707e-05 -3.6758945e-05 -4.0141327e-05 -6.709052e-05
-6.546141e-06 0.0 -4.8811038e-05 4.4787328e-05 -1.7584842e-05 -3.2091903e-05 -3.194968e-05 -1.8131366e-05
-1.9171679e-05 0.0 -7.3591225e-05 -1.8004619e-05 -1.6812878e-06 5.254112e-05 6e-45 2.7217002e-05
6.742828e-05 -8.268233e-05 -1.8081031e-05 2.5518437e-05 2.7396809e-05 -3.024816e-05 0.00014316115 0.0
-5.3186057e-05 -5.1789546e-05 1.1359239e-06 -6e-45 -1.536213e-05 -4.5256227e-05 5.350938e-06 -5.5270298e-06
4.5455112e-05 8.793912e-06 -7.343041e-05 -4.521924e-06 -0.00022859221 -1.434838e-05 -4.0916224e-05 -8.157075e-06
-3.2506043e-05 6e-45 6.6812895e-06 0.00019156096 9.190266e-06 -2.4887839e-05 1.1103506e-05 -1.8334562e-05
0.0 -9.225701e-05 -1.186087e-05 9.816997e-06 -4.1314554e-05 6.461884e-05 -3.5357305e-05 -7.909973e-06
5.3646686e-06 -1.9235058e-05 -3.405359e-05 1.6694231e-06 8.245183e-06 -1.04481505e-05 6.39834e-05 -8.322808e-05
-5.0175193e-05 5.1318734e-06 -7.622818e-05 0.0 -6.143479e-05 0.0 -6.976167e-05 -2.3442655e-05
-5.6988007e-05 3.0295823e-05 0.0 0.0 1.0635063e-05 3.7759442e-06 -5.732196e-05 1.4117557e-05
-4.8460188e-05 -1.6601955e-06 -6.0062554e-05 -3.1532258e-05 -2.4592737e-05 1.8404664e-05 -4.44999e-06 2.4199584e-05
0.0 -4.3194996e-05 -4.130177e-05 -9.509034e-06 -4.728494e-05 -1.3037286e-05 4.184197e-06 -5.450683e-05
-7.1804093e-06 -6e-45 -7.144531e-06 0.0 8.510059e-06 6e-45 1.2110961e-06 -6e-45
-9.114335e-06 -3.726886e-05 3.6142494e-05 2.0307698e-05 -4.7000656e-05 -5.4009484e-05 -2.331099e-05 -1.4300462e-05
4.872283e-05 -0.000100325095 -6e-45 6.3326384e-05 2.183421e-05 6.0158195e-06 -1.5883979e-06 -7.774659e-05
1.4380968e-05 1.5807766e-05 -1.6013922e-06 -6.148344e-06 2.960809e-05 0.00010109028 4.3804043e-06 0.0
-3.3522534e-05 1.4278819e-05 2.5232512e-05 -1.121063e-05 -7.243604e-05 -6.8882946e-05 -6.139001e-05 -1.9384497e-05
-6.9662936e-05 -2.9516168e-05 -0.00010900836 2.455109e-05 -1.0069251e-05 -1.0808682e-06 -7.016548e-05 -0.00011089112
-5.804243e-05 -9.632557e-06 5.031862e-06 9.361813e-06 -4.121446e-05 0.0 -3.282255e-05 -1.0191252e-05
0.0 -3.6462368e-06 1.0170434e-05 -5.2654163e-05 1.8139588e-05 -2.2095604e-05 0.00011145524 -2.6368566e-06
-5.812262e-05 -6e-45 9.250459e-06 0.0 -8.9495225e-05 5.1006962e-14 -3.123254e-05 -6.704788e-05
-4.5694516e-05 6e-45 -4.299926e-05 2.677197e-06 -1.543851e-05 -3.0048162e-05 -1.350887e-05 2.1429669e-05
0.0 8.145098e-05 0.0 -6.2193125e-05 6e-45 -7.4957256e-06 0.0 1.5342617e-05
-9.977026e-06 8.897652e-06 1.2037126e-05 0.0 -1.7728355e-05 -2.4668165e-05 -4.4025215e-05 3.0879964e-05
-1.830557e-05 -3.539438e-05 1.4810067e-05 -1.65417e-05 -3.5059442e-05 -2.9856457e-05 -7.1637134e-14 5.6679928e-05

exp_avg_sq f4 [256]
00000000: 84eb 8036 0000 0000 6592 5139 8575 4036
00000010: 36f4 8c38 2905 e138 d231 7d36 d3b5 7b20
00000020: 561a c338 2296 842b 86df 3d38 2ed2 6d37
00000030: a6ed 6838 d760 6439 8359 4332 0e95 a838
00000040: f079 cd37 e33c a428 fa00 9239 4783 5136
00000050: 3dac a838 0013 a838 0000 0000 0000 0000
00000060: db7b f035 a11b 3e38 db17 cd35 4c36 7b38
00000070: 98f3 ed36 b176 0438 ccaf 0738 456d 4039
00000080: 0000 0000 5d88 9538 5086 ab35 9eec 0839
00000090: a3f4 9f37 3cb8 5738 40c9 0c38 991e 9e38
000000a0: 0000 0000 d5b4 2138 090c d332 1ff4 4e38
000000b0: 7e37 5738 0000 0000 29d7 9f37 481e 7d37
000000c0: 8940 e437 aa00 1338 697c 8e37 25a9 1a38
000000d0: 34e7 a938 f4d0 3637 5c41 8237 a15d d937
000000e0: a661 8e37 0000 0000 a0ae 1439 f9ac fd37
000000f0: bf01 4338 66c8 7238 02fa 0c38 bfec 3638
00000100: a5ea 4138 0000 0000 9b21 3d38 418c 0235
00000110: 24b0 3538 0bf7 0239 b6b6 0631 d90a 1e39
00000120: d99a 5a38 0341 d333 8c39 8138 e9eb ba37
00000130: d9c3 5138 e0e5 4138 1d28 4939 0000 0000
00000140: bbac 3a38 30f2 8639 00c9 d337 4e72 4728
00000150: fda5 a638 916f e937 8e99 b738 4613 c237
00000160: ab14 f537 a549 8038 c926 0d3a cb09 8f38
00000170: 3b88 e037 15e4 ad38 cc05 b635 f5fb 2f37
00000180: 32a8 9238 94f2 3a2b e238 5437 d90e 1c39
00000190: 5ba3 8e37 0855 4138 0285 2c37 c8ba 0337
000001a0: 0000 0000 ab79 9f39 a597 6838 783f 5137
000001b0: 961e 1339 7271 2039 03f5 7535 1a74 e337
000001c0: 3558 5d35 5c28 2738 88e2 4138 2c20 5335
000001d0: 76b8 0539 ea61 1937 5b37 0f37 3aa9 7e38
000001e0: 6417 a237 1757 7239 21be b739 0000 0000
000001f0: 71cc 1538 0000 0000 d719 a738 532a 0c39
00000200: 9f14 cf38 c1f6 fc36 0000 0000 0000 0000
00000210: 0665 de37 18db 3538 a545 fb37 fa5e 5139
00000220: 757a 4537 db70 9735 30f0 4d39 cd25 d837
00000230: 0886 1e38 fce3 8d37 b2c2 2836 4a7a b438
00000240: 0000 0000 66c5 0339 1e0e 4a38 c878 ea37
00000250: c1fb 6638 9353 9737 3d07 9638 e1b6 da37
00000260: fa8e 5938 7d54 4e25 c9f5 2938 0000 0000
00000270: 92c8 f535 88aa 4933 fa3d 0a39 efb4 6c25
00000280: 5d36 6a39 9fa6 7b38 e372 b437 c04c 5b36
00000290: 3f0e a738 3c4b 8237 479b e837 5d1c b936
000002a0: edb6 c938 a6eb 1039 54cd e933 4fda 0c39
000002b0: d40f 1a38 c28f a733 3e70 2936 0b4f 4038
000002c0: 8fe6 8b38 43ce ea38 0521 b337 0e1e bb35
000002d0: f9cd 4d37 a20c de36 9835 9038 0000 0000
000002e0: 8900 9637 e9f5 9938 45d0 b536 5919 3038
000002f0: 32a0 d736 80a4 6d38 1094 5838 4b03 b732
00000300: 81e8 443a bd6b 9638 49ea 2e38 f6a7 9d38
00000310: c545 e937 a364 2338 188e 5339 7ad9 fc37
00000320: 3f1d 8f37 e453 8b38 70f5 eb35 ac85 2038
00000330: 9620 f838 0000 0000 06c7 4839 b847 6337
00000340: 0000 0000 712c 8b33 e720 9338 f984 7437
00000350: 132d 2b37 316e 4a38 1471 e138 f32d d337
00000360: 4507 7e36 f344 7435 34be 8c38 0000 0000
00000370: afe2 0a39 0c07 6f2f a023 9d38 af53 b338
00000380: f126 1538 c903 8728 8b14 6238 ea5d 6736
00000390: 594a 6d37 caa0 a937 1f11 3f38 7577 2638
000003a0: 0000 0000 35fb 7938 0000 0000 b671 b338
000003b0: 93a8 9625 89c1 fd37 0000 0000 43f9 9637
000003c0: 96b3 a337 d445 2337 b42c e837 0000 0000
000003d0: 00be cd36 6b3e 2638 dbe1 bd38 416b eb37
000003e0: 7b2a ac36 77cd cc35 52cf bc38 6464 2837
000003f0: e793 6f38 2c75 5638 252d af28 8c11 0f3a
3.842115e-06 0.0 0.0001998633 2.8678635e-06 6.721208e-05 0.00010729797 3.7728937e-06 2.1320688e-19
9.30323e-05 9.420834e-13 4.5269284e-05 1.4175237e-05 5.5534438e-05 0.0002177985 1.13708465e-08 8.038628e-05
2.4494686e-05 1.8234063e-14 0.00027848018 3.121984e-06 8.042946e-05 8.014403e-05 0.0 0.0
1.791744e-06 4.532526e-05 1.5280633e-06 5.989363e-05 7.0915085e-06 3.1581792e-05 3.235023e-05 0.00018351253
0.0 7.130273e-05 1.2779583e-06 0.00013058117 1.9068195e-05 5.1431576e-05 3.356603e-05 7.539726e-05
0.0 3.8553804e-05 2.4569106e-08 4.9341583e-05 5.1311676e-05 0.0 1.9054469e-05 1.50870255e-05
2.720977e-05 3.504815e-05 1.6985652e-05 3.687399e-05 8.101613e-05 1.0896696e-05 1.5527643e-05 2.5912015e-05
1.697319e-05 0.0 0.00014179433 3.0240497e-05 4.649325e-05 5.788393e-05 3.361144e-05 4.361267e-05
4.6233316e-05 0.0 4.509241e-05 4.863287e-07 4.3317807e-05 0.00012489797 1.9603426e-09 0.00015072095
5.2119463e-05 9.837279e-08 6.161918e-05 2.2282782e-05 5.001188e-05 4.6228874e-05 0.00019183797 0.0
4.4506723e-05 0.00025738915 2.5246758e-05 1.1071505e-14 7.9464146e-05 2.7827717e-05 8.754722e-05 2.3135577e-05
2.92159e-05 6.117233e-05 0.00053845026 6.8205954e-05 2.6766318e-05 8.2917664e-05 1.3561744e-06 1.0489476e-05
6.993151e-05 6.641712e-13 1.2649429e-05 0.0001488285 1.7003787e-05 4.6093977e-05 1.0282967e-05 7.851697e-06
0.0 0.00030417493 5.545434e-05 1.2472148e-05 0.00014030407 0.00015301051 9.162615e-07 2.7114573e-05
8.2457274e-07 3.985349e-05 4.622576e-05 7.865044e-07 0.00012752585 9.142308e-06 8.536353e-06 6.0715924e-05
1.9322797e-05 0.00023111362 0.00035046137 0.0 3.571477e-05 0.0 7.9679936e-05 0.00013367207
9.87437e-05 7.538911e-06 0.0 0.0 2.6511505e-05 4.335781e-05 2.9953962e-05 0.00019967175
1.1770627e-05 1.1283222e-06 0.000196398 2.5766809e-05 3.7794962e-05 1.6914673e-05 2.5147278e-06 8.605847e-05
0.0 0.0001256667 4.81737e-05 2.7951217e-05 5.5070737e-05 1.803952e-05 7.1539056e-05 2.6072785e-05
5.186999e-05 1.7896278e-16 4.0521645e-05 0.0 1.8312296e-06 4.6954057e-08 0.00013183794 2.053104e-16
0.00022336231 5.999824e-05 2.151117e-05 3.2678217e-06 7.965834e-05 1.5532241e-05 2.7728862e-05 5.5167316e-06
9.6184995e-05 0.00013820696 1.0887257e-07 0.00013432767 3.6731202e-05 7.802693e-08 2.5248296e-06 4.584998e-05
6.6709814e-05 0.00011196409 2.1353839e-05 1.3941333e-06 1.2266909e-05 6.617586e-06 6.876438e-05 0.0
1.7881643e-05 7.341413e-05 5.418466e-06 4.1985277e-05 6.4261485e-06 5.6658406e-05 5.1636307e-05 2.1305501e-08
0.00075114524 7.172625e-05 4.1703028e-05 7.5176285e-05 2.7808253e-05 3.8955954e-05 0.00020175462 3.0142011e-05
1.7060547e-05 6.643662e-05 1.7580296e-06 3.8271464e-05 0.00011831631 0.0 0.00019147628 1.3546953e-05
0.0 6.480776e-08 7.015635e-05 1.4574493e-05 1.0202889e-05 4.8263177e-05 0.000107498985 2.5174557e-05
3.785318e-06 9.099742e-07 6.711148e-05 0.0 0.00013245152 2.1739427e-10 7.492979e-05 8.5509724e-05
3.5560635e-05 1.4989652e-14 5.390173e-05 3.4476348e-06 1.4143611e-05 2.0221243e-05 4.5553894e-05 3.9688737e-05
0.0 5.960018e-05 0.0 8.5565654e-05 2.6135082e-16 3.0250072e-05 0.0 1.7997465e-05
1.951474e-05 9.731815e-06 2.7677372e-05 0.0 6.131595e-06 3.9635615e-05 9.054291e-05 2.8064127e-05
5.130945e-06 1.5258983e-06 9.003155e-05 1.0036954e-05 5.7119785e-05 5.11307e-05 1.9448481e-14 0.0005457632

exp_avg f4 [26, 256]
00000000: 0400 0000 0000 0000 0400 0080 0400 0000
00000010: 0400 0000 0400 0080 0400 0080 0000 0000
00000020: 0400 0000 0000 0000 0400 0000 0400 0000
00000030: 0400 0000 0400 0000 0000 0000 0400 0000
00000040: 0000 0000 0000 0000 0400 0000 0400 0000
00000050: 0400 0000 0400 0000 0000 0000 0000 0000
00000060: 0000 0000 0000 0000 0400 0000 0400 0000
00000070: 0400 0000 0400 0080 0400 0080 0400 0000
00000080: 0000 0000 0400 0000 0400 0000 0000 0000
00000090: 0400 0000 0000 0000 0000 0000 0400 0000
000000a0: 0000 0000 0400 0000 0400 0000 0400 0000
000000b0: 0400 0000 0000 0000 0400 0000 0400 0000
000000c0: 0400 0000 0400 0000 0400 0000 0400 0000
000000d0: 0400 0000 0000 0000 0400 0080 0000 0000
000000e0: 0000 0000 0000 0000 0400 0000 0400 0000
000000f0: 0400 0000 0400 0000 0400 0000 0400 0000
00000100: 0400 0000 0000 0000 0400 0000 0000 0000
00000110: 0400 0000 0400 0000 0000 0000 0400 0080
00000120: 0400 0000 0000 0000 0400 0000 0400 0000
00000130: 0000 0000 0400 0000 0400 0080 0000 0000
00000140: 0400 0000 0000 0000 0400 0000 0000 0000
00000150: 0400 0000 0400 0000 0400 0000 0400 0000
00000160: 0400 0000 0400 0000 0400 0000 0400 0000
00000170: 0400 0000 0000 0000 0400 0000 0400 0000
00000180: 0400 0000 0000 0000 0400 0000 0000 0000
00000190: 0400 0000 0400 0080 0400 0000 0400 0000
000001a0: 0000 0000 0400 0080 0000 0000 0400 0000
000001b0: 0400 0080 0400 0000 0000 0000 0400 0000
000001c0: 0400 0000 0400 0000 0400 0000 0000 0000
000001d0: 0400 0080 0400 0000 0400 0000 0400 0000
000001e0: 0000 0000 0000 0000 0400 0080 0000 0000
000001f0: 0400 0000 0000 0000 0400 0000 0400 0080
00000200: 0400 0000 0400 0000 0000 0000 0000 0000
00000210: 0400 0000 0400 0080 0400 0000 0400 0000
00000220: 0400 0000 0000 0000 0400 0080 0400 0000
00000230: 0400 0000 0400 0000 0000 0000 0400 0000
00000240: 0000 0000 0400 0000 0400 0000 0400 0000
00000250: 0400 0000 0400 0000 0400 0000 0400 0000
00000260: 0400 0000 0000 0000 0400 0000 0000 0000
00000270: 0000 0000 0000 0000 0400 0000 0000 0000
00000280: 0400 0080 0400 0000 0400 0000 0400 0000
00000290: 0400 0000 0400 0000 0400 0000 0400 0000
000002a0: 0400 0000 0400 0000 0000 0000 0400 0000
000002b0: 0400 0000 0000 0000 0400 0000 0400 0000
000002c0: 0400 0000 0400 0000 0000 0000 0400 0080
000002d0: 0400 0000 0400 0080 0400 0000 0000 0000
000002e0: 0400 0000 0400 0000 0400 0000 0400 0000
000002f0: 0400 0000 0400 0000 0400 0000 0000 0000
00000300: 0400 0000 0400 0000 0400 0000 0400 0000
00000310: 0400 0000 0400 0000 0400 0000 0400 0000
00000320: 0400 0000 0400 0000 0400 0000 0400 0000
00000330: 0400 0000 0000 0000 0400 0080 0400 0080
00000340: 0000 0000 0000 0000 0000 0000 0400 0000
00000350: 0400 0000 0400 0000 0400 0000 0400 0000
00000360: 0400 0000 0400 0000 0400 0000 0000 0000
00000370: 0400 0080 0000 0000 0400 0000 0400 0000
00000380: 0400 0000 0000 0000 0400 0080 0400 0000
00000390: 0000 0000 0400 0080 0400 0000 0400 0000
000003a0: 0000 0000 0400 0080 0000 0000 0400 0000
000003b0: 0000 0000 0400 0000 0000 0000 0400 0000
000003c0: 0400 0000 0400 0000 0400 0080 0000 0000
000003d0: 0400 0000 0400 0000 0000 0000 0400 0000
000003e0: 0400 0000 0400 0000 0400 0000 0400 0000
000003f0: 0400 0000 0400 0000 0000 0000 0000 0000
6e-45 0.0 -6e-45 6e-45 6e-45 -6e-45 -6e-45 0.0
6e-45 0.0 6e-45 6e-45 6e-45 6e-45 0.0 6e-45
0.0 0.0 6e-45 6e-45 6e-45 6e-45 0.0 0.0
0.0 0.0 6e-45 6e-45 6e-45 -6e-45 -6e-45 6e-45
0.0 6e-45 6e-45 0.0 6e-45 0.0 0.0 6e-45
0.0 6e-45 6e-45 6e-45 6e-45 0.0 6e-45 6e-45
6e-45 6e-45 6e-45 6e-45 6e-45 0.0 -6e-45 0.0
0.0 0.0 6e-45 6e-45 6e-45 6e-45 6e-45 6e-45
6e-45 0.0 6e-45 0.0 6e-45 6e-45 0.0 -6e-45
6e-45 0.0 6e-45 6e-45 0.0 6e-45 -6e-45 0.0
6e-45 0.0 6e-45 0.0 6e-45 6e-45 6e-45 6e-45
6e-45 6e-45 6e-45 6e-45 6e-45 0.0 6e-45 6e-45
6e-45 0.0 6e-45 0.0 6e-45 -6e-45 6e-45 6e-45
0.0 -6e-45 0.0 6e-45 -6e-45 6e-45 0.0 6e-45
6e-45 6e-45 6e-45 0.0 -6e-45 6e-45 6e-45 6e-45
0.0 0.0 -6e-45 0.0 6e-45 0.0 6e-45 -6e-45
6e-45 6e-45 0.0 0.0 6e-45 -6e-45 6e-45 6e-45
6e-45 0.0 -6e-45 6e-45 6e-45 6e-45 0.0 6e-45
0.0 6e-45 6e-45 6e-45 6e-45 6e-45 6e-45 6e-45
6e-45 0.0 6e-45 0.0 0.0 0.0 6e-45 0.0
-6e-45 6e-45 6e-45 6e-45 6e-45 6e-45 6e-45 6e-45
6e-45 6e-45 0.0 6e-45 6e-45 0.0 6e-45 6e-45
6e-45 6e-45 0.0 -6e-45 6e-45 -6e-45 6e-45 0.0
6e-45 6e-45 6e-45 6e-45 6e-45 6e-45 6e-45 0.0
6e-45 6e-45 6e-45 6e-45 6e-45 6e-45 6e-45 6e-45
6e-45 6e-45 6e-45 6e-45 6e-45 0.0 -6e-45 -6e-45
0.0 0.0 0.0 6e-45 6e-45 6e-45 6e-45 6e-45
6e-45 6e-45 6e-45 0.0 -6e-45 0.0 6e-45 6e-45
6e-45 0.0 -6e-45 6e-45 0.0 -6e-45 6e-45 6e-45
0.0 -6e-45 0.0 6e-45 0.0 6e-45 0.0 6e-45
6e-45 6e-45 -6e-45 0.0 6e-45 6e-45 0.0 6e-45
6e-45 6e-45 6e-45 6e-45 6e-45 6e-45 0.0 0.0

exp_avg_sq f4 [26, 256]
00000000: 9f60 a02e 0000 0000 6241 7e2b 84d5 a32f
00000010: bbda 9132 5572 dd23 91b6 972a 0000 0000
00000020: 7591 0531 0000 0000 be1e 2032 1259 0732
00000030: 8599 0d31 2c87 0d31 0000 0000 a305 7831
00000040: 0000 0000 0000 0000 f144 a02f bd19 b12e
00000050: d7d5 1332 e298 4731 0000 0000 0000 0000
00000060: 0000 0000 0000 0000 d61a 642f 0e97 7830
00000070: 84db 0d22 aafb 832a 2085 af26 3b71 3333
00000080: 0000 0000 1971 9b30 6cff e02f 0000 0000
00000090: 62b5 1731 0000 0000 0000 0000 6646 2025
000000a0: 0000 0000 2831 3a32 35a7 0426 3fad 6732
000000b0: c5c8 b22d 0000 0000 d3fc 1d33 d67d 9c26
000000c0: 49a9 e831 1b6f 3532 df47 882f da60 ac30
000000d0: 97ff 1231 0000 0000 d530 5e2c 0000 0000
000000e0: 0000 0000 0000 0000 8900 9c32 67da 0831
000000f0: f60a e931 1a40 4e31 06ce 382f 4533 3430
00000100: b236 1931 0000 0000 fda5 9931 0000 0000
00000110: 2a89 8632 a2e0 0232 0000 0000 2f3a 862a
00000120: 6d77 f130 0000 0000 1a3d a432 4399 a131
00000130: 0000 0000 c256 2633 cf65 0f2d 0000 0000
00000140: 3dfe 3b31 0000 0000 59c5 f02d 0000 0000
00000150: bcff 2731 cc06 4932 23ab 2633 a5dc c331
00000160: 3743 b232 f46d a72f 1ce9 bb31 31f9 0432
00000170: 2c73 9f2f 0000 0000 cc8f cc31 fe0e b531
00000180: 9c49 2632 0000 0000 894e 3331 0000 0000
00000190: 7596 e731 e624 402b 90df 7032 c93e 5431
000001a0: 0000 0000 6b45 ca2a 0000 0000 b84f 4533
000001b0: ad22 d22c 1df9 fe31 0000 0000 3525 b232
000001c0: 3ff7 0130 f5f5 4c2d 9915 3232 0000 0000
000001d0: a923 782b 93f2 7231 4377 622f 3da5 b42f
000001e0: 0000 0000 0000 0000 b118 482a 0000 0000
000001f0: dad3 ef31 0000 0000 1e9b 6d32 e72e 7e2c
00000200: 1896 9a30 553e 5332 0000 0000 0000 0000
00000210: 482b 8d32 475b 2927 3f8e 7c31 dce2 2422
00000220: 15a8 a732 0000 0000 2185 fe21 9a93 d232
00000230: 2c50 e832 890b 722c 0000 0000 c989 af31
00000240: 0000 0000 935c 902d 3316 5432 3288 8f32
00000250: 7440 2631 f38a a531 cd68 4430 e6da dc30
00000260: a830 5033 0000 0000 feb9 2f31 0000 0000
00000270: 0000 0000 0000 0000 0fa7 cb31 0000 0000
00000280: ccb0 0d2d 1fb8 9032 8c87 d731 c001 8d31
00000290: 4eba ea31 f696 cd2e 4a09 642d ef79 a531
000002a0: 694d ba31 f885 bd2e 0000 0000 4a5f a02f
000002b0: 7f9a 1932 0000 0000 5c3f cd31 6d75 6d32
000002c0: da24 a42a 10f3 ff31 0000 0000 7622 8627
000002d0: 57d8 ee2f dce5 a726 3f86 7532 0000 0000
000002e0: fff9 0d32 b1c3 f631 d0fe 2e30 b8b4 0331
000002f0: 7f47 1631 191d 9432 dacb 342f 0000 0000
00000300: 927f 1133 61a7 1c32 0be0 6231 8bc3 942f
00000310: 94f6 1d31 4e7a f130 e1f5 0932 4b80 0f33
00000320: 93fb b42e 20d9 1232 477d de2e 1919 9230
00000330: e642 4833 0000 0000 40a9 3c2c ea97 bc28
00000340: 0000 0000 0000 0000 0000 0000 cb2c ae31
00000350: 6165 8f30 4d8e e831 1f4a 6732 7f0a ac31
00000360: 2de8 4432 c6d1 db2f 83b7 4532 0000 0000
00000370: a0de e22c 0000 0000 8a0a 2031 52e6 4c31
00000380: 8fa3 3d2f 0000 0000 4f8d 8428 bfc1 1331
00000390: 0000 0000 96ed 1027 5521 1732 c28b 2233
000003a0: 0000 0000 318a 752d 0000 0000 2700 0b31
000003b0: 0000 0000 b446 be32 0000 0000 484a 5e31
000003c0: caae 4b32 57ab 4a32 20b9 e22b 0000 0000
000003d0: 2bc5 d630 7c77 8832 0000 0000 ef8d 1d33
000003e0: 54fb b130 c93e 2425 41c1 fa31 12bb d831
000003f0: 70c6 6c31 54e8 b82e 0000 0000 0000 0000
7.293121e-11 0.0 9.0329664e-13 2.980124e-10 1.6979689e-08 2.400929e-17 2.694967e-13 0.0
1.943673e-09 0.0 9.320216e-09 7.8782865e-09 2.0605466e-09 2.0595037e-09 0.0 3.6091954e-09
0.0 0.0 2.9152816e-10 8.0536e-11 8.605148e-09 2.9045215e-09 0.0 0.0
0.0 0.0 2.0746013e-10 9.0436536e-10 1.9225274e-18 2.3444902e-13 1.2179148e-15 4.1779668e-08
0.0 1.1309879e-09 4.092685e-10 0.0 2.2076496e-09 0.0 0.0 1.390164e-16
0.0 1.0837802e-08 4.602331e-16 1.3485361e-08 2.0325417e-11 0.0 3.6784353e-08 1.0858782e-15
6.771334e-09 1.0560849e-08 2.4789323e-10 1.2542174e-09 2.1391082e-09 0.0 3.1575205e-12 0.0
0.0 0.0 1.8161034e-08 1.9914752e-09 6.7824386e-09 3.0013383e-09 1.6807897e-10 6.5556477e-10
2.229552e-09 0.0 4.4717567e-09 0.0 1.5662028e-08 7.6180715e-09 0.0 2.3843555e-13
1.7569001e-09 0.0 1.9119899e-08 4.7031405e-09 0.0 3.8728793e-08 8.151215e-12 0.0
2.73566e-09 0.0 2.7372481e-11 0.0 2.4447067e-09 1.1701285e-08 3.8805535e-08 5.7003313e-09
2.0752493e-08 3.045525e-10 5.4689178e-09 7.740071e-09 2.9003766e-10 0.0 5.9535292e-09 5.2694977e-09
9.6792085e-09 0.0 2.609257e-09 0.0 6.74009e-09 6.826331e-13 1.4020671e-08 3.088575e-09
0.0 3.5930577e-13 0.0 4.594014e-08 5.9724088e-12 7.420694e-09 0.0 2.0738847e-08
4.7281284e-10 1.1650671e-11 1.0365874e-08 0.0 8.815679e-13 3.5353522e-09 2.059695e-10 3.2859218e-10
0.0 0.0 1.7772135e-13 0.0 6.9799e-09 0.0 1.3830485e-08 3.6121607e-12
1.1247634e-09 1.2295989e-08 0.0 0.0 1.6434242e-08 2.3502943e-15 3.6751684e-09 2.2346243e-18
1.9517794e-08 0.0 1.7246948e-18 2.4514339e-08 2.7044813e-08 3.4396672e-12 0.0 5.1088347e-09
0.0 1.6412016e-11 1.2345072e-08 1.6709325e-08 2.4192817e-09 4.8179287e-09 7.1453315e-10 1.6069321e-09
4.8473026e-08 0.0 2.5571576e-09 0.0 0.0 0.0 5.92707e-09 0.0
8.054179e-12 1.6847535e-08 6.2727334e-09 4.103839e-09 6.8314767e-09 9.349137e-11 1.2962362e-11 4.8159943e-09
5.422113e-09 8.6185226e-11 0.0 2.9171537e-10 8.9409005e-09 0.0 5.9734884e-09 1.3821915e-08
2.9157823e-13 7.4491098e-09 0.0 3.7229834e-15 4.3445667e-10 1.1650256e-15 1.4291401e-08 0.0
8.264123e-09 7.18179e-09 6.366294e-10 1.9165736e-09 2.1868514e-09 1.72427e-08 1.6443327e-10 0.0
3.3876468e-08 9.118453e-09 3.3014682e-09 2.7059985e-10 2.298667e-09 1.7569819e-09 8.030356e-09 3.3411464e-08
8.230141e-11 8.547687e-09 1.0117645e-10 1.0630031e-09 4.6626973e-08 0.0 2.681036e-12 2.0938075e-14
0.0 0.0 0.0 5.069159e-09 1.0433433e-09 6.7682664e-09 1.3462823e-08 5.007052e-09
1.1461492e-08 3.998492e-10 1.1508635e-08 0.0 6.4480227e-12 0.0 2.3289055e-09 2.981683e-09
1.7247558e-10 0.0 1.4716227e-14 2.1501447e-09 0.0 2.011281e-15 8.796936e-09 3.7845673e-08
0.0 1.3957322e-11 0.0 2.0227249e-09 0.0 2.2151063e-08 0.0 3.2347476e-09
1.1855898e-08 1.1796906e-08 1.6109648e-12 0.0 1.5626588e-09 1.5886819e-08 0.0 3.66835e-08
1.2949877e-09 1.4246005e-16 7.297928e-09 6.307695e-09 3.4455319e-09 8.408621e-11 0.0 0.0
