saved_weights/linear/linear_filter_fc1_204_26_0.5/saved_weights_linear_0.1.pth.tar (torch_old, 440028 bytes, 18 tensors)

exp_avg f4 [64, 204]
0	0x36c69748	5.9184713e-06
1	0xb7a40d57	-1.9556535e-05
2	0x35c606c7	1.4754122e-06
3	0x35de6ca4	1.6571908e-06
4	0x36207c76	2.3914304e-06
5	0xb79fef0d	-1.9065594e-05
6	0xb790fe69	-1.7284607e-05
7	0x35de6ca4	1.6571908e-06
8	0x37a95785	2.0187124e-05
9	0xb71472b3	-8.848193e-06
10	0x36bd7054	5.6457156e-06
11	0x35de6ca4	1.6571908e-06
12	0x3711a81b	8.681814e-06
13	0xb7798499	-1.4872429e-05
14	0xb710da74	-8.633931e-06
15	0x35de6ca4	1.6571908e-06
16	0x37ebf64a	2.812887e-05
17	0xb78ac04a	-1.6540424e-05
18	0xb727705c	-9.980136e-06
19	0x35de6ca4	1.6571908e-06
20	0x00000000	0.0
21	0x00000000	0.0
22	0x00000000	0.0
23	0x00000000	0.0
24	0x00000000	0.0
25	0x00000000	0.0
26	0x00000000	0.0
27	0x00000000	0.0
28	0x00000000	0.0
29	0x00000000	0.0
30	0x00000000	0.0
31	0x00000000	0.0
32	0x00000000	0.0
33	0x00000000	0.0
34	0x00000000	0.0
35	0x00000000	0.0
36	0x00000000	0.0
37	0x00000000	0.0
38	0x00000000	0.0
39	0x00000000	0.0
40	0x00000000	0.0
41	0x00000000	0.0
42	0x00000000	0.0
43	0x00000000	0.0
44	0x00000000	0.0
45	0x00000000	0.0
46	0x00000000	0.0
47	0x00000000	0.0
48	0x00000000	0.0
49	0x00000000	0.0
50	0x00000000	0.0
51	0x00000000	0.0
52	0x00000000	0.0
53	0x00000000	0.0
54	0x00000000	0.0
55	0x00000000	0.0
56	0x00000000	0.0
57	0x00000000	0.0
58	0x00000000	0.0
59	0x00000000	0.0
60	0x00000000	0.0
61	0x00000000	0.0
62	0x00000000	0.0
63	0x00000000	0.0
64	0x00000000	0.0
65	0x00000000	0.0
66	0x00000000	0.0
67	0x00000000	0.0
68	0x00000000	0.0
69	0x00000000	0.0
70	0x00000000	0.0
71	0x00000000	0.0
72	0x00000000	0.0
73	0x00000000	0.0
74	0x00000000	0.0
75	0x00000000	0.0
76	0x00000000	0.0
77	0x00000000	0.0
78	0x00000000	0.0
79	0x00000000	0.0
80	0x00000000	0.0
81	0x00000000	0.0
82	0x00000000	0.0
83	0x00000000	0.0
84	0x00000000	0.0
85	0x00000000	0.0
86	0x00000000	0.0
87	0x00000000	0.0
88	0x00000000	0.0
89	0x00000000	0.0
90	0x00000000	0.0
91	0x00000000	0.0
92	0x00000000	0.0
93	0x00000000	0.0
94	0x00000000	0.0
95	0x00000000	0.0
96	0x00000000	0.0
97	0x00000000	0.0
98	0x00000000	0.0
99	0x00000000	0.0
100	0x00000000	0.0
101	0x00000000	0.0
102	0x00000000	0.0
103	0x00000000	0.0
104	0x00000000	0.0
105	0x00000000	0.0
106	0x00000000	0.0
107	0x00000000	0.0
108	0x00000000	0.0
109	0x00000000	0.0
110	0x00000000	0.0
111	0x00000000	0.0
112	0x00000000	0.0
113	0x00000000	0.0
114	0x00000000	0.0
115	0x00000000	0.0
116	0x00000000	0.0
117	0x00000000	0.0
118	0x00000000	0.0
119	0x00000000	0.0
120	0x00000000	0.0
121	0x00000000	0.0
122	0x00000000	0.0
123	0x00000000	0.0
124	0x00000000	0.0
125	0x00000000	0.0
126	0x00000000	0.0
127	0x00000000	0.0
128	0x00000000	0.0
129	0x00000000	0.0
130	0x00000000	0.0
131	0x00000000	0.0
132	0x00000000	0.0
133	0x00000000	0.0
134	0x00000000	0.0
135	0x00000000	0.0
136	0x00000000	0.0
137	0x00000000	0.0
138	0x00000000	0.0
139	0x00000000	0.0
140	0x00000000	0.0
141	0x00000000	0.0
142	0x00000000	0.0
143	0x00000000	0.0
144	0x00000000	0.0
145	0x00000000	0.0
146	0x00000000	0.0
147	0x00000000	0.0
148	0x00000000	0.0
149	0x00000000	0.0
150	0x00000000	0.0
151	0x00000000	0.0
152	0x00000000	0.0
153	0x00000000	0.0
154	0x00000000	0.0
155	0x00000000	0.0
156	0x00000000	0.0
157	0x00000000	0.0
158	0x00000000	0.0
159	0x00000000	0.0
160	0x00000000	0.0
161	0x00000000	0.0
162	0x00000000	0.0
163	0x00000000	0.0
164	0x00000000	0.0
165	0x00000000	0.0
166	0x00000000	0.0
167	0x00000000	0.0
168	0x00000000	0.0
169	0x00000000	0.0
170	0x00000000	0.0
171	0x00000000	0.0
172	0x00000000	0.0
173	0x00000000	0.0
174	0x00000000	0.0
175	0x00000000	0.0
176	0x00000000	0.0
177	0x00000000	0.0
178	0x00000000	0.0
179	0x00000000	0.0
180	0x00000000	0.0
181	0x00000000	0.0
182	0x00000000	0.0
183	0x00000000	0.0
184	0x00000000	0.0
185	0x00000000	0.0
186	0x00000000	0.0
187	0x00000000	0.0
188	0x00000000	0.0
189	0x00000000	0.0
190	0x00000000	0.0
191	0x00000000	0.0
192	0x00000000	0.0
193	0x00000000	0.0
194	0x00000000	0.0
195	0x00000000	0.0
196	0x00000000	0.0
197	0x00000000	0.0
198	0x00000000	0.0
199	0x00000000	0.0
200	0xb66a48b5	-3.4911038e-06
201	0x35d595a3	1.5913287e-06
202	0xb6801444	-3.8170565e-06
203	0xb78b03e6	-1.6571907e-05
204	0x36320b55	2.6530663e-06
205	0x364dea1f	3.0683657e-06
206	0x35f53a04	1.8270807e-06
207	0xb5ef7734	-1.784158e-06
208	0x35c419e2	1.4610671e-06
209	0xb77480f9	-1.4573562e-05
210	0xb7a70af0	-1.9913045e-05
211	0xb5ef7734	-1.784158e-06
212	0x37897a2d	1.6388565e-05
213	0xb807d5df	-3.238569e-05
214	0xb73c6b2c	-1.1230626e-05
215	0xb5ef7734	-1.784158e-06
216	0xb74b14c2	-1.2104576e-05
217	0xb70d5d10	-8.425923e-06
218	0x36e211e1	6.7374062e-06
219	0xb5ef7734	-1.784158e-06
220	0x37b4daaa	2.1559496e-05
221	0xb8003f15	-3.0576328e-05
222	0x370bdcd0	8.3364575e-06
223	0xb5ef7734	-1.784158e-06
224	0x00000000	0.0
225	0x00000000	0.0
226	0x00000000	0.0
227	0x00000000	0.0
228	0x00000000	0.0
229	0x00000000	0.0
230	0x00000000	0.0
231	0x00000000	0.0
232	0x00000000	0.0
233	0x00000000	0.0
234	0x00000000	0.0
235	0x00000000	0.0
236	0x00000000	0.0
237	0x00000000	0.0
238	0x00000000	0.0
239	0x00000000	0.0
240	0x00000000	0.0
241	0x00000000	0.0
242	0x00000000	0.0
243	0x00000000	0.0
244	0x00000000	0.0
245	0x00000000	0.0
246	0x00000000	0.0
247	0x00000000	0.0
248	0x00000000	0.0
249	0x00000000	0.0
250	0x00000000	0.0
251	0x00000000	0.0
252	0x00000000	0.0
253	0x00000000	0.0
254	0x00000000	0.0
255	0x00000000	0.0

exp_avg_sq f4 [64, 204]
0	0x36062cc3	1.999361e-06
1	0x3474d287	2.280086e-07
2	0x3528b91b	6.285424e-07
3	0x3403bd36	1.226916e-07
4	0x359871fe	1.1358059e-06
5	0x363511f9	2.6981563e-06
6	0x35863207	9.998338e-07
7	0x3403bd36	1.226916e-07
8	0x35361fa9	6.7846355e-07
9	0x364541ac	2.9393514e-06
10	0x345878cd	2.0160515e-07
11	0x3403bd36	1.226916e-07
12	0x34806423	2.3914717e-07
13	0x36b9b0a6	5.533994e-06
14	0x3560275c	8.350378e-07
15	0x3403bd36	1.226916e-07
16	0x35f48bc4	1.8220094e-06
17	0x36441b68	2.9222228e-06
18	0x351cd238	5.842044e-07
19	0x3403bd36	1.226916e-07
20	0x00000000	0.0
21	0x00000000	0.0
22	0x00000000	0.0
23	0x00000000	0.0
24	0x00000000	0.0
25	0x00000000	0.0
26	0x00000000	0.0
27	0x00000000	0.0
28	0x00000000	0.0
29	0x00000000	0.0
30	0x00000000	0.0
31	0x00000000	0.0
32	0x00000000	0.0
33	0x00000000	0.0
34	0x00000000	0.0
35	0x00000000	0.0
36	0x00000000	0.0
37	0x00000000	0.0
38	0x00000000	0.0
39	0x00000000	0.0
40	0x00000000	0.0
41	0x00000000	0.0
42	0x00000000	0.0
43	0x00000000	0.0
44	0x00000000	0.0
45	0x00000000	0.0
46	0x00000000	0.0
47	0x00000000	0.0
48	0x00000000	0.0
49	0x00000000	0.0
50	0x00000000	0.0
51	0x00000000	0.0
52	0x00000000	0.0
53	0x00000000	0.0
54	0x00000000	0.0
55	0x00000000	0.0
56	0x00000000	0.0
57	0x00000000	0.0
58	0x00000000	0.0
59	0x00000000	0.0
60	0x00000000	0.0
61	0x00000000	0.0
62	0x00000000	0.0
63	0x00000000	0.0
64	0x00000000	0.0
65	0x00000000	0.0
66	0x00000000	0.0
67	0x00000000	0.0
68	0x00000000	0.0
69	0x00000000	0.0
70	0x00000000	0.0
71	0x00000000	0.0
72	0x00000000	0.0
73	0x00000000	0.0
74	0x00000000	0.0
75	0x00000000	0.0
76	0x00000000	0.0
77	0x00000000	0.0
78	0x00000000	0.0
79	0x00000000	0.0
80	0x00000000	0.0
81	0x00000000	0.0
82	0x00000000	0.0
83	0x00000000	0.0
84	0x00000000	0.0
85	0x00000000	0.0
86	0x00000000	0.0
87	0x00000000	0.0
88	0x00000000	0.0
89	0x00000000	0.0
90	0x00000000	0.0
91	0x00000000	0.0
92	0x00000000	0.0
93	0x00000000	0.0
94	0x00000000	0.0
95	0x00000000	0.0
96	0x00000000	0.0
97	0x00000000	0.0
98	0x00000000	0.0
99	0x00000000	0.0
100	0x00000000	0.0
101	0x00000000	0.0
102	0x00000000	0.0
103	0x00000000	0.0
104	0x00000000	0.0
105	0x00000000	0.0
106	0x00000000	0.0
107	0x00000000	0.0
108	0x00000000	0.0
109	0x00000000	0.0
110	0x00000000	0.0
111	0x00000000	0.0
112	0x00000000	0.0
113	0x00000000	0.0
114	0x00000000	0.0
115	0x00000000	0.0
116	0x00000000	0.0
117	0x00000000	0.0
118	0x00000000	0.0
119	0x00000000	0.0
120	0x00000000	0.0
121	0x00000000	0.0
122	0x00000000	0.0
123	0x00000000	0.0
124	0x00000000	0.0
125	0x00000000	0.0
126	0x00000000	0.0
127	0x00000000	0.0
128	0x00000000	0.0
129	0x00000000	0.0
130	0x00000000	0.0
131	0x00000000	0.0
132	0x00000000	0.0
133	0x00000000	0.0
134	0x00000000	0.0
135	0x00000000	0.0
136	0x00000000	0.0
137	0x00000000	0.0
138	0x00000000	0.0
139	0x00000000	0.0
140	0x00000000	0.0
141	0x00000000	0.0
142	0x00000000	0.0
143	0x00000000	0.0
144	0x00000000	0.0
145	0x00000000	0.0
146	0x00000000	0.0
147	0x00000000	0.0
148	0x00000000	0.0
149	0x00000000	0.0
150	0x00000000	0.0
151	0x00000000	0.0
152	0x00000000	0.0
153	0x00000000	0.0
154	0x00000000	0.0
155	0x00000000	0.0
156	0x00000000	0.0
157	0x00000000	0.0
158	0x00000000	0.0
159	0x00000000	0.0
160	0x00000000	0.0
161	0x00000000	0.0
162	0x00000000	0.0
163	0x00000000	0.0
164	0x00000000	0.0
165	0x00000000	0.0
166	0x00000000	0.0
167	0x00000000	0.0
168	0x00000000	0.0
169	0x00000000	0.0
170	0x00000000	0.0
171	0x00000000	0.0
172	0x00000000	0.0
173	0x00000000	0.0
174	0x00000000	0.0
175	0x00000000	0.0
176	0x00000000	0.0
177	0x00000000	0.0
178	0x00000000	0.0
179	0x00000000	0.0
180	0x00000000	0.0
181	0x00000000	0.0
182	0x00000000	0.0
183	0x00000000	0.0
184	0x00000000	0.0
185	0x00000000	0.0
186	0x00000000	0.0
187	0x00000000	0.0
188	0x00000000	0.0
189	0x00000000	0.0
190	0x00000000	0.0
191	0x00000000	0.0
192	0x00000000	0.0
193	0x00000000	0.0
194	0x00000000	0.0
195	0x00000000	0.0
196	0x00000000	0.0
197	0x00000000	0.0
198	0x00000000	0.0
199	0x00000000	0.0
200	0x3647721b	2.971973e-06
201	0x350835a0	5.074198e-07
202	0x36361884	2.7134383e-06
203	0x374dd7a8	1.2269164e-05
204	0x3691e45e	4.347922e-06
205	0x344f8469	1.9326548e-07
206	0x3601b3c6	1.932714e-06
207	0x345d51eb	2.061203e-07
208	0x3632d475	2.6647733e-06
209	0x3617a9e4	2.2599643e-06
210	0x356f0e83	8.9055555e-07
211	0x345d51eb	2.061203e-07
212	0x35cc0d26	1.5203011e-06
213	0x36a31658	4.8603797e-06
214	0x34dc2f29	4.1012507e-07
215	0x345d51eb	2.061203e-07
216	0x34066067	1.2514793e-07
217	0x36ca9a59	6.0380376e-06
218	0x35b92742	1.3795e-06
219	0x345d51eb	2.061203e-07
220	0x3601ba78	1.9331037e-06
221	0x36cc72fb	6.0930593e-06
222	0x3612a375	2.185084e-06
223	0x345d51eb	2.061203e-07
224	0x00000000	0.0
225	0x00000000	0.0
226	0x00000000	0.0
227	0x00000000	0.0
228	0x00000000	0.0
229	0x00000000	0.0
230	0x00000000	0.0
231	0x00000000	0.0
232	0x00000000	0.0
233	0x00000000	0.0
234	0x00000000	0.0
235	0x00000000	0.0
236	0x00000000	0.0
237	0x00000000	0.0
238	0x00000000	0.0
239	0x00000000	0.0
240	0x00000000	0.0
241	0x00000000	0.0
242	0x00000000	0.0
243	0x00000000	0.0
244	0x00000000	0.0
245	0x00000000	0.0
246	0x00000000	0.0
247	0x00000000	0.0
248	0x00000000	0.0
249	0x00000000	0.0
250	0x00000000	0.0
251	0x00000000	0.0
252	0x00000000	0.0
253	0x00000000	0.0
254	0x00000000	0.0
255	0x00000000	0.0

exp_avg f4 [256, 64]
0	0x198368c6	1.35874e-23
1	0x8023fb3a	-3.304365e-39
2	0x90b96edf	-7.314046e-29
3	0x84a20a20	-3.8095315e-36
4	0x1883c6a7	3.4063294e-24
5	0x03b509ea	1.06405e-36
6	0x9c919a8e	-9.635247e-22
7	0x9068b989	-4.5896864e-29
8	0x05b509ea	1.70248e-35
9	0x8c9f4fec	-2.454593e-31
10	0x9d5ab263	-2.8944284e-21
11	0x80000004	-6e-45
12	0x10e5f54b	9.070251e-29
13	0x95121c7d	-2.950694e-26
14	0x951baf30	-3.14402e-26
15	0x063509ea	3.40496e-35
16	0x80000004	-6e-45
17	0x80000004	-6e-45
18	0x99aef27d	-1.8089119e-23
19	0x94686b62	-1.1734184e-26
20	0x8f880fde	-1.3416747e-29
21	0x938cff5e	-3.559278e-27
22	0x14f98d72	2.5198365e-26
23	0x1a5d263c	4.5732614e-23
24	0x0fe15b35	2.2221845e-29
25	0x1a07dcce	2.809571e-23
26	0x85100913	-6.772514e-36
27	0x941e0580	-7.978046e-27
28	0x85220a20	-7.619063e-36
29	0x11020417	1.0256452e-28
30	0x12ce834b	1.3032794e-27
31	0x10c25e7d	7.666509e-29
32	0x9111c83e	-1.1500188e-28
33	0x91ca1caa	-3.1887646e-28
34	0x8ff8cc8f	-2.4533481e-29
35	0x95b94a68	-7.48383e-26
36	0x00000004	6e-45
37	0x1a32f348	3.7006058e-23
38	0x16b104c6	2.8598905e-25
39	0x00000004	6e-45
40	0x87220a20	-1.2190501e-34
41	0x86220a20	-3.0476252e-35
42	0x80000004	-6e-45
43	0x9c0df5bf	-4.6970606e-22
44	0x862646cb	-3.127314e-35
45	0x9a4f590f	-4.2878538e-23
46	0x06340b43	3.386251e-35
47	0x06340b43	3.386251e-35
48	0x80000003	-4e-45
49	0x90e1c377	-8.9048013e-29
50	0x90ebcba6	-9.3004926e-29
51	0x0b303290	3.3934406e-32
52	0x00000004	6e-45
53	0x96541997	-1.7133298e-25
54	0x9146878a	-1.5661212e-28
55	0x1d1007ae	1.9062212e-21
56	0x1153139b	1.6651007e-28
57	0x87af37f0	-2.636395e-34
58	0x97dc89d1	-1.4251957e-24
59	0x06220a20	3.0476252e-35
60	0x80000004	-6e-45
61	0x9807510f	-1.7489265e-24
62	0x17d0dc0d	1.3497234e-24
63	0x148a1ad1	1.3945016e-26
64	0x06a20a20	6.0952504e-35
65	0x92672684	-7.293822e-28
66	0x059e7056	1.4899514e-35
67	0x14541e0e	1.0709192e-26
68	0x00000004	6e-45
69	0x12d86677	1.3656776e-27
70	0x03b40b43	1.0582035e-36
71	0x00000000	0.0
72	0x800172bd	-1.32996e-40
73	0x872f37e6	-1.3181964e-34
74	0x95e6a6e3	-9.315956e-26
75	0x8cc3f603	-3.019257e-31
76	0x9146bb24	-1.5677113e-28
77	0x04b509ea	4.2562e-36
78	0x06220a20	3.0476252e-35
79	0x9a3ffac8	-3.9700454e-23
80	0x87220a20	-1.2190501e-34
81	0x04a20a20	3.8095315e-36
82	0x930de766	-1.791079e-27
83	0x80000004	-6e-45
84	0x80000004	-6e-45
85	0x85a20a20	-1.5238126e-35
86	0x906afc1d	-4.6342584e-29
87	0x80000004	-6e-45
88	0x92663f65	-7.2653343e-28
89	0x0b99755c	5.911004e-32
90	0x8fb56159	-1.7885475e-29
91	0x8000001e	-4.2e-44
92	0x85100913	-6.772514e-36
93	0x91eeb898	-3.7663544e-28
94	0x86220a20	-3.0476252e-35
95	0x00000004	6e-45
96	0x19129544	7.578167e-24
97	0x80000004	-6e-45
98	0x05a20a20	1.5238126e-35
99	0x00000004	6e-45
100	0x10198b78	3.0281372e-29
101	0x9028d0ad	-3.3292916e-29
102	0x12161b18	4.736505e-28
103	0x84100913	-1.6931285e-36
104	0x9247fc0c	-6.3104e-28
105	0x80000003	-4e-45
106	0x85100913	-6.772514e-36
107	0x042c3053	2.0240692e-36
108	0x80000005	-7e-45
109	0x87100901	-1.0836002e-34
110	0x97dae204	-1.4144974e-24
111	0x05220a20	7.619063e-36
112	0x00000004	6e-45
113	0x84900913	-3.386257e-36
114	0x11df9fbd	3.5281643e-28
115	0x11376533	1.4467339e-28
116	0x904e6ed7	-4.0711725e-29
117	0x06900901	5.418001e-35
118	0x92ed28d4	-1.4966868e-27
119	0x9aca6705	-8.371168e-23
120	0x96384bf3	-1.4887367e-25
121	0x155210a7	4.24223e-26
122	0x00000004	6e-45
123	0x913d41eb	-1.4929784e-28
124	0x1a00c402	2.6628113e-23
125	0x8f037a5a	-6.482363e-30
126	0x1234c6f6	5.7043223e-28
127	0x10da5ce2	8.612895e-29
128	0x34e11604	4.1925534e-07
129	0x356630ed	8.5752873e-07
130	0x3678ae0c	3.7056188e-06
131	0x36878be1	4.0395976e-06
132	0xb3d2c824	-9.8152924e-08
133	0x366ca192	3.5260787e-06
134	0x36224e28	2.4185374e-06
135	0x3566a98e	8.592841e-07
136	0x35289e2b	6.281504e-07
137	0x362a93ab	2.5417928e-06
138	0x36926a38	4.3635046e-06
139	0xb4bdfae1	-3.5386532e-07
140	0x37176474	9.02369e-06
141	0xb5e9c1ea	-1.7416289e-06
142	0x36c5303d	5.876673e-06
143	0x36bfb471	5.7132497e-06
144	0x36787a0c	3.702592e-06
145	0x36c76e5e	5.9435106e-06
146	0x36c69cf7	5.919133e-06
147	0x357ce77b	9.4214164e-07
148	0x36a79141	4.9938976e-06
149	0x80000004	-6e-45
150	0x34701fe1	2.2363339e-07
151	0x36c8b9b3	5.9820827e-06
152	0x80000004	-6e-45
153	0xb6ae4800	-5.193986e-06
154	0xb2872994	-1.5734976e-08
155	0x35ff1fcb	1.9008233e-06
156	0xb57a51ff	-9.325158e-07
157	0x3560c0eb	8.3727235e-07
158	0x3643045a	2.9059797e-06
159	0x372d673c	1.033564e-05
160	0x3642d2d6	2.9030975e-06
161	0x3668f732	3.471458e-06
162	0x35a632de	1.2382768e-06
163	0xb683e619	-3.930891e-06
164	0x36b54c41	5.4030975e-06
165	0x371b7688	9.266318e-06
166	0x3680e93e	3.8418502e-06
167	0xb59e75bf	-1.1806186e-06
168	0xb6ca0695	-6.0208354e-06
169	0xb5fa4807	-1.8647414e-06
170	0x370c66db	8.368598e-06
171	0x368f51a8	4.271238e-06
172	0x36ad9ef3	5.174306e-06
173	0x80000004	-6e-45
174	0xb593b156	-1.1003965e-06
175	0x3701e9a0	7.743394e-06
176	0xb20dd20d	-8.25504e-09
177	0x37103b1e	8.596833e-06
178	0x365d7676	3.300052e-06
179	0x366d6b6f	3.5378287e-06
180	0x3694195a	4.413695e-06
181	0x34ee5fd8	4.440069e-07
182	0xb4fa5783	-4.6629802e-07
183	0x3558d786	8.07799e-07
184	0x36bae871	5.5702917e-06
185	0x35ebe0d0	1.7574293e-06
186	0xb4819e3c	-2.4143253e-07
187	0x371aa2bb	9.217004e-06
188	0x3639f557	2.7709955e-06
189	0xb549e599	-7.5212444e-07
190	0x369a60eb	4.6008404e-06
191	0x36fd84cb	7.5554467e-06
192	0xb6a7004f	-4.9770238e-06
193	0xb6a0bc4c	-4.790292e-06
194	0xb72256a7	-9.676128e-06
195	0xb66546be	-3.4164837e-06
196	0xb66ce437	-3.529958e-06
197	0xb61ed3aa	-2.366704e-06
198	0xb70970e0	-8.192117e-06
199	0xb02290be	-5.914095e-10
200	0xb50236d4	-4.850856e-07
201	0xb570fe7b	-8.9777285e-07
202	0xb6c99aa9	-6.0082716e-06
203	0xb2f27f53	-2.8230408e-08
204	0xb72ee8cc	-1.042541e-05
205	0xb68a5c6f	-4.123481e-06
206	0xb7641889	-1.35955715e-05
207	0xb669755e	-3.4788022e-06
208	0xb8044476	-3.153501e-05
209	0xb6d76555	-6.419296e-06
210	0xb6f18829	-7.198211e-06
211	0xb59f6fd9	-1.1878975e-06
212	0xb8c735cd	-9.4990806e-05
213	0x9a36831b	-3.7742624e-23
214	0xb76a25bc	-1.3956273e-05
215	0xb9340930	-0.0001716956
216	0x883509ea	-5.447936e-34
217	0x35f08dc6	1.7922655e-06
218	0x341e1ef6	1.472616e-07
219	0xb65c3abe	-3.2816747e-06
220	0x340b6190	1.2980877e-07
221	0xb4649914	-2.1289844e-07
222	0xb7a69a02	-1.9860458e-05
223	0xb6ca793f	-6.034184e-06
224	0xb6888b26	-4.069315e-06
225	0xb6b96cce	-5.526096e-06
226	0xb552c065	-7.851107e-07
227	0xb4f1d108	-4.5041838e-07
228	0xb789976b	-1.6402182e-05
229	0xb717e5cd	-9.053806e-06
230	0xb69d443e	-4.686909e-06
231	0x35d25372	1.5670505e-06
232	0x3667084c	3.4426512e-06
233	0xb4bd7eef	-3.529635e-07
234	0xb6f2190d	-7.2150783e-06
235	0xb6147059	-2.2119114e-06
236	0xb71b4bc9	-9.256365e-06
237	0x1e340b41	9.531448e-21
238	0xb61fb209	-2.3796476e-06
239	0xb785fe8b	-1.5973366e-05
240	0xb78152a6	-1.5416485e-05
241	0xb861a40a	-5.3796954e-05
242	0xb93ce138	-0.00018012978
243	0xb957f793	-0.00020596226
244	0xb68e0db8	-4.233527e-06
245	0xb674f909	-3.650379e-06
246	0xb975f4d1	-0.00023456222
247	0xb649b35a	-3.005573e-06
248	0xb7586890	-1.2898949e-05
249	0xb54bf2bb	-7.597661e-07
250	0xb497894c	-2.8225838e-07
251	0xb8424b78	-4.632349e-05
252	0xb7211c68	-9.602962e-06
253	0xb5d7bbb5	-1.6073378e-06
254	0xb6caaa4d	-6.0398947e-06
255	0xb68055a3	-3.8246667e-06

exp_avg_sq f4 [256, 64]
0	0x2992a698	6.512602e-14
1	0x290f7064	3.1849862e-14
2	0x2a6317e6	2.0169942e-13
3	0x291ae2b2	3.4391496e-14
4	0x2992210e	6.4894365e-14
5	0x29279543	3.7210913e-14
6	0x29a924f8	7.511521e-14
7	0x29c63b82	8.803289e-14
8	0x2921f18e	3.5958697e-14
9	0x290c8743	3.1203566e-14
10	0x29acc823	7.6730526e-14
11	0x29819e60	5.7562245e-14
12	0x29b2148b	7.9083516e-14
13	0x297f5b23	5.6700423e-14
14	0x29084c3a	3.0264182e-14
15	0x2928f585	3.7516448e-14
16	0x299758d4	6.721156e-14
17	0x292d31f7	3.8457054e-14
18	0x299edd7b	7.05503e-14
19	0x296ec901	5.302096e-14
20	0x2a21103d	1.4305306e-13
21	0x2907e628	3.017565e-14
22	0x297e2d6a	5.643872e-14
23	0x29067223	2.9852975e-14
24	0x2a8a02b9	2.4515614e-13
25	0x29aa56d1	7.564577e-14
26	0x29845db7	5.8782345e-14
27	0x2909141a	3.0437546e-14
28	0x29a35aec	7.2544266e-14
29	0x2a80048b	2.274052e-13
30	0x2a1ac6bf	1.3746902e-13
31	0x29960dc8	6.663729e-14
32	0x2a8f27ba	2.5429469e-13
33	0x29620964	5.0190226e-14
34	0x2a645ef0	2.0283406e-13
35	0x29819144	5.7539504e-14
36	0x2966d3da	5.125401e-14
37	0x29998cfd	6.8190225e-14
38	0x298705af	5.99619e-14
39	0x29a55a97	7.343187e-14
40	0x29891b23	6.0887296e-14
41	0x29a4a072	7.310896e-14
42	0x29351a22	4.021274e-14
43	0x29a2d4e9	7.231179e-14
44	0x291fc580	3.5476396e-14
45	0x299e84e8	7.039665e-14
46	0x2925a79b	3.6782734e-14
47	0x293a0b86	4.131029e-14
48	0x2a9b4aff	2.758557e-13
49	0x29efe9fd	1.06543226e-13
50	0x2a7c0e3f	2.2387039e-13
51	0x290b1f2f	3.0891248e-14
52	0x29bd723a	8.413101e-14
53	0x29847164	5.881648e-14
54	0x29a33761	7.248261e-14
55	0x29c2d282	8.651848e-14
56	0x29f48a8c	1.0859811e-13
57	0x291953eb	3.4045612e-14
58	0x298be5da	6.212713e-14
59	0x299ef7cf	7.0595975e-14
60	0x29571178	4.7754742e-14
61	0x298d6f45	6.28096e-14
62	0x298deb62	6.30249e-14
63	0x29082aeb	3.023529e-14
64	0x2938fb14	4.1073983e-14
65	0x2985175d	5.9104394e-14
66	0x2931a102	3.9441547e-14
67	0x297f0474	5.6625237e-14
68	0x2915fd15	3.330416e-14
69	0x2908b69f	3.0356465e-14
70	0x293d56da	4.2041762e-14
71	0x2918cc83	3.3928166e-14
72	0x29117c57	3.2304315e-14
73	0x291e1a5f	3.510592e-14
74	0x298283cf	5.796025e-14
75	0x2955c39c	4.7465165e-14
76	0x2976c7d0	5.4796283e-14
77	0x29107900	3.2079374e-14
78	0x2982e82f	5.813437e-14
79	0x299b6d4f	6.902345e-14
80	0x298ebe16	6.3390414e-14
81	0x29af0c30	7.7736754e-14
82	0x2971a7a8	5.365817e-14
83	0x2985803c	5.9286316e-14
84	0x29ce2e6e	9.156292e-14
85	0x295d923e	4.9198703e-14
86	0x29927601	6.504173e-14
87	0x29933121	6.536634e-14
88	0x2948ce49	4.4587845e-14
89	0x290b1cb8	3.088911e-14
90	0x298e59d3	6.321649e-14
91	0x29b7e9b4	8.1673736e-14
92	0x298ef406	6.348398e-14
93	0x2971e08a	5.3707506e-14
94	0x29b943d2	8.227415e-14
95	0x29756cc6	5.4495274e-14
96	0x2906cf1c	2.9933616e-14
97	0x299bf434	6.925745e-14
98	0x29aab185	7.580311e-14
99	0x29c8eccc	8.922862e-14
100	0x296e2dab	5.2886227e-14
101	0x29fcd0fe	1.12273025e-13
102	0x298cbbf3	6.249853e-14
103	0x2997ad61	6.7358235e-14
104	0x296e718c	5.2945102e-14
105	0x293f2214	4.2440078e-14
106	0x298a0abf	6.130295e-14
107	0x290e582b	3.1606807e-14
108	0x2914aa27	3.3010185e-14
109	0x2943a3da	4.3440817e-14
110	0x298c4fd8	6.2310996e-14
111	0x29a194d3	7.175653e-14
112	0x292ab39b	3.7903366e-14
113	0x29b0ff1b	7.860224e-14
114	0x2992ea38	6.524333e-14
115	0x2a5f1b00	1.9815746e-13
116	0x2a7836d2	2.2045844e-13
117	0x2939bc26	4.1241445e-14
118	0x2978951e	5.51964e-14
119	0x299d4cfa	6.985554e-14
120	0x29863b6a	5.961102e-14
121	0x295e9ffc	4.9432667e-14
122	0x2a0a1fa3	1.2267838e-13
123	0x299bfe3b	6.927485e-14
124	0x299e6439	7.0339954e-14
125	0x2909d6f9	3.060657e-14
126	0x29984ea3	6.763797e-14
127	0x2a8478f0	2.3531828e-13
128	0x32056641	7.764869e-09
129	0x33a58db9	7.7091904e-08
130	0x32014529	7.5245135e-09
131	0x31746b6c	3.5567735e-09
132	0x32c45efe	2.28606e-08
133	0x3227fbd9	9.777943e-09
134	0x2f45edb7	1.8001499e-10
135	0x2f913ca6	2.641844e-10
136	0x313bf6e9	2.7352434e-09
137	0x325ff20f	1.3035346e-08
138	0x33acd3c3	8.0478934e-08
139	0x308e5d3a	1.0358356e-09
140	0x3280f958	1.501455e-08
141	0x2d7974ca	1.4179944e-11
142	0x320fd666	8.372444e-09
143	0x32bf554b	2.2274113e-08
144	0x3295544e	1.738422e-08
145	0x33a243f8	7.556076e-08
146	0x33838899	6.12501e-08
147	0x30051986	4.842139e-10
148	0x3304ce41	3.0921232e-08
149	0x232e0a13	9.434692e-18
150	0x2f1bb1b1	1.4160297e-10
151	0x32be648f	2.216464e-08
152	0x1e39e4e5	9.841153e-21
153	0x300b879b	5.076061e-10
154	0x2fa039a6	2.9144792e-10
155	0x33684a0d	5.4084058e-08
156	0x31db385d	6.3801466e-09
157	0x323188f3	1.0333895e-08
158	0x2fac81f2	3.137895e-10
159	0x33ccce82	9.537054e-08
160	0x2fd3a23a	3.8495945e-10
161	0x3217ff5a	8.847417e-09
162	0x3389f952	6.424911e-08
163	0x3286681c	1.5646997e-08
164	0x331490d7	3.4590666e-08
165	0x32b3d5a1	2.093549e-08
166	0x337d6a95	5.900309e-08
167	0x3293330c	1.7136266e-08
168	0x340db0ee	1.3196015e-07
169	0x2f27b266	1.5251941e-10
170	0x32e5f30f	2.6769639e-08
171	0x304c15d7	7.4245804e-10
172	0x3268bef6	1.3547597e-08
173	0x1da7ff92	4.4468785e-21
174	0x32aa7ce8	1.9847405e-08
175	0x33f1919a	1.1248922e-07
176	0x2c76a55d	3.5050498e-12
177	0x32e0e1ce	2.6179716e-08
178	0x3406a2b4	1.2538914e-07
179	0x3526957f	6.2057364e-07
180	0x32fc68f6	2.9384392e-08
181	0x3294294a	1.7248244e-08
182	0x32733fd6	1.4158976e-08
183	0x2df9472c	2.833963e-11
184	0x321dcf27	9.185704e-09
185	0x31b276e4	5.193998e-09
186	0x31dbed94	6.4007484e-09
187	0x32c99650	2.3467834e-08
188	0x351cfb86	5.8480543e-07
189	0x2c3d23e4	2.6878439e-12
190	0x31c665d7	5.7741363e-09
191	0x32611efd	1.310377e-08
192	0x34505226	1.9401395e-07
193	0x352fb56b	6.545658e-07
194	0x35c0ff6c	1.4379452e-06
195	0x35582a17	8.052752e-07
196	0x330de911	3.3041093e-08
197	0x36880a3d	4.0543077e-06
198	0x35ab0217	1.2741101e-06
199	0x2ea6e4b4	7.589432e-11
200	0x33a087f3	7.4753096e-08
201	0x33dd46e0	1.03040065e-07
202	0x3383ba2d	6.134028e-08
203	0x2fa422f3	2.985626e-10
204	0x3508d88b	5.097906e-07
205	0x302061bf	5.8346566e-10
206	0x36036cc2	1.9583827e-06
207	0x35b904ab	1.3784933e-06
208	0x371cb675	9.340806e-06
209	0x35a4b608	1.227193e-06
210	0x359107f2	1.0805654e-06
211	0x345705b9	2.0025517e-07
212	0x36e8c416	6.936966e-06
213	0x2999317c	6.803149e-14
214	0x35fda917	1.889918e-06
215	0x375d9622	1.3207582e-05
216	0x293b2c62	4.1560837e-14
217	0x3701b9b8	7.73224e-06
218	0x2f12f81b	1.3366767e-10
219	0x3528fb11	6.2950227e-07
220	0x31e0b7c9	6.540152e-09
221	0x3109bd4a	2.0043722e-09
222	0x36184553	2.2690117e-06
223	0x35658edc	8.5517036e-07
224	0x356a0d05	8.719074e-07
225	0x360778b6	2.018683e-06
226	0x355d5b23	8.2461537e-07
227	0x34a8bc89	3.1429616e-07
228	0x35df39ea	1.663165e-06
229	0x35274a53	6.2320504e-07
230	0x352de647	6.478262e-07
231	0x3415e776	1.3960911e-07
232	0x36afc691	5.2385226e-06
233	0x2f1dee2c	1.4363682e-10
234	0x34eef6d5	4.4510548e-07
235	0x3495b617	2.78859e-07
236	0x366e95d1	3.5551968e-06
237	0x2955cc5e	4.747276e-14
238	0x3565acd8	8.556067e-07
239	0x3629fa00	2.5328482e-06
240	0x36076a05	2.017828e-06
241	0x368ed127	4.2562783e-06
242	0x37835288	1.5654849e-05
243	0x37ad3e7a	2.06523e-05
244	0x35bfd0db	1.4291394e-06
245	0x35800201	9.537326e-07
246	0x37bbb61d	2.237694e-05
247	0x34dbef60	4.0966097e-07
248	0x367ab99e	3.7360946e-06
249	0x33ebe8e1	1.0985401e-07
250	0x326df37b	1.3850577e-08
251	0x36743ede	3.6395427e-06
252	0x35a7bf9d	1.2498236e-06
253	0x308ed978	1.0393668e-09
254	0x34e0081d	4.1729155e-07
255	0x34d7b743	4.018021e-07

exp_avg f4 [64]
0	0xb78b03e5	-1.6571905e-05
1	0x3795aa81	1.7841581e-05
2	0xb82594ce	-3.947765e-05
3	0x381d2ae2	3.7471655e-05
4	0xb8344186	-4.2976368e-05
5	0xb7347293	-1.0755512e-05
6	0xb7a43a0f	-1.957736e-05
7	0xb6494da7	-2.9996534e-06
8	0xb7ea8098	-2.7954855e-05
9	0x36ce34dc	6.145432e-06
10	0xb8fd1d2a	-0.00012069412
11	0x3520c8f4	5.989707e-07
12	0x38b4d418	8.6225744e-05
13	0x37759c3e	1.4639516e-05
14	0xb8f3833c	-0.00011611587
15	0xb8bdc3b4	-9.048675e-05
16	0x396373cb	0.00021691543
17	0xb88dc5cf	-6.760249e-05
18	0xb853796e	-5.041941e-05
19	0x382b7541	4.087878e-05
20	0x3843bc94	4.666725e-05
21	0x00000004	6e-45
22	0xb71f2ab1	-9.487078e-06
23	0x38362214	4.342392e-05
24	0x00000004	6e-45
25	0x385e2573	5.2963802e-05
26	0xb6044c72	-1.971403e-06
27	0xb8476529	-4.753951e-05
28	0x3704ad06	7.908098e-06
29	0xb707b52b	-8.0888085e-06
30	0xb734c3f0	-1.0774456e-05
31	0x3916f359	0.00014395769
32	0x37fb3efe	2.9950865e-05
33	0xb82ee3a6	-4.1696847e-05
34	0xb84fd7a2	-4.955347e-05
35	0x37202cdb	9.547187e-06
36	0x372e225f	1.0379211e-05
37	0xb896ede2	-7.1968665e-05
38	0x3802f077	3.1218366e-05
39	0xb7174e85	-9.018583e-06
40	0xb6815d38	-3.8553517e-06
41	0x3686702f	4.006571e-06
42	0x387ba496	5.9996346e-05
43	0xb7b84505	-2.1966649e-05
44	0xb825bd56	-3.95154e-05
45	0x00000004	6e-45
46	0x38084e96	3.2498116e-05
47	0xb881c1cc	-6.187297e-05
48	0xb794b4ac	-1.7727107e-05
49	0xb86dc096	-5.6684563e-05
50	0x381700cb	3.6001944e-05
51	0x37eff7a1	2.8606331e-05
52	0xb8a0fb62	-7.676218e-05
53	0x384a5b08	4.8245332e-05
54	0xb893bb39	-7.044379e-05
55	0x391f4273	0.00015188176
56	0xb8ede9c6	-0.00011344584
57	0xb58c86f1	-1.0470086e-06
58	0xb8960ee8	-7.155334e-05
59	0x386e66cc	5.683936e-05
60	0xb8d422be	-0.00010115419
61	0xb6568458	-3.196552e-06
62	0x38f4e4f0	0.000116774696
63	0xb861ce4b	-5.3836306e-05

exp_avg_sq f4 [64]
0	0x374dd7a8	1.2269164e-05
1	0x37ace7fb	2.0612022e-05
2	0x371bbbbd	9.282431e-06
3	0x3767d2e0	1.3817771e-05
4	0x370d81de	8.434492e-06
5	0x388e87b4	6.796364e-05
6	0x3710f705	8.640583e-06
7	0x32479dca	1.1619202e-08
8	0x3881405c	6.163187e-05
9	0x38735fd7	5.8024973e-05
10	0x3685af3e	3.9841098e-06
11	0x3417823e	1.4110353e-07
12	0x36d526ab	6.352396e-06
13	0x340e94bc	1.327889e-07
14	0x379097fb	1.723691e-05
15	0x3759785f	1.2962234e-05
16	0x38672895	5.5112487e-05
17	0x37c0c4d1	2.2979833e-05
18	0x375f242b	1.3300257e-05
19	0x3666cc76	3.4391683e-06
20	0x37d33c38	2.5181202e-05
21	0x28d07164	2.3141814e-14
22	0x37b33618	2.1363652e-05
23	0x38215054	3.8460203e-05
24	0x279150ab	4.0333045e-15
25	0x38298ab4	4.0421917e-05
26	0x33ff2093	1.1880288e-07
27	0x36a6ffcc	4.976964e-06
28	0x35202015	5.965133e-07
29	0x350ae1cb	5.173758e-07
30	0x370397ea	7.843579e-06
31	0x386b0a81	5.603815e-05
32	0x3536fb10	6.816563e-07
33	0x383993ef	4.424521e-05
34	0x372e7964	1.0399472e-05
35	0x38b7d6fb	8.766163e-05
36	0x370ae323	8.278325e-06
37	0x3795abc0	1.7842161e-05
38	0x36f6c70a	7.3545425e-06
39	0x384c50b8	4.8712565e-05
40	0x383a0721	4.4352495e-05
41	0x33e50231	1.0664042e-07
42	0x37f44e2c	2.9123468e-05
43	0x382fbd1b	4.189937e-05
44	0x38d94caa	0.00010361646
45	0x2bc21be4	1.379227e-12
46	0x371d83c2	9.3886065e-06
47	0x378e3977	1.6954478e-05
48	0x353c8a2c	7.0236524e-07
49	0x37eba2a1	2.8089913e-05
50	0x3795de64	1.7865743e-05
51	0x394e3600	0.00019665807
52	0x37deb6e4	2.6549627e-05
53	0x36eec646	7.116035e-06
54	0x3903cf43	0.00012570345
55	0x399a5166	0.00029433816
56	0x38a109ae	7.678881e-05
57	0x382c2322	4.1040716e-05
58	0x360966a7	2.0474342e-06
59	0x38cd76cb	9.797289e-05
60	0x37e99115	2.7843324e-05
61	0x357ee8e9	9.49613e-07
62	0x36af1a41	5.218463e-06
63	0x37176422	9.023615e-06

exp_avg f4 [256]
0	0x80000004	-6e-45
1	0x00000000	0.0
2	0x3869e647	5.576599e-05
3	0xb8a9a157	-8.0886e-05
4	0xb8b8452c	-8.786688e-05
5	0x00000004	6e-45
6	0x80000004	-6e-45
7	0x00000004	6e-45
8	0xb8f7d032	-0.00011816657
9	0x80000004	-6e-45
10	0xb8aa21a4	-8.112498e-05
11	0xb85815c1	-5.1518673e-05
12	0xb943a014	-0.00018656283
13	0x38448f20	4.6863337e-05
14	0xb807917a	-3.2321994e-05
15	0xb8e354ae	-0.00010839976
16	0x80000004	-6e-45
17	0x00000004	6e-45
18	0x3861a5f9	5.3798754e-05
19	0xb9230000	-0.00015544891
20	0xb90d3e75	-0.00013470075
21	0xb9152578	-0.00014223706
22	0x00000000	0.0
23	0x00000000	0.0
24	0xb878004f	-5.9128095e-05
25	0x3551aa96	7.81068e-07
26	0xb92a7267	-0.00016255082
27	0xb89ce72b	-7.481718e-05
28	0xb95fb7aa	-0.00021335357
29	0xb83685e1	-4.3516866e-05
30	0xb89763b8	-7.218815e-05
31	0x37e9ea5b	2.7884895e-05
32	0x00000000	0.0
33	0xb89e594b	-7.550659e-05
34	0x80000004	-6e-45
35	0x80000004	-6e-45
36	0xb8927f0b	-6.985486e-05
37	0xb82f7402	-4.1831292e-05
38	0x00000004	6e-45
39	0xb762ace7	-1.3510907e-05
40	0x00000000	0.0
41	0xb90ae9d7	-0.00013247818
42	0x00000004	6e-45
43	0xb8f3e55e	-0.00011629866
44	0x00000004	6e-45
45	0x00000000	0.0
46	0xb93fac01	-0.00018279256
47	0xb6cdc92a	-6.1328947e-06
48	0xb8ad95b2	-8.277166e-05
49	0x80000004	-6e-45
50	0xb8b849cf	-8.7875516e-05
51	0xb92d2931	-0.0001651391
52	0xb8c2105f	-9.25369e-05
53	0xb82c3548	-4.1057618e-05
54	0x3907cf4b	0.00012951826
55	0x00000004	6e-45
56	0x00000004	6e-45
57	0x00000000	0.0
58	0xb8988513	-7.272712e-05
59	0xb916ae13	-0.00014369962
60	0xb8d4268b	-0.00010116127
61	0xb8e359a6	-0.00010840902
62	0x372e5ade	1.0392365e-05
63	0x00000004	6e-45
64	0x3479f9b9	2.328078e-07
65	0x00000000	0.0
66	0xb9272d90	-0.00015943334
67	0x80000004	-6e-45
68	0x00000004	6e-45
69	0xb80ef591	-3.408414e-05
70	0x1ebd3e45	2.0036907e-20
71	0xb85788de	-5.1387462e-05
72	0xb733235a	-1.0677462e-05
73	0x00000004	6e-45
74	0xb8a3c407	-7.8089586e-05
75	0x28040eb7	7.330663e-15
76	0xb93a77ff	-0.00017783044
77	0xb8cb981f	-9.708129e-05
78	0xb7888353	-1.6273616e-05
79	0x00000000	0.0
80	0xb953b9d7	-0.00020191759
81	0x389706c4	7.201501e-05
82	0xb8860d0c	-6.392048e-05
83	0x80000004	-6e-45
84	0xb8c4f5b4	-9.391774e-05
85	0xb9123ccd	-0.00013946295
86	0xb78ab08c	-1.6533093e-05
87	0xb855961a	-5.092295e-05
88	0xb809540f	-3.274163e-05
89	0x80000004	-6e-45
90	0xb878577d	-5.9209287e-05
91	0x80000004	-6e-45
92	0xb87a34c7	-5.9653798e-05
93	0x80000004	-6e-45
94	0xb7a1ad84	-1.9273495e-05
95	0xb8cc2533	-9.734407e-05
96	0xb821e7f5	-3.8601418e-05
97	0x00000004	6e-45
98	0xb86387bd	-5.4247434e-05
99	0xb7376d5d	-1.0933113e-05
100	0xb8c2f629	-9.296492e-05
101	0xb902e3a8	-0.00012482575
102	0xb8848d8f	-6.320618e-05
103	0xb8bfdb1d	-9.148403e-05
104	0x00000000	0.0
105	0xb984348e	-0.00025216158
106	0xb7a34590	-1.9463507e-05
107	0x3852d897	5.0269617e-05
108	0xb945fc32	-0.00018881334
109	0x00000004	6e-45
110	0x00000004	6e-45
111	0xb8b9d974	-8.861991e-05
112	0x00000004	6e-45
113	0x80000004	-6e-45
114	0xb8bfb905	-9.142052e-05
115	0xb8c8c47e	-9.573343e-05
116	0xb87b060f	-5.9848706e-05
117	0xb88d84b9	-6.7481255e-05
118	0x00000004	6e-45
119	0x80000004	-6e-45
120	0xb76ea05a	-1.422324e-05
121	0x391cbed5	0.0001494841
122	0x377aa461	1.4939434e-05
123	0x00000000	0.0
124	0xb9449876	-0.00018748813
125	0x00000000	0.0
126	0x00000004	6e-45
127	0xb8ef81aa	-0.0001142056
128	0xb8a93924	-8.069191e-05
129	0x00000004	6e-45
130	0x00000000	0.0
131	0x00000000	0.0
132	0xb896b047	-7.1853916e-05
133	0x80000004	-6e-45
134	0xb9015aff	-0.00012336297
135	0x3921bf3b	0.00015425395
136	0xb84f6f58	-4.9456343e-05
137	0x80000004	-6e-45
138	0x00000004	6e-45
139	0xb8c71ae2	-9.494067e-05
140	0xb8b59783	-8.658974e-05
141	0xb7940329	-1.7644446e-05
142	0xb7b7605c	-2.186017e-05
143	0xb8b422d8	-8.589559e-05
144	0x00000000	0.0
145	0xb9473511	-0.00018997888
146	0xb8d71694	-0.000102562044
147	0xb8b1cb6c	-8.477908e-05
148	0xb8bc95b2	-8.9924215e-05
149	0x00000004	6e-45
150	0xb919233b	-0.00014604341
151	0xb8c6d03b	-9.480162e-05
152	0xb8c90531	-9.585394e-05
153	0x80000004	-6e-45
154	0xb8d2496a	-0.00010027255
155	0x00000000	0.0
156	0x00000004	6e-45
157	0x00000004	6e-45
158	0xb9347fc1	-0.0001721373
159	0x80000004	-6e-45
160	0xb8d4faf7	-0.000101556936
161	0xb8dda8c8	-0.00010569539
162	0xb8b103cc	-8.440725e-05
163	0x00000004	6e-45
164	0xb8deebd6	-0.00010629713
165	0xb94a1aec	-0.0001927425
166	0x00000004	6e-45
167	0xb859c3d5	-5.1919214e-05
168	0xb881030a	-6.1517654e-05
169	0xb8b7b09a	-8.7590146e-05
170	0x80000004	-6e-45
171	0x37b5d9ef	2.1678365e-05
172	0xb8f96513	-0.00011892072
173	0xb8c66f37	-9.462091e-05
174	0x00000004	6e-45
175	0x80000004	-6e-45
176	0xb80b455a	-3.320477e-05
177	0x389b178c	7.395362e-05
178	0xb72cd7e5	-1.0302266e-05
179	0x80000004	-6e-45
180	0xb8ced4ee	-9.862507e-05
181	0xb78782f3	-1.6154232e-05
182	0xb8d3a9ce	-0.000100928926
183	0x00000000	0.0
184	0xb89c63e4	-7.457266e-05
185	0xb8f739c9	-0.00011788641
186	0x80000004	-6e-45
187	0xb8d01ebe	-9.923939e-05
188	0xb95581da	-0.00020361636
189	0xb8d71ddb	-0.0001025756
190	0xb7b1a11c	-2.1175067e-05
191	0x80000004	-6e-45
192	0xb8c7f4e7	-9.534676e-05
193	0xb885c869	-6.3792635e-05
194	0xb8d05bfa	-9.935345e-05
195	0x37b1965a	2.1170057e-05
196	0xb8c706fa	-9.490359e-05
197	0xb8d597b8	-0.00010184891
198	0xb94d884a	-0.00019601095
199	0xb8eb443f	-0.00011218385
200	0xb6b3554c	-5.3445456e-06
201	0xb9045d5d	-0.00012623282
202	0xb9313d31	-0.00016902831
203	0xb905e01b	-0.00012767354
204	0xb8dc0749	-0.000104917744
205	0x00000000	0.0
206	0xb8f6424c	-0.00011742543
207	0x80000004	-6e-45
208	0x00000000	0.0
209	0x00000004	6e-45
210	0xb80dca81	-3.3805616e-05
211	0xb8318d3b	-4.233162e-05
212	0xb9788dcb	-0.00023703945
213	0xb8cdff0f	-9.82267e-05
214	0x37f2c5e3	2.8940796e-05
215	0xb7533d38	-1.2590834e-05
216	0xb8939be3	-7.0385424e-05
217	0x80000004	-6e-45
218	0xb88ac012	-6.616129e-05
219	0x00000000	0.0
220	0x38fb1a8e	0.00011973559
221	0x00000004	6e-45
222	0xb8c71310	-9.49261e-05
223	0xb8f55a7d	-0.00011699365
224	0xb88ce595	-6.718483e-05
225	0x00000004	6e-45
226	0x38407a9f	4.5890567e-05
227	0xb873a843	-5.809242e-05
228	0xb975de99	-0.00023447945
229	0x34e6de49	4.3002572e-07
230	0xb8f1c927	-0.00011529243
231	0x37cd9742	2.450834e-05
232	0x00000000	0.0
233	0xb90c65ee	-0.00013389412
234	0x00000000	0.0
235	0xb91917c4	-0.0001460007
236	0x00000004	6e-45
237	0xb8ae0cb0	-8.29933e-05
238	0x00000000	0.0
239	0xb87e1a9b	-6.0583097e-05
240	0xb7e65acf	-2.7460423e-05
241	0xb8cb4e0e	-9.694333e-05
242	0xb791800c	-1.7344973e-05
243	0x00000000	0.0
244	0x80000004	-6e-45
245	0xb88efafc	-6.817837e-05
246	0x00000004	6e-45
247	0xb8a366c3	-7.7915865e-05
248	0xb88ad9ef	-6.620946e-05
249	0x00000004	6e-45
250	0xb8d3a739	-0.00010092412
251	0xb8b7c00b	-8.761891e-05
252	0xb8273319	-3.986349e-05
253	0xb90ec753	-0.0001361643
254	0xb6715093	-3.5958699e-06
255	0x80000004	-6e-45

exp_avg_sq f4 [256]
0	0x209f361f	2.6971462e-19
1	0x00000000	0.0
2	0x35d7a964	1.6068047e-06
3	0x38a1022c	7.677483e-05
4	0x37f74709	2.9477773e-05
5	0x23161141	8.13517e-18
6	0x23c8c4de	2.176742e-17
7	0x092c7d36	2.076262e-33
8	0x380ade88	3.3109012e-05
9	0x1435b6f7	9.174248e-27
10	0x3813aad2	3.520662e-05
11	0x378c24db	1.6706463e-05
12	0x38356ef1	4.3257085e-05
13	0x38220bd3	3.8634822e-05
14	0x3891ab96	6.946099e-05
15	0x38c29ade	9.279487e-05
16	0x244a3b71	4.3852117e-17
17	0x116117d2	1.775671e-28
18	0x37f075c2	2.8665065e-05
19	0x391c2859	0.0001489235
20	0x3851f57c	5.0058108e-05
21	0x38c2e5f3	9.293472e-05
22	0x00000000	0.0
23	0x00000000	0.0
24	0x385e53e4	5.3007054e-05
25	0x382d8f9f	4.138017e-05
26	0x39a07e65	0.0003061175
27	0x37266039	9.916775e-06
28	0x38ff8800	0.000121846795
29	0x363529ec	2.6995504e-06
30	0x3755f62e	1.27531075e-05
31	0x38477be2	4.7560672e-05
32	0x00000000	0.0
33	0x3823af13	3.902528e-05
34	0x2209d86d	1.8681537e-18
35	0x2a502149	1.8485659e-13
36	0x37dfa2f5	2.6659554e-05
37	0x36d03964	6.205564e-06
38	0x29a3102e	7.241461e-14
39	0x36af7aa8	5.2296855e-06
40	0x00000000	0.0
41	0x3825a560	3.9493083e-05
42	0x31e817ca	6.754793e-09
43	0x38e00095	0.00010681261
44	0x287889bc	1.3796632e-14
45	0x00000000	0.0
46	0x3913125f	0.00014025856
47	0x3937fdb5	0.00017546753
48	0x383a9f2f	4.4494107e-05
49	0x3443c11d	1.8231044e-07
50	0x380c2f1b	3.342247e-05
51	0x380e9f7f	3.400398e-05
52	0x37301266	1.0494701e-05
53	0x39c7f285	0.0003813693
54	0x38cf4e2f	9.885092e-05
55	0x2a2918a0	1.5018759e-13
56	0x276b2ee3	3.2638219e-15
57	0x00000000	0.0
58	0x372d08f0	1.03136845e-05
59	0x37d79fc3	2.5704392e-05
60	0x388470e0	6.315275e-05
61	0x38a11788	7.681461e-05
62	0x373d1e9e	1.12724065e-05
63	0x30e49dad	1.6633998e-09
64	0x348d6f81	2.6344426e-07
65	0x00000000	0.0
66	0x39a74e48	0.00031911046
67	0x1e2c3516	9.116582e-21
68	0x3335a985	4.2296524e-08
69	0x38a469cd	7.839836e-05
70	0x2af82e5b	4.4085815e-13
71	0x38c8f5b5	9.58251e-05
72	0x38693cc4	5.560812e-05
73	0x255f9734	1.9393396e-16
74	0x386d4021	5.6564928e-05
75	0x326ac865	1.3666157e-08
76	0x3914892c	0.0001416548
77	0x38a46672	7.839211e-05
78	0x3845b1d7	4.7134086e-05
79	0x00000000	0.0
80	0x37ceae03	2.4638144e-05
81	0x376501e9	1.3649908e-05
82	0x36ace1c0	5.15228e-06
83	0x1108aca4	1.0781707e-28
84	0x38538952	5.043421e-05
85	0x38655cbb	5.4684217e-05
86	0x3841e2f4	4.6226152e-05
87	0x37c308ff	2.325e-05
88	0x36a360c8	4.8690454e-06
89	0x21c1af71	1.3124628e-18
90	0x36f44692	7.279982e-06
91	0x2f942cbb	2.6952826e-10
92	0x385874f7	5.1607345e-05
93	0x265fc824	7.763991e-16
94	0x38a154a1	7.6928416e-05
95	0x39108949	0.00013784053
96	0x357dde0e	9.4572977e-07
97	0x14001bcb	6.46783e-27
98	0x38306754	4.20579e-05
99	0x38ec24ac	0.000112601876
100	0x3786e3db	1.6080148e-05
101	0x39acd509	0.0003296512
102	0x37bc9c72	2.2484197e-05
103	0x377f2f6c	1.5210226e-05
104	0x00000000	0.0
105	0x373793d1	1.0942066e-05
106	0x35aed4d5	1.3025953e-06
107	0x3811e78c	3.478634e-05
108	0x380bdde1	3.3346823e-05
109	0x26369d08	6.335675e-16
110	0x3409ab4f	1.2821441e-07
111	0x37a86646	2.0074785e-05
112	0x1e22cdf7	8.618801e-21
113	0x2e74c832	5.5656986e-11
114	0x38aa627f	8.124578e-05
115	0x34b41ad7	3.354714e-07
116	0x36403f41	2.8647048e-06
117	0x376a20eb	1.3955151e-05
118	0x2acb05cf	3.6064074e-13
119	0x27610f90	3.123346e-15
120	0x37b36bf9	2.1388742e-05
121	0x3a40cd54	0.0007354815
122	0x35e4b5d7	1.7040246e-06
123	0x00000000	0.0
124	0x385f7f4d	5.32859e-05
125	0x00000000	0.0
126	0x288a0e97	1.5327405e-14
127	0x36dee787	6.643069e-06
128	0x360ba2d0	2.0807383e-06
129	0x23af8b49	1.9032528e-17
130	0x00000000	0.0
131	0x00000000	0.0
132	0x38c0d0c4	9.194159e-05
133	0x2814f67e	8.2691e-15
134	0x36b4b736	5.3857466e-06
135	0x39131f2b	0.00014030623
136	0x386be542	5.624188e-05
137	0x1e6f1368	1.2656568e-20
138	0x28a67c59	1.848363e-14
139	0x3906d726	0.00012859385
140	0x38ee01dc	0.00011349071
141	0x3646f19b	2.9644932e-06
142	0x37a46451	1.9597037e-05
143	0x38bd6c75	9.032424e-05
144	0x00000000	0.0
145	0x381ecd8b	3.7861562e-05
146	0x384bba14	4.857227e-05
147	0x384b3802	4.8451133e-05
148	0x3914d76a	0.00014194628
149	0x24c994d9	8.742201e-17
150	0x39501a35	0.00019846189
151	0x3754ae80	1.2676814e-05
152	0x38e309a4	0.00010825999
153	0x0e0d63fb	1.742773e-30
154	0x380f94b1	3.4232336e-05
155	0x00000000	0.0
156	0x20702d48	2.0343773e-19
157	0x1c0a31b2	4.57246e-22
158	0x389e73cc	7.555596e-05
159	0x0e22353a	1.999367e-30
160	0x3842d89d	4.645494e-05
161	0x390dad1d	0.00013511298
162	0x380238d4	3.104734e-05
163	0x2759ccf3	3.0225903e-15
164	0x379dc4ac	1.8807441e-05
165	0x3901dfc0	0.00012385752
166	0x3502b021	4.8685075e-07
167	0x372e5274	1.0390406e-05
168	0x3792aa0e	1.7483744e-05
169	0x371d7a6a	9.386431e-06
170	0x1ca03776	1.0602248e-21
171	0x38e78525	0.000110397385
172	0x38fc6ae8	0.00012036209
173	0x380a4339	3.296437e-05
174	0x2ac349f8	3.4690284e-13
175	0x2d4a75ad	1.15085e-11
176	0x3720cf41	9.584998e-06
177	0x3a1b9961	0.0005935636
178	0x372e1beb	1.0377708e-05
179	0x2e340c75	4.0938326e-11
180	0x38b76365	8.744634e-05
181	0x376e0d07	1.4188939e-05
182	0x38b5343f	8.640484e-05
183	0x00000000	0.0
184	0x38088e67	3.255755e-05
185	0x383872e1	4.3976008e-05
186	0x26d523e7	1.4789575e-15
187	0x39153b6c	0.00014231884
188	0x39cf9c5a	0.00039598608
189	0x389b0f00	7.39377e-05
190	0x371d2e81	9.368757e-06
191	0x21cb2ead	1.376817e-18
192	0x3814a3d4	3.5438527e-05
193	0x36c7ef63	5.9585304e-06
194	0x38c8d9f5	9.577341e-05
195	0x371e9507	9.452232e-06
196	0x3819d95b	3.668047e-05
197	0x386d3dcd	5.656276e-05
198	0x38ebf544	0.000112513575
199	0x382b5cbc	4.0855943e-05
200	0x38122213	3.4840847e-05
201	0x38c56f38	9.414408e-05
202	0x37dd7351	2.6398951e-05
203	0x38377043	4.3735152e-05
204	0x382bfde5	4.1006035e-05
205	0x00000000	0.0
206	0x37388fd1	1.10007395e-05
207	0x2909d017	3.06006e-14
208	0x00000000	0.0
209	0x24cd1a9c	8.8949656e-17
210	0x38038736	3.135876e-05
211	0x37443a44	1.1696076e-05
212	0x39c5765c	0.00037662953
213	0x381781e3	3.6122172e-05
214	0x37863036	1.5996495e-05
215	0x367a729c	3.7319614e-06
216	0x374bc09f	1.2144591e-05
217	0x1e2763ba	8.861529e-21
218	0x3763712d	1.3556605e-05
219	0x00000000	0.0
220	0x3965eedd	0.00021928125
221	0x1823cc37	2.1170358e-24
222	0x38424dbf	4.632561e-05
223	0x38856559	6.360812e-05
224	0x3877816b	5.900992e-05
225	0x11390ab1	1.4597221e-28
226	0x34862d21	2.499228e-07
227	0x37813e9e	1.5407157e-05
228	0x397cddee	0.00024115268
229	0x3604432b	1.970863e-06
230	0x380bd6cf	3.334024e-05
231	0x3686069d	3.994281e-06
232	0x00000000	0.0
233	0x38cfa48b	9.901178e-05
234	0x00000000	0.0
235	0x392bb1e1	0.00016374096
236	0x0e4e7b88	2.5450939e-30
237	0x388fb82b	6.853075e-05
238	0x00000000	0.0
239	0x37be36f9	2.2675364e-05
240	0x36e5c2e8	6.847422e-06
241	0x3879367c	5.941697e-05
242	0x380045fc	3.0582756e-05
243	0x00000000	0.0
244	0x264e1719	7.150191e-16
245	0x384606e1	4.7213285e-05
246	0x24fb1eab	1.0890585e-16
247	0x37b25b22	2.126169e-05
248	0x388ce409	6.718195e-05
249	0x26954693	1.0358081e-15
250	0x38c3108f	9.301409e-05
251	0x38310a64	4.2209766e-05
252	0x362edcad	2.605647e-06
253	0x384d1683	4.8896774e-05
254	0x38694eb3	5.5624823e-05
255	0x2dd9e23e	2.4770515e-11

exp_avg f4 [26, 256]
0	0x00000004	6e-45
1	0x00000000	0.0
2	0x80000004	-6e-45
3	0x00000004	6e-45
4	0x00000004	6e-45
5	0x80000004	-6e-45
6	0x80000004	-6e-45
7	0x00000000	0.0
8	0x00000004	6e-45
9	0x00000000	0.0
10	0x00000004	6e-45
11	0x00000004	6e-45
12	0x00000004	6e-45
13	0x00000004	6e-45
14	0x00000000	0.0
15	0x00000004	6e-45
16	0x00000000	0.0
17	0x00000000	0.0
18	0x00000004	6e-45
19	0x00000004	6e-45
20	0x00000004	6e-45
21	0x00000004	6e-45
22	0x00000000	0.0
23	0x00000000	0.0
24	0x00000000	0.0
25	0x00000000	0.0
26	0x00000004	6e-45
27	0x00000004	6e-45
28	0x00000004	6e-45
29	0x80000004	-6e-45
30	0x80000004	-6e-45
31	0x00000004	6e-45
32	0x00000000	0.0
33	0x00000004	6e-45
34	0x00000004	6e-45
35	0x00000000	0.0
36	0x00000004	6e-45
37	0x00000000	0.0
38	0x00000000	0.0
39	0x00000004	6e-45
40	0x00000000	0.0
41	0x00000004	6e-45
42	0x00000004	6e-45
43	0x00000004	6e-45
44	0x00000004	6e-45
45	0x00000000	0.0
46	0x00000004	6e-45
47	0x00000004	6e-45
48	0x00000004	6e-45
49	0x00000004	6e-45
50	0x00000004	6e-45
51	0x00000004	6e-45
52	0x00000004	6e-45
53	0x00000000	0.0
54	0x80000004	-6e-45
55	0x00000000	0.0
56	0x00000000	0.0
57	0x00000000	0.0
58	0x00000004	6e-45
59	0x00000004	6e-45
60	0x00000004	6e-45
61	0x00000004	6e-45
62	0x00000004	6e-45
63	0x00000004	6e-45
64	0x00000004	6e-45
65	0x00000000	0.0
66	0x00000004	6e-45
67	0x00000000	0.0
68	0x00000004	6e-45
69	0x00000004	6e-45
70	0x00000000	0.0
71	0x80000004	-6e-45
72	0x00000004	6e-45
73	0x00000000	0.0
74	0x00000004	6e-45
75	0x00000004	6e-45
76	0x00000000	0.0
77	0x00000004	6e-45
78	0x80000004	-6e-45
79	0x00000000	0.0
80	0x00000004	6e-45
81	0x00000000	0.0
82	0x00000004	6e-45
83	0x00000000	0.0
84	0x00000004	6e-45
85	0x00000004	6e-45
86	0x00000004	6e-45
87	0x00000004	6e-45
88	0x00000004	6e-45
89	0x00000004	6e-45
90	0x00000004	6e-45
91	0x00000004	6e-45
92	0x00000004	6e-45
93	0x00000000	0.0
94	0x00000004	6e-45
95	0x00000004	6e-45
96	0x00000004	6e-45
97	0x00000000	0.0
98	0x00000004	6e-45
99	0x00000000	0.0
100	0x00000004	6e-45
101	0x80000004	-6e-45
102	0x00000004	6e-45
103	0x00000004	6e-45
104	0x00000000	0.0
105	0x80000004	-6e-45
106	0x00000000	0.0
107	0x00000004	6e-45
108	0x80000004	-6e-45
109	0x00000004	6e-45
110	0x00000000	0.0
111	0x00000004	6e-45
112	0x00000004	6e-45
113	0x00000004	6e-45
114	0x00000004	6e-45
115	0x00000000	0.0
116	0x80000004	-6e-45
117	0x00000004	6e-45
118	0x00000004	6e-45
119	0x00000004	6e-45
120	0x00000000	0.0
121	0x00000000	0.0
122	0x80000004	-6e-45
123	0x00000000	0.0
124	0x00000004	6e-45
125	0x00000000	0.0
126	0x00000004	6e-45
127	0x80000004	-6e-45
128	0x00000004	6e-45
129	0x00000004	6e-45
130	0x00000000	0.0
131	0x00000000	0.0
132	0x00000004	6e-45
133	0x80000004	-6e-45
134	0x00000004	6e-45
135	0x00000004	6e-45
136	0x00000004	6e-45
137	0x00000000	0.0
138	0x80000004	-6e-45
139	0x00000004	6e-45
140	0x00000004	6e-45
141	0x00000004	6e-45
142	0x00000000	0.0
143	0x00000004	6e-45
144	0x00000000	0.0
145	0x00000004	6e-45
146	0x00000004	6e-45
147	0x00000004	6e-45
148	0x00000004	6e-45
149	0x00000004	6e-45
150	0x00000004	6e-45
151	0x00000004	6e-45
152	0x00000004	6e-45
153	0x00000000	0.0
154	0x00000004	6e-45
155	0x00000000	0.0
156	0x00000000	0.0
157	0x00000000	0.0
158	0x00000004	6e-45
159	0x00000000	0.0
160	0x80000004	-6e-45
161	0x00000004	6e-45
162	0x00000004	6e-45
163	0x00000004	6e-45
164	0x00000004	6e-45
165	0x00000004	6e-45
166	0x00000004	6e-45
167	0x00000004	6e-45
168	0x00000004	6e-45
169	0x00000004	6e-45
170	0x00000000	0.0
171	0x00000004	6e-45
172	0x00000004	6e-45
173	0x00000000	0.0
174	0x00000004	6e-45
175	0x00000004	6e-45
176	0x00000004	6e-45
177	0x00000004	6e-45
178	0x00000000	0.0
179	0x80000004	-6e-45
180	0x00000004	6e-45
181	0x80000004	-6e-45
182	0x00000004	6e-45
183	0x00000000	0.0
184	0x00000004	6e-45
185	0x00000004	6e-45
186	0x00000004	6e-45
187	0x00000004	6e-45
188	0x00000004	6e-45
189	0x00000004	6e-45
190	0x00000004	6e-45
191	0x00000000	0.0
192	0x00000004	6e-45
193	0x00000004	6e-45
194	0x00000004	6e-45
195	0x00000004	6e-45
196	0x00000004	6e-45
197	0x00000004	6e-45
198	0x00000004	6e-45
199	0x00000004	6e-45
200	0x00000004	6e-45
201	0x00000004	6e-45
202	0x00000004	6e-45
203	0x00000004	6e-45
204	0x00000004	6e-45
205	0x00000000	0.0
206	0x80000004	-6e-45
207	0x80000004	-6e-45
208	0x00000000	0.0
209	0x00000000	0.0
210	0x00000000	0.0
211	0x00000004	6e-45
212	0x00000004	6e-45
213	0x00000004	6e-45
214	0x00000004	6e-45
215	0x00000004	6e-45
216	0x00000004	6e-45
217	0x00000004	6e-45
218	0x00000004	6e-45
219	0x00000000	0.0
220	0x80000004	-6e-45
221	0x00000000	0.0
222	0x00000004	6e-45
223	0x00000004	6e-45
224	0x00000004	6e-45
225	0x00000000	0.0
226	0x80000004	-6e-45
227	0x00000004	6e-45
228	0x00000000	0.0
229	0x80000004	-6e-45
230	0x00000004	6e-45
231	0x00000004	6e-45
232	0x00000000	0.0
233	0x80000004	-6e-45
234	0x00000000	0.0
235	0x00000004	6e-45
236	0x00000000	0.0
237	0x00000004	6e-45
238	0x00000000	0.0
239	0x00000004	6e-45
240	0x00000004	6e-45
241	0x00000004	6e-45
242	0x80000004	-6e-45
243	0x00000000	0.0
244	0x00000004	6e-45
245	0x00000004	6e-45
246	0x00000000	0.0
247	0x00000004	6e-45
248	0x00000004	6e-45
249	0x00000004	6e-45
250	0x00000004	6e-45
251	0x00000004	6e-45
252	0x00000004	6e-45
253	0x00000004	6e-45
254	0x00000000	0.0
255	0x00000000	0.0
