saved_weights/pretrained/saved_weights_linear.pth.tar (torch_old, 147359 bytes, 6 tensors)

fc_in.weight f4 [64, 204]
000000 95 a7 c6 3c 81 fb d8 3b 0f 79 da 3c 72 d2 0d be
       0.024249831 0.0066217785 0.026669053 -0.1384981
000010 7a bb 87 bb d5 75 a3 ba 2f bf eb 3c 5d df b3 bc
       -0.004142222 -0.001247103 0.028777687 -0.021957094
000020 06 65 97 bc d2 39 50 3c 08 dd 8b bc bb f7 91 bd
       -0.018480789 0.012709098 -0.01707317 -0.07127329
000030 9e cb 01 3d af 93 8c 3c 5e 62 2d bc 54 5e 05 be
       0.031688325 0.017160265 -0.010582535 -0.13024265
000040 95 00 a2 bc 8a 2c 4b ba 80 ab ad bc b6 99 00 bd
       -0.019775668 -0.0007750472 -0.021199942 -0.03139659
000050 47 fa fa 3c 25 07 a0 3c e4 4e 1e bb 4b f5 4e 3c
       0.03063692 0.019534657 -0.002415591 0.012631725
000060 5c 84 d8 bb 38 66 69 bd cb 58 96 bb ba 02 d0 bc
       -0.0066075753 -0.05698225 -0.0045882217 -0.025391925
000070 75 fd cc 3c 7a 24 40 3d 11 5e a5 3c 87 ae 6d bd
       0.025023201 0.046909787 0.020186456 -0.05802777
000080 e4 73 ce bb 0f 7c 58 3d 22 d8 05 3c 9b 18 84 3c
       -0.0063004363 0.052852686 0.008169206 0.016125014
000090 c7 33 5c bc b8 60 49 bd 6c 0e 94 bd 01 8e ae 3d
       -0.013440079 -0.049164504 -0.07229313 0.08523179
0000a0 7c 16 dd 3c f5 81 88 3d 0e 63 46 3d 64 98 68 bd
       0.02698826 0.06665412 0.04843431 -0.056785956
0000b0 e4 01 ba bc e6 fa 35 bd 92 b5 8d bd 28 22 6f 3c
       -0.02270598 -0.04442873 -0.069193974 0.014595546
0000c0 fc 21 05 bc 20 61 a0 bc aa 82 37 bd ac e5 be bc
       -0.008125778 -0.019577563 -0.044802345 -0.023302875
0000d0 58 03 8a 3c bc 6c 8d 3c 0c 16 3f bc 90 70 74 3c
       0.016847298 0.017263763 -0.011662971 0.014919415
0000e0 fc 6f 28 bc 38 db af bc 7a 0b 43 3d ca 71 5c 3d
       -0.010280605 -0.021466836 0.047618367 0.053819455
0000f0 48 ef 14 3c 2d 53 8a 3d 67 22 85 bd 34 1f 31 bc
       0.009090252 0.06754146 -0.06500702 -0.010810662
000100 34 e0 1a bc 08 ac 1b 3c f2 27 3d bd 98 7e 39 3c
       -0.009452868 0.009501465 -0.046180673 0.011321686
000110 d6 6c 2a bd 44 db cd bc 9a 50 6c bd 80 4f c0 3b
       -0.0416077 -0.025128968 -0.057694055 0.005868852
000120 0c 1c e5 bc af a1 8d 3d c0 88 02 bb 2c 7f 86 bc
       -0.027967475 0.06915604 -0.0019917935 -0.016418062
000130 99 cc 82 bd c2 25 77 bd 50 95 eb bb 60 8f 5b 3d
       -0.0638668 -0.060338743 -0.0071894303 0.05360353
000140 e2 0e 08 bd 21 07 8b 3d c0 a0 fe 3a 16 b3 9c bc
       -0.03321732 0.06788469 0.0019426569 -0.019128364
000150 2d b5 88 bd 2c d0 36 3d 0e bc 35 3d 6d 54 73 bd
       -0.066751815 0.044632122 0.044368796 -0.059406687
000160 fe e8 d7 bc bd e2 07 bd 78 33 5b 3c fa a5 2d bd
       -0.026356217 -0.03317522 0.01337897 -0.042394616
000170 f2 d8 70 bd b2 cb ad bc 7b 90 85 3d be 02 6d 3d
       -0.058800645 -0.021215294 0.06521698 0.057863943
000180 94 cd 1b bd 05 ad 1d bd a4 34 1f 3d 90 a4 b4 3c
       -0.03803785 -0.038495082 0.03886856 0.022051126
000190 1a 07 b1 bc 88 d4 46 3d f2 04 73 3d 36 93 f3 bc
       -0.021609832 0.04854253 0.059330888 -0.029733282
0001a0 b8 53 3b 3d 68 9e ed 3c 47 9b 63 bd e0 07 78 bb
       0.045734137 0.029006198 -0.055568006 -0.003784649
0001b0 55 a4 6e bd e0 bc ef 3c 00 87 47 ba c0 74 4c 3d
       -0.058262188 0.029264867 -0.0007611364 0.04991603
0001c0 f6 20 6b 3d 7e aa 75 3d d0 ae a9 3c 58 e0 6b bc
       0.05740448 0.059977047 0.02071324 -0.014396749
0001d0 00 c6 31 ba e0 56 20 bb 98 17 ff 3c 6c a1 c3 3c
       -0.00067815185 -0.0024465844 0.03113918 0.023880683
0001e0 39 ff 16 bd 7c c4 0b bd 24 4d bd bc 3c e2 5a bc
       -0.036864493 -0.03412293 -0.023108073 -0.013359603
0001f0 94 af 5f 3d 93 fa 55 bd b0 1f 8b bd c0 7d c5 3a
       0.054610804 -0.05224092 -0.06793153 0.0015067384
000200 6c 46 8c 3c 9a 3e 53 bd ba dd ab bc 31 58 88 3d
       0.017123424 -0.051573373 -0.02097975 0.06657446
000210 50 8a 30 3d 8c ab 8e 3c b0 21 ff bc b8 59 02 bc
       0.043100655 0.017415784 -0.031143993 -0.007955961
000220 f7 2e 8e 3d d8 d9 3e bc 79 5b 8f bd 54 50 31 3d
       0.069425516 -0.011648618 -0.06999869 0.043289497
000230 02 dc 79 bd 84 3a 95 3c f3 0c 84 3d 7e 1d 06 3d
       -0.06100083 0.018216379 0.06447782 0.03274297
000240 42 05 26 3d 60 db d4 bc 80 de 3b 3b 2c e0 f3 3c
       0.040532358 -0.025983512 0.0028666556 0.02976998
000250 40 a6 26 3d 20 ba 52 bb f8 d8 0d 3c bc a9 22 bd
       0.040685892 -0.0032154396 0.008657686 -0.039712653
000260 74 c9 45 3d 69 0c 84 3d f2 08 4e 3d 51 6a 15 bd
       0.048287824 0.064476795 0.0503015 -0.036478344
000270 94 6b ed 3c 50 2a 9f bb 04 cc 5b bc f4 9d 90 3c
       0.028981961 -0.004857339 -0.01341534 0.017653443
000280 04 43 57 3d 80 e6 29 3c 00 4b 1f bd ed 85 8c 3d
       0.052554145 0.010369897 -0.038889885 0.06861482
000290 ac 95 28 3d 88 6e 34 3c 80 66 a4 ba 7c 5e 52 bd
       0.041158363 0.011012681 -0.0012542754 -0.05135964
0002a0 70 26 6b 3c 00 5c 03 3c f6 4c 0b 3d 6c 8c 14 3d
       0.014352426 0.00801754 0.034008943 0.03626673
0002b0 10 63 4a bc fc 90 3a 3d a8 88 1b bc 35 35 70 bd
       -0.01235272 0.045548424 -0.009493031 -0.058644492
0002c0 00 e5 d0 3b e4 25 08 bd 7c 05 9a 3c 34 36 ec 3c
       0.006374955 -0.03323926 0.018801443 0.02883444
0002d0 60 2b 17 bd 46 ed 08 bd 30 5c 49 3d e8 4d 48 bd
       -0.0369066 -0.033429407 0.049160182 -0.048902422
0002e0 40 9b 00 3b 28 f1 5b bc 41 d6 8d 3d 4e 5b f3 bc
       0.0019623786 -0.013424195 0.06925631 -0.029706623
0002f0 50 70 28 3d f8 62 17 3d a0 40 b6 3b 24 bd d2 3c
       0.041122735 0.03695962 0.005561903 0.025724955
000300 58 03 2d 3c 8a cf 37 bd ea 0d 61 bd 88 cb c0 3c
       0.010559879 -0.04487566 -0.05494491 0.023534551
000310 2b 03 11 bd fc 9d ff 3c c2 3e 7a 3d f2 4c 46 3d
       -0.03540341 0.031203263 0.061095007 0.048413225
000320 14 76 3e bd b4 6b 2c be 32 07 98 bc 0b 04 13 3e
       -0.046499327 -0.1683796 -0.018558118 0.14357011
000330 e8 74 84 3b 52 86 a3 3b 58 4c 8a bb 59 6d b1 3c
       0.0040422566 0.0049903775 -0.0042205267 0.021658586
000340 69 73 94 3c e5 0f 19 bb 3b e1 d8 bc fc 45 c8 bd
       0.018121438 -0.002335542 -0.026474586 -0.097789735
000350 85 53 97 3c 05 20 1a bd 70 70 ff 3b 15 c0 9c bd
       0.018472442 -0.037628192 0.007795386 -0.07653824
000360 ad 06 2a bc e4 45 d0 3c a4 16 d6 3c f5 98 e7 3c
       -0.010377568 0.025423951 0.026133843 0.028271178
000370 1a 48 b7 bb 03 4a c8 3c 92 ce 12 3c b8 52 af bd
       -0.005593312 0.024449354 0.008960383 -0.08560699
000380 72 9d 44 bc b1 79 2b bc 3c c1 ea bb 5e 63 e4 bd
       -0.0120004285 -0.010466025 -0.0071641486 -0.11151765
000390 71 88 0d 3d c7 17 32 3a e1 d3 d2 3c dc 38 10 be
       0.03455395 0.0006793704 0.025735797 -0.1408419
0003a0 c8 5d 10 bd 27 0b 62 bb 5c 0c 02 3d 0b d5 6d bd
       -0.035245687 -0.003449151 0.031750068 -0.0580645
0003b0 26 7e 95 bc f4 e5 11 bd 02 cf 4a bd 50 34 85 bd
       -0.018248629 -0.03561969 -0.049513824 -0.065041184
0003c0 86 fb 7a bb 42 90 ee 3c 9b 1b 98 3c 47 b6 ca bd
       -0.0038296892 0.029121522 0.01856785 -0.09898048
0003d0 70 7b ec bb a0 f1 22 3b 68 df c9 3c 68 35 22 3c
       -0.0072168633 0.0024863258 0.024642661 0.009900428
0003e0 78 ce ae 3c 80 96 60 3a 10 d9 3e bd 0e 55 17 3d
       0.021338686 0.0008567348 -0.046593726 0.03694635
0003f0 40 05 a6 3c 91 7b 86 bd be 46 4d 3d dc 9e d8 3c
       0.020266175 -0.06566537 0.050116293 0.026442938

fc_in.bias f4 [64]
000000 51 05 8b 3c 06 71 45 3d ad f4 d6 3d 86 17 8d 3d
       0.016970308 0.04820349 0.10495887 0.06889252
000010 78 a5 aa 3c bc ce 04 3e 73 64 87 3d 26 9b f4 bd
       0.020830855 0.12969488 0.06610956 -0.11943655
000020 8a 38 10 3d 8a c2 bc 3d e6 fe 5f bc ca 5e ce bd
       0.03521017 0.09216793 -0.013671612 -0.10076673
000030 1c 37 a4 3d 85 4d d1 bd ad 22 b1 3d f8 c5 0e 3d
       0.08018324 -0.10219864 0.08649192 0.034856766
000040 c3 db f3 3c 47 a6 98 3d eb cb ff 3d ee 5e d8 3d
       0.029767876 0.0745359 0.12490066 0.105649814
000050 03 b6 62 bc 2f c4 0b be 04 8b f4 bd 7b 69 20 3d
       -0.01383734 -0.13649057 -0.119405776 0.039163094
000060 6d 6e 29 be f7 6d 83 3b f6 9d 35 be e5 cf f9 3c
       -0.1654603 0.0040109116 -0.17736039 0.03049464
000070 c7 c7 0e be 80 3b 9b bd fb 0a 19 bd 98 b4 7b 3d
       -0.13943397 -0.07579708 -0.037363987 0.061451524
000080 5b 27 49 3d 42 4b 9a 3d 75 7b ac 3c bb 67 0a bc
       0.049109798 0.075338855 0.021054963 -0.008447583
000090 52 1b b3 3d 65 29 ad 3d 9a f9 02 3d bb 46 99 bd
       0.08745445 0.08455161 0.03197632 -0.07484194
0000a0 7c de b5 bc d8 46 a0 bb 06 69 45 3d 0b 8b ae 3d
       -0.022200815 -0.0048912577 0.04819586 0.08522614
0000b0 da 9c b5 3d ad e4 09 be d3 6e b9 3d 17 35 f4 3d
       0.08867808 -0.13466139 0.09054341 0.119241886
0000c0 a9 99 ee bd f8 f4 ae 3d 89 fc b0 3d b0 ae c7 3c
       -0.11650402 0.08542818 0.08641917 0.02437529
0000d0 c6 e7 e1 3d 44 2f 8c 3d c7 4b 9f 3c e3 49 2d bd
       0.110305354 0.06844953 0.019445313 -0.042306792
0000e0 5a 0c 08 3e 6e 33 ed 3c 69 fe d3 bb de fd 54 bc
       0.13285962 0.028955188 -0.006469537 -0.01299998
0000f0 d1 c0 51 3d ca 98 82 bd d1 47 6a 3d 8d 82 8e 3d
       0.051209275 -0.063767985 0.057197396 0.06958494

fc1.weight f4 [256, 64]
000000 86 37 d0 3d e5 54 0f 3d b8 a0 b9 bd 76 ff fb 3d
       0.1016684 0.03499307 -0.09063858 0.12304585
000010 b3 aa 9f 3d 69 6f 26 3c e7 f4 06 3e 7b 94 c0 bc
       0.0779623 0.010158398 0.1317936 -0.023508301
000020 0e 16 89 bd 89 20 e1 3d 2e 0a eb bd ca 70 10 3e
       -0.0669366 0.10992534 -0.11476551 0.14105526
000030 c1 86 1b bd d9 18 a8 3c eb 55 28 bd 6d 84 8d bd
       -0.03797031 0.02051966 -0.041097563 -0.06910024
000040 d9 0a a9 bd a2 7b b3 bd 5d ba 10 bd dc 45 ad 3d
       -0.08254022 -0.087638155 -0.03533398 0.0846059
000050 c2 36 88 3c e1 b1 aa 3d 79 6d ad 3d c1 27 11 3d
       0.016627673 0.08334709 0.08468146 0.035438303
000060 38 24 ac bd 86 ab e4 bd 04 39 a9 bd 82 2d 88 3c
       -0.08405346 -0.11165528 -0.08262828 0.016623262
000070 e2 68 b0 bc 55 97 d4 bd ce a4 bd bb 11 ee 49 3d
       -0.021534387 -0.10380427 -0.0057874685 0.049299303
000080 6a b7 eb 3d 72 7e f2 3b 1e f6 b2 3d e9 4e bb bd
       0.11509593 0.0074003274 0.087383494 -0.0914591
000090 ae b9 ec 3d 6b 61 85 bd a4 59 00 be 1a 05 e7 3d
       0.11558853 -0.06512722 -0.12534195 0.1128027
0000a0 b3 3f b0 3d 92 8d 62 3c 4d 36 20 3c a5 77 e9 bb
       0.086059 0.013827698 0.009778571 -0.0071248584
0000b0 91 89 ff 3b b4 fa 0c 3c a3 03 52 3d 7f 12 b1 3d
       0.0077983816 0.008604694 0.051273 0.08646106
0000c0 bf 30 96 3d 48 f8 03 3e 7b 66 c6 3c 86 4d 31 bd
       0.07333516 0.1288768 0.024218788 -0.043286823
0000d0 b4 7f 1d 3d 3f 83 0a bd bc c0 2e bd 6e e5 8c bd
       0.038451865 -0.033816572 -0.042664275 -0.06879698
0000e0 11 84 05 3e 94 95 08 bd 18 51 be 3d bc 11 f8 3d
       0.1303866 -0.033345774 0.09292811 0.121127576
0000f0 60 f5 8b 3d 83 16 7c 3d 1d fe 3a bd 59 03 d7 bc
       0.06833911 0.061544906 -0.045652498 -0.026246713
000100 4d c6 13 bc fc af a3 bd a0 65 3c be d4 d9 c1 3d
       -0.009019447 -0.07992551 -0.18398142 0.094653755
000110 bb d2 cb 3b 09 a6 dd 3d fa 69 77 bd 7e d7 df 3c
       0.0062201894 0.10822684 -0.0604038 0.027324434
000120 c1 3f 5d 3e 21 40 0e 3d 5d 6f 62 3e 6b 6a 3e 3d
       0.21606351 0.034729127 0.22112794 0.046488207
000130 cf 0a 83 bd 31 59 71 bd 61 30 20 bc 55 6d be be
       -0.06398546 -0.05892295 -0.009777159 -0.3719279
000140 fe 62 17 be b5 e4 32 bd 6d 83 57 be 14 3f 80 bc
       -0.14783856 -0.043675143 -0.21046229 -0.015655078
000150 69 bd ff bd 61 d4 c2 bc 11 2a 10 be 3b d8 84 3c
       -0.12487299 -0.02378291 -0.14078547 0.016216388
000160 fb c4 27 be ef b4 3e be 96 9a 45 be 80 24 56 be
       -0.16383736 -0.18623708 -0.19297251 -0.20912361
000170 4f ef d9 bd cb 73 e2 3d 2d 5c b0 bd a0 f7 93 3c
       -0.106413476 0.11057242 -0.08611331 0.018062413
000180 c2 f8 dd 3d ff 9f b7 bd 08 6f 25 bd d0 3f d4 bc
       0.108384624 -0.08966064 -0.04038909 -0.025909334
000190 62 bf 90 3d 62 e3 41 be be b9 85 bd 47 07 0c 3e
       0.070677534 -0.18934396 -0.06529568 0.13674651
0001a0 4d 46 8e 3d 48 be 47 bd 0e f2 f5 bd 9a 22 24 be
       0.069470026 -0.04876545 -0.12009059 -0.16028824
0001b0 77 51 e6 3d ea 2a 3a 3e c3 c7 1b be 78 db 2e 3d
       0.11246007 0.18180433 -0.15212922 0.04268977
0001c0 7e 46 21 be 37 22 66 3d 8b a0 13 bc e8 ad 8f 3d
       -0.15749547 0.056184974 -0.009010444 0.07015592
0001d0 f2 b1 8e bd c1 74 6a bd 4b 27 88 3d bb ec 91 be
       -0.06967534 -0.05724025 0.066481195 -0.28500924
0001e0 d1 5b ae 3d 90 45 58 bc 5e 34 c5 3c 01 de 75 3c
       0.08513606 -0.013200179 0.024072822 0.015006543
0001f0 19 fa e2 bd ef e5 41 bd 0e f4 22 3d 10 ea 3a bc
       -0.110828586 -0.047338422 0.03978353 -0.011408344
000200 6c 52 a1 3d 92 38 6f 3d a1 04 ff 3c ee 5e 31 3c
       0.07877049 0.05840356 0.031130137 0.010825856
000210 b8 21 93 bd 5b c1 d1 bd 46 11 3f be a5 72 07 bd
       -0.07184166 -0.10241958 -0.18658933 -0.033068318
000220 de 5b 1b 3e f0 85 d7 3d 3d 56 36 3e 30 76 a1 3b
       0.15171763 0.105235934 0.17806335 0.004927419
000230 89 e1 bd bd 4c 64 8f 3d e8 7d 56 bd 80 ab 08 3e
       -0.09271533 0.07001552 -0.052366167 0.13346672
000240 19 df 88 3d 89 4e f2 3d 51 46 68 bd 79 85 70 3d
       0.066831775 0.11831386 -0.056707684 0.05872104
000250 b6 af 33 3c 8e b1 9f bd 81 04 e1 3b f2 67 01 3e
       0.010967186 -0.07797538 0.006866992 0.12637308
000260 c7 86 fc bd 9e ea d8 bd 22 d8 6d be f9 17 8a bd
       -0.12330394 -0.10591625 -0.2322698 -0.06742854
000270 e9 30 10 be 77 04 f9 3b 6c d0 af bd ea fc 67 3e
       -0.14081158 0.007599409 -0.08584675 0.22655073
000280 17 cd 37 bd 39 62 08 be a3 5f 57 3e 06 86 47 bc
       -0.044873323 -0.13318719 0.21032576 -0.01217795
000290 b4 f9 cf 3d 8d fd 5c bd 5a ee 05 3e cb 22 31 bd
       0.10155049 -0.053952742 0.13079205 -0.04324607
0002a0 d8 cd d3 bc a7 12 87 bc 17 d8 18 3e 84 96 9c bd
       -0.02585499 -0.016488386 0.14926182 -0.07645896
0002b0 44 47 22 bd bc 86 b2 bd 3f 04 03 bd f2 71 c1 3d
       -0.039618745 -0.08717105 -0.03198647 0.094455615
0002c0 15 8c 04 3d 1d a2 33 bd 89 2d ae 3c 30 7a bf bc
       0.032360155 -0.043855775 0.021261947 -0.023373693
0002d0 e2 72 d7 3d 15 0a 84 3d 5e 34 94 be 2d b4 f8 be
       0.10519959 0.064472355 -0.28946203 -0.48574963
0002e0 f7 c5 91 3d 7d b1 92 3d 4f 5d 8b 3c 1a 2d 97 3d
       0.07117837 0.071627595 0.017012266 0.07381649
0002f0 ba 41 f3 3d ca 50 48 3d 58 1b 82 bd 95 75 12 be
       0.11877771 0.04890517 -0.06352872 -0.14302666
000300 ae 1b c4 3d f6 d5 16 be 7e f0 90 bd 73 7a b0 3d
       0.09575592 -0.14730057 -0.0707712 0.08617105
000310 8e 32 9f 3d 6e e7 99 bd 27 04 c1 bb 32 0e ab bd
       0.077733144 -0.07514845 -0.0058903876 -0.08352317
000320 c3 a4 91 bb d2 cc b8 3d 7c 05 f7 bd 7c 03 c9 bb
       -0.00444469 0.090234414 -0.12061593 -0.0061344486
000330 c3 28 93 3d ba c0 bf bd a4 ba 3f 3c d3 55 e4 3d
       0.07185509 -0.093629315 0.011702213 0.11149182
000340 48 0e 62 ba d3 f3 14 bd 54 00 a3 3d e7 2d 8c bd
       -0.0008623344 -0.03636534 0.07959047 -0.06844693
000350 01 9f b5 3d 16 47 13 3d f3 16 86 3b 28 90 2f bd
       0.08868218 0.035956465 0.004092091 -0.042862087
000360 81 a2 c2 3d 3a 91 f7 bc e3 be 2d be d6 a5 08 bc
       0.095036514 -0.030220617 -0.16967349 -0.00834032
000370 c9 0d 0f be d3 9e d1 3c dd 68 19 3c 19 95 b4 3d
       -0.13970102 0.025588429 0.00936338 0.088175006
000380 07 9c 18 bd 88 6e 1b bc 46 45 a7 3b f8 90 01 be
       -0.037258174 -0.009486802 0.0051046936 -0.12652957
000390 69 d3 b2 bd 6e 58 bc bb 65 11 93 3c e3 a4 8f 3c
       -0.087317295 -0.0057478463 0.01795263 0.017534679
0003a0 9b 0b e8 3d f3 78 94 bd d8 a9 dd 3d eb 80 b5 bd
       0.113303386 -0.07249632 0.10823411 -0.0886248
0003b0 a2 8e cc bd f4 9e 22 3d 1e e6 82 3d 63 48 95 3d
       -0.099881425 0.03970237 0.063915476 0.07289197
0003c0 20 b4 32 be 77 af 78 3d ba b9 14 bd 23 14 d3 3c
       -0.17451525 0.06071421 -0.036309935 0.025766438
0003d0 f2 55 42 3c 42 5b 8a 3c 9c 69 b6 bc 0a 47 45 bc
       0.011861311 0.016889218 -0.022267155 -0.012040863
0003e0 51 b0 15 bd 92 94 a3 bd 42 7c aa bd 56 79 e8 bd
       -0.0365451 -0.07987322 -0.083244815 -0.11351268
0003f0 6c d7 6f 3d ce 1d 02 be a2 9e a7 3c 57 d9 0a 3e
       0.05855505 -0.12706682 0.020461384 0.13559471

fc1.bias f4 [256]
000000 9a f7 46 bd 7d b6 e6 bd 78 6c 94 bd ce ce a4 3d
       -0.048575975 -0.112652756 -0.07247251 0.08047257
000010 64 bc f4 3d 95 0e aa bd ed b5 52 bd 82 6f 0e be
       0.11949995 -0.083035626 -0.05144303 -0.13909724
000020 c3 5c 20 3e c8 8c d0 bd 7c 5c 00 3e d1 de 19 3e
       0.15660386 -0.10183102 0.1253528 0.15026404
000030 86 1b ff 3d 58 df e8 bd 0e ce b4 bc c7 c2 2c 3e
       0.124564216 -0.113707244 -0.02207091 0.16871177
000040 bb 73 64 bb af b9 fa bd 19 68 b1 3c 51 cd 7d 3d
       -0.003485902 -0.122424476 0.021656083 0.061963383
000050 f6 e9 9f 3d 2a 54 9b 3d 53 31 30 be 2e e8 e6 bd
       0.078082964 0.075844124 -0.17206316 -0.112747535
000060 a6 f8 73 bd 10 a6 7f 3d 25 6b a4 3d d8 81 88 3d
       -0.0595633 0.06241423 0.08028249 0.06665391
000070 86 08 a9 3d 40 11 9a bc c3 72 c3 bd 8b fd 3f bc
       0.08253579 -0.018807054 -0.095433734 -0.011718164
000080 8b a8 e0 bd d4 7f 0c 3e 36 15 00 bd 6b d3 c2 bd
       -0.10969647 0.13720638 -0.03127023 -0.09512981
000090 b5 1e ab 3d 43 a7 fd bc ef 63 58 bc 93 58 89 bc
       0.08355466 -0.030963546 -0.01320742 -0.016765868
0000a0 23 fc c5 bd e3 21 b6 3d d0 01 88 3c f7 5d 9c 3d
       -0.09667232 0.08893182 0.016602427 0.0763511
0000b0 a8 66 ff bc 29 d2 f5 bd 13 d4 a7 3d 35 fd 01 be
       -0.03117688 -0.120029755 0.08194747 -0.12694247
0000c0 f4 6f fd 3d f2 fc aa 3c 23 bd 8c 3d 7e 8c 2b 3e
       0.12374869 0.020872567 0.068720125 0.16752812
0000d0 07 ca 13 3d c5 61 bd 3d 4e 1c da bd ec fe a0 3c
       0.03608134 0.09247164 -0.1064993 0.019652806
0000e0 c7 54 97 bd f8 8b 8f bd 71 d5 98 3c 25 bb ae 3d
       -0.07389217 -0.07009119 0.018656464 0.08531789
0000f0 2d 50 7a 3d fd e2 e9 3d d7 8d a5 3d 7b d5 c6 3c
       0.061111618 0.11420248 0.080836944 0.024271717
000100 19 c3 e3 bc 74 b2 e9 bd 8b fa 0c 3d ee 50 43 bd
       -0.02780299 -0.1141099 0.034418624 -0.047684602
000110 14 0b 09 3d f1 46 6d 3d ba 7d 34 bd e3 22 a0 3d
       0.03345783 0.057928983 -0.044065215 0.07819154
000120 21 a0 b7 bd 7f 8e 76 3c ef ad 20 3e fd 35 27 3d
       -0.08966089 0.015048622 0.1569135 0.04082297
000130 00 b5 9a bd 08 60 4c 3e 46 6a 12 bd 8c 85 a4 bd
       -0.07554054 0.19958508 -0.03574588 -0.080332845
000140 20 56 c4 3d 32 ac ba 3d 19 8d 3f 3d a8 6e f6 bd
       0.095867395 0.09114875 0.04676542 -0.12032825
000150 a8 c0 61 bc fb df 22 3e 85 9e 47 3d a3 6f c6 3d
       -0.013778843 0.15905754 0.04873516 0.09689262
000160 52 4f 0a 3e db c9 58 bd 0c 0a ad 3d 29 9c 9c 3c
       0.13506821 -0.05292688 0.08449182 0.019117432
000170 f6 28 6f bd 59 4c ec bc 47 8a 1c bd 1d 3a 2a 3c
       -0.058388673 -0.028845 -0.03821781 0.010389832
000180 75 31 70 bd 51 bb ae bd ce bf 20 3b 8d 3b 8f 3d
       -0.058640916 -0.085318215 0.0024528387 0.0699378
000190 1b 21 ec 3d 19 90 11 bc d1 24 3c 3d 2f fd d1 3d
       0.11529752 -0.008884453 0.04593355 0.10253369
0001a0 0d 2b 97 bd 1a e6 93 3d 6f d3 21 be 3e c2 80 bd
       -0.07381258 0.07221623 -0.15803312 -0.06287049
0001b0 6e bf 6e 3d 8f d7 03 be 47 00 0a 3c 31 3b 25 3e
       0.05828803 -0.12875198 0.008422918 0.16135861
0001c0 a4 2e a6 bd ba 2b 3e 3c 1f a8 e6 3d a6 0e ae 3c
       -0.08114365 0.011607105 0.11262535 0.02124722
0001d0 a2 c5 32 3d 8c cf b4 3d 2f 01 a6 3a 7c 13 3a bc
       0.04364551 0.08828649 0.0012665148 -0.0113571845
0001e0 ad 55 0d be f3 1d 04 3b 76 b1 78 bd 43 99 f5 bd
       -0.13802214 0.0020159453 -0.060716115 -0.11992123
0001f0 cd 9a d1 3d 5e 32 d6 bd 87 b3 02 bd 5e 85 2a 3c
       0.10234604 -0.104588255 -0.031909492 0.010407774
000200 9e d0 4d 3d f0 98 53 bc f7 d9 84 bc 8a ae 05 be
       0.05024778 -0.012914881 -0.016217215 -0.13054863
000210 a8 10 21 3e f7 11 05 be 9f 50 14 3e f3 77 4f bd
       0.1572901 -0.12995134 0.1448388 -0.050651502
000220 0b b6 da bc 4c 42 00 be 4b 2a 30 bd 29 03 b7 3d
       -0.026698133 -0.1252529 -0.043009084 0.089361496
000230 b9 ac 23 3e a8 ed b0 3c 75 b7 a3 bd 54 6c 30 3e
       0.15983857 0.021597698 -0.07993976 0.17228824
000240 40 d8 95 bb 08 20 1b 3e 39 4c fe 3d 68 68 00 3e
       -0.004572898 0.15148938 0.12416882 0.12539828
000250 08 0e 3d 3d fa f4 97 bd 15 a1 bd 3d 52 09 74 3d
       0.04615596 -0.074197724 0.092592396 0.0595792
000260 cf 3e 15 3e c5 c1 11 be 34 b6 26 3e 27 a4 f2 bd
       0.14574741 -0.14234073 0.16280442 -0.11847716
000270 00 4e 56 bd d1 a3 34 bd 3c 1a 2a 3e b6 eb 33 bd
       -0.05232048 -0.04410154 0.1661157 -0.043925963
000280 7d af 42 3d 78 4f 1a 3e 6e 43 1a 3e e0 6d 3c bc
       0.04753064 0.15069377 0.15064785 -0.011500806
000290 37 39 46 bd d4 bf 28 3e bf 2f 03 3d 10 b0 ee 3d
       -0.048394408 0.16479427 0.032027956 0.11654675
0002a0 f7 c4 d3 bc d6 51 08 3e 2b c3 ca bd a6 b7 1d bd
       -0.025850756 0.13312468 -0.099005066 -0.03850522
0002b0 45 c2 b5 3d 27 3d a0 3d c7 fb cb 3c aa 37 b1 3c
       0.088749446 0.07824164 0.02490033 0.021632988
0002c0 1e 87 43 bd 10 c2 ea bd 68 21 b7 bd 6d 01 da 3c
       -0.04773628 -0.11462796 -0.089419186 0.026612008
0002d0 99 2a c0 3d bb 7c 1a 3d 72 77 0d 3e 3b 2b e9 bd
       0.09383125 0.03771661 0.13815096 -0.11385199
0002e0 7b 09 23 3e 53 bc 12 3e 5d 1a 41 bd a1 d0 12 3e
       0.15921585 0.14329652 -0.047144283 0.14337398
0002f0 74 be 17 3e 0f 5f 0c 3e a8 69 70 3d 52 a1 5c bd
       0.14818746 0.13708137 0.05869451 -0.053864785
000300 a3 78 71 3c 17 0f ec 3d 7d af 0b 3e 13 6b db bd
       0.014738235 0.11526316 0.13641162 -0.10713782
000310 58 87 29 3e 6c 61 cf 3d f0 10 65 3d d8 69 23 3d
       0.16555536 0.101260036 0.055924356 0.039895862
000320 7f bf 35 bc 0b 04 2f 3e f7 56 c5 bb 47 05 00 3e
       -0.0110930195 0.17091386 -0.00602233 0.12502013
000330 c6 9f 37 3e 17 75 92 bd 01 7c 40 3e 39 57 d7 bb
       0.17932042 -0.07151239 0.18797304 -0.006571677
000340 ff 95 be bd 02 eb f2 bc a3 2d b3 bd ac f3 fd 3d
       -0.09305953 -0.029653076 -0.08748939 0.12399992
000350 75 08 a3 3d 30 f5 33 3e cc aa 3b bc 98 30 07 3d
       0.079605974 0.17574 -0.011454295 0.033005327
000360 1c c3 06 3d 22 70 1b bd 41 47 e5 3d 78 be 7a bd
       0.032900915 -0.037948735 0.11195231 -0.0612168
000370 60 f0 aa bd ac d5 77 bd a6 19 18 3e 8c f1 b2 3d
       -0.08346629 -0.060506508 0.14853534 0.08737478
000380 48 47 de 3d 1d 5b dd bd 54 b2 a6 bd e5 1d f2 3d
       0.108534396 -0.10808394 -0.08139482 0.11822108
000390 6a 0d 68 3d 60 1d 59 3d c1 fa a1 3d f8 6f 10 bd
       0.056653418 0.05300653 0.07909156 -0.03526303
0003a0 38 7f 94 bd 7e b6 ea 3d e9 de d4 bd 8b 1d 31 3e
       -0.072508276 0.11460589 -0.10394079 0.17296426
0003b0 45 ce 0e be c5 53 20 3e d2 63 a9 bd da be dd 3d
       -0.13945873 0.15656956 -0.08270992 0.10827418
0003c0 75 6d 85 3c 0d 6f 08 3e 55 28 92 bd 2d bf c8 bd
       0.016287545 0.13323613 -0.07136599 -0.09802089
0003d0 ab c9 62 bd 7b 92 0e 3e 08 3a 28 bd bb 4c 52 3d
       -0.055368107 0.13923065 -0.041070968 0.051342707
0003e0 c2 ec e3 3d 4e af 3b bd 83 ea 01 3e b8 d0 cb 3d
       0.11129142 -0.04582148 0.12687115 0.09951919
0003f0 e9 03 f0 3c d9 6f e0 3d 27 fa 62 bd 60 1a 2f bd
       0.02929874 0.10958833 -0.055414345 -0.042749763

fc_out.weight f4 [26, 256]
000000 56 9f 6f bd e4 36 c2 bc 1a 5f 1f 3c d1 ae 8f 3d
       -0.058501564 -0.023707815 0.009727264 0.070157655
000010 c0 8f 2d 3d 74 1a e9 bd 67 d7 1a bd ea 98 77 be
       0.04237342 -0.11381999 -0.03780308 -0.24179426
000020 b8 5e 54 3d 5e fa 8b bd e0 2e 73 3d 0b 1e 9a 3d
       0.051848143 -0.06834863 0.059370875 0.075252615
000030 4a f7 c6 3c 56 62 34 3c d7 d5 a3 bd 3c 21 66 bc
       0.024287838 0.011009773 -0.07999771 -0.01404601
000040 3b 66 64 be 74 b0 4e 3e 73 84 5b be 8a 81 b3 bc
       -0.22304623 0.20184499 -0.21437244 -0.021912355
000050 63 96 8d 3d d0 15 01 3d ef f3 33 bd e6 57 8d 3c
       0.069134496 0.031514943 -0.043933805 0.017253827
000060 2c 9f cb 3c 7f 27 95 3c 0d 25 8c 3c 98 af 0f 3d
       0.024856173 0.01820731 0.017107511 0.03507957
000070 5b ac 58 3d 99 40 9c 3c 53 60 3a bd 3b 51 1b be
       0.052898746 0.019073771 -0.04550202 -0.15167706
000080 9e 96 9b be 68 7e 8f 3d 0a 8d da 3d 0f ed 88 3d
       -0.3038835 0.07006532 0.10671432 0.0668584
000090 9a cf 60 3c 1c bc 84 be 3d 49 8f 3d c0 98 5f 3d
       0.013721371 -0.25924766 0.06996391 0.054589033
0000a0 a7 11 8d bc cf ee 76 bc c2 5c f8 bd 46 8f 8c bb
       -0.017220331 -0.015071585 -0.12127067 -0.0042895405
0000b0 78 ae 56 3d db f5 e7 bc f5 0a 80 3d 34 0a ae bd
       0.05241248 -0.028315475 0.0625209 -0.0849804
0000c0 a5 64 85 3c a6 ea 48 3d 65 20 18 ba 32 14 03 3d
       0.016283343 0.049051903 -0.0005803167 0.03200168
0000d0 98 61 da 3b 8e 09 c7 bd f6 39 be bd df 21 20 3d
       0.006664466 -0.09718619 -0.09288399 0.039094802
0000e0 14 52 ae bc 46 a7 55 3d 95 4b 9e 3d 95 13 36 3d
       -0.021279372 0.052161478 0.0772926 0.04445227
0000f0 30 2e ab 3d 4d 04 aa 3c 59 cd 20 3d 4a 24 9c 3c
       0.08358419 0.020754004 0.039258335 0.019060273
000100 79 3d b4 bc 0c 8d 8d bc 14 7d 6c bd eb ab cc 3d
       -0.022001969 -0.01727917 -0.05773647 0.09993728
000110 69 91 48 3d 22 49 9a bd 99 f0 74 be ba 53 55 3d
       0.0489668 -0.0753348 -0.23919906 0.0520818
000120 e2 f2 b8 bc 0d e4 cc bd 3b 7b 9f 3d d3 ac c3 bc
       -0.022576753 -0.10004435 0.07787176 -0.02388612
000130 d5 73 b8 3c 60 03 d1 3c c0 e8 ee bd 64 56 64 3d
       0.02251617 0.025514305 -0.11665487 0.05574645
000140 87 db d6 3c fc fb 04 be d9 55 a7 3d fa c3 f6 bc
       0.026227726 -0.1298675 0.08170671 -0.030122746
000150 32 cd be 3d 4a d2 58 3d e3 67 00 3e 34 8e 2e 3b
       0.09316482 0.052934922 0.1253963 0.0026635053
000160 a1 7c 1e 3d 03 52 c6 3c b3 ad 62 3b 30 1c da bc
       0.038693074 0.024209028 0.0034588396 -0.026624769
000170 32 35 54 bd 02 40 57 be 7a b3 10 3d 73 25 fd ba
       -0.051808544 -0.21020511 0.035327412 -0.0019313529
000180 86 c6 bf b9 e5 00 59 3d 03 81 85 3d 05 2e 26 be
       -0.0003657827 0.05297937 0.06518748 -0.16228493
000190 7f 3f 0b 3d 5c 94 61 bc b1 f1 3e 3d 33 d9 bb 3d
       0.0339961 -0.013768282 0.046617214 0.09172287
0001a0 f0 b2 7f bc f8 1a 4c bc 70 53 00 3e 4f db 3a be
       -0.015606627 -0.012457602 0.12531829 -0.18247722
0001b0 f7 10 28 3e e0 da d0 3c 21 27 5f 3d b0 92 84 3d
       0.16412722 0.025494993 0.054480676 0.06473291
0001c0 40 fd 74 3d d7 52 50 3d a8 c6 97 bc 36 7b 81 3d
       0.05981183 0.050860252 -0.018527344 0.06322329
0001d0 3a 91 42 bc 2e 97 26 3c dc 20 f9 3c 05 6d 90 3d
       -0.011875445 0.01016788 0.030411176 0.07052044
0001e0 b6 ab b4 3d d2 cd 03 bd 3f 19 3e 3d 60 a3 e8 bb
       0.08821814 -0.032178707 0.046410795 -0.007099554
0001f0 c0 d7 3c 3d 62 53 b6 bc 0f 16 98 3d 34 fa 43 3d
       0.046104193 -0.022256557 0.07426082 0.047846034
000200 be 87 52 3b 75 a2 32 3d 79 5b b4 be 88 da 3c bd
       0.0032124366 0.043611962 -0.35226038 -0.046106845
000210 ce fa 8f 3d f3 77 36 be 3b d5 62 3d 07 8d 75 bd
       0.07030259 -0.17819194 0.055379134 -0.059948947
000220 bb e1 1a 3c 3e de 62 bd f8 6e 46 bd 18 5f 27 3d
       0.009453232 -0.055387728 -0.04844567 0.040862173
000230 2a 4d 9c 3d dc 0b dc 3c e7 db c9 3d 45 18 a1 3d
       0.076319054 0.026861124 0.09856396 0.07865957
000240 75 dc 0d be 94 3e 3a 3d 57 f0 ab 3d d1 67 b4 3d
       -0.13853629 0.045469835 0.083954506 0.08808864
000250 f0 9e 83 bc be 35 52 3d 9b 2f 1c 3d b6 62 e9 3d
       -0.016066998 0.051320784 0.038131338 0.11395781
000260 e6 73 95 3d 4d 63 ea 3d 82 cb 8d 3d aa 0a 5e bd
       0.072974965 0.11444721 0.06923582 -0.05420939
000270 f2 1a 3b 3d 87 0e cf bd 4c 74 00 3e 3f dd 4b 3d
       0.045679994 -0.10110193 0.12544364 0.049771544
000280 a0 e4 a8 3d 64 01 61 3d c3 1f 65 3c 09 ef 94 3d
       0.08246732 0.054932967 0.013984623 0.07272155
000290 76 c5 09 3d 3c e7 fc 3d ae af 45 3d 1e aa 4c 3d
       0.03363558 0.12348792 0.048263244 0.049966924
0002a0 30 f1 d8 bd f4 db ac 3d f2 6e 61 3e e8 02 53 be
       -0.10592878 0.0844039 0.22014979 -0.20606577
0002b0 1c 88 8d bc 0c 74 90 3c 05 0b 9c bc 58 95 97 3d
       -0.017276816 0.01763346 -0.019048223 0.07401532
0002c0 1e 86 07 3d 10 66 26 be f1 b8 b7 3c 7c 26 3b 3d
       0.03308689 -0.16249871 0.022427054 0.045691
0002d0 a7 c4 81 3d a9 d1 88 bd 2c b2 ed 3b 56 b7 49 bd
       0.063363366 -0.066806145 0.0072539058 -0.04924711
0002e0 cc e5 8d bc 33 a2 98 3d ff 4c 2e 3d 6e bd 91 3d
       -0.01732149 0.07452812 0.042553898 0.07116209
0002f0 b6 e5 69 3d ec 98 b1 3d 92 ee 7b ba 22 95 29 bc
       0.057103835 0.08671746 -0.000961044 -0.010350497
000300 11 78 2a 3e 0a 71 11 bb 8c 0c d1 3d 81 5b 01 be
       0.16647364 -0.002219262 0.10207471 -0.12632562
000310 6d 8c 5e bb f0 3a bc 3d 95 72 ad bb c8 40 e2 3d
       -0.0033958212 0.09190929 -0.0052932003 0.11047512
000320 ba fa 0d be b9 47 8a bb 7a d6 3c be 13 3a bf 3b
       -0.13865176 -0.004219976 -0.18441191 0.0058357804
000330 d3 7a 2c 3d ba b5 c1 3d 31 0d 08 bc 42 0e f1 3c
       0.04210932 0.0945849 -0.008303926 0.029425744
000340 db 17 0d 3d e4 b0 51 bd 22 f3 85 3e c8 ed c2 bc
       0.03444658 -0.051194087 0.26162058 -0.023795024
000350 28 56 da 3d b9 db 9c 3d 03 85 60 3c b1 6e b1 3c
       0.10660964 0.07659096 0.013703587 0.021659227
000360 1b 7a 16 3d 32 2d f2 bc 7a 06 05 bd d8 af 7a bd
       0.036737543 -0.029562566 -0.03247688 -0.061202854
000370 99 c3 eb bd 6a cc f4 bd 73 df 55 3d c9 09 61 3d
       -0.11511917 -0.119530514 0.05221505 0.054940972
000380 64 13 4c bd fe 3d 1a be 77 c2 bf bc fe b1 39 bc
       -0.04982318 -0.1506271 -0.023408158 -0.011333941
000390 04 5d ba 3c 8a dd d5 3b 76 4e 92 3d bd d0 b3 3d
       0.022749431 0.0065266537 0.071438715 0.08780048
0003a0 a4 3e 09 3d 58 cc 5e 3d c4 d7 36 3e 8f 3c 87 bc
       0.033507004 0.054394096 0.17855746 -0.016508369
0003b0 79 4f 77 bd 93 b2 94 bc 06 36 22 3e 27 af 8c 3c
       -0.060378525 -0.018151557 0.15840921 0.017173363
0003c0 1f 2f 16 3c e3 f8 3d 3e c7 87 d3 bd ca 16 bf bd
       0.009166508 0.18551974 -0.10328632 -0.093305185
0003d0 9a 83 28 3d 7d 0b 37 3d 52 29 58 3d 18 04 c3 bd
       0.04114113 0.04468869 0.05277378 -0.09522265
0003e0 23 bc a2 3c bb 27 cf 3d a1 be 2c 3d f4 7b 29 3d
       0.019865101 0.10115 0.042173985 0.041377977
0003f0 bf 43 78 3c 1e 7a 15 3d 3e 91 b2 3d 78 92 1f be
       0.015152871 0.036493413 0.08719109 -0.15583217

fc_out.bias f4 [26]
000000 42 00 b9 bb 1f 37 a0 3c dd e5 68 3d e4 41 80 bc
       -0.0056457827 0.019557534 0.05685984 -0.01565642
000010 19 17 8c 3d 19 62 8a 3d 44 b4 38 3d 25 6a 50 3d
       0.06840343 0.06756992 0.04509379 0.050882477
000020 2d c2 5d bb d2 53 72 3d a2 72 18 3d 82 6c ac 3c
       -0.0033837662 0.05916197 0.037218697 0.021047834
000030 e0 b9 17 3d ff ae c1 3c ff 32 a4 3d 8c 53 de bc
       0.0370425 0.023643015 0.08017539 -0.027139448
000040 11 b5 5d 3d 19 7d b6 3d e7 67 ce 3c e9 93 8b 3d
       0.054127757 0.08910579 0.025196029 0.06815321
000050 57 7c a1 3c 25 4f 92 3c ca 5a b2 3d cd 8c 90 3d
       0.01971261 0.017860005 0.08708723 0.070581056
000060 96 e7 ba 3c 90 65 cc 3a
       0.022815507 0.0015594233
